3DPlayground/results/Test28/MoveToGoal/MoveToGoal-410918.onnx (onnx, 148934 bytes, 9 tensors)

network_body._body_endoder.seq_layers.0.weight f4 [128, 140]
0.12253578 -0.010704368 -0.1502346 0.080227055 0.285497 0.18890333 0.051480334 0.12952721
0.0032614304 0.1073804 0.056235824 -0.06813411 -0.013922717 0.1384578 0.19575085 -0.09656301
0.08978649 -0.007622215 -0.18528718 0.008981167 -0.03163722 0.17900403 -0.09102727 0.015352386
0.16409463 0.039789587 0.039697472 -0.05057968 0.16514368 0.0432739 -0.050801557 0.17191479
0.10194823 0.034168083 -0.10734858 0.012864547 0.16706565 -0.033195674 0.1005387 -0.03914058
-0.16144583 -0.12649657 0.101338625 0.0632434 -0.015886718 -0.08857146 -0.13821185 -0.043909155
-0.19140255 0.11324679 0.061057895 -0.15032631 0.016520467 0.026206983 -0.03494138 -0.002796249
0.0058629923 0.07568469 0.023098122 0.013333369 0.020821001 -0.005318623 -0.084686674 -0.05098937
-0.2168305 0.07481596 0.016792586 0.010381784 0.0061027957 0.00056613574 -0.14012714 0.1184809
-0.15270871 0.032679684 -0.044110242 0.08959084 -0.11445956 0.0402769 -0.13772424 0.076591276
0.053934995 0.008689548 -0.043159347 -0.01571498 -0.063214056 -0.019658793 -0.060505275 -0.025469754
-0.18194622 0.029564882 -0.07256315 -0.13724744 0.13043506 0.036018852 0.13881145 -0.111852035
-0.02083039 -0.20597334 -0.06662531 -0.028164204 0.21328735 0.03848654 0.0045633083 0.13495497
0.07061796 0.028597685 -0.15249611 -0.09248098 -0.038914412 0.05628297 0.08924178 0.04088006
0.055874072 -0.01730049 -0.02278176 -0.036070213 0.069812626 0.06340874 -0.18404573 -0.026140794
-0.04025279 -0.14575092 -0.0073406897 0.09576321 -0.0811422 0.053662114 0.034894112 0.01669013
0.0067075766 -0.107924156 0.011570982 -0.08586212 0.0991097 -0.03911091 -0.10265895 0.0075223413
0.09827985 0.11854971 0.11415168 0.0027750477 0.16333285 -0.2750389 -0.047350172 -0.1622362
-0.012201918 0.012743893 -0.07899272 0.048151966 -0.039729714 0.15628606 -0.021965215 -0.021864463
-0.118473016 -0.12264317 -0.1154828 -0.20441973 0.16721271 0.013559948 -0.032677095 -0.059441958
-0.054915827 -0.012490156 -0.14985289 0.046308715 0.01972902 -0.014757383 -0.11006679 -0.064454906
-0.14390911 -0.09375784 -0.007710468 -0.030281143 -0.06530051 -0.013314721 -0.0064258403 -0.017638357
-0.024511766 0.04924043 -0.115805954 0.028504077 -0.09188065 -0.05019344 0.044185158 0.030020716
0.027228052 0.07154792 0.06422344 -0.01495782 -0.0845019 0.10082624 0.0014649945 0.09970479
0.0809394 -0.13750042 0.10160267 0.008811931 0.07664902 -0.061582472 0.035821903 -0.036301687
-0.018706076 -0.12119463 -0.19643648 0.11120209 -0.05667752 0.16689508 0.018395249 -0.15422687
-0.10449583 0.012158123 0.11323576 0.06616911 -0.026314478 0.05337342 -0.13646586 0.07857602
0.02798638 -0.10087417 -0.12511966 0.07675783 -0.0063118273 0.073165186 -0.09116845 0.16529587
0.0769196 -0.04791035 0.2050836 -0.018780475 -0.049842287 0.009252739 -0.03260897 0.16084461
0.007980564 -0.057300556 -0.039098084 0.07321165 -0.07064371 -0.073896036 0.0078029414 -0.08148926
-0.09992167 0.15064892 0.07802626 0.023648996 -0.05600906 0.07820631 -0.15076375 0.089589745
-0.048913978 0.09758014 0.10777894 0.11082404 -0.043486834 0.094682954 0.112644054 0.056684796
00000000: 0af4 fa3d 6061 2fbc 19d7 19be 154e a43d
00000010: aa2c 923e e06f 413e 0bdd 523d c8a2 043e
00000020: b9bd 553b 41ea db3d 8957 663d e589 8bbd
00000030: 1c1c 64bc e2c7 0d3e e972 483e d4c2 c5bd
00000040: fbe1 b73d c6c3 f9bb ecbb 3dbe bf25 133c
00000050: 0896 01bd d54c 373e 816c babd 9388 7b3c
00000060: 6c08 283e 68fa 223d d199 223d a32c 4fbd
00000070: 6d1b 293e f93f 313d 4b15 50bd 6e0a 303e
00000080: 3cca d03d d5f3 0b3d 93d9 dbbd d2c5 523c
00000090: 4213 2b3e 30f8 07bd 3ce7 cd3d df51 20bd
000000a0: 0e52 25be 5188 01be a08a cf3d c185 813d
000000b0: dd24 82bc f464 b5bd 6887 0dbe 16da 33bd
000000c0: 08ff 43be efed e73d d817 7a3d 24ef 19be
000000d0: ee55 873c 07b0 d63c b11e 0fbd 4641 37bb
000000e0: 581e c03b 9300 9b3d 4638 bd3c 3474 5a3c
000000f0: ce90 aa3c d847 aebb 3570 adbd 3bda 50bd
00000100: d108 5ebe 1c39 993d 9b90 893c 5c18 2a3c
00000110: f6f9 c73b ba68 143a 7d7d 0fbe 1da6 f23d
00000120: ac5f 1cbe 22db 053d f1ac 34bd 677b b73d
00000130: c669 eabd 64f9 243d 9507 0dbe e3db 9c3d
00000140: f1ea 5c3d 9b5e 0e3c dbc7 30bd b4bc 80bc
00000150: 5f76 81bd 7a0b a1bc 61d4 77bd f2a5 d0bc
00000160: 1c50 3abe 0d32 f23c fd9b 94bd 988a 0cbe
00000170: c590 053e 8188 133d 9724 0e3e ae12 e5bd
00000180: 7ea4 aabc adea 52be da72 88bd 9eb8 e6bc
00000190: 0068 5a3e 10a4 1d3d ce87 953b a331 0a3e
000001a0: 26a0 903d b145 ea3c f127 1cbe ab66 bdbd
000001b0: b864 1fbd f988 663d 65c4 b63d da71 273d
000001c0: 36dc 643d c2b9 8dbc d0a0 babc 5cbe 13bd
000001d0: ecf9 8e3d 71dc 813d 7c76 3cbe 3825 d6bc
000001e0: 1ce0 24bd bb3f 15be 2b8a f0bb 801f c43d
000001f0: e22d a6bd cecc 5b3d 21ed 0e3d bdb9 883c
00000200: 3bcb db3b 5707 ddbd 3794 3d3c 7bd8 afbd
00000210: 07fa ca3d c332 20bd db3e d2bd f97d f63b
00000220: f246 c93d 31ca f23d 5bc8 e93d 93dd 353b
00000230: ba40 273e e6d1 8cbe 41f2 41bd 3f21 26be
00000240: 8eea 47bc c3cb 503c efc6 a1bd ff3a 453d
00000250: a0bb 22bd 7409 203e 65f0 b3bc 1a1d b3bc
00000260: fba1 f2bd 582c fbbd 3f82 ecbd 6853 51be
00000270: cf39 2b3e 8b2a 5e3c 6bd8 05bd 6979 73bd
00000280: 6bef 60bd 83a3 4cbc 0973 19be 35ae 3d3d
00000290: c19e a13c f3c8 71bc b26a e1bd ef00 84bd
000002a0: e95c 13be 1c04 c0bd 18a8 fcbb 2910 f8bc
000002b0: 46bc 85bd fd25 5abc db8f d2bb 517e 90bc
000002c0: e6cc c8bc 55b0 493d ac2b edbd 6281 e93c
000002d0: ec2b bcbd a397 4dbd 7ffb 343d 01ee f53c
000002e0: 5d0d df3c b787 923d 9487 833d a511 75bc
000002f0: 550f adbd fd7d ce3d 0f05 c03a 0632 cc3d
00000300: 8ec3 a53d e9cc 0cbe 1015 d03d eb5f 103c
00000310: 29fa 9c3d e73d 7cbd fdb9 123d 14b1 14bd
00000320: 7c3d 99bc e434 f8bd a526 49be ecbd e33d
00000330: b026 68bd 8be6 2a3e a2b1 963c a6ed 1dbe
00000340: e901 d6bd dd32 473c 26e8 e73d ac83 873d
00000350: 7691 d7bc 169e 5a3d b5bd 0bbe 77ec a03d
00000360: b143 e53c 1e97 cebd 5e1f 00be 3633 9d3d
00000370: 72d3 cebb a1d7 953d 86b6 babd 5243 293e
00000380: 0688 9d3d a53d 44bd 6f01 523e 83d9 99bc
00000390: 6d27 4cbd cd98 173c fc90 05bd 73b4 243e
000003a0: e9c0 023c fdb3 6abd 5025 20bd fdef 953d
000003b0: a6ad 90bd ce56 97bd d1af ff3b d7e3 a6bd
000003c0: bca3 ccbd b643 1a3e 3bcc 9f3d 8abb c13c
000003d0: c269 65bd a12a a03d d061 1abe d47a b73d
000003e0: 065a 48bd 19d8 c73d 34bb dc3d b7f7 e23d
000003f0: 401f 32bd 23e9 c13d edb1 e63d 512e 683d

network_body._body_endoder.seq_layers.0.bias f4 [128]
0.006561958 0.0018710525 0.006332964 -0.0063689975 0.011113109 -0.010484207 -0.0030728772 0.010880266
-0.013487678 0.009634401 0.00245783 -0.012577001 -0.019565074 0.016037399 -0.0041805757 -0.015891986
0.011731936 -0.0143731665 0.010707869 0.008066628 -0.009189 0.0007160883 0.0043538 0.01796009
-0.002531616 -0.0033450953 0.014135088 0.0017956989 -0.011790262 -0.006502963 0.008036495 -0.0031051172
-0.0003308443 0.009739263 0.0068614283 -0.0018413347 -0.0035600108 0.013318824 0.040741447 0.008508057
0.01187059 -0.008024271 0.000756009 0.003916721 0.0025544814 -0.007962221 0.0065727057 -0.005622443
0.0012919083 -0.016201386 0.0051743914 -0.0048340913 0.0072080283 0.0033350291 -0.0025400463 0.0010274558
-0.009657939 -0.009356235 0.009381971 0.014704619 0.0003393004 -0.00960312 0.012311651 0.0005129879
-0.0013444067 0.0014727516 0.040809795 -0.0067010517 -0.0010310569 -0.021669991 -0.0074131214 0.010903095
-0.0063823825 -0.0056279665 0.0069690445 0.014267066 0.018925821 -0.004072177 0.021993099 0.032784462
0.012544831 0.0037275515 0.0048658396 0.002079722 -0.007304352 -0.013966771 -7.530714e-05 -0.001499926
-0.008720279 0.0054853894 0.036163308 0.012434806 0.004014536 0.0052014356 -0.007741854 0.0031288804
0.005067621 0.01562829 -0.0047819833 0.026728503 0.018921936 -0.007214043 -0.008762619 -0.0056926366
-0.001969933 0.014050916 0.021055115 0.013625954 -0.018369853 0.012258101 0.014216077 -0.0038204675
-0.00028573928 0.0044916472 0.015849952 -0.0034080057 0.009863692 0.010892474 0.03060719 -0.013069746
-0.01754661 0.007757273 -0.005314805 -0.0072487625 0.011950977 -0.0028901242 0.0015729974 0.022919342
00000000: b205 d73b 1b3e f53a c184 cf3b 06b3 d0bb
00000010: c213 363c f4c5 2bbc 5362 49bb 2543 323c
00000020: 6cfb 5cbc 9bd9 1d3c 8b13 213b c40f 4ebc
00000030: ef46 a0bc dd60 833c 36fd 88bb e92f 82bc
00000040: 4e37 403c 6e7d 6bbc 0f70 2f3c e429 043c
00000050: 768d 16bc dfb7 3b3a 52aa 8e3b 0a21 933c
00000060: 78e9 25bb 6339 5bbb db96 673c a85d eb3a
00000070: f12b 41bc cf16 d5bb 81ab 033c 397f 4bbb
00000080: 2c75 adb9 6e91 1f3c d5d5 e03b f158 f1ba
00000090: 124f 69bb 3237 5a3c 81e0 263d 6165 0b3c
000000a0: dd7c 423c 3b78 03bc e82e 463a d657 803b
000000b0: 1669 273b fa73 02bc da5f d73b 783c b8bb
000000c0: 4055 a93a c5b8 84bc f18d a93b 4c67 9ebb
000000d0: 5331 ec3b 8190 5a3b e876 26bb b2ab 863a
000000e0: 553c 1ebc e54a 19bc d7b6 193c a4eb 703c
000000f0: 21e4 b139 6856 1dbc cfb6 493c 097a 063a
00000100: ce36 b0ba 5809 c13a 2c28 273d 7f94 dbbb
00000110: 8724 87ba 4485 b1bc c5e9 f2bb e5a2 323c
00000120: 4e23 d1bb ce6a b8bb 955c e43b 69c0 693c
00000130: 530a 9b3c e66f 85bb df2a b43c 0049 063d
00000140: d688 4d3c f049 743b 9f71 9f3b f24b 083b
00000150: 5859 efbb e2d4 64bc 37ee 9db8 2a99 c4ba
00000160: 80df 0ebc c8be b33b fa1f 143d 5bbb 4b3c
00000170: 5e8c 833b ce70 aa3b 61af fdbb e70d 4d3b
00000180: 490e a63b e606 803c 2fb2 9cbb bcf5 da3c
00000190: 2d02 9b3c c763 ecbb 1791 0fbc 4c89 babb
000001a0: fe19 01bb d035 663c c77b ac3c 653f 5f3c
000001b0: 607c 96bc 34d6 483c 8cea 683c cf60 7abb
000001c0: 47cf 95b9 ab2e 933b c2d7 813c d958 5fbb
000001d0: 539b 213c 5976 323c eebb fa3c 7d22 56bc
000001e0: e9bd 8fbc b930 fe3b d127 aebb 0787 edbb
000001f0: 08ce 433c 3d68 3dbb 092d ce3a 58c1 bb3c

network_body._body_endoder.seq_layers.2.weight f4 [128, 128]
-0.19366458 -0.066732235 -0.06977384 -0.07214962 -0.05507487 0.0072632837 0.10319241 -0.038910955
-0.024205301 0.09317471 0.14009443 -0.053111073 -0.06765035 -0.019738065 0.06999465 -0.0054598697
-0.07531141 0.038389944 -0.07024277 -0.019274822 0.03558842 -0.114672564 -0.025095036 0.07094582
0.05868004 -0.18323201 -0.16349177 -0.030490484 0.08588581 0.030790044 -0.032747135 0.0025895266
0.011724712 -0.112247184 -0.03756802 -0.10949048 -0.06481269 -0.053842053 -0.05654864 -0.1223345
0.12474966 -0.08854483 -0.036009062 0.13867065 0.11055322 -0.07442783 -0.09592713 0.070497945
0.19402407 -0.137466 0.021250844 0.108731054 -0.016197434 0.030705217 -0.0756836 0.061468497
0.05965791 -0.028756347 0.1374673 0.06404852 0.053789694 -0.08973635 0.047147017 -0.15726425
-0.044102807 0.11145679 0.22899814 0.085149415 0.140076 -0.011933437 -0.05574909 0.17580701
-0.025775008 0.030918362 0.039320033 0.09120621 0.059126496 -0.030828381 -0.23658954 -0.12765415
0.0032323985 -0.005055411 0.0817431 -0.08401378 -0.15435794 -0.13127814 -0.027796075 0.036991715
0.01836582 -0.031049972 -0.10263147 -0.030988717 -0.016742185 0.04883875 -0.025050856 -0.021898406
-0.004323787 0.027602727 -0.13660042 0.032191534 0.093591504 -0.010179742 0.10892907 -0.06921625
0.018265119 0.011832363 0.11663117 -0.06861012 -0.11516021 0.074554004 -0.13806114 0.08064764
-0.011396376 0.045666944 0.048010744 0.11922224 -0.18680541 0.26617062 -0.056199893 -0.07712324
-0.0955367 0.0025691323 -0.08032025 -0.03686821 -0.07241858 0.08905299 0.12717105 0.11382684
0.005283668 0.07916956 0.036325026 0.046317905 -0.09999225 -0.008258497 0.07133466 -0.02646218
0.033734355 0.090885356 -0.09034187 0.023694236 0.051038325 0.18421535 -0.06297226 0.0020370765
0.00021211196 0.029560154 -0.060720786 -0.16742921 0.17209426 0.013908315 0.02329131 0.029735385
-0.06337736 -0.006835519 -0.00085649354 -0.0662602 -0.0061586984 0.025503086 -0.020301163 0.111580655
0.07807153 0.01812188 0.01784465 -0.16127288 0.07248014 0.023620239 0.0959002 -0.031001547
0.06979347 0.050605256 -0.04756972 -0.09270179 0.03199312 -0.088758394 0.019925585 0.085184194
0.102200694 -0.14947423 -0.0054963953 0.024129035 0.02008666 0.04492844 -0.06428107 -0.02825898
0.102243535 0.050613314 0.00032004053 -0.05528004 0.03995531 -0.13488512 -0.123059906 0.06649195
0.061135914 -0.003872445 0.02022972 0.090764135 -0.0332945 -0.013856821 -0.031407546 0.15398361
-0.0330747 -0.08320582 0.04359589 0.038238842 -0.027517501 0.031403754 -0.23294154 0.09939543
-0.046137877 -0.058334522 -0.053505294 -0.053679146 -0.090263054 -0.19001614 0.09609103 0.061343446
-0.08576317 -0.023481375 -0.010873226 0.03395332 0.13222623 -0.15290686 0.13228011 -0.05765775
-0.03027914 -0.031834655 -0.005250141 -0.058734115 -0.03907897 0.168239 0.092752196 -0.16828062
0.01085271 -0.031528518 0.015390106 -0.057804458 -0.091959454 -0.09554961 0.005094744 0.064276285
0.059345484 0.00939827 -0.08340194 0.10416118 -0.008903172 0.01847936 0.010732971 0.022345282
-0.12810276 -0.002236564 0.04804921 -0.0642982 0.036735326 -0.078854606 0.046670265 0.06333033
00000000: 0250 46be e9aa 88bd 96e5 8ebd 2ec3 93bd
00000010: 3096 61bd d700 ee3b 8b56 d33d 1861 1fbd
00000020: 324a c6bc 62d2 be3d ea74 0f3e ff8a 59bd
00000030: 448c 8abd b9b1 a1bc 5b59 8f3d b5e8 b2bb
00000040: de3c 9abd c63e 1d3d 71db 8fbd 3be6 9dbc
00000050: 2ac5 113d 73d9 eabd 1b94 cdbc 0b4c 913d
00000060: 7b5a 703d 2ca1 3bbe 636a 27be 2ec7 f9bc
00000070: e6e4 af3d 673b fc3c dc21 06bd 0cb5 293b
00000080: 0219 403c dae1 e5bd ede0 19bd 8b3c e0bd
00000090: 84bc 84bd 7c89 5cbd 8c9f 67bd 838a fabd
000000a0: c07c ff3d fe56 b5bd 3d7e 13bd aeff 0d3e
000000b0: ba69 e23d 9e6d 98bd 7175 c4bd 3a61 903d
000000c0: 3fae 463e e3c3 0cbe 4016 ae3c 63ae de3d
000000d0: 7bb0 84bc 8289 fb3c 0100 9bbd 64c6 7b3d
000000e0: da5b 743d 6e92 ebbc 3ac4 0c3e df2b 833d
000000f0: 9552 5c3d b1c7 b7bd 3b1d 413d e109 21be
00000100: 25a5 34bd 7543 e43d 7d7e 6a3e d162 ae3d
00000110: 1570 0f3e 7684 43bc 2859 64bd c106 343e
00000120: 1c26 d3bc 8148 fd3c 0b0e 213d 52ca ba3d
00000130: a02e 723d cd8b fcbc 8744 72be c5b7 02be
00000140: a6d6 533b dca7 a5bb ed68 a73d 6b0f acbd
00000150: 0210 1ebe c76d 06be 98b4 e3bc a084 173d
00000160: eb73 963c 835c febc 7330 d2bd 0ddc fdbc
00000170: e826 89bc 240b 483d 7437 cdbc 4964 b3bc
00000180: 8eae 8dbb 1d1f e23c fbe0 0bbe 45db 033d
00000190: e7ac bf3d efc8 26bc 3416 df3d 40c1 8dbd
000001a0: bba0 953c 87dc 413c 53dc ee3d 7683 8cbd
000001b0: 1ed9 ebbd c5af 983d e65f 0dbe 972a a53d
000001c0: deb7 3abc 430d 3b3d eaa6 443d ca2a f43d
000001d0: eb49 3fbe 8447 883e dc31 66bd caf2 9dbd
000001e0: bfa8 c3bd e35e 283b f17e a4bd 1f03 17bd
000001f0: 3150 94bd 6a61 b63d 2139 023e 0c1e e93d
00000200: 9f22 ad3b a623 a23d 8dc9 143d d8b7 3d3d
00000210: bdc8 ccbd a64e 07bc e817 923d 37c7 d8bc
00000220: 092d 0a3d 1a22 ba3d 2905 b9bd 6a1a c23c
00000230: 900d 513d f3a2 3c3e 9af7 80bd 7980 053b
00000240: 5f6a 5e39 2328 f23c 5cb6 78bd 9072 2bbe
00000250: 7a39 303e b4df 633c 6bcd be3c 9f97 f33c
00000260: fdcb 81bd 7dfc dfbb 4f86 60ba 6eb3 87bd
00000270: e8ce c9bb d9eb d03c a04e a6bc 6684 e43d
00000280: f7e3 9f3d 5674 943c f22e 923c b824 25be
00000290: 7870 943d 3b7f c13c 5367 c43d f5f6 fdbc
000002a0: e1ef 8e3d 7547 4f3d 77d8 42bd 70da bdbd
000002b0: 380b 033d f6c6 b5bd fb3a a33c 0d75 ae3d
000002c0: 994e d13d c60f 19be 1b1b b4bb 41aa c53c
000002d0: c78c a43c e206 383d cba5 83bd 607f e7bc
000002e0: 0f65 d13d e84f 4f3d 1dcb a739 536d 62bd
000002f0: 2ea8 233d 531f 0abe d506 fcbd ee2c 883d
00000300: a769 7a3d d9c8 7dbb ccb8 a53c 8ce2 b93d
00000310: d05f 08bd b807 63bc 33a5 00bd e1ad 1d3e
00000320: 5679 07bd d067 aabd 9b91 323d 55a0 1c3d
00000330: 626c e1bc 39a1 003d 3a88 6ebe d58f cb3d
00000340: 12fb 3cbd 2ef0 6ebd 5e28 5bbd aade 5bbd
00000350: d6db b8bd 9793 42be 60cb c43d 4443 7b3d
00000360: 9aa4 afbd 035c c0bc 9e25 32bc a312 0b3d
00000370: 5066 073e 9e93 1cbe 7074 073e 882a 6cbd
00000380: f60b f8bc 0e65 02bd 6009 acbb 2f93 70bd
00000390: 4511 20bd d846 2c3e ddf4 bd3d c151 2cbe
000003a0: 91cf 313c 0c24 01bd c826 7c3c 5ec4 6cbd
000003b0: 3d55 bcbd 84af c3bd cff1 a63b 49a3 833d
000003c0: 4014 733d 34fb 193c a3ce aabd 7552 d53d
000003d0: 9cde 11bc 0762 973c 58d9 2f3c 740d b73c
000003e0: 5f2d 03be 5193 12bb 40cf 443d c6ae 83bd
000003f0: c877 163d 867e a1bd 5229 3f3d 55b3 813d

network_body._body_endoder.seq_layers.2.bias f4 [128]
0.020561837 0.0060148463 -0.004058829 0.011002999 -0.008339275 0.004522734 -0.016224835 0.017169977
-0.002996966 0.011379816 0.0016741848 0.01841299 -0.004976942 0.0012078814 0.009914584 0.0036318218
0.0046962323 -0.004229295 0.0011695388 -0.0074840616 0.014328071 0.020118171 -0.0059627322 -0.0037194297
0.022694645 0.0017521881 -0.0030756486 0.0131984595 0.030872071 -0.0047735106 0.00042068967 -0.0077229394
-0.0073311375 -0.014126651 0.014156897 -0.0061139488 0.0047353334 0.0059074434 0.0108302925 0.0019200151
-0.006681873 -0.00053805363 0.005798702 -0.002582851 0.02344729 0.014549906 -0.0021436343 0.0062279436
0.008938559 -0.004951795 0.00751907 0.0055138664 -0.001663243 -0.008364401 0.018706303 0.0014717988
-0.0058172382 0.002220539 0.016898958 -0.006379395 -0.007424295 0.0011719358 0.007291198 0.01659884
0.004260606 -0.01038269 -0.010829045 -0.0024729688 0.018384982 -0.0051290332 0.00023827184 -0.009357664
0.008224695 0.0022385616 -0.007880769 0.00043708872 -0.0084411055 0.015225837 0.0018280629 -0.00028763872
0.005140033 0.0053790524 0.0038611996 0.022730257 0.027308088 -0.0032311361 -0.0066017415 -0.02096446
0.015399302 -0.0011535152 -0.0028922656 -0.010168209 -0.0026039395 0.015099798 0.009875829 0.00079423346
-0.0054544485 -0.0035241006 0.022570767 0.012715638 0.0029506017 0.0027741008 -0.007820839 0.003984509
-0.0053359233 0.0021076624 -0.0005815396 0.007084765 -0.010326956 0.00019107043 -0.0042925677 0.019522414
-0.0068872403 0.0055837953 -0.0032144336 -0.012682704 -0.0037701593 -0.010819367 0.0139337955 -0.00042825346
0.0025916663 -0.004605565 0.009423123 0.01767451 0.02875206 0.013480658 -0.004570915 0.010192382
00000000: 4c71 a83c 3018 c53b edff 84bb ec45 343c
00000010: 74a1 08bc 7133 943b f2e9 84bc 0da8 8c3c
00000020: bf68 44bb 6872 3a3c 5270 db3a d7d6 963c
00000030: 9e15 a3bb c651 9e3a c870 223c dc03 6e3b
00000040: dae2 993b e695 8abb 364b 993a dc3c f5bb
00000050: 49c0 6a3c ddce a43c 0663 c3bb adc1 73bb
00000060: 1fea b93c ada9 e53a d290 49bb 5a3e 583c
00000070: 6de7 fc3c 1c6b 9cbb 0390 dc39 b610 fdbb
00000080: 0a3a f0bb 7873 67bc 54f2 673c 8557 c8bb
00000090: db2a 9b3b 3a93 c13b 8a71 313c 04a9 fb3a
000000a0: 9df3 dabb 2b0c 0dba 0a03 be3b 0d45 29bb
000000b0: 8814 c03c bb62 6e3c 377c 0cbb c713 cc3b
000000c0: 0973 123c ab42 a2bb 8862 f63b aaad b43b
000000d0: 2d01 daba d70a 09bc f63d 993c 5fe9 c03a
000000e0: 889e bebb 7686 113b af6f 8a3c 3e0a d1bb
000000f0: 8047 f3bb a49b 993a 00eb ee3b 4afa 873c
00000100: 8e9c 8b3b 281c 2abc 4f6c 31bc 8811 22bb
00000110: 1a9c 963c 7311 a8bb 9cd8 7939 e350 19bc
00000120: dfc0 063c d5b4 123b 571e 01bc 0e29 e539
00000130: 904c 0abc ca75 793c 9d9b ef3a 37ce 96b9
00000140: b96d a83b c342 b03b 2e0c 7d3b ce34 ba3c
00000150: 36b5 df3c 78c1 53bb 6c53 d8bb a9bd abbc
00000160: 5b4d 7c3c 8c31 97ba 2a8c 3dbb 8f98 26bc
00000170: dba6 2abb 2565 773c 3bce 213c 1b34 503a
00000180: 3bbb b2bb 99f4 66bb 54e6 b83c 4055 503c
00000190: e25e 413b b0cd 353b fa22 00bc 7c90 823b
000001a0: f8d8 aebb b520 0a3b 7672 18ba 5127 e83b
000001b0: 6532 29bc 145a 4839 aba8 8cbb 78ed 9f3c
000001c0: 5cae e1bb 45f8 b63b 3fa9 52bb 1ecb 4fbc
000001d0: c714 77bb b743 31bc 934a 643c 3587 e0b9
000001e0: f2d8 293b 48ea 96bb 7163 1a3c 22ca 903c
000001f0: 7189 eb3c fadd 5c3c 9dc7 95bb f3fd 263c

action_model._continuous_distribution.log_sigma f4 [1, 2]
-0.0047950093 0.02407972
00000000: 741f 9dbb d542 c53c

action_model._continuous_distribution.mu.weight f4 [2, 128]
-0.032912735 0.023767877 0.028178923 -0.0009361369 0.004345723 -0.010208427 0.01614823 -0.0009367877
0.0066581722 -0.0032031732 0.0051572653 0.016003646 0.021637576 -0.019393256 -0.01860768 -0.024280738
-0.025963472 -0.004484776 -0.009321137 0.0049598324 0.034181513 -0.03620061 0.02087691 -0.010695357
-0.03127968 0.0010900253 0.0014827789 -0.0456384 -0.053528562 0.024552222 0.0036455225 0.010987669
0.013587866 0.0064098337 0.03893519 0.04687238 -0.026008967 -0.0017001504 -0.0051272367 -0.0003845133
0.03240121 0.0018226 -0.014843335 0.03371947 0.024465825 -0.010784951 0.005498623 -0.010066912
0.01457622 0.014469679 0.024953134 -0.022584902 -0.024309851 0.00914934 -0.017417531 0.041845623
0.0072807046 -0.0056017167 -0.009263822 0.0400146 0.018373046 0.025551489 0.0048886565 0.017169958
0.0035228652 0.01225124 0.039242864 0.005720801 -0.039442275 0.038342487 -0.020719571 0.008856023
-0.008720633 0.00011866012 0.013124223 0.0075916825 0.0075425073 -0.016724292 0.026335469 0.026537824
-0.0074958196 0.03669124 -0.018088834 -0.05842276 -0.00083781173 0.0033427533 -0.015819002 0.015819702
0.030098906 0.028805496 0.017027706 0.013686566 0.03519647 -0.00023504285 -0.056438524 0.019078093
0.0022509366 0.011138348 -0.054113053 -0.017361565 -0.013719739 0.029879529 0.012466228 -0.02628511
0.0021479267 0.06203301 -0.0032387485 0.018457849 0.010946685 0.021255614 0.04162487 -0.031615812
0.024515396 0.018557845 0.030719675 -0.009520483 0.012449732 0.016367774 -0.043594267 0.030433938
0.04417974 0.00056803384 0.0682102 -0.024665464 -0.011298131 -0.006968122 0.02823737 -0.013190413
-0.00653835 0.018561011 0.025379864 0.012480473 -0.02013802 -0.018265465 -0.010044274 0.010282513
0.00074571697 -0.013718306 0.007863101 0.06510749 -0.0080662295 -0.025933588 -0.025659565 -0.016734706
-0.011310835 -0.0323295 0.01874202 0.00031834588 -0.030485166 -0.0024502652 -0.030090543 -0.00810638
0.024696954 -0.0022531687 0.009144956 0.0121986875 0.01950806 -0.023901012 0.017527713 -0.0015728261
0.010898589 -0.0060724695 -0.036469333 -0.016875315 -0.015193345 -0.008839981 0.028531974 -0.04658039
-0.025748046 -0.04590829 0.016845515 0.008146368 0.04129332 0.029724045 0.013301347 0.027149128
0.026682604 -0.001929713 0.017890675 -0.014939158 -0.019104421 -0.029626878 0.023746315 0.00674111
0.009657633 0.009473926 0.029634142 0.0075252024 0.0011319014 0.037836473 0.049611583 0.023894629
0.022155672 -0.016107785 -0.025280364 0.012584786 -0.010842447 0.023996042 -0.0027854487 0.00023447175
0.022667563 0.022309158 -0.04097911 0.031175941 0.004045688 -0.027931858 0.0042560785 -0.0014362105
0.01934655 0.019186312 -0.008716756 -0.015098496 0.03344292 -0.020983424 -0.00606024 -0.0039360407
-0.057858873 -0.043459464 0.017595135 -0.016876834 -0.019485395 0.027577216 -0.026172975 0.026990468
-0.004382188 -0.04022267 0.02831802 0.009769404 -0.0060703433 0.03141041 -0.039571743 -0.011086192
0.0037688022 -0.00807388 -0.008907325 -0.028210824 0.00014012441 0.010044628 -0.019864712 0.04067834
-0.028673552 0.013476144 -0.011527044 -0.012124614 -0.013970661 0.011359035 0.0069771362 0.03245443
-0.0041934475 -0.002359515 -0.024433656 -0.006988959 0.032623976 0.02278908 0.010720576 -0.01938576
00000000: 81cf 06bd dab4 c23c 7cd7 e63c 1567 75ba
00000010: 9166 8e3b 3f41 27bc 4b49 843c c292 75ba
00000020: cc2c da3b 54ec 51bb 47fe a83b 141a 833c
00000030: 4941 b13c 9bde 9ebc 226f 98bc 66e8 c6bc
00000040: 59b1 d4bc 07f5 92bb afb7 18bc 1786 a23b
00000050: ea01 0c3d 1747 14bd 0e06 ab3c 943b 2fbc
00000060: 1f1f 00bd 2edf 8e3a ce59 c23a 55ef 3abd
00000070: c440 5bbd be21 c93c b8e9 6e3b a005 343c
00000080: a49f 5e3c 9509 d23b 817a 1f3d 41fd 3f3d
00000090: c210 d5bc 95d7 deba 6102 a8bb 8098 c9b9
000000a0: 22b7 043d 4fe4 ee3a 7631 73bc 6d1d 0a3d
000000b0: 8e6c c83c 5db3 30bc cb2d b43b b0ef 24bc
000000c0: 19d1 6e3c 3c12 6d3c 846a cc3c f903 b9bc
000000d0: 7425 c7bc 1de7 153c 36af 8ebc 5166 2b3d
000000e0: fa92 ee3b 9b8e b7bb 49c7 17bc 59e6 233d
000000f0: 1283 963c 5b51 d13c 0631 a03b 03a8 8c3c
00000100: dfdf 663b 6db9 483c 20bd 203d 8f75 bb3b
00000110: 398e 21bd 030d 1d3d 17bc a9bc da18 113c
00000120: fce0 0ebc 2bd9 f838 fb06 573c a6c3 f83b
00000130: 2327 f73b 6201 89bc 7bbd d73c da65 d93c
00000140: 7e9f f5bb 8e49 163d 092f 94bc b44c 6fbd
00000150: 98a0 5bba 1812 5b3b da96 81bc 5298 813c
00000160: fb91 f63c 81f9 eb3c b07d 8b3c 9e3d 603c
00000170: 2c2a 103d d675 76b9 152c 67bd a949 9c3c
00000180: 7384 133b 9e7d 363c a6a5 5dbd d739 8ebc
00000190: c2c8 60bc eac5 f43c 263f 4c3c df53 d7bc
000001a0: 3bc4 0c3b 5316 7e3d 2f41 54bb ea34 973c
000001b0: ba59 333c 4120 ae3c d77e 2a3d 957f 01bd
000001c0: 83d4 c83c 9f06 983c d4a7 fb3c cdfb 1bbc
000001d0: f6f9 4b3c b615 863c e78f 32bd 9850 f93c
000001e0: d1f5 343d 1be8 143a cab1 8b3d 3a0f cabc
000001f0: cc1b 39bc d854 e4bb 0f52 e73c 9a1c 58bc
00000200: a83f d6bb 430d 983c 6fe9 cf3c e67a 4c3c
00000210: 7df8 a4bc 75a1 95bc bd90 24bc fc77 283c
00000220: 387c 433a bfc2 60bc 3cd4 003c 1357 853d
00000230: 3828 04bc ad72 d4bc 0234 d2bc 3917 89bc
00000240: 1551 39bc f06b 04bd dd88 993c a9e7 a639
00000250: 07bc f9bc a194 20bb 7180 f6bc 9fd0 04bc
00000260: 4451 ca3c e6a9 13bb bad4 153c 01dd 473c
00000270: 5ecf 9f3c 0ecc c3bc 4796 8f3c 4927 ceba
00000280: ff8f 323c 91fb c6bb de60 15bd 1a3e 8abc
00000290: 82ed 78bc 91d5 10bc e3bb e93c 14cb 3ebd
000002a0: 91ed d2bc 550a 3cbd 9bff 893c 5878 053c
000002b0: 2f23 293d d77f f33c e5ed 593c d967 de3c
000002c0: 7a95 da3c 6cee fcba 778f 923c 5fc3 74bc
000002d0: e080 9cbc 11b4 f2bc a287 c23c 87e4 dc3b
000002e0: 0c3b 1e3c 8738 1b3c 4dc3 f23c f995 f63b
000002f0: 4f5c 943a 6bfa 1a3d 8435 4b3d abbe c33c
00000300: d07f b53c 79f4 83bc c418 cfbc 6b30 4e3c
00000310: 85a4 31bc 5993 c43c 138c 36bb 88dc 7539
00000320: 53b1 b93c b2c1 b63c b6d9 27bd b064 ff3c
00000330: b191 843b 5ad1 e4bc 9376 8b3b 3a3f bcba
00000340: a87c 9e3c 9d2c 9d3c b9d0 0ebc af5f 77bc
00000350: 71fb 083d 6ee5 abbc fa94 c6bb e7f9 80bb
00000360: 6dfd 6cbd 8d02 32bd ac23 903c 4941 8abc
00000370: d69f 9fbc 9de9 e13c b568 d6bc 1d1b dd3c
00000380: 7598 8fbb 87c0 24bd 31fb e73c da0f 203c
00000390: bbe9 c6bb 34a8 003d fb15 22bd dca2 35bc
000003a0: 02fe 763b 4f48 04bc 07f0 11bc 631a e7bc
000003b0: 5cee 1239 3992 243c 52bb a2bc 559e 263d
000003c0: cce4 eabc 0bcb 5c3c eddb 3cbc 51a6 46bc
000003d0: 33e5 64bc 3f1b 3a3c 76a0 e43b f0ee 043d
000003e0: 3069 89bb 18a2 1abb 1729 c8bc a303 e5bb
000003f0: b8a0 053d 2ab0 ba3c 5ba5 2f3c e3ce 9ebc

action_model._continuous_distribution.mu.bias f4 [2]
-0.009096238 0.004598594
00000000: 6308 15bc cdaf 963b

action_model._discrete_distribution.branches.0.weight f4 [5, 128]
0.027739093 0.002969692 -0.011624706 0.0103585785 -0.0008536867 0.008220924 -0.005429709 0.026953753
0.0071975105 0.0013383083 0.018561967 -0.011377424 -8.353572e-05 -0.008010737 -0.00068396627 0.006939436
0.024414742 -0.0010471395 0.009222068 0.0041779103 0.012088699 0.021515941 0.0030248745 0.0027671594
0.0007391498 -0.01349394 -0.0022980147 -0.0029910547 -0.013465125 0.0033138378 -0.025680533 0.009001412
-0.001706302 -0.007451966 0.009032232 -0.004378435 -0.015530076 0.009939224 0.012524681 -0.023361875
-0.0044558956 -0.0014686994 0.010382547 -0.0052576764 -0.00044710416 0.02868857 0.008830194 -0.011434457
0.031800013 -0.006393228 -0.01214917 -0.0071581546 0.0033398785 0.0032604712 0.01608602 -0.012901256
-0.0060570478 0.011777402 -0.0019163975 0.0047615613 -1.3557608e-05 0.008251304 -0.022140387 0.009097229
-0.022430724 0.010316953 0.0052897767 0.0057609985 0.0042187953 0.0007608033 -0.013482673 0.008961252
0.011292442 0.0058038435 0.011334612 -0.0069627 -0.0041187783 0.015649935 0.011789021 0.0067819953
0.0048095915 0.0001678944 0.0036807687 0.004502737 -0.005978222 -0.0036694154 -0.0040466296 0.006754419
-0.012095273 -0.0065160044 -0.0021023345 0.0019065627 -0.008129674 0.0040672943 -0.010393082 -0.007279297
-0.012555323 -0.003090345 0.005154826 -0.004919632 -0.006236539 0.006201049 0.009993084 0.008493268
-0.005213262 -0.0013270816 0.0145336455 0.01799851 -0.010822784 -0.0017610037 -0.002724113 -0.010298549
0.007379299 0.021042325 -0.004307096 0.007851467 0.0063761985 0.0066290163 -0.00765191 0.007083621
-0.008685659 -0.0021387096 -0.00777412 0.020784317 -0.00076677435 0.014656913 -0.017544802 0.030489104
0.0034317866 0.002165394 0.01463866 -0.0014093154 -0.0044386396 0.0013804189 0.0011330398 -0.01125049
-0.00090433954 0.01951146 -0.009164044 0.001971248 0.0005252553 0.008792337 0.014440067 0.012279497
-0.01736609 0.013800407 -0.0020451401 -0.0028341657 -0.012145351 -0.0062274835 0.0029898712 0.000105608386
7.068972e-05 0.009970286 0.0023541995 -0.010820005 -0.017382668 0.011265204 0.001173957 0.0049639135
-0.00652717 0.0049549364 -0.013677739 -0.017773995 0.016038409 -0.022847693 -0.014508002 0.016082652
0.0044487547 0.006785379 -0.016705886 0.011623588 0.009483878 -0.00918452 -0.007113422 0.002748126
0.00795631 -0.0061631906 -0.0037366017 0.015623877 0.0094149085 0.0016444003 0.007892983 -0.01504858
0.0014040662 -0.012121926 -0.0035637552 0.0052815033 -0.009274823 -0.01110061 0.018668635 0.010935756
0.014929258 0.0057158293 -0.008534897 -0.0061541055 0.0022788492 0.008724457 -0.014960614 0.0052807354
0.014171645 -0.0068095326 -0.01610443 0.022423076 0.00093586795 -0.0051649413 -0.002660333 -0.013419427
-0.022440711 -0.005069782 0.0031323752 0.0041538286 -0.012490167 -0.0054251025 0.0035241833 0.005631759
-0.008515049 -0.000116486146 -0.0016994498 0.00014767572 0.009564405 0.0037949889 -0.0035705315 -0.0107888365
0.003390684 0.0054250127 0.0062151 -0.010307815 0.012787374 0.016503712 0.0004831386 -0.0063675316
0.004998035 0.016158197 -0.008815237 -0.008029909 0.0062738173 -0.007698688 -0.0059192786 0.009093327
-0.01964292 -0.0022645576 -0.008858716 0.00068186986 -0.00475083 -0.017725578 -0.01603651 -0.0020172305
-0.00063924433 0.00081513677 0.0027411054 -0.0102539165 -0.01253458 -0.0016595703 0.0075754905 -0.010870425
00000000: 183d e33c 2a9f 423b 8d75 3ebc 07b7 293c
00000010: f2c9 5fba 0eb1 063c b3eb b1bb 1ece dc3c
00000020: 18d9 eb3b 2d6a af3a 440f 983c 6068 3abc
00000030: e62f afb8 773f 03bc 334c 33ba 3564 e33b
00000040: 6d01 c83c 2c40 89ba 2818 173c dae6 883b
00000050: ae0f 463c 3342 b03c f93c 463b 3b59 353b
00000060: 81c3 413a b015 5dbc 4a9a 16bb 9205 44bb
00000070: d49c 5cbc f92c 593b fb5f d2bc a97a 133c
00000080: ffa5 dfba 9f2f f4bb edfb 133c fa78 8fbb
00000090: dc71 7ebc 21d8 223c 5234 4d3c 6761 bfbc
000000a0: c302 92bb 6081 c0ba 8f1b 2a3c 9648 acbb
000000b0: 4e69 eab9 4b04 eb3c 85ac 103c 9757 3bbc
000000c0: bb40 023d 497e d1bb 500d 47bc f48e eabb
000000d0: dde1 5a3b a1ad 553b d4c6 833c ca5f 53bc
000000e0: 337a c6bb 01f6 403c a12f fbba df06 9c3b
000000f0: 7c75 63b7 7a30 073c c25f b5bc 8b0c 153c
00000100: a3c0 b7bc 7008 293c dd55 ad3b c2c6 bc3b
00000110: d23d 8a3b a570 473a 6ee6 5cbc 37d2 123c
00000120: ef03 393c 2b2e be3b cfb4 393c 5c27 e4bb
00000130: d1f6 86bb 4b34 803c bd26 413c 803b de3b
00000140: c799 9d3b cf0c 3039 0d39 713b b28b 933b
00000150: f6e4 c3bb 937a 70bb 9799 84bb 2c54 dd3b
00000160: 402b 46bc 3584 d5bb 52c7 09bb a1e5 f93a
00000170: 5332 05bc f046 853b bf47 2abc 2b87 eebb
00000180: d7b4 4dbc 6387 4abb d1e9 a83b dd34 a1bb
00000190: e25b ccbb 2b32 cb3b 08ba 233c 5927 0b3c
000001a0: 03d4 aabb 78f1 adba 871e 6e3c 9c71 933c
000001b0: 0c52 31bc 7bd1 e6ba 0887 32bb 3fbb 28bc
000001c0: 0cce f13b f460 ac3c 8a22 8dbb 70a3 003c
000001d0: 6eef d03b 3838 d93b e0bc fabb b81d e83b
000001e0: 4b4e 0ebc 9829 0cbb 0cbe febb df43 aa3c
000001f0: 5b01 49ba 8c23 703c 1eba 8fbc 49c4 f93c
00000200: d3e7 603b 48e9 0d3b fdd6 6f3c c7b8 b8ba
00000210: 0272 91bb 2cef b43a 8282 943a fa53 38bc
00000220: 3311 6dba 7fd6 9f3c c924 16bc 0e30 013b
00000230: 49b1 093a bc0d 103c 0896 6c3c f22f 493c
00000240: 5543 8ebc 1a1b 623c c207 06bb 69bd 39bb
00000250: 4bfd 46bc eb0f ccbb b7f1 433b 127a dd38
00000260: 413f 9438 695a 233c ea48 1a3b 6446 31bc
00000270: 1966 8ebc b191 383c 76df 993a 53a8 a23b
00000280: dfe1 d5bb 055d a23b 9818 60bc c59a 91bc
00000290: fb62 833c 162b bbbc f9b2 6dbc c4bf 833c
000002a0: dcc6 913b e257 de3b c8da 88bc dd70 3e3c
000002b0: 4462 1b3c ab7a 16bc b517 e9bb e719 343b
000002c0: 2f5b 023c 97f4 c9bb c6e1 74bb 4afb 7f3c
000002d0: fd40 1a3c eb88 d73a 9251 013c 528e 76bc
000002e0: a508 b83a 0b9b 46bc e48d 69bb 7610 ad3b
000002f0: 6df5 17bc 55df 35bc f7ee 983c e32b 333c
00000300: d999 743c da4b bb3b f4d5 0bbc 61a8 c9bb
00000310: bf58 153b 06f1 0e3c 5d1d 75bc 050a ad3b
00000320: 3030 683c 8022 dfbb 70ed 83bc 99b0 b73c
00000330: 0955 753a ab3e a9bb fb58 2ebb 28dd 5bbc
00000340: 95d5 b7bc 6a20 a6bb 8948 4d3b d71c 883b
00000350: 8fa3 4cbc 0fc5 b1bb fcf5 663b 9e8a b83b
00000360: b482 0bbc 064a f4b8 13c0 deba 66d9 1a39
00000370: 06b4 1c3c 59b5 783b 94ff 69bb a9c3 30bc
00000380: 3d36 5e3b 4ec4 b13b 0aa8 cb3b 1ce2 28bc
00000390: 2282 513c cb32 873c c44d fd39 baa6 d0bb
000003a0: 8ec6 a33b 325e 843c c96d 10bc e18f 03bc
000003b0: 9894 cd3b 4745 fcbb 82f6 c1bb 2efc 143c
000003c0: 30ea a0bc f968 14bb 2624 11bc 83bf 323a
000003d0: daac 9bbb 3b35 91bc 005f 83bc 8333 04bb
000003e0: f692 27ba e7ae 553a 1ea4 333b 0b00 28bc
000003f0: d75d 4dbc f085 d9ba d23b f83b de19 32bc

action_model._discrete_distribution.branches.0.bias f4 [5]
0.00080280204 0.0035154358 -0.0006148478 -0.005210027 0.002834905
00000000: 2273 523a 3a63 663b bd2d 21ba e0b8 aabb
00000010: d0c9 393b
