3DPlayground/results/Test27/MoveToGoal/MoveToGoal-499981.pt (torch, 716942 bytes, 42 tensors)

network_body._body_endoder.seq_layers.0.weight f4 [128, 92]
0	0x3ea17e08	0.31541467
1	0x3d1eed0b	0.03880028
2	0xbd33ba33	-0.043878745
3	0xbe043e64	-0.12914425
4	0x3d2119ce	0.03933125
5	0x3d83a271	0.064274676
6	0x3aaa1765	0.0012976943
7	0xbd8481a6	-0.06470041
8	0x3d7d02b2	0.06177015
9	0xbe40e318	-0.1883663
10	0x3de4005b	0.1113288
11	0x3d7b640c	0.06137471
12	0x3ea74ca7	0.3267567
13	0xbe546906	-0.20743188
14	0xbd218164	-0.039430037
15	0x3e51c038	0.20483482
16	0x3d5802a3	0.05273689
17	0x3dd4389e	0.10362361
18	0xbe381d8c	-0.17980021
19	0xbdeae0ac	-0.11468634
20	0xbdfe278d	-0.124098875
21	0xbd544888	-0.051826984
22	0x3cb1fed8	0.021727964
23	0x3cc05202	0.023476604
24	0xbe0e1265	-0.13874204
25	0x3daf5776	0.08561604
26	0x3dfd7f1f	0.12377762
27	0xbdc9bb3a	-0.09850164
28	0xbcb3c2c6	-0.021943461
29	0xbdb48b96	-0.088156864
30	0x3ce65cfc	0.02812051
31	0xbc6d298d	-0.0144752385
32	0x3dc25171	0.0948819
33	0x3ddd5ea7	0.10809069
34	0xbbbb5ee1	-0.0057180976
35	0xbcee0363	-0.02905435
36	0x3bc61115	0.006044517
37	0x3dee6f0e	0.11642276
38	0xbde4076a	-0.111342266
39	0x3d35daba	0.044398047
40	0xbe398b32	-0.18119505
41	0xbcacb152	-0.021080647
42	0xbd11b237	-0.03557035
43	0x3d3f740c	0.04674153
44	0xbc4f9765	-0.012670373
45	0x3d6759df	0.056482192
46	0x3da380bc	0.079835385
47	0x3cff49da	0.031163145
48	0x3d31a281	0.043367866
49	0xbd8c5640	-0.068523884
50	0xbd0399e4	-0.032129183
51	0x3afe0d70	0.0019382667
52	0x3e18509e	0.14874503
53	0x3e2e9fb7	0.17053114
54	0xbdfd458b	-0.1236678
55	0x3ccf3a63	0.025296396
56	0xbda1435e	-0.078741774
57	0x3d6375f9	0.05553243
58	0x3df33187	0.11874681
59	0x3dcafc41	0.09911395
60	0x3cb6f96d	0.022335732
61	0x3e528099	0.20556869
62	0x3d80d1b2	0.06289996
63	0xbe3d1cb8	-0.18467987
64	0x3d6ba049	0.057525907
65	0xbe3053bc	-0.17219442
66	0xbe03c79f	-0.12869118
67	0xbe22521e	-0.15851638
68	0x3d26b192	0.040696688
69	0xbde1a2f9	-0.11017413
70	0xbdc5f392	-0.09665598
71	0x3bba1389	0.0056785983
72	0x3c5d075d	0.013490525
73	0x3da00b6a	0.07814677
74	0xbda01cef	-0.07818019
75	0xbd6de24f	-0.058077153
76	0xbd381f64	-0.04495181
77	0x3d75c436	0.060001574
78	0x3dec5a2d	0.11540637
79	0xbd54cd75	-0.05195375
80	0x3dbe7869	0.0930031
81	0x3ce6eff1	0.028190585
82	0xbdafb80b	-0.08580025
83	0x3e49b649	0.19698443
84	0x3b5d7196	0.0033789626
85	0xba59d02b	-0.00083089125
86	0xbd9c3910	-0.07628071
87	0xbd16a5f9	-0.036779378
88	0x3d04eabd	0.032450426
89	0xbdf4a0e4	-0.1194475
90	0xbde07932	-0.10960616
91	0xbd96ff6d	-0.07372937
92	0xbdafc41c	-0.08582327
93	0xbdc26d2d	-0.0949348
94	0x3de7a77e	0.113112435
95	0x3d868e7c	0.065701455
96	0xbe5a02ca	-0.21290126
97	0xbe7881db	-0.24268286
98	0x3e17c6d4	0.1482194
99	0x3c09b454	0.00840481
100	0x3c2eb269	0.0106626535
101	0xbe54fbc0	-0.2079916
102	0xbdbfa818	-0.09358233
103	0x3dc16167	0.09442406
104	0xbd0afc61	-0.033932094
105	0x3e1a797a	0.15085402
106	0x3d9a3e1d	0.075313784
107	0x3e166bb1	0.14689519
108	0xbc0e0d83	-0.008670214
109	0x3b96aa94	0.004597971
110	0x3cb5ee5d	0.022208387
111	0x3d89a15d	0.06720231
112	0x3d95d377	0.07315724
113	0xbde7d7a0	-0.11320424
114	0x3e09b28e	0.1344702
115	0x3da35085	0.07974342
116	0x3bf2e556	0.007412593
117	0x3e057cc9	0.13035883
118	0x3d59b210	0.05314833
119	0x3d8ed9e5	0.06975154
120	0x3e24194a	0.16025272
121	0x3d349c59	0.044094417
122	0x3e09c045	0.13452251
123	0x3e7f6886	0.24942216
124	0x3e272c1b	0.16325419
125	0x3c802f21	0.015647473
126	0xbd978e26	-0.074001595
127	0xbda2b0ed	-0.07943902
128	0xbbdda2a4	-0.006763773
129	0xbe2e8ccc	-0.17045897
130	0x3e44b270	0.19208694
131	0xbe68a32c	-0.22718495
132	0x3e5e2f97	0.21697842
133	0xbb54d82d	-0.0032477484
134	0xbe2afdf8	-0.16698444
135	0x3c65491d	0.013994482
136	0x3be4d951	0.006983914
137	0x3e3b7d4b	0.18309514
138	0xbda30a90	-0.07960999
139	0x3d559874	0.052147344
140	0x3d99eef0	0.07516277
141	0xbd32ea78	-0.043680638
142	0xbc9b8188	-0.018982664
143	0x3cf13d4d	0.029448176
144	0x3d9196c8	0.07108837
145	0xbd8da807	-0.06916814
146	0xbdea4108	-0.11438185
147	0x3ce17143	0.027519828
148	0xbdab9125	-0.083772935
149	0x3d8def4c	0.06930408
150	0xbdc6ccff	-0.09707069
151	0xbdf52204	-0.119693786
152	0x3e0cbbc0	0.13743496
153	0x3d313759	0.043265674
154	0xbdeb146e	-0.11478506
155	0x3d3c8d64	0.046033278
156	0x3d481e56	0.048857056
157	0xbdb70118	-0.089357555
158	0xbe23e77a	-0.1600627
159	0xbd6748b7	-0.05646583
160	0xba4619e2	-0.00075569574
161	0xbd794352	-0.060855217
162	0x3b6019e3	0.0034195117
163	0xbda8a02d	-0.08233676
164	0xbc33905d	-0.010959712
165	0x3e014793	0.1262496
166	0x3c9566dc	0.018237524
167	0x3c97b8d3	0.018520748
168	0x3dab7852	0.08372559
169	0xbba5d34d	-0.0050605894
170	0xbe7132fd	-0.23554607
171	0xbe24b94c	-0.1608631
172	0x3df44623	0.1192744
173	0x3e29597b	0.1653804
174	0x3d98369f	0.07432293
175	0xbd694844	-0.056953683
176	0x3d2bbe75	0.04192968
177	0x3e1b731b	0.15180628
178	0xbdc3a6d2	-0.09553303
179	0x3e6009ac	0.2187869
180	0xbdde5167	-0.1085537
181	0xbbd65134	-0.006540442
182	0xbc9e3f7b	-0.01931738
183	0x3d43ff5c	0.04785095
184	0x3d5abb0c	0.053401038
185	0xbdcce3d2	-0.10004391
186	0x3d6024ae	0.05472248
187	0x3d9460da	0.072450355
188	0x3daa28c6	0.08308558
189	0xbe5a35bc	-0.2130956
190	0xbda2d0f9	-0.079500146
191	0xbdb4c460	-0.08826518
192	0xbe296d05	-0.16545494
193	0x3dd39174	0.10330477
194	0xbe869e4f	-0.26292655
195	0x3dfcfcdf	0.12352919
196	0xbe3e981c	-0.18612713
197	0xbdc3a551	-0.09553016
198	0xbdf749a1	-0.120745905
199	0x3d66b3d2	0.056323834
200	0xbe23d92d	-0.16000815
201	0x3d2a6345	0.041598577
202	0x3d4c67f5	0.04990383
203	0x3d6e2478	0.058140248
204	0xbd513ddf	-0.051084395
205	0xbc5bbdfb	-0.013411994
206	0xbd3ee294	-0.0466028
207	0x3bdd138e	0.006746716
208	0x3d9c09e2	0.076190725
209	0x3d675ddf	0.056486007
210	0xbde4c674	-0.111706644
211	0x3d175fc0	0.03695655
212	0xbe451340	-0.19245625
213	0x3e06af32	0.13152769
214	0xbe0244ba	-0.1272153
215	0xbdf6bcc0	-0.1204772
216	0xbe0e6133	-0.13904266
217	0x3e1c60c2	0.15271285
218	0x3dfd7938	0.12376636
219	0x3d9bd3e9	0.07608778
220	0xbcf54ab3	-0.029942846
221	0xbe8d2c03	-0.2757264
222	0xbc873afa	-0.016507614
223	0x3e08b4c2	0.13350204
224	0xbc28bbbe	-0.0102986675
225	0x3d3578df	0.044304725
226	0xbd877a4e	-0.06615125
227	0x3d59617b	0.05307148
228	0xbe621436	-0.22078022
229	0x3e0541a7	0.13013326
230	0xbe798198	-0.24365842
231	0xbd5454fa	-0.051838852
232	0xbd186394	-0.03720434
233	0xbd876fa3	-0.0661309
234	0xbd9be845	-0.07612661
235	0x3d4b937f	0.04970121
236	0x3c4304ec	0.011903029
237	0x3e0df3f0	0.13862586
238	0x3ccb5b9c	0.024823956
239	0x3d88ef66	0.06686287
240	0xbd2296c3	-0.03969456
241	0x3e27b18c	0.16376323
242	0x3d857e97	0.06518286
243	0xbc28a8ed	-0.010294181
244	0x3dbb551a	0.09147091
245	0x3ddb2cd8	0.10701913
246	0x3d9c634d	0.076361276
247	0x3d1cc17e	0.038270466
248	0x3dec5c07	0.1154099
249	0x3d5af57f	0.05345678
250	0xbe6685a8	-0.22511923
251	0xbd5039df	-0.05083644
252	0xbd9af54a	-0.075663164
253	0xbce67a29	-0.028134422
254	0x3c6e8b04	0.014559511
255	0xbe3f5ae6	-0.18687019

network_body._body_endoder.seq_layers.0.bias f4 [128]
0	0x3cd35042	0.025795106
1	0x3b853efc	0.004066346
2	0xbb0a1af4	-0.0021073194
3	0x3c5c964b	0.013463567
4	0x3b953d83	0.004554452
5	0xbc541c6a	-0.012946228
6	0x3b41805a	0.0029525966
7	0xbb114d66	-0.0022171377
8	0x3c9b8e5d	0.018988783
9	0x3c224b91	0.009905712
10	0x3a9b6d16	0.0011858072
11	0xbb198f88	-0.0023431499
12	0xb8927a5f	-6.984616e-05
13	0xbc984514	-0.018587627
14	0xbc7909e0	-0.015200108
15	0x3b150bc6	0.0022742613
16	0x3b19a5f9	0.0023444875
17	0x3ba4cb17	0.005029093
18	0x3b9823bb	0.0046429313
19	0xbb69ce02	-0.0035675769
20	0x3c2c13fa	0.01050281
21	0x3c2ae454	0.010430414
22	0x3c45cafa	0.012072319
23	0xbc5548a2	-0.013017805
24	0x3b1c09e7	0.0023809613
25	0x3c2884b5	0.010285546
26	0xba82dba6	-0.0009983673
27	0xbb692033	-0.003557217
28	0x3bbf0ab3	0.005830133
29	0x3bc19089	0.0059071225
30	0x3b3037ac	0.0026888652
31	0xbc33c55a	-0.010972345
32	0xbc1d46b9	-0.009599381
33	0xbaf2c000	-0.0018520355
34	0xbc03deb6	-0.008048704
35	0x3bba61ca	0.005687927
36	0x3bfa1167	0.007631469
37	0xbba25f5a	-0.0049552144
38	0xbb017c41	-0.00197579
39	0x3c0e1cea	0.008673886
40	0x3c263ace	0.010145856
41	0xbbb832f8	-0.0056213103
42	0xbc0a5bfe	-0.008444784
43	0x3c7fee20	0.015620738
44	0x3b8171e4	0.0039503444
45	0xbb5bdf20	-0.003354974
46	0xbb8d2254	-0.0043070707
47	0x3c9d5262	0.019204322
48	0x3ce97da7	0.028502299
49	0x3c05c292	0.008164065
50	0x3c7c4c2d	0.015399021
51	0x3b918d78	0.004441913
52	0x3c9a2806	0.018817913
53	0x3c015f3f	0.007896244
54	0xbc453177	-0.012035719
55	0x3c9f03dd	0.019411022
56	0x3cab70b4	0.020927764
57	0xbc13fe77	-0.009032837
58	0xbbd347bc	-0.0064477604
59	0x3cc4fe4f	0.024047045
60	0x3a4493c3	0.0007498825
61	0xbb3c28b5	-0.0028710787
62	0x3c262a52	0.010141926
63	0x3b63ce67	0.0034760477
64	0x3b2bb446	0.002619998
65	0x3c080b40	0.008303463
66	0xbc0c9e8f	-0.008582725
67	0xb9eca1e0	-0.00045134034
68	0xbb620788	-0.0034489352
69	0x3bec3998	0.007209014
70	0x3d1fd9f7	0.039026227
71	0x398bd62d	0.0002667172
72	0xbcccc9ab	-0.024998507
73	0x3bbbdbb7	0.005732979
74	0xbc28b370	-0.0102966875
75	0x3cc8e2d7	0.024522228
76	0x3c2189a2	0.009859474
77	0x3c370f72	0.011173116
78	0x3c662e83	0.014049175
79	0x3cb8b2de	0.022546228
80	0x3c53350e	0.012891067
81	0x3bf56782	0.0074891457
82	0xbbc50fd9	-0.006013852
83	0x3c11eebf	0.008907019
84	0x3ab71732	0.0013968705
85	0x3c6eae62	0.014567943
86	0x3d25a346	0.040438913
87	0x3ab57b3b	0.001384593
88	0x3c13164c	0.008977484
89	0xbc1455ca	-0.009053657
90	0xbc173896	-0.0092298
91	0x3c070680	0.008241296
92	0xbc4293d0	-0.011876062
93	0x3b4fd00c	0.00317097
94	0x38d5f329	0.000102019236
95	0xbb47dccb	-0.0030496593
96	0xbc2bc8ef	-0.010484918
97	0x3b5c84f7	0.003364859
98	0x3c993f46	0.018706929
99	0xba5562c3	-0.0008140022
100	0xbc1a5f67	-0.00942216
101	0x3c919c92	0.017774854
102	0x3a9a461b	0.0011770161
103	0x3b8abb70	0.00423377
104	0x3c4f1d4a	0.01264126
105	0x3cf4566a	0.029826362
106	0x3bc6ae1c	0.006063236
107	0x3984b9d8	0.00025315466
108	0xbc850ca1	-0.016241373
109	0x3c7f4057	0.015579305
110	0x3c959e4f	0.018263964
111	0x3cbef17c	0.023308508
112	0xbcb94808	-0.022617355
113	0xbc07ddf9	-0.0082926685
114	0x3b8fef43	0.004392536
115	0x3c7a6e84	0.015285138
116	0xbc0db19f	-0.008648305
117	0xbc6602dd	-0.014038769
118	0x39f1ddf0	0.00046132458
119	0xb892842c	-6.9864414e-05
120	0xbc6d1528	-0.014470376
121	0xbb5bc681	-0.0033535066
122	0xbbf848ca	-0.0075770365
123	0x3ae0124f	0.00170953
124	0x3cc76805	0.024341593
125	0xbbf4bf73	-0.0074691116
126	0xbc204224	-0.009781394
127	0x3cc610a3	0.024177855

network_body._body_endoder.seq_layers.2.weight f4 [128, 128]
0	0x3db4d7c4	0.088302165
1	0x3dea87ed	0.11451707
2	0xbcf8bc40	-0.030363202
3	0xbdaa860a	-0.08326347
4	0xbd5d9185	-0.054093856
5	0x3ddadaea	0.10686286
6	0xbdaa58de	-0.08317731
7	0xbd250b24	-0.040293828
8	0x3e04ecdf	0.12980984
9	0xbd23ad9f	-0.0399605
10	0x3e191f45	0.14953335
11	0xbdc7fb73	-0.09764757
12	0x3bbce7bf	0.005764931
13	0xbe272de1	-0.16326095
14	0xbd9fa74a	-0.0779558
15	0x3e4a6de2	0.1976848
16	0xbe448775	-0.19192298
17	0xbdaff163	-0.08590963
18	0x3d08852b	0.033330124
19	0xbe41ebcb	-0.18937604
20	0x3ddd4d48	0.10805756
21	0x3ce6d3ce	0.028177168
22	0x3e24e916	0.1610454
23	0x3d280fdd	0.041030753
24	0x3de1f895	0.110337414
25	0xbdcf87f8	-0.10133356
26	0x3dd5bd50	0.10436499
27	0xbd204b2d	-0.039134193
28	0xbd8ae546	-0.06782012
29	0x3db9bc00	0.09069061
30	0xbc327877	-0.010892979
31	0xbda52be2	-0.080650106
32	0xbe74a47e	-0.23890874
33	0xbcea8438	-0.0286275
34	0x3d625332	0.055255122
35	0xbc186534	-0.009301472
36	0x3d6e4252	0.058168717
37	0x3c21feb3	0.009887385
38	0x3dc2f249	0.095188685
39	0x3c537174	0.012905467
40	0x3cf7a933	0.030232048
41	0x3e51142a	0.20417848
42	0x3d63812e	0.055543117
43	0xbd3e6d59	-0.046491
44	0x3d22b919	0.039727304
45	0xbb6981d9	-0.0035630374
46	0x3cf403d9	0.029786991
47	0x3dbb311f	0.091402285
48	0xbce3edbf	-0.027823327
49	0xbd7ab712	-0.061209746
50	0x3dec1700	0.115278244
51	0x3e2ff708	0.17184079
52	0xbd951d8a	-0.07281025
53	0xbddb30c1	-0.107026584
54	0x3c4a8203	0.012360099
55	0xbd268bb3	-0.04066057
56	0x3d7b4c85	0.06135227
57	0x3e726c86	0.23674211
58	0xbbd758cb	-0.0065718642
59	0x3da7636c	0.0817326
60	0xbe3a5458	-0.18196237
61	0xbc8a176c	-0.016856872
62	0xbdf0da3a	-0.117603734
63	0x3daee4ea	0.08539756
64	0x3cf9f02e	0.030510034
65	0xbda2e9b2	-0.0795473
66	0x3bdda371	0.0067638685
67	0xbe2696c2	-0.16268447
68	0x3e127482	0.14302257
69	0x3d9b564a	0.07584818
70	0x3e011890	0.12607026
71	0xbe7bc564	-0.24587017
72	0x3d62c572	0.05536408
73	0x3d3f5ca7	0.04671922
74	0x3dd32ff2	0.10311879
75	0xbc009785	-0.007848625
76	0xbb312305	-0.002702893
77	0xbe22ff51	-0.15917708
78	0xbc93865e	-0.018008407
79	0x3da728b6	0.08162062
80	0xbd4807d3	-0.048835587
81	0xbb3af95e	-0.0028529982
82	0x3c0722c5	0.008248036
83	0xbdbe51e8	-0.09292966
84	0xbb42591b	-0.0029655162
85	0x3d981e2e	0.07427631
86	0xbdbebcc6	-0.093133494
87	0xbd10c0c4	-0.035340086
88	0x3d576804	0.05258943
89	0xbc76cf0f	-0.015064015
90	0x3d1c4358	0.03815016
91	0xbbd772db	-0.006574971
92	0x3ba46217	0.005016576
93	0x3d28f626	0.04125037
94	0xbe31ae58	-0.17351663
95	0x3d54c6e9	0.051947508
96	0xbcc85832	-0.024456117
97	0x3d9a9ea8	0.075497925
98	0xbda9fe2a	-0.08300431
99	0x3e21b22c	0.15790623
100	0x3c188b96	0.009310624
101	0xbc1cda80	-0.009573579
102	0xbddf9458	-0.10916966
103	0xbe3fb4a4	-0.18721253
104	0x3d26fb24	0.04076685
105	0xbd350b34	-0.044200137
106	0xbd1070cd	-0.035263825
107	0x3e0e47d2	0.13894585
108	0x3cc10cd2	0.023565684
109	0x3d7d5c86	0.061855815
110	0xbc2e857a	-0.0106519405
111	0xbe08ff98	-0.13378751
112	0xbd20da91	-0.03927094
113	0x3e302bb0	0.17204165
114	0xbd1c2fca	-0.038131513
115	0x3dae2874	0.085038096
116	0x3dfdb6c1	0.12388373
117	0x3dec75f7	0.115459375
118	0x3d40f16a	0.04710523
119	0x3ce800ba	0.028320659
120	0xbdc4bb59	-0.09606046
121	0xbdccf2ce	-0.10007249
122	0x3c97131f	0.018441735
123	0x3dc97be4	0.098380834
124	0xbd890e0f	-0.066921346
125	0x3c382769	0.011239865
126	0x3c816cd6	0.015798967
127	0x3d9ca6cd	0.07649002
128	0xbd503730	-0.05083388
129	0xbd706210	-0.05868727
130	0xbd0a7dab	-0.033811253
131	0x3d8d9a34	0.069141775
132	0x3dcae6f0	0.09907329
133	0xbd07e7d1	-0.03318006
134	0x3d345a0e	0.044031195
135	0xbac1c8f8	-0.0014784625
136	0xbe6077f0	-0.21920753
137	0xbe15b6f3	-0.14620571
138	0x3de4b3b5	0.11167089
139	0x3d7331cf	0.059373673
140	0xbdddd453	-0.10831513
141	0xbe2747b8	-0.16335952
142	0x3d711536	0.05885812
143	0xbc950376	-0.018190127
144	0xbc25516b	-0.010090212
145	0xbc6353f6	-0.013874998
146	0xbdd43777	-0.103621416
147	0x3c10a1fd	0.0088276835
148	0x3c9b168a	0.018931646
149	0x3d4730ee	0.048630647
150	0xbe05dcc2	-0.13072494
151	0xbdaf2a7c	-0.08553025
152	0xbd6cb303	-0.057787906
153	0x3d7e614f	0.06210452
154	0xbe284d64	-0.16435772
155	0x3e097b56	0.13425955
156	0xbdb0e91d	-0.08638213
157	0xbc6b815f	-0.014374106
158	0xbd016854	-0.031593636
159	0xbdcb0753	-0.09913506
160	0xbd247de3	-0.040159117
161	0x3d856e3f	0.065151684
162	0x3ccd5d3a	0.025068868
163	0xbd32e70e	-0.043677382
164	0xbdd0c0bb	-0.101930104
165	0xbe1b9b9b	-0.15196078
166	0xbd9f0d5a	-0.077662185
167	0x3e1d056e	0.15334103
168	0x3c229e39	0.0099254185
169	0x3d7023ec	0.058628008
170	0x3de752c0	0.1129508
171	0x3d893d05	0.06701092
172	0x3db32608	0.08747488
173	0xbd92f980	-0.071764946
174	0xbdeb367b	-0.11485001
175	0x3bbb8e74	0.005723769
176	0xbe68ccb1	-0.22734334
177	0xbd0d6827	-0.034523156
178	0xbd9a22de	-0.07526182
179	0xbdd69d4f	-0.10479223
180	0xbca390af	-0.019966451
181	0xbda789d4	-0.081805855
182	0x3c939224	0.018014021
183	0x3e018089	0.12646689
184	0x3d8208c7	0.063493304
185	0x3ba2f706	0.004973295
186	0x3d26738d	0.04063754
187	0xbc8567b2	-0.016284797
188	0xbc9a010c	-0.018799327
189	0xbd137591	-0.036000792
190	0xbcc3c576	-0.023897868
191	0x3e07cbb4	0.132613
192	0x3d02c07e	0.031921856
193	0x3e57168b	0.21004693
194	0xbd3379c8	-0.04381731
195	0x3cf7b993	0.030239856
196	0x3d805f77	0.062682085
197	0x3dc5d410	0.09659588
198	0x3d622195	0.055207808
199	0x3dbaa755	0.09113947
200	0x3e396f30	0.18108821
201	0x3d13b600	0.03606224
202	0xbdd9619f	-0.10614323
203	0x3e7d38c2	0.24728683
204	0xbbb6b42c	-0.0055756774
205	0xbc3cef5d	-0.011531678
206	0x3d2c839f	0.04211771
207	0x3db03cc5	0.08605341
208	0x3c34558c	0.011006724
209	0xbdc548e6	-0.09633045
210	0xbd832fef	-0.06405627
211	0xbe457ba5	-0.19285448
212	0xbdd2310a	-0.1026326
213	0xbdc9169b	-0.09818765
214	0xbda09512	-0.07840933
215	0x3d586c43	0.05283762
216	0xbe8573b0	-0.26064825
217	0x3c83592c	0.016033731
218	0xbcb7733c	-0.022393815
219	0x3dac2676	0.08405773
220	0x3dc0852d	0.09400401
221	0xbe37461a	-0.17897835
222	0xbd23fffc	-0.040039048
223	0x3d9371ca	0.07199438
224	0xba2ade97	-0.0006518154
225	0x3d6bd8fb	0.057579976
226	0x3d9e8fce	0.07742272
227	0x3dc1c7ca	0.09461935
228	0x3ccf49e9	0.025303798
229	0x3dbe2e49	0.09286172
230	0x3ce29573	0.027659154
231	0xbccdd65d	-0.02512663
232	0xbdd94e90	-0.10610688
233	0xbd075c44	-0.033046976
234	0x3d66037b	0.056155663
235	0xbc99c13f	-0.018768905
236	0x3b98114c	0.004640734
237	0x3d725037	0.05915853
238	0xbdc45c41	-0.095879085
239	0x3d2bd139	0.041947577
240	0x3cb0a042	0.021560792
241	0xbdc6ea06	-0.09712605
242	0xbdb36f6c	-0.087614864
243	0x3e09a453	0.13441591
244	0xbdabcbeb	-0.08388504
245	0xbe46025c	-0.19336838
246	0x3be97f85	0.007125797
247	0xbd4c0018	-0.049804777
248	0xbd05a99c	-0.032632455
249	0xbcd63adb	-0.026151111
250	0x3d16daec	0.036829874
251	0x3daf996a	0.08574183
252	0x3e14308c	0.14471644
253	0x3d9c2ba7	0.076255135
254	0xbe243dd0	-0.16039205
255	0x3cfb9ae8	0.030713513

network_body._body_endoder.seq_layers.2.bias f4 [128]
0	0xbc18c20f	-0.009323611
1	0x3bbbede9	0.005735148
2	0x3c3637d5	0.01112171
3	0x3d0ed6d3	0.03487284
4	0x3b4df20c	0.0031424789
5	0x3affe988	0.0019524554
6	0xbbadf0a0	-0.0053082258
7	0xbbccc402	-0.006248952
8	0xbba38e99	-0.004991364
9	0x3cdc3e0f	0.02688506
10	0xbbccf093	-0.0062542646
11	0xbc88a4fc	-0.016680233
12	0x3c6689d0	0.014070943
13	0x3c52a950	0.01285775
14	0x3b6fd51d	0.0036595531
15	0xbc29ecea	-0.010371426
16	0xbc3d7707	-0.011564023
17	0x3c19b3b7	0.009381226
18	0x3c8600b8	0.016357765
19	0xbc38b62e	-0.011273904
20	0xbb0eaadd	-0.0021769323
21	0x3c1a2e19	0.009410405
22	0x3bcba34e	0.006214536
23	0x3bb100ea	0.0054017203
24	0x3c92706f	0.017875878
25	0xbc1d7892	-0.009611266
26	0x3c3d1550	0.011540726
27	0xbada0ee8	-0.0016636522
28	0x3c06d5bd	0.00822967
29	0x3c438dbe	0.011935649
30	0x3b7e108d	0.003876719
31	0x3b2e7ce0	0.0026624724
32	0xba4123b5	-0.00073676865
33	0x3c43e04e	0.011955334
34	0x3bc72239	0.0060770777
35	0xbb79929d	-0.0038081773
36	0x3c2cbb9f	0.010542779
37	0x3c1ab2cf	0.009442045
38	0xbc05d3ff	-0.00816822
39	0xbc0faa83	-0.0087686805
40	0xbb01a9b5	-0.001978499
41	0x3b98a048	0.004657779
42	0x3b7c237f	0.0038473306
43	0xba6acf46	-0.0008957278
44	0x3bbd5201	0.005777598
45	0x3cdb3b33	0.026761627
46	0x3c103ac3	0.008803072
47	0x3c947a39	0.018124687
48	0xbb2ea1be	-0.0026646699
49	0xbadbe1f7	-0.0016775717
50	0x3b9fe8a1	0.0048800264
51	0x3c90d928	0.017681673
52	0xbb4b9b02	-0.0031067734
53	0x39ed7114	0.00045288412
54	0x3990fe1d	0.0002765515
55	0xbb903520	-0.0044008642
56	0x3cf6c17f	0.030121563
57	0xbc019a6d	-0.007910353
58	0x3ba98a0f	0.0051739286
59	0xbbe1b96f	-0.0068885605
60	0x3c430f78	0.0119055435
61	0x3a4c2362	0.0007787255
62	0x3c1a4516	0.009415885
63	0xbc10dad3	-0.008841234
64	0x3c8ea476	0.017412405
65	0x3c83d8d9	0.016094612
66	0xbb90278e	-0.0043992465
67	0xbbf7517e	-0.0075475564
68	0x3d0ac2c9	0.033877168
69	0xbaafa55a	-0.0013400719
70	0x3c00473c	0.007829484
71	0xb964de38	-0.00021826557
72	0x3b0b77f2	0.002128121
73	0xbb9a3532	-0.0047060484
74	0x3bd1ab36	0.0063985838
75	0xbc3192a8	-0.010838188
76	0xbb34aff0	-0.0027570687
77	0xbbd686a4	-0.006546812
78	0x3c114e1f	0.008868723
79	0xbbca7188	-0.0061780848
80	0xbba8ecca	-0.0051551806
81	0x3c8a97b9	0.01691805
82	0xbb8191d4	-0.0039541516
83	0xbbf07b27	-0.0073388997
84	0x3b078aff	0.0020682213
85	0xbbb20fa9	-0.0054339957
86	0xbb41bc4b	-0.0029561694
87	0x3a18b85b	0.0005825811
88	0x3a49a7df	0.0007692556
89	0xbaadd57c	-0.0013262476
90	0xbbc4e32b	-0.006008526
91	0xbb0b9b00	-0.0021302104
92	0x3b84da93	0.0040543764
93	0x3ab4a080	0.0013780743
94	0xbb90d94a	-0.004420434
95	0x3c4fcf44	0.012683693
96	0x3b8a6fe8	0.004224766
97	0xb9ac349e	-0.000328456
98	0xba8d092c	-0.001076018
99	0xbc00be00	-0.0078577995
100	0x3c9de278	0.019273028
101	0xbc03ecba	-0.0080520455
102	0xbbfc8465	-0.0077062123
103	0x3bb69cba	0.0055728825
104	0x3c8cafc4	0.017173655
105	0x3af96747	0.0019027971
106	0x3b9a641f	0.0047116424
107	0xbb70a45e	-0.0036719064
108	0x3bebf14d	0.007200396
109	0x3be97da9	0.0071255756
110	0x3cb9043a	0.022585023
111	0x3c094c96	0.008380076
112	0xbbb1b8a1	-0.005423621
113	0x3b548022	0.0032425006
114	0xbb59e97c	-0.003325074
115	0x3b5e945f	0.0033962948
116	0xba911c0c	-0.0011070981
117	0x3ba3ba3a	0.004996565
118	0x3c5784eb	0.013154249
119	0x3b41870d	0.002952996
120	0x3b8b525e	0.0042517623
121	0xbb7b29f3	-0.0038324564
122	0x3b588592	0.0033038598
123	0xbba99973	-0.0051757633
124	0x3bb7aaa4	0.0056050587
125	0xbc0525ae	-0.008126659
126	0xbae2e654	-0.0017311075
127	0xba802603	-0.0009776953

action_model._continuous_distribution.log_sigma f4 [1, 2]
0	0xbc887ce5	-0.016661117
1	0x3cd65ca6	0.026167225

action_model._continuous_distribution.mu.weight f4 [2, 128]
0	0x3c315bde	0.0108251255
1	0x3d01ee68	0.031721503
2	0xbcc1253a	-0.023577321
3	0xbd68a373	-0.056796502
4	0x3c7c22cd	0.0153891565
5	0x3d2f15a3	0.042745244
6	0x3bec0d8e	0.0072037643
7	0x3ae541d9	0.0017490938
8	0xbbce470d	-0.006295091
9	0x3b4d6c78	0.003134517
10	0xbc069348	-0.0082138255
11	0xbceb5399	-0.028726386
12	0x3d0aedc3	0.033918153
13	0x3aae57ce	0.0013301314
14	0xbc027ca1	-0.007964284
15	0xbc4014c6	-0.011723703
16	0xba97a3cb	-0.00115692
17	0x3c3c84b5	0.011506249
18	0xbd5bcd37	-0.053662505
19	0x3c6e4689	0.014543184
20	0xbd1072aa	-0.035265602
21	0x3cdc3c25	0.026884148
22	0xbbb238b9	-0.005438891
23	0xbc0b5bc3	-0.008505764
24	0x3beefcb0	0.0072933063
25	0xbb5e2b51	-0.003390033
26	0xbd04a184	-0.032380596
27	0xbd093686	-0.033499263
28	0xbc569cf7	-0.013098947
29	0x3d847aa6	0.06468706
30	0x3cba93c6	0.022775542
31	0x3cfbf6cc	0.03075733
32	0x3b851ac9	0.004062031
33	0x3c363e49	0.011123248
34	0x3d0c7b01	0.034296993
35	0x3c83292f	0.016010849
36	0xbccc5430	-0.024942487
37	0xbc14170d	-0.009038699
38	0xbbea515c	-0.007150812
39	0x3bcd803c	0.0062713902
40	0x3c30b1bb	0.010784562
41	0xbc952368	-0.01820536
42	0x3c505b1e	0.0127170365
43	0xbc3f248b	-0.011666427
44	0x3cdbb965	0.026821801
45	0xbd04b870	-0.032402456
46	0xbcdc43ce	-0.0268878
47	0xbc1d2e14	-0.009593505
48	0x3d3a886e	0.045540266
49	0x3c9c97f8	0.019115433
50	0x3cb4ed6c	0.022085868
51	0x3d0efd24	0.034909382
52	0x3bb94546	0.00565401
53	0xbca748c0	-0.020420432
54	0x3b51b436	0.0031998283
55	0x3c50c4a2	0.012742193
56	0x3d523ae8	0.05132571
57	0xbbc9a013	-0.0061531155
58	0x3ccf9230	0.025338262
59	0x3c026cc2	0.0079605
60	0xbc17987c	-0.009252664
61	0x3c1601a4	0.009155665
62	0x3c1a26df	0.009408682
63	0x3c208b16	0.009798786
64	0x3d0b50c5	0.034012575
65	0x3d2a503c	0.041580424
66	0x3ce69128	0.028145388
67	0x3cf8854d	0.030337
68	0xbd780a18	-0.0605565
69	0xbc550ae7	-0.013003088
70	0xbc9ea9c8	-0.019368067
71	0x3c2544f8	0.010087244
72	0x3d02b350	0.031909287
73	0x3c2117c4	0.009832326
74	0x3b9f039a	0.0048527243
75	0x3b15bc6f	0.002284791
76	0x3cd5315a	0.02602451
77	0x3b9eecc9	0.0048500043
78	0x3cd2f675	0.025752285
79	0x3bba1536	0.005678798
80	0x392842b6	0.0001604658
81	0x3ca27b4d	0.019834185
82	0x3cd33d9f	0.02578622
83	0x3a3cb38a	0.0007198384
84	0x3c341beb	0.010992984
85	0x3c56ebfa	0.013117785
86	0xbc3c45bc	-0.011491235
87	0x3c98a161	0.018631639
88	0x3cadcd49	0.021216052
89	0x3c65af6c	0.014018875
90	0x3c7b09c9	0.015322157
91	0x3d5d9022	0.054092534
92	0x3d2dffa7	0.042480137
93	0x3cfffbf4	0.03124807
94	0xbb40b927	-0.0029407234
95	0xbb8c30d6	-0.0042782826
96	0x3ca687ea	0.02032848
97	0xbce783f0	-0.028261155
98	0x3c2fc341	0.0107277045
99	0xbc177870	-0.009245023
100	0xbc81db5d	-0.01585167
101	0x3d29be3c	0.041441187
102	0x3c86f08f	0.01647213
103	0x3cea8a62	0.02863044
104	0x3d1d3abb	0.038386088
105	0x3c34fcdf	0.011046617
106	0xba951214	-0.0011373186
107	0x3ca61c90	0.020277292
108	0x3a50672c	0.0007949944
109	0x3ccf8162	0.02533025
110	0xbd5c631f	-0.053805467
111	0x3c89a868	0.016803935
112	0xbcab6ccb	-0.0209259
113	0x3b47ea46	0.0030504628
114	0x3c0b4962	0.008501383
115	0x3bee787b	0.007277546
116	0x3cafd922	0.021465842
117	0x3d0d2dc3	0.03446747
118	0xbc1d9907	-0.009619004
119	0xbd02bebc	-0.03192018
120	0xbce89c92	-0.028394971
121	0x3c80a097	0.015701575
122	0xbc25653a	-0.010094935
123	0xbc197a8e	-0.009367598
124	0xbce0a13c	-0.027420633
125	0x3d08ca32	0.033395953
126	0xbc74bce4	-0.014937613
127	0x3c06f070	0.008236036
128	0xbcbd2b3c	-0.023091905
129	0x3cbe28cc	0.023212813
130	0x3cc5644a	0.024095673
131	0x3bf816af	0.0075710635
132	0x3cb28b45	0.021794925
133	0xbb3ce1ca	-0.0028821104
134	0x3c3dca2f	0.011583849
135	0xbc8425ec	-0.016131364
136	0x3c4b8a4b	0.012423108
137	0xbc8a850b	-0.016909143
138	0xbb9fd67b	-0.004877863
139	0x3c05c470	0.00816451
140	0xbd792bd6	-0.06083282
141	0x3d0e453d	0.034734
142	0x3c46211e	0.012092857
143	0x3cd706bc	0.026248328
144	0xbd2a58da	-0.04158864
145	0xbcb81c2e	-0.022474375
146	0xbb1c3dfe	-0.002384066
147	0x3ac49762	0.0014998729
148	0xbce6a7e4	-0.028156228
149	0xbc8caa33	-0.017171001
150	0xbd17b58e	-0.03703838
151	0x3ce1970b	0.027537843
152	0xbd269c65	-0.040676493
153	0xb903aa14	-0.00012556493
154	0xbc9da9b5	-0.019245962
155	0xbcc57cee	-0.024107423
156	0x3bf2e279	0.0074122516
157	0x3d06bad4	0.032893017
158	0xbb63f2be	-0.0034782137
159	0xb8fa9f9d	-0.00011950659
160	0xbd01f327	-0.03172603
161	0x3c331e4f	0.010932519
162	0x3cc823a9	0.024431067
163	0x3c3c14bf	0.011479556
164	0x3c9e4610	0.019320518
165	0x3cd9dad1	0.026593598
166	0xbc6ee560	-0.014581054
167	0xbc20c359	-0.0098121995
168	0xbc0b0866	-0.008485889
169	0x3c339d22	0.010962756
170	0xbd49c56b	-0.049260538
171	0xbccda7a2	-0.025104348
172	0xbb4615b3	-0.0030225336
173	0x3d3543e1	0.044254187
174	0xbb249ccd	-0.0025117875
175	0xbcb863bc	-0.022508495
176	0xbc4f0351	-0.012635068
177	0xbc34e489	-0.011040815
178	0xbc4fc37b	-0.0126808835
179	0xbd000bda	-0.031261303
180	0x3aef4cf4	0.0018257187
181	0xbd03e3e3	-0.03219975
182	0xbcb89093	-0.022529876
183	0xbbc29d10	-0.0059391335
184	0xbd33d444	-0.043903604
185	0x3bef97c7	0.0073117944
186	0x3cebf1e3	0.028801864
187	0xbcf2d160	-0.029640853
188	0xbcaa3105	-0.020775327
189	0xbc8a95de	-0.016917165
190	0xbd76c3bd	-0.060245264
191	0xbc421288	-0.0118452385
192	0x3c188981	0.009310127
193	0x3ccc0505	0.024904737
194	0xbcb2ac4c	-0.021810673
195	0x3c6b4b3b	0.014361198
196	0x3ce247c1	0.027622106
197	0xbb5edfa2	-0.0034007807
198	0xbcbf25e1	-0.023333492
199	0x3cdafbaf	0.02673134
200	0xbca7e7b2	-0.020496223
201	0xbc3dec4f	-0.011591985
202	0x3ca5cedb	0.020240238
203	0xbc9776e2	-0.018489305
204	0xbc0c256c	-0.008553844
205	0xbcf6d9a3	-0.030133074
206	0x3c8a9920	0.016918719
207	0xbba82582	-0.0051314244
208	0xbc8c0a78	-0.017094836
209	0x3d0997f0	0.033592165
210	0xbc5289cc	-0.012850236
211	0xbd31646b	-0.043308657
212	0x3b15ecb6	0.0022876686
213	0xb901b7d5	-0.00012370881
214	0x3b6bec19	0.003599888
215	0xbc9a580c	-0.018840812
216	0xbbd06985	-0.006360235
217	0xbbcff467	-0.0063462737
218	0xbd90947b	-0.070595704
219	0x3a6d2d0a	0.0009047544
220	0x3b5de7b6	0.0033860034
221	0xbcc7b888	-0.024379984
222	0x3b08f5ee	0.0020898539
223	0x3ccac432	0.024751756
224	0x3cba68b3	0.022755003
225	0xbc6b9048	-0.014377661
226	0xbca7b5ed	-0.020472491
227	0xbccc6a60	-0.024953067
228	0xbd0196e5	-0.031638045
229	0xbd0cfcba	-0.034420706
230	0xbca4a906	-0.020100128
231	0x3a6be46e	0.0008998577
232	0x3c9ffa4a	0.019528527
233	0x3c925ac2	0.017865542
234	0x3d0c7262	0.03428877
235	0xbb3ab407	-0.0028488652
236	0x3cabcae4	0.02097077
237	0x3cf1c11b	0.029511025
238	0x3caaf119	0.020866917
239	0x3c27423a	0.010208661
240	0xbccaef75	-0.024772385
241	0x3ca2d7d4	0.019878305
242	0x3c559051	0.013034896
243	0x3cc05b34	0.023480989
244	0x3bd13b05	0.0063852095
245	0x3d04e93f	0.032449003
246	0x3d3880fa	0.045044877
247	0xba4ea088	-0.00078821974
248	0xbc8d1cdc	-0.017225675
249	0xbb98b1e7	-0.0046598795
250	0xbd2ba18a	-0.041902103
251	0x3cb6c25a	0.02230947
252	0x3ca07d8d	0.019591117
253	0x3c82849e	0.015932377
254	0x3a0bf29d	0.00053385814
255	0xbc7c1986	-0.015386945

action_model._continuous_distribution.mu.bias f4 [2]
0	0xba8c9b99	-0.0010727524
1	0x3bed11d6	0.007234792

action_model._discrete_distribution.branches.0.weight f4 [5, 128]
0	0x3c43939b	0.011937047
1	0x3ab1e527	0.0013572321
2	0x3c06bb46	0.00822336
3	0xbcd7095f	-0.026249586
4	0xbb29500e	-0.002583507
5	0x3accda5e	0.0015629043
6	0xbbda9ff7	-0.0066719013
7	0x3bc7e2b8	0.006100025
8	0x3c0f525c	0.008747663
9	0x3b9c013e	0.0047608903
10	0xbb587aa8	-0.0033032093
11	0x3ab70e15	0.0013965989
12	0xbb69cc53	-0.0035674765
13	0x3bacc49e	0.005272462
14	0x3c525739	0.012838178
15	0x3c05e691	0.008172647
16	0xbb8ab402	-0.0042328844
17	0xbbc84eb3	-0.0061128973
18	0x3b9a1922	0.004702703
19	0xba46e27c	-0.00075868494
20	0x3bb7a47f	0.0056043263
21	0xbc004256	-0.007828316
22	0x3bf40e5a	0.007448
23	0x3bc11b08	0.005893115
24	0xbc93e8bc	-0.018055312
25	0xbb5962f1	-0.0033170546
26	0x3bd57e63	0.0065153106
27	0x3c0ae7a1	0.008478076
28	0x3bb8e38b	0.0056423596
29	0x3c6f9f3e	0.014625369
30	0x39014e69	0.00012331609
31	0xbc1c7626	-0.009549653
32	0x39180113	0.0001449625
33	0xbc82d9b0	-0.015972942
34	0xbd0e190e	-0.034691863
35	0xbccc3846	-0.024929177
36	0x3bc5fa4d	0.006041801
37	0x3c565ce4	0.01308367
38	0x3a257774	0.00063120504
39	0x3ae17ec6	0.0017203919
40	0x3c82fbc1	0.015989186
41	0xbb758051	-0.0037460516
42	0xbc09b95c	-0.0084060095
43	0x3c873d1c	0.016508631
44	0xbba24edb	-0.004953248
45	0x3d151902	0.036400802
46	0x3c17a0a3	0.009254607
47	0x3cd1c738	0.02560769
48	0xba447628	-0.00074944133
49	0xbc2de47d	-0.010613558
50	0xbb9d48c4	-0.004799934
51	0x3c2af237	0.010433725
52	0xba452cdf	-0.000752164
53	0x3a864ac5	0.0010245672
54	0xbbb18f31	-0.005418681
55	0xbc027bb7	-0.007964066
56	0xbc99cedc	-0.018775396
57	0xbc0f6f5b	-0.008754577
58	0x3b6d4669	0.0036205298
59	0xbbfecee3	-0.0077761277
60	0xbd0f1763	-0.034934413
61	0xbbc430f3	-0.0059872805
62	0xb923fc3b	-0.00015638855
63	0x3c37237f	0.0111778965
64	0xbc611d83	-0.013739946
65	0x3b9cc465	0.0047841542
66	0xba2e7043	-0.00066543015
67	0xbcdf66a8	-0.02727063
68	0xbd1b2d95	-0.037885267
69	0x3ba209bb	0.0049450076
70	0xba95ae16	-0.001141968
71	0xbcc28988	-0.02374722
72	0xbcb90d6c	-0.022589408
73	0x3b0f077d	0.0021824532
74	0x3c16656b	0.009179453
75	0xbb842aa6	-0.0040334044
76	0xbc03be39	-0.008040958
77	0xba241a25	-0.00062599994
78	0xbb6893e2	-0.0035488536
79	0xbc1ba85f	-0.009500592
80	0x3bb0269b	0.005375696
81	0x3c8334f6	0.016016465
82	0xbba5ea74	-0.0050633494
83	0xbc92783a	-0.017879594
84	0xbd09e539	-0.03366587
85	0x3b79983c	0.0038085124
86	0xbc487bea	-0.012236575
87	0x3c9df1c0	0.019280314
88	0xbbfbdd44	-0.007686289
89	0xbb436478	-0.0029814523
90	0xbab4990e	-0.0013778524
91	0xbbdf566b	-0.0068157217
92	0xbc8b1e3b	-0.016982188
93	0xbc283635	-0.01026683
94	0x3c84e8db	0.016224315
95	0x3993c36f	0.00028183634
96	0x3c6203f5	0.013794889
97	0x3b13d601	0.0022557976
98	0x3b6cc9d0	0.0036131032
99	0xbba6b1ec	-0.005087128
100	0xbcc92381	-0.024553062
101	0xbb28d136	-0.0025759465
102	0x3a5c2714	0.0008398157
103	0xbbb5ef6c	-0.005552223
104	0xbc40f152	-0.011776285
105	0x3c7224df	0.014779299
106	0xbbbf623b	-0.0058405674
107	0x3a9d118a	0.0011983376
108	0xbba5b9f2	-0.005057567
109	0x3b0251fd	0.0019885295
110	0x3bdd59ef	0.0067551057
111	0x3bfb0e18	0.007661592
112	0xbc36a437	-0.01114755
113	0x399836bd	0.00029032482
114	0xbb48d787	-0.0030646042
115	0xba9e06b7	-0.0012056445
116	0xbb8ee557	-0.0043608355
117	0xbc1ed9a7	-0.009695447
118	0x3c131491	0.008977071
119	0x3bd17278	0.0063918196
120	0xba3ce589	-0.0007205834
121	0xbb3fffcc	-0.0029296754
122	0xbb608cd8	-0.0034263637
123	0xbc3e7dff	-0.0116267195
124	0x3c35e91c	0.011102941
125	0xba5c08c9	-0.0008393643
126	0xba25d2c4	-0.0006325657
127	0xbb0bc44a	-0.0021326714
128	0xba527dd6	-0.0008029615
129	0x3bc374e3	0.0059648617
130	0xbc8d2ce1	-0.017233314
131	0xbc9a6df2	-0.018851254
132	0xbbb1dab0	-0.005427681
133	0xbb075448	-0.00206496
134	0xbc26b631	-0.010175274
135	0xb95086a9	-0.0001988659
136	0xbb009e01	-0.0019625428
137	0xbc0eaeb8	-0.008708648
138	0xbaad7cb3	-0.0013236016
139	0xbb3ce6f8	-0.0028824192
140	0x3ab9d3c5	0.0014177492
141	0xbbd2c023	-0.006431596
142	0xbc1aec57	-0.009455762
143	0x3c365b73	0.011130202
144	0x3c81571f	0.015788613
145	0x3c055502	0.008137943
146	0xbb9ac0f7	-0.0047227102
147	0xbbbda309	-0.0057872576
148	0xbc0996a9	-0.008397737
149	0x3c2a363d	0.010388908
150	0x3c1e8713	0.009675759
151	0xbc373a3c	-0.011183318
152	0xbbed9951	-0.0072509428
153	0x3b1b9077	0.002373723
154	0x3b8ae850	0.0042391196
155	0x3a11c71f	0.00055609824
156	0xbc0130d3	-0.007885176
157	0x3b9278f5	0.0044699856
158	0x3c1ac1af	0.009445592
159	0xbb27fed6	-0.0025634072
160	0x3c33fd9f	0.010985761
161	0x3bbeba9e	0.0058205863
162	0xbbb8a32f	-0.0056346874
163	0xbc8184a4	-0.015810318
164	0xbba90556	-0.005158107
165	0xbbbf02fd	-0.0058292137
166	0xbaea529c	-0.0017877403
167	0xbb3092ec	-0.002694304
168	0x3b7623ca	0.0037557953
169	0xbc1d6f70	-0.009609088
170	0xbbdc5bdb	-0.006724817
171	0xbcfdab82	-0.03096557
172	0xbcbfbded	-0.023405993
173	0x3c00ec6e	0.007868869
174	0xbb7fb487	-0.0039017515
175	0xbc2f84f2	-0.010712849
176	0x3a656c0c	0.0008751757
177	0xb8beee0d	-9.1042464e-05
178	0x3cafdc9a	0.021467496
179	0xbbeac54e	-0.007164634
180	0xbc0273f8	-0.007962219
181	0xbc621f1a	-0.0138013605
182	0xbb808ab6	-0.0039227856
183	0x3b0d555a	0.0021565766
184	0xbab4b0a2	-0.0013785551
185	0x3c447b8f	0.011992349
186	0xbbed8487	-0.0072484645
187	0xbb0a0df8	-0.0021065455
188	0x3bd1f926	0.0064078746
189	0x3b652d0b	0.0034969475
190	0x3bda559d	0.006663038
191	0xb9cd60c3	-0.0003917274
192	0x3c3c99f6	0.0115113165
193	0x3bb7037e	0.005585133
194	0x39f614c9	0.00046936263
195	0x3c05882c	0.008150142
196	0xbc50bd84	-0.012740497
197	0xbbad01f3	-0.0052797734
198	0xbbc245cf	-0.005928732
199	0x3c76fccc	0.01507492
200	0x3c2a576b	0.010396819
201	0xbbf5be92	-0.0074995244
202	0xbc54f3b6	-0.012997558
203	0xbb3b8fc0	-0.0028619617
204	0x3bbe6d08	0.0058113374
205	0x3bf72221	0.0075419103
206	0xbbfb8b76	-0.007676537
207	0x3a023f88	0.00049685733
208	0xbc514932	-0.012773799
209	0x3b019e67	0.0019778253
210	0xbbbb31ec	-0.0057127383
211	0xbb03bcc0	-0.0020101517
212	0x3bb06f8b	0.0053843907
213	0xb9b9ec7d	-0.00035462147
214	0x3bd3b465	0.0064607137
215	0xba8d5138	-0.0010781651
216	0x3c23cde0	0.009997815
217	0x3c05501c	0.008136775
218	0x3bcf4f07	0.0063265595
219	0x3ab8568d	0.001406388
220	0x3c48b917	0.01225116
221	0xbb153322	-0.0022766073
222	0x3c3e7a3c	0.011625823
223	0xb85f2582	-5.3202275e-05
224	0xbc932dd8	-0.017966196
225	0x3c119658	0.008885942
226	0xbc0951e7	-0.008381343
227	0x3b8542f1	0.004066818
228	0x3cadc6ce	0.021212962
229	0x3bc5d095	0.006036828
230	0x3b60a8fd	0.0034280412
231	0xbc74c167	-0.014938689
232	0x3bce88fb	0.0063029504
233	0xbc550c1a	-0.0130033735
234	0xbc17b804	-0.009260181
235	0xbcb59123	-0.022163933
236	0xbc25b0d5	-0.010112961
237	0xbaf8b94a	-0.0018976119
238	0xbc008540	-0.007844269
239	0xbc2fba3f	-0.010725557
240	0x3c9c4668	0.019076541
241	0x3bf94ca7	0.0076080146
242	0x3bfba145	0.007679137
243	0xbbeb2077	-0.007175501
244	0xbc99dd9c	-0.01878243
245	0xbb166cd5	-0.0022953053
246	0x3b528764	0.0032124156
247	0x3c139085	0.009006624
248	0xba9d3298	-0.0011993228
249	0xbb1e75fe	-0.0024179216
250	0x3c906dc4	0.017630465
251	0x3ca38396	0.019960206
252	0xbc997662	-0.018733207
253	0x3b1d8e7f	0.0024041233
254	0x3b91fe79	0.0044553843
255	0xbb8d4adc	-0.0043119024

action_model._discrete_distribution.branches.0.bias f4 [5]
0	0x3b86007f	0.0040894146
1	0xbabe2a08	-0.0014508376
2	0xbb1b748a	-0.0023720586
3	0xbb996abe	-0.004681914
4	0x3b7ffc46	0.0039060279

exp_avg f4 [128, 92]
0	0x36a78561	4.992515e-06
1	0x00000000	0.0
2	0x36dff212	6.6740986e-06
3	0x36a6efb2	4.9750897e-06
4	0x371e5d1e	9.439214e-06
5	0x00000000	0.0
6	0xb640e617	-2.874416e-06
7	0xb66bd99b	-3.5144392e-06
8	0xb62b25c1	-2.5502961e-06
9	0x00000000	0.0
10	0x36d10445	6.2291824e-06
11	0x36df0929	6.6469843e-06
12	0x371542ae	8.896617e-06
13	0x00000000	0.0
14	0xb6837203	-3.917377e-06
15	0xb6b2d169	-5.329192e-06
16	0xb4bfc2f2	-3.5718364e-07
17	0x00000000	0.0
18	0x3385dedb	6.233832e-08
19	0xb5e513ae	-1.7067557e-06
20	0x354180dc	7.208562e-07
21	0x00000000	0.0
22	0x340f594a	1.3350396e-07
23	0x3580ef50	9.606392e-07
24	0x354180dc	7.208562e-07
25	0x00000000	0.0
26	0x340f594a	1.3350396e-07
27	0x3580ef53	9.606396e-07
28	0x3828cf52	4.0247403e-05
29	0xb731c899	-1.0596727e-05
30	0xb8882c73	-6.493265e-05
31	0x38da5c9f	0.00010412302
32	0x36ed7977	7.077291e-06
33	0xb8ed8040	-0.00011324929
34	0xb8f4571e	-0.000116510535
35	0x36ed7977	7.077291e-06
36	0xb8626144	-5.3973185e-05
37	0xb855589b	-5.0865678e-05
38	0xb77b9ee6	-1.4997762e-05
39	0xb2d46f34	-2.4730618e-08
40	0x35e4a7ea	1.7036193e-06
41	0x3894a377	7.087638e-05
42	0xb509dcfa	-5.135804e-07
43	0xb29f5e35	-1.8552877e-08
44	0x34310471	1.6486025e-07
45	0x00000000	0.0
46	0x00000000	0.0
47	0x00000000	0.0
48	0x00000000	0.0
49	0x00000000	0.0
50	0x00000000	0.0
51	0x00000000	0.0
52	0x00000000	0.0
53	0x00000000	0.0
54	0x00000000	0.0
55	0x00000000	0.0
56	0x00000000	0.0
57	0x00000000	0.0
58	0x00000000	0.0
59	0x00000000	0.0
60	0x00000000	0.0
61	0x00000000	0.0
62	0x00000000	0.0
63	0x00000000	0.0
64	0x00000000	0.0
65	0x00000000	0.0
66	0x00000000	0.0
67	0x00000000	0.0
68	0x00000000	0.0
69	0x00000000	0.0
70	0x00000000	0.0
71	0x00000000	0.0
72	0x00000000	0.0
73	0x00000000	0.0
74	0x00000000	0.0
75	0x00000000	0.0
76	0x00000000	0.0
77	0x00000000	0.0
78	0x00000000	0.0
79	0x00000000	0.0
80	0x00000000	0.0
81	0x00000000	0.0
82	0x00000000	0.0
83	0x00000000	0.0
84	0x00000000	0.0
85	0x00000000	0.0
86	0x00000000	0.0
87	0x00000000	0.0
88	0x00000000	0.0
89	0x00000000	0.0
90	0x00000000	0.0
91	0x00000000	0.0
92	0xb7cbc100	-2.4289358e-05
93	0x00000000	0.0
94	0x38a1c347	7.7134515e-05
95	0x38b9a7e9	8.852763e-05
96	0x3829ea8c	4.051118e-05
97	0x00000000	0.0
98	0x37b2bfda	2.1308591e-05
99	0x37c2bd73	2.3214821e-05
100	0xb743f30b	-1.1679494e-05
101	0x00000000	0.0
102	0x38e5642b	0.00010938229
103	0x38dbe4a0	0.000104853185
104	0x3892af39	6.99446e-05
105	0x00000000	0.0
106	0xb877dec2	-5.909685e-05
107	0xb87479f3	-5.8287707e-05
108	0xb769a0ea	-1.3925348e-05
109	0x00000000	0.0
110	0xb80f981f	-3.423553e-05
111	0xb7dde34c	-2.6451096e-05
112	0xb7061d29	-7.993812e-06
113	0x00000000	0.0
114	0xb78ee81d	-1.7035805e-05
115	0x36e70c40	6.8857626e-06
116	0xb7061d29	-7.993812e-06
117	0x00000000	0.0
118	0xb78ee81d	-1.7035805e-05
119	0x36e70c40	6.8857626e-06
120	0x393fdf0f	0.00018298275
121	0xb900dd1c	-0.00012289401
122	0xbab7b4c2	-0.0014015662
123	0x3a649bbf	0.0008720718
124	0x38ab99cd	8.182563e-05
125	0xbaf6773a	-0.0018803843
126	0x3a8b1d8c	0.0010613664
127	0x38ab99cd	8.182563e-05
128	0xba30e297	-0.00067476317
129	0x39736e18	0.00023215299
130	0xb8ec387b	-0.00011263877
131	0x336b209c	5.474486e-08
132	0x3715f38d	8.937798e-06
133	0x3a42a680	0.0007425323
134	0xb53915c8	-6.8949566e-07
135	0x32b35bc4	2.0880073e-08
136	0x34227215	1.5128929e-07
137	0x00000000	0.0
138	0x00000000	0.0
139	0x00000000	0.0
140	0x00000000	0.0
141	0x00000000	0.0
142	0x00000000	0.0
143	0x00000000	0.0
144	0x00000000	0.0
145	0x00000000	0.0
146	0x00000000	0.0
147	0x00000000	0.0
148	0x00000000	0.0
149	0x00000000	0.0
150	0x00000000	0.0
151	0x00000000	0.0
152	0x00000000	0.0
153	0x00000000	0.0
154	0x00000000	0.0
155	0x00000000	0.0
156	0x00000000	0.0
157	0x00000000	0.0
158	0x00000000	0.0
159	0x00000000	0.0
160	0x00000000	0.0
161	0x00000000	0.0
162	0x00000000	0.0
163	0x00000000	0.0
164	0x00000000	0.0
165	0x00000000	0.0
166	0x00000000	0.0
167	0x00000000	0.0
168	0x00000000	0.0
169	0x00000000	0.0
170	0x00000000	0.0
171	0x00000000	0.0
172	0x00000000	0.0
173	0x00000000	0.0
174	0x00000000	0.0
175	0x00000000	0.0
176	0x00000000	0.0
177	0x00000000	0.0
178	0x00000000	0.0
179	0x00000000	0.0
180	0x00000000	0.0
181	0x00000000	0.0
182	0x00000000	0.0
183	0x00000000	0.0
184	0x34a5a4f5	3.0853667e-07
185	0x00000000	0.0
186	0x3619ba26	2.290713e-06
187	0x36f970d2	7.4339123e-06
188	0x36ee527f	7.1025565e-06
189	0x00000000	0.0
190	0xb6406c3b	-2.8673228e-06
191	0xb5831421	-9.766119e-07
192	0xb5cf6724	-1.545272e-06
193	0x00000000	0.0
194	0xb580aae0	-9.586474e-07
195	0x36969986	4.488221e-06
196	0x36b2d969	5.3301233e-06
197	0x00000000	0.0
198	0x35678ef9	8.626226e-07
199	0x3681ffae	3.8742646e-06
200	0x368122c9	3.848549e-06
201	0x00000000	0.0
202	0xb4085c55	-1.2699577e-07
203	0x35aaa203	1.2713139e-06
204	0x363424e0	2.6843554e-06
205	0x00000000	0.0
206	0x34285450	1.5676892e-07
207	0x3697bd15	4.5221627e-06
208	0x363424e0	2.6843554e-06
209	0x00000000	0.0
210	0x34285450	1.5676892e-07
211	0x3697bd15	4.5221627e-06
212	0xb8957567	-7.1267415e-05
213	0xb7eb6554	-2.8061368e-05
214	0xb8652b60	-5.463825e-05
215	0x37b20665	2.1222231e-05
216	0x379ef321	1.8948283e-05
217	0xb934b9d6	-0.00017235367
218	0x395dfe29	0.00021170884
219	0x379ef321	1.8948283e-05
220	0xb918dab1	-0.00014577319
221	0x37a73d70	1.993656e-05
222	0xb6e97c79	-6.9584316e-06
223	0xb3050df6	-3.0979173e-08
224	0x34f26284	4.5147692e-07
225	0x3615be3a	2.2313457e-06
226	0xb67163e2	-3.5969938e-06
227	0x33fcf8c2	1.1779913e-07
228	0xb69eb759	-4.7301114e-06
229	0x00000000	0.0
230	0x00000000	0.0
231	0x00000000	0.0
232	0x00000000	0.0
233	0x00000000	0.0
234	0x00000000	0.0
235	0x00000000	0.0
236	0x00000000	0.0
237	0x00000000	0.0
238	0x00000000	0.0
239	0x00000000	0.0
240	0x00000000	0.0
241	0x00000000	0.0
242	0x00000000	0.0
243	0x00000000	0.0
244	0x00000000	0.0
245	0x00000000	0.0
246	0x00000000	0.0
247	0x00000000	0.0
248	0x00000000	0.0
249	0x00000000	0.0
250	0x00000000	0.0
251	0x00000000	0.0
252	0x00000000	0.0
253	0x00000000	0.0
254	0x00000000	0.0
255	0x00000000	0.0

exp_avg_sq f4 [128, 92]
0	0x2e40b4a2	4.381618e-11
1	0x00000000	0.0
2	0x2e00dfa0	2.930245e-11
3	0x2f038af5	1.1963748e-10
4	0x2e2c35a3	3.915591e-11
5	0x00000000	0.0
6	0x2f136cd1	1.3408231e-10
7	0x2f5e9235	2.0242726e-10
8	0x2e19c966	3.496705e-11
9	0x00000000	0.0
10	0x2f45082d	1.791995e-10
11	0x2f7c6452	2.2954907e-10
12	0x2e021603	2.9578128e-11
13	0x00000000	0.0
14	0x2f5fca26	2.035355e-10
15	0x2f8cee47	2.5635158e-10
16	0x2dee3a6b	2.708341e-11
17	0x00000000	0.0
18	0x2f8c7c54	2.5554192e-10
19	0x2fa4f6e7	3.000686e-10
20	0x2d74d68a	1.39174314e-11
21	0x00000000	0.0
22	0x2f3c27a5	1.7112585e-10
23	0x2f8db21c	2.5774305e-10
24	0x2d74d68a	1.39174314e-11
25	0x00000000	0.0
26	0x2f3c27a5	1.7112585e-10
27	0x2f8db21c	2.5774305e-10
28	0x33a20e27	7.546287e-08
29	0x31f654ed	7.1691972e-09
30	0x3281fd01	1.513263e-08
31	0x346b0b92	2.189029e-07
32	0x315bfaaf	3.2011191e-09
33	0x3433e5d4	1.6754285e-07
34	0x349475cc	2.7652857e-07
35	0x315bfaaf	3.2011191e-09
36	0x345e73fe	2.0717559e-07
37	0x32b5d77c	2.1169164e-08
38	0x2eeb9d45	1.07144994e-10
39	0x299f7d39	7.082741e-14
40	0x2f21a3c5	1.4701047e-10
41	0x32c2befb	2.267142e-08
42	0x2c6f6322	3.4018973e-12
43	0x2769a37d	3.2423873e-15
44	0x2ca676b6	4.7311833e-12
45	0x00000000	0.0
46	0x00000000	0.0
47	0x00000000	0.0
48	0x00000000	0.0
49	0x00000000	0.0
50	0x00000000	0.0
51	0x00000000	0.0
52	0x00000000	0.0
53	0x00000000	0.0
54	0x00000000	0.0
55	0x00000000	0.0
56	0x00000000	0.0
57	0x00000000	0.0
58	0x00000000	0.0
59	0x00000000	0.0
60	0x00000000	0.0
61	0x00000000	0.0
62	0x00000000	0.0
63	0x00000000	0.0
64	0x00000000	0.0
65	0x00000000	0.0
66	0x00000000	0.0
67	0x00000000	0.0
68	0x00000000	0.0
69	0x00000000	0.0
70	0x00000000	0.0
71	0x00000000	0.0
72	0x00000000	0.0
73	0x00000000	0.0
74	0x00000000	0.0
75	0x00000000	0.0
76	0x00000000	0.0
77	0x00000000	0.0
78	0x00000000	0.0
79	0x00000000	0.0
80	0x00000000	0.0
81	0x00000000	0.0
82	0x00000000	0.0
83	0x00000000	0.0
84	0x00000000	0.0
85	0x00000000	0.0
86	0x00000000	0.0
87	0x00000000	0.0
88	0x00000000	0.0
89	0x00000000	0.0
90	0x00000000	0.0
91	0x00000000	0.0
92	0x3133d401	2.6168439e-09
93	0x00000000	0.0
94	0x31cf8dd3	6.0406165e-09
95	0x3280ce31	1.4994926e-08
96	0x312accaa	2.4854594e-09
97	0x00000000	0.0
98	0x32639ee3	1.3249266e-08
99	0x32a489cf	1.915478e-08
100	0x3167940a	3.3699075e-09
101	0x00000000	0.0
102	0x329938be	1.7837348e-08
103	0x32b772de	2.135624e-08
104	0x31a3aaf8	4.7633613e-09
105	0x00000000	0.0
106	0x3230c95b	1.0290331e-08
107	0x3298fb3e	1.780938e-08
108	0x3183d479	3.836757e-09
109	0x00000000	0.0
110	0x328ca63f	1.6373745e-08
111	0x32b1c15e	2.0693445e-08
112	0x316db1e6	3.4589163e-09
113	0x00000000	0.0
114	0x3224fba0	9.603269e-09
115	0x328edaf8	1.6630551e-08
116	0x316db1e6	3.4589163e-09
117	0x00000000	0.0
118	0x3224fba0	9.603269e-09
119	0x328edaf8	1.6630551e-08
120	0x36dea2a9	6.6350517e-06
121	0x351ca940	5.836082e-07
122	0x36009383	1.915935e-06
123	0x37d3f4ec	2.526721e-05
124	0x348bd2ef	2.6044242e-07
125	0x379b13de	1.8486691e-05
126	0x37ab19b0	2.039675e-05
127	0x348bd2ef	2.6044242e-07
128	0x37a1b985	1.9279085e-05
129	0x358a3587	1.029738e-06
130	0x3291e7ec	1.6985688e-08
131	0x2cf6c071	7.013106e-12
132	0x3258a979	1.2611388e-08
133	0x35e0ffbb	1.6763728e-06
134	0x2fb9d265	3.3800798e-10
135	0x2d487f29	1.1396919e-11
136	0x2faa7bc8	3.1010772e-10
137	0x00000000	0.0
138	0x00000000	0.0
139	0x00000000	0.0
140	0x00000000	0.0
141	0x00000000	0.0
142	0x00000000	0.0
143	0x00000000	0.0
144	0x00000000	0.0
145	0x00000000	0.0
146	0x00000000	0.0
147	0x00000000	0.0
148	0x00000000	0.0
149	0x00000000	0.0
150	0x00000000	0.0
151	0x00000000	0.0
152	0x00000000	0.0
153	0x00000000	0.0
154	0x00000000	0.0
155	0x00000000	0.0
156	0x00000000	0.0
157	0x00000000	0.0
158	0x00000000	0.0
159	0x00000000	0.0
160	0x00000000	0.0
161	0x00000000	0.0
162	0x00000000	0.0
163	0x00000000	0.0
164	0x00000000	0.0
165	0x00000000	0.0
166	0x00000000	0.0
167	0x00000000	0.0
168	0x00000000	0.0
169	0x00000000	0.0
170	0x00000000	0.0
171	0x00000000	0.0
172	0x00000000	0.0
173	0x00000000	0.0
174	0x00000000	0.0
175	0x00000000	0.0
176	0x00000000	0.0
177	0x00000000	0.0
178	0x00000000	0.0
179	0x00000000	0.0
180	0x00000000	0.0
181	0x00000000	0.0
182	0x00000000	0.0
183	0x00000000	0.0
184	0x2e6817db	5.277188e-11
185	0x00000000	0.0
186	0x2f977bf4	2.7554814e-10
187	0x3028992a	6.1335703e-10
188	0x2e64e888	5.2047727e-11
189	0x00000000	0.0
190	0x3042eb12	7.0910844e-10
191	0x30496d17	7.32784e-10
192	0x2ea77933	7.61581e-11
193	0x00000000	0.0
194	0x2f3f824d	1.7417641e-10
195	0x30068e65	4.895127e-10
196	0x2fb619ca	3.312393e-10
197	0x00000000	0.0
198	0x2f79a17d	2.270379e-10
199	0x2fc66abd	3.6091832e-10
200	0x2ef868be	1.129634e-10
201	0x00000000	0.0
202	0x2ebd56ff	8.6101785e-11
203	0x2fcb6732	3.699881e-10
204	0x2ed8abcf	9.853062e-11
205	0x00000000	0.0
206	0x2e8fadaa	6.533736e-11
207	0x2f9499c3	2.7030297e-10
208	0x2ed8abcf	9.853062e-11
209	0x00000000	0.0
210	0x2e8fadaa	6.533736e-11
211	0x2f9499c3	2.7030297e-10
212	0x33c51a17	9.178273e-08
213	0x32868c2f	1.5663401e-08
214	0x33c833ad	9.3226255e-08
215	0x33d14b28	9.745992e-08
216	0x31f0c131	7.0068826e-09
217	0x352fdac8	6.551095e-07
218	0x35894b0e	1.0229139e-06
219	0x31f0c131	7.0068826e-09
220	0x353cc46d	7.0321295e-07
221	0x32ae3420	2.027997e-08
222	0x2ff8ad96	4.5234277e-10
223	0x2a2dd6dc	1.5440031e-13
224	0x2fae834d	3.174371e-10
225	0x33a0341a	7.460058e-08
226	0x2d115828	8.26187e-12
227	0x29a2de90	7.2328536e-14
228	0x2d64a242	1.2996328e-11
229	0x00000000	0.0
230	0x00000000	0.0
231	0x00000000	0.0
232	0x00000000	0.0
233	0x00000000	0.0
234	0x00000000	0.0
235	0x00000000	0.0
236	0x00000000	0.0
237	0x00000000	0.0
238	0x00000000	0.0
239	0x00000000	0.0
240	0x00000000	0.0
241	0x00000000	0.0
242	0x00000000	0.0
243	0x00000000	0.0
244	0x00000000	0.0
245	0x00000000	0.0
246	0x00000000	0.0
247	0x00000000	0.0
248	0x00000000	0.0
249	0x00000000	0.0
250	0x00000000	0.0
251	0x00000000	0.0
252	0x00000000	0.0
253	0x00000000	0.0
254	0x00000000	0.0
255	0x00000000	0.0
