3DPlayground/results/test14/MoveToGoal/checkpoint.pt (torch, 550571 bytes, 42 tensors)

network_body._body_endoder.seq_layers.0.weight f4 [128, 38]
0	0xbd74c787	-0.059760597
1	0x3e71eca9	0.23625435
2	0x3e5c43f2	0.21510294
3	0x3e50b3dd	0.20381112
4	0x3ddd0b73	0.107931994
5	0x3e38f9bf	0.1806402
6	0xbda746c3	-0.081677936
7	0x3dcd7463	0.10031965
8	0xbe0c7045	-0.13714702
9	0xbe6ecab4	-0.23319513
10	0x3e611ff9	0.21984853
11	0x3dcb73c3	0.09934189
12	0x3d972e00	0.07381821
13	0xbbce8ac6	-0.006303164
14	0xbe466b4e	-0.19376871
15	0xbdae5d5d	-0.085139014
16	0xbda68a39	-0.08131833
17	0x3e049bb1	0.12950017
18	0x3e2b9e9b	0.16759722
19	0xbe95afcf	-0.29235694
20	0x3eaeeaef	0.34163615
21	0xbe067423	-0.1313024
22	0xbe4e6c0b	-0.20158403
23	0x3d3ba007	0.04580691
24	0x3e0b4f62	0.13604501
25	0x3d3b13a4	0.045673028
26	0x3e04a7d8	0.12954652
27	0x3e7e1a86	0.24814805
28	0xbcced21c	-0.025246672
29	0x3e1d319a	0.15350953
30	0x3ddbb96f	0.10728728
31	0x3cc9f6e7	0.024653865
32	0xbe45e3ee	-0.1932523
33	0xbe889a42	-0.2668019
34	0x3e4ddead	0.20104475
35	0xbc42246a	-0.011849502
36	0x3d80dea1	0.06292463
37	0xbda15ccc	-0.07879028
38	0x3eb9283f	0.36163518
39	0xbe1b9747	-0.15194426
40	0x3e698d0a	0.22807708
41	0xbe383da5	-0.17992266
42	0xbe4437b0	-0.19161868
43	0xbe0e3df3	-0.13890819
44	0xbc339b8a	-0.010962376
45	0x3db5094e	0.08839665
46	0xbc3b0508	-0.011414774
47	0x3eb02653	0.3440424
48	0x3db94d82	0.090479866
49	0x3d042ca0	0.03226912
50	0x3dd586bd	0.1042609
51	0x3e72eefb	0.23723976
52	0xbe2f73df	-0.17134045
53	0x3ece375d	0.40276614
54	0xbd4698cf	-0.048485573
55	0x3e498ab9	0.19681825
56	0x3d29d522	0.041463025
57	0x3d811baf	0.06304108
58	0x3d19256e	0.03738921
59	0x3e8940e5	0.26807323
60	0x3ddc60da	0.107606605
61	0xbdbf8544	-0.0935159
62	0xbcf675bf	-0.030085443
63	0x3dea2220	0.1143229
64	0xbd57e27d	-0.05270623
65	0xbe14bf07	-0.14525996
66	0x3e5271aa	0.20551172
67	0xbc3614b4	-0.011113334
68	0x3b8331ec	0.004003754
69	0x3e9afd73	0.3027149
70	0xbe11469a	-0.14187089
71	0xbe88586d	-0.26629964
72	0x3d82cb13	0.063863896
73	0xbf151185	-0.5822986
74	0xbe171a19	-0.14756049
75	0xbd04801b	-0.032348733
76	0xbc97e2f4	-0.018540837
77	0xbc848912	-0.016178641
78	0xbe825c4a	-0.25461036
79	0xbe28428b	-0.16431634
80	0x3ec9d71c	0.39421928
81	0x39f9bde7	0.0004763447
82	0x3cd46e00	0.025931358
83	0x3e99941d	0.29995814
84	0x3e3cc462	0.18434289
85	0x3e11a0a9	0.14221443
86	0x3e10cda8	0.14140952
87	0x3d522621	0.051305894
88	0x3e856156	0.26050824
89	0x3def9bd7	0.11699646
90	0xbe27744e	-0.1635296
91	0x3d422a3f	0.04740357
92	0xbd861fb9	-0.06549019
93	0xbde3f74c	-0.111311525
94	0xbe1f10e9	-0.15533794
95	0xbde16125	-0.11004857
96	0xbcd8ec47	-0.026479853
97	0x3e715122	0.23566106
98	0x3d3fbe8e	0.046812586
99	0x3e079cd6	0.13243422
100	0xbea52ca7	-0.3226063
101	0x3c98978f	0.018626956
102	0xbe8efec0	-0.27928734
103	0xbd7469b0	-0.059671104
104	0xbe2dedbe	-0.16985223
105	0x3e530458	0.20607126
106	0x3dd6ecdd	0.10494397
107	0xbca0c607	-0.019625677
108	0x3e0fc096	0.1403831
109	0x3e3d2d1b	0.18474238
110	0x3d78c47a	0.06073425
111	0x3dd9b9fa	0.10631175
112	0x3e602bff	0.21891783
113	0x3cbc47a7	0.022983385
114	0x3d608e89	0.054823432
115	0xbe015210	-0.1262896
116	0xbe1021d2	-0.14075401
117	0x3dff01e0	0.124515295
118	0x3dc2eaaf	0.095174186
119	0x3e36d46a	0.17854467
120	0x3d89cf1b	0.06728955
121	0x3e2fed6d	0.17180414
122	0x3dd1eef5	0.102506556
123	0xbdd20424	-0.10254696
124	0x3d1f2955	0.038857777
125	0xbc33b353	-0.010968047
126	0x3e4dcdc2	0.20098022
127	0x3e46f746	0.19430265
128	0xbda13141	-0.078707226
129	0xbe1aadf6	-0.15105423
130	0x3e27fe17	0.16405521
131	0xbc2d69d9	-0.010584318
132	0xbe25a33b	-0.16175549
133	0xbe1d5a1e	-0.15366408
134	0xbbb52af0	-0.0055288
135	0xbe9afd28	-0.30271268
136	0x3dd5142a	0.104042366
137	0xbcdac8db	-0.026707103
138	0xbe77f356	-0.24213919
139	0x3dd06a24	0.10176495
140	0x3dffd7c5	0.12492327
141	0xbe06f43c	-0.13179106
142	0x3e46b9c8	0.19406807
143	0x3dbd1c11	0.09233869
144	0x3e291eae	0.1651561
145	0xbdd38223	-0.10327556
146	0xbd831f41	-0.064024456
147	0xbd8e22ed	-0.06940255
148	0xbd64363b	-0.05571578
149	0xba0b5100	-0.0005314499
150	0xbee20dce	-0.44151157
151	0x3e0410b1	0.12896992
152	0xbdcc1cca	-0.099664286
153	0xbcaf4ff3	-0.021400427
154	0xbd6150bc	-0.055008635
155	0xbe632f95	-0.2218612
156	0xbd949ca1	-0.07256437
157	0xbd50aa4e	-0.050943665
158	0xbd8fdff2	-0.07025136
159	0x3d8106f0	0.06300151
160	0x3e1f6c0f	0.15568565
161	0xbe54b750	-0.20773053
162	0xbb966f2e	-0.0045908904
163	0xbe032520	-0.12807131
164	0xbcb738f9	-0.022366034
165	0x3c19f4bb	0.009396727
166	0x3d8c7dda	0.06859942
167	0xbe001020	-0.12506151
168	0x3dd8b3d9	0.10581178
169	0xbf075495	-0.52863437
170	0x3db86573	0.09003725
171	0xbddcc1df	-0.107791655
172	0x3cf74a68	0.030186847
173	0x3caef81c	0.021358542
174	0xbc9e39ab	-0.019314608
175	0x3d0e4eda	0.034743167
176	0xbdd3bfcf	-0.10339319
177	0xbbe5a65f	-0.0070083584
178	0xbeb4bb75	-0.35299268
179	0xbd9a0de3	-0.0752218
180	0x3e0a65e0	0.13515425
181	0xbebc4fbe	-0.36779588
182	0x3d6cd611	0.057821337
183	0x3dac35a4	0.08408669
184	0xbe69d7a3	-0.22836165
185	0xbe6ec71b	-0.2331814
186	0x3e05d1d8	0.1306833
187	0x3e32a023	0.174439
188	0x3ee5cafc	0.44881427
189	0xbe0a0a82	-0.13480571
190	0xbd0bd157	-0.03413519
191	0xbdb8070d	-0.0898572
192	0xbe449aa2	-0.19199613
193	0xbcfe8689	-0.03107001
194	0xbe20b5d5	-0.15694363
195	0xbc97b8ed	-0.018520797
196	0xbc894ca5	-0.01676018
197	0xbe0bb918	-0.13644826
198	0x3e218fcd	0.15777512
199	0x3ae64f23	0.0017571192
200	0x3d9741ec	0.073856205
201	0xbd2131e2	-0.039354213
202	0x3e16d0a3	0.14728026
203	0x3ca2b243	0.019860392
204	0xbe0c5517	-0.13704334
205	0x3d48e2af	0.049044307
206	0x3e2efa25	0.1708761
207	0x3d24905e	0.04017674
208	0xbe7677be	-0.24069116
209	0xbd423066	-0.047409438
210	0x3e9eca16	0.31013554
211	0x3e2a033c	0.16602796
212	0x3d032451	0.032017056
213	0x3e6aa561	0.2291465
214	0x3e373ce9	0.17894329
215	0xbdfee339	-0.12445683
216	0xbeb624c6	-0.3557493
217	0x3d1d4cfa	0.03840349
218	0xbd940b2f	-0.072286956
219	0x3ccba237	0.024857624
220	0x3c3aff18	0.011413358
221	0xbd9e14ec	-0.07718834
222	0x3dbcee81	0.092251785
223	0xbe237d12	-0.1596568
224	0xbcf5539e	-0.029947098
225	0xbc953897	-0.01821546
226	0xbe1a442c	-0.15065068
227	0xbb3945bb	-0.0028270322
228	0xbddb7766	-0.10716133
229	0xbeacd359	-0.33754995
230	0x3c0a2b7b	0.008433218
231	0x3d90c57a	0.07068916
232	0xbd20a83e	-0.03922295
233	0xbd63b440	-0.05559182
234	0xbe234fbf	-0.1594839
235	0xbd4419b6	-0.047876082
236	0xbdc38941	-0.095476635
237	0xbd855d20	-0.06511903
238	0xbdefa4c6	-0.1170135
239	0x3e753d02	0.23949054
240	0x3e82f700	0.2557907
241	0x3ca98abf	0.020696042
242	0x3de86aa4	0.11348465
243	0x3ec6f7cc	0.3886093
244	0x3dead144	0.114656955
245	0xbe468bac	-0.19389218
246	0xbe458434	-0.19288713
247	0xbe6fbb89	-0.23411383
248	0x3db22c2e	0.08699833
249	0xbe42b5d6	-0.19014677
250	0xbd0a7a5e	-0.033808105
251	0xbdb54e9c	-0.08852884
252	0xbed51ab5	-0.41621938
253	0x3e657d8d	0.22411175
254	0x3db513c2	0.08841659
255	0x3e0195d5	0.12654813

network_body._body_endoder.seq_layers.0.bias f4 [128]
0	0x3a001577	0.0004886011
1	0xbaf11602	-0.00183934
2	0xb9f8ac3c	-0.0004743057
3	0xbb78f92f	-0.0037990322
4	0x3b0197c1	0.001977429
5	0xb8a99db6	-8.087924e-05
6	0x3b29eb68	0.0025927667
7	0x39794b09	0.00023774443
8	0xba4535da	-0.0007522978
9	0xbb767053	-0.0037603572
10	0xbb1499df	-0.0022674722
11	0xba94f720	-0.0011365153
12	0x3b47271c	0.0030388301
13	0xba1be5d5	-0.00059470284
14	0x3be6b832	0.0070410008
15	0x395f5ecc	0.00021302252
16	0xbaf8150f	-0.0018927174
17	0xbb1efa43	-0.0024258054
18	0x3b6abac9	0.00358169
19	0x3ae5a013	0.0017519019
20	0xb980dc40	-0.00024578162
21	0x3a022960	0.0004965272
22	0x3a8bad2d	0.0010656469
23	0xbaf8ded6	-0.0018987309
24	0x3a25eb0b	0.00063292746
25	0x3af77803	0.0018880371
26	0x3b6388a6	0.00347189
27	0xb96f8a29	-0.00022844285
28	0x3a9a15c8	0.0011755759
29	0xba4c0943	-0.00077833625
30	0xba5706e4	-0.0008202626
31	0xbb41db77	-0.0029580274
32	0x395fc46f	0.00021340114
33	0xba98d3fe	-0.0011659858
34	0xbb886846	-0.004162821
35	0xbb43329c	-0.0029784804
36	0xbb20ed39	-0.0024555458
37	0xbb83d104	-0.0040227193
38	0xbb21574b	-0.002461868
39	0xbb0a42ee	-0.0021097022
40	0x39aab262	0.00032557832
41	0x3a86a9b1	0.0010273961
42	0xbab082b6	-0.0013466689
43	0xbbad3b03	-0.0052865758
44	0xbb7c8676	-0.0038532293
45	0xba14d8d9	-0.0005678065
46	0x3b33fe66	0.0027464866
47	0x3aa2c0de	0.0012417098
48	0xbb5eb9a0	-0.0033985153
49	0x3ba861e0	0.0051386207
50	0xba41deb9	-0.0007395554
51	0xbba3c0d9	-0.0049973545
52	0x3a56164f	0.00081667764
53	0xba0f7817	-0.0005472912
54	0x3a1c9d36	0.0005974354
55	0x38e6681b	0.00010986646
56	0x3a98e647	0.0011665308
57	0x3a20b8cc	0.00061310525
58	0xbb1bc50f	-0.002376858
59	0xbaf05e93	-0.0018338732
60	0xbad6a962	-0.0016377384
61	0xbbf2310f	-0.007391102
62	0xb9d363dd	-0.0004031946
63	0x3b7d5fd4	0.0038661854
64	0xba38c782	-0.0007048772
65	0x3baa4239	0.0051958826
66	0x3ba595f8	0.005053278
67	0xba270992	-0.00063719705
68	0x3a54e1bf	0.0008120797
69	0x3b3de132	0.0028973338
70	0x3a720230	0.00092318933
71	0x3af5d63a	0.0018755861
72	0xba715bb8	-0.00092070876
73	0xbaa0d276	-0.0012269753
74	0xbb5d3f9d	-0.003375984
75	0xbad57cb5	-0.0016287776
76	0xba5730ed	-0.00082088896
77	0xbb48a48a	-0.003061565
78	0x3ab5fa80	0.0013883859
79	0x3aacb06b	0.0013175135
80	0xbabd6bb5	-0.0014451655
81	0x3b70ad44	0.0036724368
82	0xba806ea8	-0.0009798603
83	0x3b9af218	0.004728567
84	0x3998d294	0.00029148592
85	0x3afdb45c	0.001935612
86	0x3b32bc37	0.002727283
87	0x3aebbd84	0.0017985557
88	0xbb7688ae	-0.0037618089
89	0xbb9abdcf	-0.004722334
90	0xbb06ff51	-0.0020598958
91	0xb9985e86	-0.00029062125
92	0x3b09e248	0.0021039415
93	0xbc19ed97	-0.009395025
94	0xbac0d4a9	-0.0014711815
95	0x3ad5bdf9	0.0016307227
96	0xbb813e46	-0.003944191
97	0xbacfeb58	-0.0015862985
98	0xb91b9c75	-0.00014840237
99	0xba85cc1f	-0.0010207928
100	0x3a900089	0.0010986488
101	0xbb097b41	-0.0020978006
102	0x39f1fd86	0.00046155992
103	0x371f206d	9.484688e-06
104	0xbb9b1eba	-0.0047338875
105	0xbb06aa37	-0.0020548233
106	0xb97e4732	-0.0002424985
107	0x3b79f0f2	0.0038138
108	0x3a505171	0.0007946706
109	0x3abeb9fd	0.0014551278
110	0xbb9865a6	-0.0046507893
111	0x3ac226f6	0.0014812637
112	0xbb83af16	-0.0040186746
113	0x3ac09375	0.0014692383
114	0xba24f0d1	-0.0006291988
115	0xbbad43fc	-0.0052876454
116	0x3b0fb9c7	0.00219308
117	0xbb5f715b	-0.0034094665
118	0xbad65433	-0.0016351998
119	0xba24ad3a	-0.0006281916
120	0x3b8e9d96	0.004352282
121	0xb9c85969	-0.00038213588
122	0xbb89b428	-0.0042023845
123	0xbb66a354	-0.0035192566
124	0xbabfe10b	-0.0014639212
125	0xba77d686	-0.0009454269
126	0xbaf6f5a8	-0.0018841522
127	0x394e05dd	0.00019647875

network_body._body_endoder.seq_layers.2.weight f4 [128, 128]
0	0xbc1879f9	-0.009306424
1	0xbe4362fc	-0.19080728
2	0xbd588a51	-0.052866284
3	0x3d8e71de	0.06955312
4	0xbd4e70fd	-0.050400723
5	0x3dec0b90	0.11525643
6	0x39377851	0.00017497061
7	0xbd085f38	-0.033293933
8	0xbca309f5	-0.019902209
9	0xbccfa6d0	-0.025348097
10	0x3d451516	0.048115812
11	0x3da0d8a4	0.07853821
12	0xbdc3e819	-0.095657535
13	0x3d6c0da8	0.05763021
14	0x3bc181f5	0.0059053847
15	0xbc5032c3	-0.012707415
16	0xbcf7ae0e	-0.030234363
17	0x3dc09b8f	0.094046704
18	0x3e2efa7a	0.17087737
19	0xbdbafea9	-0.09130604
20	0x3d834556	0.06409709
21	0x3d239a4b	0.039942067
22	0xbde1700e	-0.11007701
23	0x3dafa9b9	0.08577294
24	0xbe3f3037	-0.18670736
25	0xbb58f401	-0.0033104422
26	0xbd59c002	-0.05316163
27	0xbd037fdf	-0.03210437
28	0xbd0e5931	-0.03475303
29	0x3d29c767	0.04144993
30	0x3d9abc27	0.075554185
31	0xbce5d375	-0.028054932
32	0x3dcbe14a	0.0995508
33	0x3e75f1c9	0.24018015
34	0x3ce50cee	0.027960267
35	0xbbc67d74	-0.0060574356
36	0x3c30fca5	0.010802423
37	0xbe6cdde8	-0.23131526
38	0x3e36e1f4	0.17859632
39	0x3e049c5b	0.1295027
40	0xbd610f46	-0.054946207
41	0x3df48162	0.1193874
42	0xbcb03537	-0.02150975
43	0xbe71c0d8	-0.2360872
44	0xbe0876c8	-0.13326561
45	0xbdb0e807	-0.08638006
46	0x3bdca207	0.0067331824
47	0xbb006b65	-0.0019595262
48	0xbda31dd4	-0.07964674
49	0xbdb4b046	-0.08822684
50	0x3dad2f1c	0.08456251
51	0xbe23ae13	-0.15984373
52	0xbd94c41b	-0.07263967
53	0xbe5f5752	-0.21810654
54	0x3da81e08	0.08208853
55	0xbe2751ed	-0.16339846
56	0x3d478fc3	0.048721086
57	0x3d855d6c	0.065119594
58	0xbce34354	-0.027742065
59	0xbe470c4c	-0.19438285
60	0x3dbb2e69	0.091397114
61	0xbcb395c7	-0.021922005
62	0xbd8b4604	-0.06800464
63	0xbdd6968f	-0.104779355
64	0xbdbde596	-0.09272306
65	0xbdaa1577	-0.08304875
66	0xbd97ec7c	-0.07418153
67	0xbdbf8f01	-0.09353448
68	0xbdc00bd5	-0.09377257
69	0x3c929a32	0.017895792
70	0x3d0556e0	0.032553554
71	0x3d28943a	0.041156985
72	0x3d8ce828	0.06880218
73	0xbceb7888	-0.028743997
74	0x3dda3a6c	0.10655674
75	0x3d8203c2	0.06348373
76	0xbe3ab6c6	-0.18233785
77	0x3de4d238	0.111729085
78	0xbd31af1a	-0.04337988
79	0x3d9f413d	0.07776115
80	0xbc6705fe	-0.01410055
81	0x3e0f5bf0	0.13999915
82	0x3d73e66d	0.059545923
83	0xbd92bf74	-0.07165423
84	0x3d98db57	0.07463711
85	0xbc8ffd2d	-0.017576778
86	0x3da56366	0.08075599
87	0x3dd67ef8	0.10473436
88	0x3c234bd1	0.0099668065
89	0x3c71370c	0.014722597
90	0x3d22cc6b	0.03974573
91	0xbb892e0e	-0.0041863983
92	0xbe0be6ec	-0.13662308
93	0xbe13cc85	-0.14433487
94	0x3a980cde	0.0011600514
95	0xbdc27199	-0.09494323
96	0x3d3ed3fe	0.04658889
97	0xbdf05baf	-0.11736237
98	0xbd6467fc	-0.05576323
99	0xbca7779f	-0.020442782
100	0x3d3569c4	0.04429032
101	0xbccb789e	-0.024837788
102	0x3e326284	0.17420393
103	0xbd1cb318	-0.038256735
104	0x3c4a19e6	0.012335276
105	0xbcd52e84	-0.026023157
106	0x3e00f462	0.12593225
107	0xbc3a81b2	-0.011383461
108	0x3d5ac237	0.053407874
109	0xbe64ecbf	-0.22355936
110	0x3ce1c00a	0.027557392
111	0x3e4a1334	0.19733888
112	0x3c4988c9	0.0123006785
113	0xbd255530	-0.040364444
114	0xbe1652f2	-0.14680079
115	0x3d35da4f	0.04439765
116	0x3e0176da	0.12642995
117	0x3dd09437	0.1018452
118	0x3d641e4a	0.05569295
119	0xbdd25a48	-0.10271126
120	0x3d2477c9	0.0401533
121	0x3df7133d	0.12064216
122	0x3dd9073d	0.10597084
123	0x3e5c0850	0.21487546
124	0xbde671ed	-0.11252198
125	0xbd1b86aa	-0.037970223
126	0xbd8909de	-0.06691335
127	0x3c4e06b9	0.012574845
128	0xbe461c9e	-0.19346854
129	0xbd347948	-0.044060975
130	0xbd2c5d5b	-0.04208122
131	0x3a8912e9	0.0010457906
132	0x3ccc8319	0.024964856
133	0x3b220f3f	0.0024728326
134	0x3d984265	0.07434539
135	0x3ab62e06	0.0013899214
136	0x3dea25a4	0.11432961
137	0xbc8e7b2f	-0.017392723
138	0xbb36e69e	-0.0027908455
139	0xbddbecb7	-0.10738509
140	0xbc717d93	-0.014739412
141	0x3da93d00	0.08263588
142	0xbddc48c3	-0.10756066
143	0xbda63356	-0.0811526
144	0xbe1916b6	-0.1495007
145	0x3d0c3a7d	0.034235466
146	0xbe13490b	-0.14383332
147	0x3da4be14	0.08044067
148	0xbd0e760f	-0.03478056
149	0x3ca7c1a3	0.020478075
150	0xbd948d22	-0.072534814
151	0x3d45f179	0.04832599
152	0xbdcdf29f	-0.10056042
153	0x3c6a6641	0.014306606
154	0xbd1f659a	-0.038915254
155	0xbe5af9c3	-0.21384339
156	0xbd93aee8	-0.07211095
157	0xbd6808dc	-0.056649074
158	0xbd46f27c	-0.048571095
159	0xbcb69fb9	-0.022292959
160	0x3c1fd42c	0.009755176
161	0x3d68eb40	0.056864977
162	0xbe6b9120	-0.2300458
163	0xbe47a6a3	-0.1949716
164	0x3e3d5b17	0.1849178
165	0xbd8cf421	-0.068825014
166	0x3c826583	0.015917545
167	0x3c10658b	0.008813272
168	0xbd3cfa2b	-0.046137016
169	0xbd94c8b6	-0.07264845
170	0xbd24b8d9	-0.040215347
171	0xbc07c517	-0.008286736
172	0x3c7d3013	0.015453356
173	0xbd53c616	-0.05170258
174	0x3dcea5ed	0.100902416
175	0x3d590fbe	0.05299353
176	0x3e0512ce	0.12995455
177	0x3d8bbd8f	0.06823265
178	0xbdfd6e9b	-0.12374612
179	0xbdc91fd0	-0.09820521
180	0x3ccb6fef	0.024833648
181	0xbe0875fa	-0.13326254
182	0xbe0e3f60	-0.13891363
183	0xbc71ca71	-0.014757738
184	0x3d5a8046	0.053344987
185	0x3d51d937	0.051232543
186	0x3d05574d	0.03255396
187	0x3d8ca34c	0.06867084
188	0x3dc74d14	0.09731498
189	0xbd6a5edc	-0.05721937
190	0xbd8fae9a	-0.070157245
191	0xbb43d9c8	-0.0029884446
192	0xbe068b65	-0.13139112
193	0xbd49fc62	-0.049312957
194	0x3d28aaf5	0.041178662
195	0x3ad7e542	0.0016471522
196	0xbd69e2b9	-0.057100985
197	0xbe534b74	-0.20634252
198	0xbb9ff4f7	-0.004881497
199	0xbd4d786a	-0.050163664
200	0xbc6cd72c	-0.014455598
201	0xbdfe12b9	-0.12405915
202	0xbc344350	-0.011002377
203	0x3d176ff8	0.036972016
204	0xbd2072eb	-0.039172094
205	0x3de99cc3	0.11406853
206	0xbdb46171	-0.08807648
207	0xbc34153b	-0.01099139
208	0x3dde1813	0.108444355
209	0xbd85b5f4	-0.065288454
210	0xbd64a8c2	-0.055825002
211	0xbc57f121	-0.013180048
212	0x3ce6f007	0.028190626
213	0x3d617a15	0.055048067
214	0x3c0867ef	0.008325561
215	0xbd824401	-0.06360627
216	0xbe2c5e02	-0.16832736
217	0x3e1fb64a	0.15596882
218	0xbd868a1c	-0.06569311
219	0xbdc1225c	-0.09430382
220	0xbd171b11	-0.036891047
221	0x3c48a0c4	0.012245361
222	0xbdb93ce5	-0.09044818
223	0xbd8195ec	-0.063274235
224	0xbdb718e7	-0.089402966
225	0xbe471d14	-0.19444686
226	0xbca20ff3	-0.019782996
227	0x3de0f3c8	0.109839976
228	0xbdd66991	-0.10469354
229	0x3e13b0b3	0.14422874
230	0x3d34099d	0.04395448
231	0x3d95b68c	0.07310209
232	0xbd1188a8	-0.035530716
233	0x3d8c3ef5	0.068479456
234	0x3e51fe56	0.20507178
235	0xbc3d46ea	-0.011552552
236	0xbcf35243	-0.029702311
237	0xbdac99b1	-0.08427752
238	0x3e1097e7	0.14120446
239	0x3da9612f	0.082704894
240	0xbd3ebe86	-0.046568416
241	0x3d9d6228	0.076847374
242	0x3daad5af	0.08341538
243	0xbdc14b31	-0.0943817
244	0xbda46287	-0.08026605
245	0xbe1179b3	-0.14206581
246	0x3e3a2039	0.18176354
247	0xbaa17273	-0.0012317434
248	0x3db804ba	0.089852765
249	0x3d84b317	0.06479471
250	0xbc8e78ac	-0.017391525
251	0x3c4fbc1a	0.012679124
252	0xbd808e83	-0.06277182
253	0x3beb319c	0.0071775448
254	0x3bf79b11	0.007556327
255	0x3d3be17a	0.045869328

network_body._body_endoder.seq_layers.2.bias f4 [128]
0	0x3b6cf857	0.0036158764
1	0xbb98b8a7	-0.004660684
2	0xbab95447	-0.0014139496
3	0x3a67a5c5	0.0008836652
4	0xbbb55f95	-0.005535076
5	0xbaf8d88e	-0.0018985437
6	0xba8d6e61	-0.0010790342
7	0xbac01868	-0.0014655711
8	0xbb895687	-0.004191223
9	0x3a4c8971	0.0007802463
10	0xba6a2d73	-0.0008933164
11	0xb91e887c	-0.00015118899
12	0xbb340298	-0.0027467366
13	0xb9d708c3	-0.00041014524
14	0xbae8423f	-0.0017719938
15	0x3a0fceed	0.00054858514
16	0xba8e0d6e	-0.0010837743
17	0xbb1b5f72	-0.0023708013
18	0x3ac54a0d	0.0015051976
19	0x3b8a4adb	0.0042203492
20	0xbb75636e	-0.0037443298
21	0xbac95dfe	-0.0015363095
22	0xbb3b1b9c	-0.0028550392
23	0x3be6cbcf	0.007043339
24	0xb94bf47d	-0.00019450668
25	0xbb29ed5e	-0.0025928835
26	0x395558b3	0.00020346306
27	0xbb44e52b	-0.0030043821
28	0x37b44dc7	2.149389e-05
29	0x3a742220	0.00093129463
30	0x3b85cc71	0.004083209
31	0xbb5079be	-0.0031810845
32	0xb9cfa679	-0.00039606148
33	0x3a3d9a87	0.0007232804
34	0xbb0ee59b	-0.0021804336
35	0x3b32fd74	0.0027311714
36	0xbb22f44c	-0.002486485
37	0xba6cd656	-0.0009034624
38	0xba26d602	-0.0006364287
39	0xba824c33	-0.0009940922
40	0x3bd7d153	0.0065862327
41	0x3a9aedc3	0.0011820126
42	0xbb1f8b00	-0.0024344325
43	0x3ab9c953	0.0014174379
44	0xb9943112	-0.0002826532
45	0xba0796ba	-0.00051723013
46	0xb9c9acf1	-0.0003846656
47	0xb9a3f16e	-0.00031269662
48	0x3a44b415	0.0007503641
49	0x3ac93c08	0.0015352974
50	0x383158c4	4.2282758e-05
51	0x3b220f88	0.0024728496
52	0xbaaa2445	-0.001298078
53	0xba94b1c1	-0.0011344479
54	0xb96731a3	-0.00022048368
55	0xbb5c0116	-0.0033569983
56	0xb9aa91c5	-0.00032533534
57	0xb98cee8d	-0.00026880615
58	0xbaf76454	-0.0018874505
59	0xba423e5f	-0.0007409807
60	0xba147b86	-0.00056641584
61	0xba468deb	-0.0007574248
62	0x3b3a01f5	0.0028382514
63	0x39597a56	0.00020740306
64	0xbac95021	-0.0015358963
65	0xba2b517d	-0.0006535275
66	0xba567a82	-0.0008181707
67	0xbb05c3a0	-0.002041079
68	0xba4640b9	-0.0007562745
69	0x3bc23a65	0.0059273713
70	0x3b58ab74	0.0033061178
71	0xba3f5213	-0.0007298302
72	0xbb2dd2af	-0.0026523282
73	0xbb831c45	-0.0040011727
74	0x3a53d6e3	0.0008081032
75	0x3b00e62e	0.0019668448
76	0x3c072e52	0.00825079
77	0xba4422bc	-0.00074819825
78	0xbb36ec8f	-0.0027911996
79	0xbb2109db	-0.0024572525
80	0xbb864474	-0.0040975157
81	0xbb9883ef	-0.0046543996
82	0xba17778f	-0.00057780085
83	0xba8d9810	-0.0010802764
84	0xbb11267d	-0.0022148185
85	0xbb16c2f7	-0.0023004392
86	0xbaf6b1bc	-0.001882128
87	0x3bda1fdd	0.0066566304
88	0xbb5e5b1c	-0.0033928817
89	0x3ba556b2	0.0050457353
90	0x379f2edd	1.89761e-05
91	0xb9cfa2db	-0.00039603453
92	0xba5a9c73	-0.0008339353
93	0xbb46d810	-0.0030341186
94	0x39861f4b	0.00025581787
95	0xba857d2d	-0.00101844
96	0xbb2d9e8d	-0.0026492209
97	0x39e064f4	0.00042799825
98	0x3a07431c	0.00051598414
99	0xb981cd32	-0.0002475768
100	0xba351cc9	-0.00069088914
101	0xb99a6459	-0.00029447934
102	0xba13af1d	-0.0005633699
103	0xba1c3620	-0.0005958993
104	0x3ba0ac93	0.004903385
105	0xb9bbb4ca	-0.00035802118
106	0xb995e90e	-0.00028593134
107	0xb99161ba	-0.00027729367
108	0xbb32e371	-0.002729621
109	0x39ad7af0	0.00033088727
110	0x3abd2284	0.0014429842
111	0x3b39fcd3	0.0028379455
112	0xba0a4509	-0.0005274569
113	0xbb4c7753	-0.0031199052
114	0x398a9b62	0.0002643718
115	0xba0733eb	-0.00051575777
116	0x3a21e1bc	0.00061752996
117	0x3bcf08ad	0.006318173
118	0x3a9f1a3f	0.0012138559
119	0x3af1fa51	0.0018461441
120	0xbb15dde4	-0.0022867853
121	0xba466505	-0.00075681537
122	0xbb940bb5	-0.004517997
123	0xbacdc70d	-0.001569958
124	0xba11a7aa	-0.0005556295
125	0xbaa23136	-0.0012374285
126	0x3abda8fd	0.0014469918
127	0xba86c054	-0.0010280707

action_model._continuous_distribution.log_sigma f4 [1, 2]
0	0x3bd34dbf	0.006448477
1	0x3b1ac9dd	0.0023618855

action_model._continuous_distribution.mu.weight f4 [2, 128]
0	0xbc858bc9	-0.016302006
1	0xbb3e479c	-0.0029034382
2	0xbc20c156	-0.00981172
3	0x3ac91738	0.0015342003
4	0x3ca34d25	0.019934246
5	0x3b4aa91d	0.0030923553
6	0xbc3fa483	-0.0116969375
7	0xbbd9bcba	-0.0066448124
8	0x3bc2bb75	0.005942757
9	0xbadbb0bc	-0.0016761045
10	0x3d2336cb	0.039847177
11	0xbc5a622f	-0.013329073
12	0xba07ba40	-0.0005177595
13	0xbc08d3ec	-0.008351307
14	0x3c2b512e	0.010456366
15	0xbcf521a0	-0.02992326
16	0x3b915821	0.0044355546
17	0x3c13cc95	0.009020944
18	0x3c653998	0.013990782
19	0x3c13cfad	0.009021682
20	0xbb73c14d	-0.0037194074
21	0x3c149a52	0.009069996
22	0x3c0658c4	0.008199874
23	0xbc4a83c5	-0.012360518
24	0xbc8c4317	-0.017121835
25	0xbc2c8cef	-0.010531648
26	0x3c07fb5f	0.008299678
27	0xbd11b35a	-0.035571434
28	0xbb86f42d	-0.0041184635
29	0xbc9873c3	-0.018609887
30	0xbc658341	-0.014008344
31	0x3c2077df	0.0097942045
32	0xbc82cc55	-0.015966574
33	0xbc9f240a	-0.019426364
34	0xbb109bcf	-0.0022065525
35	0x3bb9e24e	0.0056727296
36	0xbbfbbe99	-0.007682633
37	0x3cde9b47	0.027173651
38	0xbcae22ec	-0.021256886
39	0x3d121292	0.03566224
40	0xbcaa7e40	-0.020812154
41	0x3be95fc0	0.00712201
42	0x3c8d12a3	0.0172208
43	0xbc5f9e65	-0.013648604
44	0x3c887f4b	0.01666226
45	0xbc802a6d	-0.01564523
46	0x3c7271af	0.014797612
47	0xbd2f9ce7	-0.042874243
48	0xbbea5381	-0.0071510677
49	0x3bf6a5c5	0.0075270855
50	0x3d056c84	0.03257419
51	0x3b7a1db3	0.0038164675
52	0x3ca89d83	0.02058292
53	0x3c8a2fa8	0.016868427
54	0x3c149b51	0.009070233
55	0x3c096e1a	0.008388067
56	0x3b959ed0	0.004566051
57	0x3b8947e1	0.004189477
58	0x3bca0a14	0.006165752
59	0xbc3e84b3	-0.011628318
60	0xbd263c0c	-0.04058461
61	0xbc84cb45	-0.016210208
62	0xba077871	-0.00051677885
63	0xbbdbcbaa	-0.0067076283
64	0x3c1ecbac	0.009692114
65	0x3c6f4d43	0.014605823
66	0x3c4a7ef4	0.01235937
67	0x3ca35914	0.019939937
68	0x3cbe24d6	0.023210924
69	0x3bdf6eda	0.0068186345
70	0xbbe2bc9f	-0.006919458
71	0x3ca24a26	0.019810747
72	0xbc6a51c6	-0.014301723
73	0xbbc0ebd9	-0.00588749
74	0x3c959e03	0.018263822
75	0x3cb133d5	0.02163116
76	0x3bb0ae03	0.0053918376
77	0xbc725ee8	-0.014793135
78	0xba806ec3	-0.0009798635
79	0x3d1ce9ae	0.03830879
80	0x3bcdc94a	0.006280099
81	0x3c176450	0.009240225
82	0xbaabb94e	-0.001310149
83	0xbc4ae0f2	-0.012382733
84	0x3be05185	0.0068456554
85	0xbbab2f98	-0.0052241795
86	0x3c00829f	0.0078436425
87	0x3d5f48b8	0.05451271
88	0xbcbb7284	-0.022881754
89	0x3cef8c36	0.029241662
90	0xbd26f5fd	-0.040761936
91	0xba942893	-0.0011303596
92	0xbbf17c3f	-0.0073695476
93	0x3c5604cb	0.013062666
94	0x3c960beb	0.01831623
95	0xbca88ed6	-0.020575922
96	0x3ae17c19	0.0017203122
97	0xbc278093	-0.010223526
98	0x3ba2a823	0.004963891
99	0xbd06d2bf	-0.032915827
100	0x3bb2eb67	0.005460191
101	0xbcc1c5d6	-0.023653906
102	0x3be58db9	0.00700542
103	0xbc2a4d9f	-0.010394483
104	0x3c904bd1	0.017614277
105	0x3ceed0e1	0.029152336
106	0x3bea673d	0.0071534202
107	0x3c876664	0.016528316
108	0x3c811cd9	0.015760826
109	0xbb856753	-0.004071155
110	0x3c760740	0.015016377
111	0x3cb1aa21	0.02168757
112	0x3cded700	0.02720213
113	0x3cea82c8	0.028626814
114	0xbcf29f4b	-0.029616972
115	0x3be5f85d	0.0070181326
116	0xbbe2ef2e	-0.006925485
117	0x3ccfee5c	0.025382213
118	0xbc0ac789	-0.008470424
119	0x3c2e669a	0.010644579
120	0xbc1ff5b9	-0.009763175
121	0x3ce1f7b8	0.027583942
122	0x3a8512bd	0.0010152679
123	0xbc480974	-0.012209285
124	0xbc612381	-0.013741375
125	0x3d29ae98	0.04142627
126	0xbad89fb1	-0.0016527084
127	0xbbd42ec1	-0.0064753
128	0xbc66ebef	-0.014094337
129	0xbb4ca7fe	-0.003122806
130	0x3a886dd1	0.0010408704
131	0xbd278212	-0.04089553
132	0xbc278f43	-0.010227027
133	0xbba0a376	-0.0049022986
134	0xbc27ed03	-0.010249379
135	0x3c7a7b08	0.015288122
136	0x3d005792	0.031333514
137	0xbbc33a4f	-0.0059578787
138	0x3981b680	0.0002474077
139	0xbca50a13	-0.020146405
140	0xbb5f3626	-0.0034059375
141	0xbafbcc76	-0.0019210714
142	0x3c5210a9	0.012821355
143	0x3c1f5543	0.009724918
144	0xbc1885f9	-0.009309285
145	0x3d09df87	0.033660438
146	0x3caecef6	0.021338921
147	0xbbd27e31	-0.0064237346
148	0xbb9fb8ee	-0.0048743403
149	0xbb8ddace	-0.004329062
150	0xbd4ce685	-0.050024528
151	0x3cb387dc	0.021915369
152	0xbb624760	-0.0034527406
153	0xbc50a6b0	-0.012735054
154	0x3c53e263	0.012932393
155	0x3a37508a	0.0006992897
156	0x3b674d5a	0.0035293908
157	0xbbbf0c8c	-0.005830353
158	0xbb43934e	-0.002984244
159	0xbc292f1e	-0.010326175
160	0x3cd51a22	0.026013438
161	0xbbb1f4f3	-0.0054308116
162	0xbd28512a	-0.04109303
163	0xbbf12620	-0.007359281
164	0xbc7402e1	-0.0148932645
165	0x386db7ec	5.6676494e-05
166	0x3c8edcb4	0.017439224
167	0x3c2da55e	0.010598509
168	0xbce5d91f	-0.028057633
169	0x3c9c19b4	0.019055225
170	0xbabf8c0b	-0.001461388
171	0xbd27071a	-0.040778257
172	0x3bc7d50a	0.0060983943
173	0xbcad44e7	-0.02115102
174	0x3c224a24	0.009905372
175	0x3c89a533	0.016802406
176	0x3abe8f41	0.0014538543
177	0xbc0b7372	-0.008511411
178	0xbc53828d	-0.012909544
179	0x3c376f8e	0.01119603
180	0xbc09390a	-0.008375416
181	0x3c916c6f	0.0177519
182	0x3c9b5e50	0.01896587
183	0x3b9e80e8	0.004837144
184	0x3c1919fe	0.009344576
185	0x3c8eda88	0.017438188
186	0xbc3d6643	-0.011560026
187	0xbd1d9d36	-0.038480006
188	0x3c2bedac	0.010493677
189	0x3c119057	0.008884511
190	0xbd4d444b	-0.050113957
191	0x3cfcb11c	0.030846171
192	0x3bf86b81	0.007581175
193	0x3b09c01c	0.0021019047
194	0xbbb7627d	-0.0055964575
195	0x3baf0836	0.005341555
196	0x3bf34c63	0.0074248775
197	0xbcabe96c	-0.020985328
198	0xbc58de10	-0.013236538
199	0x3bf04124	0.007331984
200	0xbcc6b171	-0.024254533
201	0xb9bea733	-0.00036364197
202	0x3ba28abd	0.0049603865
203	0x3c2eed51	0.010676698
204	0x3cc7a155	0.024368921
205	0x3b30b4f3	0.0026963323
206	0xbbabcf40	-0.005243212
207	0x3b219c39	0.0024659766
208	0x3b196bee	0.0023410278
209	0xbb0060fc	-0.0019589057
210	0x3c0920c9	0.008369633
211	0xbd0cd794	-0.03438528
212	0xbbe8cb1b	-0.00710429
213	0x3acf39e6	0.0015810102
214	0xbcc066df	-0.023486553
215	0xbd0bb605	-0.034109134
216	0x3cc30f01	0.023810865
217	0xbd1af3cc	-0.03783016
218	0xbc43312b	-0.011913578
219	0xbce9d27a	-0.028542746
220	0xbce775f7	-0.028254492
221	0xbbdc53a8	-0.00672384
222	0x3c4ba1a7	0.012428678
223	0xbb22b98f	-0.002482984
224	0xbb80ff12	-0.0039366568
225	0xbb661544	-0.003510789
226	0x3ce8f6e5	0.028438041
227	0x3c2e2e99	0.010631227
228	0xbca4dffb	-0.020126333
229	0x3cbef250	0.023308903
230	0x3cd675b2	0.026179168
231	0xbd06bd74	-0.03289552
232	0xbb80ec90	-0.0039344504
233	0x3b92db37	0.004481699
234	0x3c61c522	0.01377991
235	0x3c9e37f6	0.019313794
236	0xbb057e5f	-0.0020369512
237	0xbbdf5da9	-0.006816585
238	0xbcbbcdba	-0.022925247
239	0x3a9e1616	0.0012061025
240	0x3ce41692	0.027842794
241	0x3c2c2de2	0.010508986
242	0x3c03477a	0.008012647
243	0xbca0e8b2	-0.019642208
244	0xbc59d78b	-0.013296018
245	0xbbf910f1	-0.0076008965
246	0x3c96a71d	0.018390233
247	0xbca6171f	-0.020274697
248	0x3c4c5377	0.012471071
249	0xbc521392	-0.012822049
250	0xbba867f9	-0.0051393476
251	0xbc416879	-0.011804693
252	0xba5dfedd	-0.00084684585
253	0x3b20879f	0.00244949
254	0x3d22d963	0.039758097
255	0xbc7b16b6	-0.015325239

action_model._continuous_distribution.mu.bias f4 [2]
0	0xba2559a0	-0.00063076057
1	0x3a03c022	0.00050258834

action_model._discrete_distribution.branches.0.weight f4 [5, 128]
0	0x3bb153ff	0.0054116244
1	0xbb39cff6	-0.0028352714
2	0x3b5850ee	0.0033007222
3	0xb9441421	-0.00018699515
4	0x3a57bb47	0.00082295056
5	0xbc36ba86	-0.011152869
6	0xbb707bb8	-0.0036694836
7	0x3b9c3957	0.0047675776
8	0xbb84f76d	-0.0040578158
9	0x3c0c9663	0.008580777
10	0xbbbb2619	-0.0057113287
11	0xbbbb5bbb	-0.0057177222
12	0xbc83f97d	-0.016110176
13	0xbb8235a3	-0.003973679
14	0xbc7bf0a7	-0.0153772
15	0x3b6aaed2	0.0035809767
16	0x39c1a1be	0.00036932336
17	0x3bc0f362	0.0058883885
18	0xb99601f5	-0.00028611688
19	0xbc8f8fe0	-0.01752466
20	0x3b587d5a	0.00330337
21	0xbbc113a2	-0.005892233
22	0x3ae0fe8d	0.0017165706
23	0xbbc0f30f	-0.00588835
24	0x3bfb9561	0.0076777195
25	0xbb9f865d	-0.0048683123
26	0xbc205828	-0.009786643
27	0x3af400e8	0.0018615993
28	0x3bbfb258	0.0058501177
29	0xbaeba0b2	-0.0017976968
30	0xbbe0f537	-0.0068651694
31	0xbc05aacf	-0.0081584
32	0x3c440940	0.011965096
33	0x3c12a7b1	0.008951114
34	0xbc4748cd	-0.012163353
35	0xbc5baf2d	-0.013408464
36	0x3c4dad3e	0.012553511
37	0x3b4c8adb	0.0031210694
38	0x3c054f2e	0.008136554
39	0xbbb418c0	-0.0054961145
40	0xbc053cfa	-0.008132214
41	0x3b3e5ea6	0.0029048114
42	0x3c937eb6	0.018004756
43	0xbbdae81d	-0.006680502
44	0x3bfc9a5e	0.0077088317
45	0xbbfe58be	-0.0077620437
46	0xbc906f14	-0.017631091
47	0x3ca89f04	0.020583637
48	0xbb0dcd41	-0.0021637233
49	0xbc045eeb	-0.008079271
50	0xbabb4f55	-0.001429061
51	0xbb529d41	-0.0032137188
52	0xbbf434c8	-0.007452581
53	0xbc48b0e9	-0.01224921
54	0xbb14ebb4	-0.0022723498
55	0xbb4a741a	-0.0030891956
56	0xbac01158	-0.0014653606
57	0xbcdc1503	-0.026865488
58	0x3bfa3efa	0.007636902
59	0xbb110417	-0.0022127682
60	0xbb991e1f	-0.00467278
61	0x3c14869c	0.0090652965
62	0xbae3ed8c	-0.001738952
63	0xb8c42b8d	-9.35412e-05
64	0x3b8e5b45	0.0043443763
65	0x3a426519	0.00074155774
66	0x3c0ef5fc	0.008725639
67	0x3a031a6e	0.0005001192
68	0x3aac2714	0.0013134205
69	0xbb7c0d02	-0.0038459902
70	0xbcec1898	-0.028820321
71	0xbca0223c	-0.019547574
72	0x3b1d47af	0.0023999026
73	0x3b8f85af	0.00437995
74	0x3c90d06f	0.017677514
75	0x3c98a18f	0.018631725
76	0x3cace7ea	0.021106679
77	0xbb4f047b	-0.0031588364
78	0xba982dc8	-0.0011610324
79	0xbb6531ec	-0.0034972383
80	0xbc6f8767	-0.014619685
81	0x3b8d5c9d	0.004314019
82	0xbc14ef1a	-0.009090209
83	0xbc1fa35a	-0.009743536
84	0x3bcaa34b	0.006184017
85	0xbb160747	-0.0022892521
86	0x3b726a07	0.0036989467
87	0x3cabb602	0.020960812
88	0x3c114ac6	0.008867925
89	0xbbe8be7b	-0.007102785
90	0xbc81ec41	-0.015859725
91	0xbbb3e6f0	-0.0054901764
92	0xbb8447ec	-0.004036894
93	0x3c688e49	0.01419408
94	0xbb58eccb	-0.0033100124
95	0x3c282ba9	0.010264316
96	0xbbc05b6a	-0.0058702724
97	0xbb9010c4	-0.00439653
98	0xbc34de10	-0.011039272
99	0xb9d756d1	-0.0004107268
100	0xbc11e94b	-0.008905719
101	0xbcc34b2e	-0.02383956
102	0x3b5a37d2	0.0033297432
103	0xbc30ac26	-0.010783231
104	0xbc4f9e5e	-0.012672035
105	0x3c0a79f7	0.00845193
106	0xbc2cafae	-0.010539932
107	0x3b335860	0.0027365908
108	0xbc298690	-0.010347024
109	0x3adb31a8	0.0016723173
110	0xbbfca4a2	-0.0077100554
111	0xbb61c6c2	-0.0034450744
112	0x3b87d9fd	0.0041458593
113	0xbc72a0b3	-0.0148088215
114	0xbb046ac1	-0.0020205232
115	0xbbceac3a	-0.006307152
116	0xbc291989	-0.010321029
117	0xbb019bce	-0.0019776705
118	0x3bae9a88	0.00532848
119	0x3ca4b661	0.020106496
120	0xbc05b6e0	-0.008161277
121	0x3b53a8df	0.00322967
122	0x3c41180c	0.011785518
123	0x3bee5f6c	0.007274559
124	0xbc56b81c	-0.0131054185
125	0xbb618447	-0.0034411119
126	0xbb3a3923	-0.0028415404
127	0xbc5cfcbf	-0.013487994
128	0xbb710ee8	-0.0036782566
129	0x3b4bc6ab	0.0031093757
130	0x3b2f35ca	0.0026734942
131	0x3b81c208	0.003959898
132	0xbb3f450c	-0.0029185442
133	0x3c1f34f9	0.0097172195
134	0x3b94c940	0.0045405924
135	0xbc013c0c	-0.007887851
136	0x3bbc4e91	0.0057466705
137	0xbc8ba743	-0.01704753
138	0xbcc67191	-0.024224075
139	0x3b12ab19	0.0022379814
140	0xbc68ff02	-0.014220955
141	0x3a9ae2c1	0.0011816846
142	0x3b3a2400	0.0028402805
143	0xbb838ebc	-0.004014818
144	0xbc0b7881	-0.008512617
145	0x3c452224	0.012032066
146	0xbb1c3c87	-0.0023839788
147	0xbc8706c3	-0.016482716
148	0x3ae191a8	0.0017209547
149	0xbb782b3c	-0.0037867567
150	0x3a3c40f5	0.000718131
151	0x39bbfb89	0.00035854828
152	0x3ba1659a	0.004925442
153	0x3b38be91	0.0028189758
154	0xbc397b5e	-0.011320917
155	0xbbcb84af	-0.0062108855
156	0x3c67d3e4	0.01414964
157	0x3b81052f	0.0039373855
158	0xbc609fc7	-0.013709969
159	0x3b954f4a	0.004556571
160	0xbc9ac8cb	-0.018894574
161	0x3bc9c4a7	0.006157476
162	0x3b4d03e1	0.003128283
163	0xbc02b426	-0.007977521
164	0x3b9c1b18	0.004763972
165	0x3b9e1aa1	0.0048249518
166	0x3b755c31	0.0037438984
167	0xbce8f674	-0.02843783
168	0x3ca87a2f	0.020566074
169	0xbc9e8e7d	-0.019355053
170	0x3b0dc4b9	0.0021632148
171	0xbc46cb98	-0.0121335015
172	0x3c0fe3b7	0.008782319
173	0x38bc4424	8.977231e-05
174	0x3bda9890	0.006671019
175	0x3c8c5e12	0.0171347
176	0x3be2226e	0.006901077
177	0xbc803194	-0.01564864
178	0x3afc72a0	0.0019260235
179	0x3b96538b	0.004587596
180	0xbc0b3d66	-0.008498525
181	0xbc904f6e	-0.017616
182	0x3b8e26ab	0.0043381057
183	0x3cb2a3aa	0.021806557
184	0x3bb734a0	0.00559099
185	0xbb58e8fc	-0.0033097854
186	0x3b108ef7	0.002205787
187	0x3ad52f76	0.0016264755
188	0x3b8fb92e	0.004386089
189	0x3c32f3b7	0.010922364
190	0xbc8fec53	-0.017568743
191	0xbae40af4	-0.0017398284
192	0xbbe2e72c	-0.0069245305
193	0xbbc77c52	-0.006087818
194	0xbaecbaef	-0.0018061082
195	0xbbdbbe40	-0.006706029
196	0x3aca0c04	0.0015414958
197	0x3ba9faee	0.005187384
198	0x3bd4d110	0.0064946488
199	0xbc10ab59	-0.008829915
200	0xbbbb28b6	-0.00571164
201	0x3ccfa4c3	0.02534712
202	0x3b1c64d9	0.002386382
203	0xb989be3f	-0.0002627242
204	0xbb9cb9c1	-0.004782886
205	0xbc100991	-0.008791343
206	0x3bbcd0cc	0.005762195
207	0xbaef8e73	-0.0018276706
208	0xbbf4606a	-0.0074577825
209	0x3b660012	0.0035095257
210	0x3c0f0aae	0.008730574
211	0x3c5fc3f8	0.013657562
212	0xbc6a1adc	-0.01428863
213	0xba2ffe58	-0.00067136204
214	0x3c123bc8	0.008925386
215	0xbc7d0289	-0.015442499
216	0xbb1b7a2f	-0.002372395
217	0x3a8c88f9	0.0010721973
218	0x3b52b451	0.0032150934
219	0xbba23bb3	-0.0049509644
220	0xbb3f1a0a	-0.0029159808
221	0x38edc42e	0.00011337582
222	0x3c0ff547	0.008786506
223	0xbc16e8ae	-0.009210749
224	0xba212dd5	-0.0006148492
225	0xb8a896ca	-8.038951e-05
226	0x3ba549f9	0.0050442186
227	0x3c4e4b84	0.0125912465
228	0xbc363dfd	-0.011123178
229	0x3b4cdfdd	0.0031261363
230	0xbcc6e109	-0.024277227
231	0xbc33b297	-0.010967872
232	0xbc45172b	-0.012029449
233	0x3c22d1ec	0.009937745
234	0x3b1804f2	0.0023196307
235	0xbc8d4c7f	-0.01724839
236	0xbb6497a5	-0.0034880426
237	0xbc7b93cb	-0.015355061
238	0xbc0e764d	-0.008695197
239	0xbc87bd83	-0.016569858
240	0x398c49b0	0.00026757782
241	0x3bb2be9f	0.0054548527
242	0x3af98aa2	0.0019038508
243	0xbaa0fd39	-0.0012282497
244	0xbc94ee50	-0.018180043
245	0x3bd615e0	0.0065333694
246	0xbcd67632	-0.026179407
247	0xbb44602b	-0.0029964547
248	0x3cbbe3c8	0.022935763
249	0x3b18853a	0.0023272769
250	0xbb8d2ef2	-0.004308575
251	0x3c84709f	0.016166983
252	0xbbbcf8d7	-0.0057669687
253	0x3bee9573	0.0072809993
254	0xbbaf2a71	-0.0053456356
255	0x3b9522d3	0.0045512705

action_model._discrete_distribution.branches.0.bias f4 [5]
0	0x3b12e390	0.002241347
1	0xbb445bdd	-0.0029961981
2	0xba051717	-0.0005076988
3	0x39d8e062	0.0004136591
4	0x39ef66b2	0.00045662146

exp_avg f4 [128, 38]
0	0x375aab40	1.3033685e-05
1	0x00000000	0.0
2	0x37b2b20c	2.1302163e-05
3	0xb70c6375	-8.367807e-06
4	0xb734be3c	-1.0773128e-05
5	0x00000000	0.0
6	0x3783ac8c	1.5696765e-05
7	0x37337aca	1.06978205e-05
8	0xb8084c16	-3.2495787e-05
9	0x00000000	0.0
10	0x376b3e87	1.402165e-05
11	0x371c2192	9.306141e-06
12	0xb71097ca	-8.61841e-06
13	0x00000000	0.0
14	0x3668b2cb	3.4674765e-06
15	0x369cb8ec	4.67069e-06
16	0xb52a6409	-6.3475505e-07
17	0x00000000	0.0
18	0xb8645917	-5.4442407e-05
19	0xb807771f	-3.229745e-05
20	0xb79f47e2	-1.898775e-05
21	0x00000000	0.0
22	0xb8042854	-3.150881e-05
23	0xb7a3b70a	-1.9516348e-05
24	0xb79f47e2	-1.898775e-05
25	0x00000000	0.0
26	0xb8042854	-3.150881e-05
27	0xb7a3b70c	-1.9516352e-05
28	0xb9dfd945	-0.00042695753
29	0x38c6cb47	9.479239e-05
30	0xb974050f	-0.00023271538
31	0xba1a93ab	-0.0005896638
32	0xb8853f7f	-6.353761e-05
33	0x39bfd95f	0.00036592313
34	0xb8eac2e8	-0.000111942936
35	0xb680e0f3	-3.840885e-06
36	0xb543864b	-7.283858e-07
37	0xb79656e8	-1.7921862e-05
38	0x361cff49	2.3394407e-06
39	0x00000000	0.0
40	0x36ad9c0a	5.173967e-06
41	0x37a140bf	1.9222845e-05
42	0x3628673c	2.509404e-06
43	0x00000000	0.0
44	0x37a4e18b	1.965535e-05
45	0x375d34b2	1.3184896e-05
46	0xb78a4c76	-1.6486487e-05
47	0x00000000	0.0
48	0x38164600	3.582798e-05
49	0x38040978	3.148007e-05
50	0x36801e38	3.818215e-06
51	0x00000000	0.0
52	0x373c4d06	1.1223607e-05
53	0x370b2f83	8.296108e-06
54	0x362f9770	2.616518e-06
55	0x00000000	0.0
56	0x374b101f	1.2103496e-05
57	0x3771c14e	1.4409727e-05
58	0x36a7534e	4.986686e-06
59	0x00000000	0.0
60	0x37449f79	1.17196405e-05
61	0x37105812	8.603574e-06
62	0x36a7534e	4.986686e-06
63	0x00000000	0.0
64	0x37449f79	1.17196405e-05
65	0x37105812	8.603574e-06
66	0x39f25028	0.00046217558
67	0xb89b0d2a	-7.393428e-05
68	0xb98c16a5	-0.00026719752
69	0x3a0597d4	0.00050961715
70	0x3851fa89	5.0062812e-05
71	0xba0d4980	-0.00053896755
72	0x38cf334e	9.8800854e-05
73	0xb78957ac	-1.6372498e-05
74	0x34a0eb92	2.9973722e-07
75	0x380868b4	3.252244e-05
76	0xb52132e0	-6.0051207e-07
77	0x00000000	0.0
78	0xb42bda08	-1.6004935e-07
79	0xb52c75f3	-6.424663e-07
80	0xb2e03f57	-2.6105836e-08
81	0x00000000	0.0
82	0xb5ad83b5	-1.2927836e-06
83	0xb5965c18	-1.1202674e-06
84	0xb2c48036	-2.2875707e-08
85	0x00000000	0.0
86	0xb4c40e60	-3.6518304e-07
87	0xb5213b7a	-6.0063724e-07
88	0x34c48b70	3.66093e-07
89	0x00000000	0.0
90	0xb4c06ab5	-3.5840426e-07
91	0xb573bf28	-9.0802723e-07
92	0xb3ce8127	-9.616115e-08
93	0x00000000	0.0
94	0x344a2045	1.8824456e-07
95	0xb4af0757	-3.260163e-07
96	0x346ff976	2.2349363e-07
97	0x00000000	0.0
98	0x34020f14	1.2112679e-07
99	0xb53d8a18	-7.060894e-07
100	0x346ff976	2.2349363e-07
101	0x00000000	0.0
102	0x34020f14	1.2112679e-07
103	0xb53d8a18	-7.060894e-07
104	0x379329af	1.7543176e-05
105	0x36a1c38f	4.82094e-06
106	0x376add91	1.3999074e-05
107	0xb51a7463	-5.7538836e-07
108	0xb659239f	-3.2356254e-06
109	0x37d5bf3a	2.5480625e-05
110	0xb74823c4	-1.1929256e-05
111	0xb3f3a180	-1.1344946e-07
112	0xb203cc3a	-7.671639e-09
113	0x34606a1f	2.0900232e-07
114	0xb48ada1d	-2.58632e-07
115	0x00000000	0.0
116	0x360faa3b	2.1407748e-06
117	0x368ef7fe	4.2608e-06
118	0x3663cf62	3.3946349e-06
119	0x00000000	0.0
120	0x369b998f	4.6372365e-06
121	0x36781693	3.696802e-06
122	0xb6dc5a5a	-6.5670292e-06
123	0x00000000	0.0
124	0x36a1039e	4.798595e-06
125	0x369466e1	4.4227204e-06
126	0x3734a343	1.0766848e-05
127	0x00000000	0.0
128	0x3667026d	3.4423094e-06
129	0xb50c039c	-5.2159317e-07
130	0x3651763c	3.1212248e-06
131	0x00000000	0.0
132	0x360c417a	2.0899738e-06
133	0x36496135	3.0007916e-06
134	0x36b1a53e	5.294248e-06
135	0x00000000	0.0
136	0xb57182be	-8.996975e-07
137	0xb520a556	-5.984524e-07
138	0x36b1a53e	5.294248e-06
139	0x00000000	0.0
140	0xb57182be	-8.996975e-07
141	0xb520a556	-5.984524e-07
142	0x38403cfe	4.583317e-05
143	0xb7f28150	-2.8908864e-05
144	0xb7c85005	-2.387912e-05
145	0x38a6c41c	7.952025e-05
146	0x37a60e95	1.9795532e-05
147	0xb985c1bc	-0.0002551208
148	0x37939daf	1.7597193e-05
149	0x364c9b4e	3.0488768e-06
150	0xb3400d20	-4.471542e-08
151	0x36b5377f	5.400681e-06
152	0x366cf92b	3.5311775e-06
153	0x00000000	0.0
154	0x368485ca	3.9494817e-06
155	0x36af137b	5.2176742e-06
156	0x372af60f	1.019008e-05
157	0x00000000	0.0
158	0xb710feb2	-8.64237e-06
159	0x36dcb40d	6.5774716e-06
160	0x373e74e6	1.13521e-05
161	0x00000000	0.0
162	0x3652a909	3.139083e-06
163	0x376e2947	1.4195516e-05
164	0x3822d84f	3.8825263e-05
165	0x00000000	0.0
166	0xb7721274	-1.44286205e-05
167	0xb7754127	-1.4618307e-05
168	0x362c3dc1	2.5665943e-06
169	0x00000000	0.0
170	0x37a511ce	1.9677824e-05
171	0x3783a4be	1.5693131e-05
172	0x3837b68b	4.3800606e-05
173	0x00000000	0.0
174	0x3752d6e3	1.2567008e-05
175	0xb73921a9	-1.1034696e-05
176	0x3837b68b	4.3800606e-05
177	0x00000000	0.0
178	0x3752d6e3	1.2567008e-05
179	0xb73921a9	-1.1034696e-05
180	0x3a2da859	0.0006624512
181	0xb89185a5	-6.939032e-05
182	0x3847f3b2	4.7672256e-05
183	0x3a829147	0.0009961509
184	0x3832a960	4.259625e-05
185	0xb9709bdf	-0.0002294625
186	0xb86d42ce	-5.656742e-05
187	0x378c9823	1.6760145e-05
188	0xb6603cd6	-3.3414012e-06
189	0xb7fa1fb2	-2.9817082e-05
190	0xb63ff6d8	-2.86049e-06
191	0x00000000	0.0
192	0xb44a72ea	-1.8854521e-07
193	0x37cb46f0	2.4232519e-05
194	0x36f050ca	7.1619625e-06
195	0x00000000	0.0
196	0x35a7ef9a	1.2512203e-06
197	0x37a92b33	2.0166486e-05
198	0x35f6bb42	1.8382927e-06
199	0x00000000	0.0
200	0x37324605	1.06259295e-05
201	0x37dfb1e8	2.6666516e-05
202	0x379e9b60	1.890742e-05
203	0x00000000	0.0
204	0x36b0d99a	5.270541e-06
205	0x37616e9b	1.3436797e-05
206	0xb583807c	-9.797654e-07
207	0x00000000	0.0
208	0x37fb9789	2.9992096e-05
209	0x380aa281	3.3053107e-05
210	0x37468b92	1.1834216e-05
211	0x00000000	0.0
212	0x3798e4f0	1.822642e-05
213	0x37a6a987	1.9867684e-05
214	0x37468b92	1.1834216e-05
215	0x00000000	0.0
216	0x3798e4f0	1.822642e-05
217	0x37a6a987	1.9867684e-05
218	0x3a075b89	0.0005163481
219	0xb913b331	-0.00014085766
220	0xb909dc67	-0.00013147444
221	0x3a033fd8	0.0005006767
222	0x38c40a66	9.347945e-05
223	0xba603d45	-0.0008554052
224	0x39827c85	0.00024888307
225	0xb72a3ec9	-1.0147408e-05
226	0xb5a2780a	-1.2104877e-06
227	0x3729d6bc	1.0123182e-05
228	0xb4ee1bd9	-4.4351216e-07
229	0x00000000	0.0
230	0x34f9aa73	4.6503882e-07
231	0xb5967833	-1.1210853e-06
232	0xb5998db8	-1.1440634e-06
233	0x00000000	0.0
234	0x35090b72	5.105313e-07
235	0xb5e1486b	-1.6784883e-06
236	0xb46f9206	-2.2311733e-07
237	0x00000000	0.0
238	0xb6076bbe	-2.0179282e-06
239	0xb61d1175	-2.3404984e-06
240	0xb5a7fdec	-1.2516371e-06
241	0x00000000	0.0
242	0xb54785a0	-7.4327727e-07
243	0xb60fa731	-2.1405979e-06
244	0xb4cec8df	-3.8516643e-07
245	0x00000000	0.0
246	0xb684ac1e	-3.9539436e-06
247	0xb65851ae	-3.2234052e-06
248	0x3400abc6	1.198342e-07
249	0x00000000	0.0
250	0xb619d513	-2.2922802e-06
251	0xb65db439	-3.303647e-06
252	0x3400abc6	1.198342e-07
253	0x00000000	0.0
254	0xb619d513	-2.2922802e-06
255	0xb65db439	-3.303647e-06

exp_avg_sq f4 [128, 38]
0	0x2f90297e	2.622293e-10
1	0x00000000	0.0
2	0x30df4868	1.6245965e-09
3	0x31619051	3.2823844e-09
4	0x3033632b	6.5260747e-10
5	0x00000000	0.0
6	0x302b05ba	6.2217576e-10
7	0x31081e16	1.9807707e-09
8	0x30494259	7.321766e-10
9	0x00000000	0.0
10	0x312ba927	2.4979927e-09
11	0x317a1766	3.6393089e-09
12	0x302437c7	5.9742117e-10
13	0x00000000	0.0
14	0x304d8873	7.477247e-10
15	0x30ea366f	1.7041212e-09
16	0x2f9a47ce	2.8063457e-10
17	0x00000000	0.0
18	0x314175e2	2.8152205e-09
19	0x3181e044	3.77989e-09
20	0x2ff683b5	4.4840723e-10
21	0x00000000	0.0
22	0x30ac74c7	1.2547837e-09
23	0x314f6ae5	3.0183227e-09
24	0x2ff683b5	4.4840723e-10
25	0x00000000	0.0
26	0x30ac74c7	1.2547837e-09
27	0x314f6ae5	3.0183227e-09
28	0x366930db	3.4748143e-06
29	0x33f25f00	1.12862836e-07
30	0x356f7b74	8.9214086e-07
31	0x36fb89bd	7.4964178e-06
32	0x3358b725	5.0457988e-08
33	0x365b6285	3.269089e-06
34	0x34a05b10	2.986858e-07
35	0x30a02b2d	1.1653803e-09
36	0x2bb35520	1.2742342e-12
37	0x302364cc	5.9442296e-10
38	0x2efa6074	1.1385817e-10
39	0x00000000	0.0
40	0x30821a67	9.466249e-10
41	0x30d6aa64	1.5618977e-09
42	0x2f676a4b	2.104709e-10
43	0x00000000	0.0
44	0x30166fb4	5.472842e-10
45	0x30a92110	1.2305765e-09
46	0x2fc7e6e0	3.6361936e-10
47	0x00000000	0.0
48	0x305ef4c3	8.1110957e-10
49	0x30b8ac67	1.3436762e-09
50	0x2fc3c054	3.560695e-10
51	0x00000000	0.0
52	0x2fd9a803	3.959145e-10
53	0x303ad198	6.7964256e-10
54	0x2f52764d	1.9141418e-10
55	0x00000000	0.0
56	0x30af1c03	1.2740887e-09
57	0x30cee890	1.5054571e-09
58	0x2fadbb3e	3.160156e-10
59	0x00000000	0.0
60	0x2fe62f56	4.187039e-10
61	0x30a18dab	1.1754556e-09
62	0x2fadbb3e	3.160156e-10
63	0x00000000	0.0
64	0x2fe62f56	4.187039e-10
65	0x30a18dab	1.1754556e-09
66	0x3597792b	1.1285641e-06
67	0x3362642f	5.2710842e-08
68	0x350aed46	5.1754284e-07
69	0x362a664a	2.5391514e-06
70	0x32ca41c5	2.3545804e-08
71	0x35edea78	1.7726115e-06
72	0x340b5c35	1.2978929e-07
73	0x30087419	4.9641496e-10
74	0x2a589a92	1.9238281e-13
75	0x2fbe02de	3.4562836e-10
76	0x2aba9dec	3.3149818e-13
77	0x00000000	0.0
78	0x2b8ae4c3	9.868984e-13
79	0x2c72e051	3.451479e-12
80	0x29bc681e	8.3669386e-14
81	0x00000000	0.0
82	0x2c908b0c	4.1081635e-12
83	0x2c9966bf	4.3599287e-12
84	0x294759e0	4.426483e-14
85	0x00000000	0.0
86	0x2a6a500f	2.0811151e-13
87	0x2b336b10	6.3742154e-13
88	0x2c1d725a	2.237452e-12
89	0x00000000	0.0
90	0x2bc07aaf	1.3676472e-12
91	0x2c1483d9	2.1105255e-12
92	0x2a8efe1d	2.5400594e-13
93	0x00000000	0.0
94	0x2abbbeb2	3.3350194e-13
95	0x2b443482	6.970606e-13
96	0x2aac7b4b	3.063889e-13
97	0x00000000	0.0
98	0x2a8ff847	2.557418e-13
99	0x2ba7cb5c	1.1922507e-12
100	0x2aac7b4b	3.063889e-13
101	0x00000000	0.0
102	0x2a8ff847	2.557418e-13
103	0x2ba7cb5c	1.1922507e-12
104	0x30ef003e	1.7389608e-09
105	0x2ec302c5	8.868065e-11
106	0x30092a89	4.9900756e-10
107	0x2f1f3a95	1.4481778e-10
108	0x2e2db2eb	3.9494557e-11
109	0x317449e9	3.5548686e-09
110	0x2f85a7ec	2.4311875e-10
111	0x2bdc906a	1.5672023e-12
112	0x250c110e	1.2148843e-16
113	0x2c0378a7	1.8683195e-12
114	0x2e69ceec	5.316185e-11
115	0x00000000	0.0
116	0x2e60ac1a	5.108456e-11
117	0x2fcbe2c2	3.7086606e-10
118	0x2f12ab12	1.3339399e-10
119	0x00000000	0.0
120	0x2df008d3	2.728876e-11
121	0x2f9f3ff9	2.8967387e-10
122	0x2ff57940	4.4651394e-10
123	0x00000000	0.0
124	0x2f8af675	2.5277172e-10
125	0x30645cd8	8.3077856e-10
126	0x2f4d14cf	1.8652034e-10
127	0x00000000	0.0
128	0x2ddaa76a	2.4858077e-11
129	0x2f7a2e56	2.275383e-10
130	0x2fa2d4be	2.961879e-10
131	0x00000000	0.0
132	0x309ddd88	1.1486216e-09
133	0x30a6b8ce	1.2130614e-09
134	0x2fdfff86	4.0745024e-10
135	0x00000000	0.0
136	0x2fa8b4b6	3.0687425e-10
137	0x3080d5c4	9.373982e-10
138	0x2fdfff86	4.0745024e-10
139	0x00000000	0.0
140	0x2fa8b4b6	3.0687425e-10
141	0x3080d5c4	9.373982e-10
142	0x358a9c7b	1.0327343e-06
143	0x32fdfe2a	2.9568657e-08
144	0x329e0468	1.8395625e-08
145	0x359eb9d9	1.1826006e-06
146	0x32623cf4	1.31687905e-08
147	0x351b3a86	5.782716e-07
148	0x33feebe3	1.1870704e-07
149	0x2f7f3e93	2.3214346e-10
150	0x299327ca	6.535014e-14
151	0x2f3fcab6	1.7443366e-10
152	0x2f7ffc2a	2.3281702e-10
153	0x00000000	0.0
154	0x30d8af20	1.5765842e-09
155	0x313f9d15	2.7883449e-09
156	0x302f6549	6.3808564e-10
157	0x00000000	0.0
158	0x3090f215	1.0546183e-09
159	0x30f4602a	1.7780668e-09
160	0x2ff114f3	4.385253e-10
161	0x00000000	0.0
162	0x30d86bd5	1.5746716e-09
163	0x3121c19d	2.353864e-09
164	0x3080aa27	9.361586e-10
165	0x00000000	0.0
166	0x3069626f	8.490479e-10
167	0x30c6d5b9	1.446714e-09
168	0x2fad7752	3.15533e-10
169	0x00000000	0.0
170	0x3106beb9	1.960798e-09
171	0x312294ba	2.3658644e-09
172	0x3046ad22	7.2278017e-10
173	0x00000000	0.0
174	0x30842b0d	9.6165e-10
175	0x30fae797	1.8255716e-09
176	0x3046ad22	7.2278017e-10
177	0x00000000	0.0
178	0x30842b0d	9.6165e-10
179	0x30fae797	1.8255716e-09
180	0x3604c13c	1.978201e-06
181	0x33c1ea2f	9.0298606e-08
182	0x357e6b76	9.477875e-07
183	0x369cda32	4.6745636e-06
184	0x332d1960	4.030278e-08
185	0x364b26ba	3.02719e-06
186	0x34353778	1.6877118e-07
187	0x30a0ae6f	1.1691109e-09
188	0x2c5c688c	3.1321916e-12
189	0x305ec0a6	8.10369e-10
190	0x2f8e97c6	2.593749e-10
191	0x00000000	0.0
192	0x307d95ce	9.225375e-10
193	0x3104c3d7	1.931985e-09
194	0x2f5105c0	1.9010482e-10
195	0x00000000	0.0
196	0x30de1c3c	1.6160651e-09
197	0x3118a4fe	2.2212698e-09
198	0x2fd94eb3	3.952799e-10
199	0x00000000	0.0
200	0x30a7f6c1	1.2220981e-09
201	0x30fba540	1.830962e-09
202	0x2ff91d61	4.531371e-10
203	0x00000000	0.0
204	0x304d2b6d	7.464028e-10
205	0x30c5f79b	1.440401e-09
206	0x2ff21ac3	4.403856e-10
207	0x00000000	0.0
208	0x30a625c6	1.2088825e-09
209	0x30e776a1	1.6841178e-09
210	0x2fd954d1	3.9532336e-10
211	0x00000000	0.0
212	0x2fd4bc1d	3.8696238e-10
213	0x30bf1f33	1.3905946e-09
214	0x2fd954d1	3.9532336e-10
215	0x00000000	0.0
216	0x2fd4bc1d	3.8696238e-10
217	0x30bf1f33	1.3905946e-09
218	0x3546f695	7.411957e-07
219	0x33959f26	6.967302e-08
220	0x34bf475e	3.562845e-07
221	0x356ad743	8.748504e-07
222	0x33059b92	3.1107966e-08
223	0x363f0c8c	2.846852e-06
224	0x3441bdb0	1.8043534e-07
225	0x30111745	5.278376e-10
226	0x2b9e4985	1.1246981e-12
227	0x3037e635	6.6902156e-10
228	0x2ddb0860	2.4901137e-11
229	0x00000000	0.0
230	0x2d408912	1.0944372e-11
231	0x2e1a04b8	3.5019737e-11
232	0x2c124226	2.0784568e-12
233	0x00000000	0.0
234	0x2d47d0f5	1.1358238e-11
235	0x2e305c88	4.009995e-11
236	0x2ebcb100	8.580692e-11
237	0x00000000	0.0
238	0x2d83697a	1.4939817e-11
239	0x2e74bf62	5.564916e-11
240	0x2d1cf24c	8.921374e-12
241	0x00000000	0.0
242	0x2d1999dc	8.731207e-12
243	0x2e4ef1ec	4.7053847e-11
244	0x2e1b04e7	3.5247274e-11
245	0x00000000	0.0
246	0x2f1b2eec	1.4113838e-10
247	0x2f21639b	1.4678252e-10
248	0x2def5bfc	2.7212003e-11
249	0x00000000	0.0
250	0x2e3777f6	4.171593e-11
251	0x2f083332	1.2387316e-10
252	0x2def5bfc	2.7212003e-11
253	0x00000000	0.0
254	0x2e3777f6	4.171593e-11
255	0x2f083332	1.2387316e-10
