3DPlayground/results/Test22/MoveToGoal/MoveToGoal-22954.pt (torch, 581705 bytes, 42 tensors)

network_body._body_endoder.seq_layers.0.weight f4 [128, 48]
0.01557327 0.004292811 0.11624555 0.3239556 -0.040774174 0.15521452 -0.22835135 -0.0011402281
-0.19015643 -0.15725954 -0.00094228087 -0.08112929 -0.25327972 0.090598516 -0.04631533 -0.04065391
0.102073185 -0.15254165 0.18556055 -0.08736238 -0.1047715 -0.25146434 0.27985168 0.042792268
-0.11423474 -0.08693131 -0.10102432 0.06740472 -0.050903223 0.15760167 0.23459882 0.33461958
-0.026432697 0.2521057 -0.242121 -0.055835094 0.053435504 -0.040507615 0.07426721 0.08113207
0.07499736 0.006941319 -0.23720327 -0.044579558 0.15435478 0.19842786 0.16265327 -0.059866935
0.22687027 -0.07109778 0.070435785 -0.0643273 -0.24458441 0.12501775 0.061013088 -0.09324766
0.040632058 -0.24503975 -0.0067256265 -0.13489752 -0.15302296 0.06953979 0.11851938 0.13376313
-0.073636815 0.012685028 -0.19062646 0.009213554 -0.025913108 -0.24449617 -0.1693861 -0.058429383
0.19606763 0.06832076 -0.026670717 0.16285336 -0.33913395 0.01657803 -0.1342183 0.040007424
0.25163713 0.022502072 0.025800284 0.1795755 0.06171302 -0.15368727 -0.016938763 -0.0015960997
0.1250279 0.3089766 -0.050953377 -0.10977899 -0.10135661 -0.27725554 -0.13611414 0.17747223
0.060666237 -0.21475539 -0.07446287 -0.23151602 -0.13549498 0.017742906 0.1558625 -0.017792458
-0.032636102 -0.058112517 0.21401533 0.02284893 0.19797559 0.25503275 0.28457764 0.019890727
-0.25378504 0.1518345 -0.099458426 0.12054677 0.06386174 0.021453125 -0.21642907 -0.28369486
-0.070243135 -0.18157676 -0.1925788 0.020313108 -0.19532943 -0.10874365 -0.31577593 0.12865515
0.18486011 -0.12820666 0.18737307 -0.009429642 -0.12280223 0.11661578 -0.06613384 0.088336684
0.12420363 0.109914295 0.10566031 0.032514058 0.19073005 -0.09395412 0.21140483 -0.27266824
0.11408987 0.14133586 -0.05298395 0.03688423 -0.125787 0.12307461 -0.025863033 0.09323711
-0.03247104 0.0089928545 0.16556053 0.22318152 -0.02476865 -0.17366157 -0.0027683438 -0.18322547
0.050124485 0.19969438 0.10486887 -0.008304721 -0.025033215 0.07290188 -0.21576841 -0.10657144
0.18161893 0.011691791 0.11393763 -0.015257938 -0.23482029 -0.017475283 -0.2001857 -0.16486639
0.044152755 -0.12350075 0.059598263 0.34272796 0.19331448 0.041982453 -0.054281738 0.013933243
-0.06871204 0.100186385 -0.1853359 -0.14650014 -0.11706196 0.32460827 -0.009184356 -0.0065180054
0.101969644 -0.048956662 0.08185812 -0.15982531 0.09271522 -0.032741945 0.08947573 -0.03498174
-0.028944625 -0.058829434 -0.25285998 0.10510155 0.22145326 0.04558276 0.030609157 -0.1135893
0.073366806 -0.18094993 -0.0009946898 0.03679611 0.0026230933 -0.1268745 0.052697465 0.14050958
0.18754551 0.128119 0.02256448 0.016487524 -0.051573094 0.21043788 -0.058382507 0.057428565
0.0033826258 -0.02458379 0.35782585 0.15445435 0.0979813 0.02922264 0.07622773 -0.06607742
-0.046008326 -0.17122172 -0.17763767 -0.11522534 -0.02462432 -0.04308541 -0.15414591 0.19490181
0.0052645435 0.003187502 0.07097274 -0.08245106 0.066693716 -0.008565601 -0.042796038 0.035471432
0.0070461393 -0.0878923 -0.15548287 0.11540165 -0.010713252 -0.17479952 0.1318111 -0.11369095
00000000: 0727 7f3c b5aa 8c3b 2612 ee3d 82dd a53e
00000010: d202 27bd 8ef0 1e3e f0d4 69be b573 95ba
00000020: 5eb8 42be a508 21be 6603 77ba 1d27 a6bd
00000030: e1ad 81be b78b b93d 25b5 3dbd b784 26bd
00000040: bf0b d13d e133 1cbe 9603 3e3e 0ceb b2bd
00000050: 7192 d6bd efbf 80be b848 8f3e f246 2f3d
00000060: e7f3 e9bd 0b09 b2bd d7e5 cebd 7c0b 8a3d
00000070: e67f 50bd 5562 213e ac3a 703e 4253 ab3e
00000080: 6289 d8bc 0014 813e 91ee 77be 57b3 64bd
00000090: 30df 5a3d 50eb 25bd 6819 983d 9228 a63d
000000a0: 3798 993d 0174 e33b 6ae5 72be 0e99 36bd
000000b0: 2e0f 1e3e ac30 4b3e 948e 263e 0837 75bd
000000c0: ae50 683e b69b 91bd a340 903d 08be 83bd
000000d0: 5674 7abe a704 003e dce8 793d a1f8 bebd
000000e0: cd6d 263d b3eb 7abe a562 dcbb 9322 0abe
000000f0: 0db2 1cbe e16a 8e3d 4aba f23d 34f9 083e
00000100: e6ce 96bd ddd4 4f3c 9533 43be 72f4 163c
00000110: ba47 d4bc 345d 7abe 8d73 2dbe a653 6fbd
00000120: f4c5 483e c1eb 8b3d 8c7c dabc 08c3 263e
00000130: f7a2 adbe a6ce 873c 8670 09be d3de 233d
00000140: 95d6 803e 4456 b83c 1e5b d33c a4e2 373e
00000150: cbc6 7c3d 3260 1dbe 29c3 8abc 3834 d1ba
00000160: 5007 003e 2e32 9e3e 7db4 50bd cfd3 e0bd
00000170: 0e94 cfbd 70f4 8dbe 8161 0bbe 48bb 353e
00000180: 297d 783d d6e8 5bbe fd7f 98bd 8912 6dbe
00000190: 32bf 0abe 9259 913c 6b9a 1f3e 7dc1 91bc
000001a0: 6fad 05bd 6407 6ebd d626 5b3e ae2d bb3c
000001b0: 1dba 4a3e a793 823e 29b4 913e e1f1 a23c
000001c0: 1df0 81be 817a 1b3e dcb0 cbbd 3ae1 f63d
000001d0: f2c9 823d 77be af3c 959f 5dbe 7440 91be
000001e0: a2db 8fbd 42ef 39be 6033 45be ad67 a63c
000001f0: 7004 48be feb4 debd 62ad a1be 2dbe 033e
00000200: f84b 3d3e 9b48 03be bade 3f3e c97e 1abc
00000210: bc7f fbbd 41d4 ee3d 2e71 87bd dde9 b43d
00000220: 795e fe3d bf1a e13d 6f64 d83d 762d 053d
00000230: bd4e 433e 056b c0bd 827a 583e 2c9b 8bbe
00000240: f3a7 e93d 59ba 103e b305 59bd eb13 173d
00000250: 4fce 00be 8b0e fc3d b6de d3bc 19f3 be3d
00000260: 5a00 05bd c456 133c b388 293e b289 643e
00000270: a0e7 cabc 57d4 31be 1a6d 35bb 759f 3bbe
00000280: 554f 4d3d af7c 4c3e 7dc5 d63d 8610 08bc
00000290: 7512 cdbc 954d 953d 65f2 5cbe 2142 dabd
000002a0: 50fa 393e ed8e 3f3c 2258 e93d 6efc 79bc
000002b0: bb74 70be 5328 8fbc 7bfd 4cbe bcd2 28be
000002c0: 85d9 343d f6ed fcbd 4f1d 743d 0a7a af3e
000002d0: 3bf4 453e cbf5 2b3d 8756 5ebd 4248 643c
000002e0: e6b8 8cbd 852e cd3d b2c8 3dbe 2204 16be
000002f0: 2ebe efbd 0e33 a63e fb79 16bc fe94 d5bb
00000300: 76d5 d03d c886 48bd 3ba5 a73d 3fa9 23be
00000310: 7ae1 bd3d 6b1c 06bd 0d3f b73d 0349 0fbd
00000320: 471d edbc 22f7 70bd dd76 81be 7b3f d73d
00000330: a5c4 623e fdb4 3a3d 0ec0 fa3c 82a1 e8bd
00000340: 5641 963d f04a 39be 4060 82ba 85b7 163d
00000350: 34e8 2b3b 64eb 01be 4cd9 573d bee1 0f3e
00000360: ee0b 403e a131 033e 25d9 b83c d810 873c
00000370: 4f3e 53bd 077d 573e 7f22 6fbd 373a 6b3d
00000380: 0baf 5d3b f263 c9bc f334 b73e 4829 1e3e
00000390: 6baa c83d 5164 ef3c 491d 9c3d 9953 87bd
000003a0: 3a73 3cbd bf54 2fbe a6e6 35be 43fb ebbd
000003b0: f1b8 c9bc 547a 30bd 6dd8 1dbe 5794 473e
000003c0: 3182 ac3b 69e5 503b 285a 913d 1adc a8bd
000003d0: b796 883d bc56 0cbc e64a 2fbd 7e4a 113d
000003e0: 4de3 e63b e100 b4bd e736 1fbe b357 ec3d
000003f0: a386 2fbc a5fe 32be 7df9 063e cdd6 e8bd

network_body._body_endoder.seq_layers.0.bias f4 [128]
-0.0032396715 -0.0029914512 0.00019920833 0.00094791607 -0.00046431815 0.00024808603 -0.0038185199 0.0042750807
-0.0014535898 -0.0016298239 -0.0004958763 -0.0044719004 0.0018735477 -0.002096979 0.0005838849 -0.0025134287
-0.0010423077 0.0032300635 0.0002788524 -0.0040493165 -0.00058752106 0.0005523959 -0.0020318222 -0.0030966862
-0.0022773717 -0.0013475544 0.002189659 -0.00031478517 -0.003092109 0.0010596218 0.0008927642 0.0007285812
0.0005996762 -0.00087941944 4.2762018e-05 0.0014275959 0.00059263414 0.0022102303 0.00038571097 -0.0007321801
0.00084962946 -0.0004554589 -0.0013149326 0.0016280157 0.0012446545 -0.0010840151 -0.0040494897 0.0032208045
-0.0020970432 -0.0020099585 0.00111823 -0.0016791865 0.0004994856 -0.00047393306 0.0032285845 0.0006318789
5.1335708e-05 0.0006388547 -0.0008247714 0.0010672534 0.0012532198 -0.0014690395 -0.0013873342 -0.00046431672
-0.00054057024 0.0029862786 0.004149941 -0.0037667362 0.0010702366 -0.000108653934 -0.0013732334 0.0002873249
0.001931682 -0.0012992593 0.0013751338 0.00027602477 -0.00030575966 -0.0010937955 -0.0011347524 0.00071748265
0.0021021832 0.0035747907 -0.0019161965 -0.0013810208 -0.00077510235 0.00039030463 0.0017890943 0.00059847324
0.0050977767 0.0041388213 0.004379831 -0.0015385575 -0.001543132 -0.0014226682 0.00022184492 -0.0027197294
-0.0014101579 0.00022986745 -0.0013782837 -0.0014203496 -0.0019326187 -0.00031522717 -0.0009811587 -0.0010144529
-2.6035752e-05 0.0009997163 0.0012843017 0.0024715944 0.00067820115 0.0017899118 0.0010083505 -0.003455518
-0.0009816639 0.0037154548 0.0030658287 -0.00043275568 0.00078240666 0.00078729354 -0.004183389 -0.002189912
-0.0005966066 -0.00051787694 -0.0020739818 0.002271784 -0.0018790466 -0.0016537802 -0.0002795673 0.00026912612
00000000: ab50 54bb 390c 44bb 94e2 5039 927d 783a
00000010: ba6f f3b9 8b11 8239 2240 7abb fa15 8c3b
00000020: 6186 beba d19f d5ba b2fd 01ba 0589 92bb
00000030: d491 f53a 786d 09bb da0f 193a 56b8 24bb
00000040: 0b9e 88ba 79af 533b f032 9239 21b0 84bb
00000050: df03 1aba a9ce 103a 5228 05bb c6f1 4abb
00000060: f53f 15bb 6ca0 b0ba 6280 0f3b c009 a5b9
00000070: fba4 4abb 02e3 8a3a 6408 6a3a 42fe 3e3a
00000080: 9733 1d3a d788 66ba 5e5b 3338 2b1e bb3a
00000090: 015b 1b3a 83d9 103b 4039 ca39 c6ef 3fba
000000a0: abb9 5e3a a9ca eeb9 d159 acba 2463 d53a
000000b0: ad23 a33a 8315 8eba 95b1 84bb 2214 533b
000000c0: 8c6e 09bb 82b9 03bb 9391 923a 2618 dcba
000000d0: e9ef 023a 387a f8b9 a996 533b ada4 253a
000000e0: 4c51 5738 d078 273a 7935 58ba 15e3 8b3a
000000f0: 1443 a43a c98c c0ba 36d7 b5ba 896f f3b9
00000100: 0eb5 0dba 71b5 433b 3afc 873b 59db 76bb
00000110: 2e47 8c3a 23dd e3b8 11fe b3ba 18a4 9639
00000120: 7e30 fd3a e84b aaba d53d b43a 6bb7 9039
00000130: 5e4e a0b9 b05d 8fba f9bb 94ba 7215 3c3a
00000140: c8c4 093b 0947 6a3b e328 fbba 5e03 b5ba
00000150: 3d30 4bba cda1 cc39 0b80 ea3a dce2 1c3a
00000160: 400b a73b f39e 873b af84 8f3b 6ca9 c9ba
00000170: eb42 caba d378 baba 0b9f 6839 7d3d 32bb
00000180: 0cd5 b8ba 9308 7139 87a7 b4ba 062b baba
00000190: ec4f fdba 1345 a5b9 399a 80ba 64f7 84ba
000001a0: 5a67 dab7 ea08 833a 0456 a83a 79fa 213b
000001b0: 4fc9 313a 799b ea3a a12a 843a f975 62bb
000001c0: 2dab 80ba fd7e 733b 12ec 483b 7ce3 e2b9
000001d0: 6c1a 4d3a 6062 4e3a cf14 89bb a084 0fbb
000001e0: 9765 1cba 22c2 07ba a4eb 07bb 36e2 143b
000001f0: 574a f6ba a8c3 d8ba e392 92b9 7f19 8d39

network_body._body_endoder.seq_layers.2.weight f4 [128, 128]
-0.012720762 -0.077013984 -0.032197326 -0.09930253 -0.02241833 0.06196098 0.12726557 0.023646187
0.095751464 0.09405461 0.15190302 -0.21532616 0.022535738 0.01688334 0.030970572 -0.090649895
-0.15231085 -0.053681396 0.07056715 0.05394625 -0.04992638 0.13288115 0.10784308 -0.08430862
0.06522637 -0.033096544 0.060072113 0.022315579 0.027855089 -0.17802545 0.05692019 0.16828975
0.018082883 -0.044571433 -0.046042133 0.030029632 0.07403164 -0.0047443896 -0.091899686 -0.009881823
0.108166054 -0.13625574 0.12049559 0.012438 0.054281045 -0.025405522 0.006918798 0.023280524
-0.028347721 0.21656725 0.120895594 -0.07192837 0.07787897 -0.06290325 -0.10093674 0.06352012
-0.046835035 0.045433797 0.09506307 -0.08808366 0.113633424 -0.09959607 -0.061049957 0.024567246
0.010645457 0.08614526 0.021025304 0.1702433 -0.07205396 -0.0040890733 0.0614558 -0.0009500696
0.083572194 -0.017566893 -0.059750523 -0.02051493 -0.113179855 0.028032245 0.056561317 0.090578936
0.15965244 -0.03350445 -0.04602062 -0.037693113 0.022851268 0.04737594 -0.008171039 -0.13020548
-0.03968964 -0.08401414 -0.029965034 -0.08653469 -0.10920041 -0.19460298 -0.05996633 -0.072152466
-0.028890869 -0.05016585 0.002136861 0.110520296 -0.033556134 -0.036460444 -0.07554686 -0.082907654
-0.042069554 0.047504555 0.0072989604 -0.04972361 0.1082275 0.016227022 -0.0718025 0.08148969
-0.08606755 -0.0077758795 0.15267584 -0.078401774 -0.015591108 -0.0107673835 -0.13235945 -0.11379771
0.14847939 -0.002402849 0.07708565 0.19660126 0.039459437 -0.106759615 -0.07055783 0.023553722
0.07466907 -0.0012904111 -0.03524312 -0.08838168 0.12454116 -0.027383208 -0.11720106 -0.15174025
0.006756503 -0.046241693 -0.025187911 0.0705433 -0.028874526 -0.16807884 0.11166151 0.107026316
0.021361243 -0.0926512 -0.031981833 0.070651375 0.026704477 -0.095989004 -0.012601523 0.08324414
-0.06524335 0.0547364 0.027152069 0.10317926 0.100106284 -0.026053293 0.06524119 0.11906265
0.03591529 0.0592218 -0.0125326915 0.0025470008 -0.12526783 0.0660165 -0.25306258 0.15301475
0.103227854 -0.029780064 0.111086294 0.039277844 0.17118344 -0.09455164 -0.050745007 -0.10220081
0.028959705 -0.053816102 0.037165705 0.020091355 0.06696655 -0.0352817 -0.09666511 0.027059473
0.02335183 -0.042835686 0.19246997 0.09201229 -0.09803358 -0.043995928 -0.07121799 -0.028916694
0.086879514 -0.04536627 -0.09778785 0.11335046 0.051398773 0.051897943 0.06664611 -0.07805788
-0.090260655 -0.14612529 -0.11450883 -0.026916573 0.11159638 0.05310732 -0.08875568 0.014088146
0.1936264 -0.06639578 -0.15023069 -0.16021265 -0.06167449 -0.1349925 -0.118153185 -0.0008239718
-0.07794256 -0.035180293 -0.02449431 -0.116541505 0.09725379 -0.10002695 0.09190765 0.034781553
-0.04345377 -0.06392374 -0.02966148 0.10602847 -0.113371104 -0.1606341 -0.10998725 0.0048292545
-0.09080809 0.119282864 -0.06327964 0.2369221 -0.1811077 -0.08645797 0.0024656763 -0.0043996586
-0.035413936 -0.075215705 0.030384855 -0.06550617 -0.0034167322 0.043030206 -0.021473253 0.10669014
-0.099438034 -0.06711424 -0.057165187 0.08767609 -0.057152823 -0.010362721 0.042887792 -0.065551795
00000000: be6a 50bc 82b9 9dbd 58e1 03bd 205f cbbd
00000010: a5a6 b7bc ccca 7d3d e851 023e a6b5 c13c
00000020: 5819 c43d b49f c03d 778c 1b3e 767e 5cbe
00000030: de9c b83c ee4e 8a3c ffb5 fd3c a7a6 b9bd
00000040: 60f7 1bbe 06e1 5bbd 8385 903d bef6 5c3d
00000050: 9b7f 4cbd ff11 083e d5dc dc3d ffa9 acbd
00000060: 6795 853d 3e90 07bd 2d0e 763d 29cf b63c
00000070: 5b30 e43c 4e4c 36be 2525 693d 2654 2c3e
00000080: 8e22 943c 8990 36bd ad96 3cbd b400 f63c
00000090: e79d 973d d376 9bbb e735 bcbd 5fe7 21bc
000000a0: 2a86 dd3d a086 0bbe 64c6 f63d c1c8 4b3c
000000b0: cd55 5e3d 3e1f d0bc 16b7 e23b ccb6 be3c
000000c0: 7b39 e8bc cec3 5d3e 1c98 f73d 2e4f 93bd
000000d0: 027f 9f3d 6bd3 80bd ecb7 cebd d616 823d
000000e0: 18d6 3fbd ca18 3a3d 6db0 c23d 3565 b4bd
000000f0: a4b8 e83d 06f9 cbbd 850f 7abd 4041 c93c
00000100: 486a 2e3c ed6c b03d 423d ac3c 4254 2e3e
00000110: 0791 93bd a2fd 85bb 14b9 7b3d 170e 79ba
00000120: e627 ab3d 72e8 8fbc f7bc 74bd ed0e a8bc
00000130: d7ca e7bd e1a3 e53c d7ac 673d 7381 b93d
00000140: ee7b 233e f63b 09bd 1e80 3cbd 1864 1abd
00000150: 9532 bb3c 460d 423d d2df 05bc 9654 05be
00000160: 9b91 22bd 9b0f acbd 3b79 f5bc 1939 b1bd
00000170: 77a4 dfbd 0146 47be 419f 75bd acc4 93bd
00000180: 8bac ecbc b57a 4dbd 940a 0c3b 7758 e23d
00000190: 2872 09bd 8c57 15bd 50b8 9abd 7dcb a9bd
000001a0: 2051 2cbd 2394 423d 1e2c ef3b fcaa 4bbd
000001b0: 61a6 dd3d 88ee 843c 300d 93bd 11e4 a63d
000001c0: 2f44 b0bd cecc febb 0e57 1c3e 1c91 a0bd
000001d0: d971 7fbc ae69 30bc 3c89 07be c60e e9bd
000001e0: fb0a 183e 1e79 1dbb 15df 9d3d d751 493e
000001f0: 38a0 213d c9a4 dabd a080 90bd bcf3 c03c
00000200: 19ec 983d 0323 a9ba 175b 10bd 7401 b5bd
00000210: 700f ff3d c052 e0bc 1c07 f0bd cc61 1bbe
00000220: a865 dd3b ee67 3dbd e156 cebc 0179 903d
00000230: 458a ecbc dc1c 2cbe caae e43d 9d30 db3d
00000240: c6fd ae3c eabf bdbd 62ff 02bd abb1 903d
00000250: 59c3 da3c e295 c4bd 9e76 4ebc e77b aa3d
00000260: 4e9e 85bd 4633 603d 046e de3c a64f d33d
00000270: 8604 cd3d b76d d5bc 2c9d 853d 1ed7 f33d
00000280: e91b 133d 8f92 723d eb55 4dbc 95eb 263b
00000290: 3646 00be a933 873d 6b91 81be e6af 1c3e
000002a0: 2069 d33d 52f5 f3bc 3681 e33d cee1 203d
000002b0: b64a 2f3e 4aa4 c1bd ffd9 4fbd a94e d1bd
000002c0: e73c ed3c 466e 5cbd 113b 183d a096 a43c
000002d0: c225 893d 8b83 10bd 5bf8 c5bd d4ab dd3c
000002e0: 564c bf3c 7974 2fbd d916 453e f170 bc3d
000002f0: d4c5 c8bd 1335 34bd bdda 91bd b4e2 ecbc
00000300: e3ed b13d fbd1 39bd ff44 c8bd 4924 e83d
00000310: 8587 523d f092 543d c17d 883d cfdc 9fbd
00000320: 94da b8bd dea1 15be 9b83 eabd 2580 dcbc
00000330: a58c e43d 1087 593d 8ac5 b5bd f8d1 663c
00000340: 0046 463e 83fa 87bd 13d6 19be c90e 24be
00000350: 649e 7cbd 793b 0abe 4cfa f1bd d0ff 57ba
00000360: 59a0 9fbd 3619 10bd 4ba8 c8bc 50ad eebd
00000370: ff2c c73d eeda ccbd 143a bc3d 1a77 0e3d
00000380: 95fc 31bd 73ea 82bd a2fc f2bc 7425 d93d
00000390: 1c2f e8bd 447d 24be ff40 e1bd b93e 9e3b
000003a0: 98f9 b9bd 934a f43d c298 81bd b59b 723e
000003b0: 4c74 39be e010 b1bd 2f97 213b 032b 90bb
000003c0: 340e 11bd b10a 9abd a9e9 f83c 1928 86bd
000003d0: 41eb 5fbb 7140 303d ade8 afbc 5c80 da3d
000003e0: 2ba6 cbbd 3173 89bd 0b26 6abd 868f b33d
000003f0: 1419 6abd 67c8 29bc 1cab 2f3d 0540 86bd

network_body._body_endoder.seq_layers.2.bias f4 [128]
0.0025177365 0.0022654075 -0.0023217234 0.0010664021 0.0014678192 0.00045948196 -0.0006840066 -0.0018451418
-0.0006512281 -0.0009870101 -9.01459e-05 -0.0033092662 -0.0019277114 0.0013840745 -0.0008052608 0.00011377831
-0.0006797641 -0.0034367507 0.0018191573 0.0021119374 -0.000301978 -0.0005928458 -0.0030009095 -0.0015621198
0.00036287124 0.00014260593 -0.0037320782 -0.002577667 0.0019658466 0.0016310291 -0.00041094408 -0.0009098102
-0.0027380409 -0.0025045343 0.0027662483 -0.0024428451 -0.0022683472 7.297841e-05 -0.0034088083 -0.0014048622
0.000932763 0.000809573 0.0010952365 -0.0013082228 -0.00048146828 -0.0020036055 -0.0033031225 -0.0012603597
-0.0024905624 0.0024206915 0.00091882073 0.0013439709 -0.0008618875 -0.00012265208 0.00032791856 0.0024074793
-0.00023876001 -4.861787e-05 0.00017391487 0.00054230925 0.0008788426 0.0016435451 -0.0024950146 0.0018557776
-0.0009090733 0.00034733754 -0.0018384937 -0.00027892305 -0.00021830141 0.0018800517 -0.00048327813 0.0016714399
6.8297726e-05 0.0018648644 0.001199792 -0.00032539477 -0.0020721883 -0.0010797441 0.0006319989 0.0014340956
-0.0016562947 0.0024553353 -0.0001067912 8.2135215e-05 -0.0017864289 -0.0011953611 -0.001305919 -0.0022364769
0.0020362108 0.0010548099 -0.0013588074 -0.001357183 -0.0032386498 0.0014851079 0.0006667656 0.004801728
-0.0022243352 0.0015121985 -0.0004582599 -0.003915562 0.00024075696 -0.0010374256 -0.0020601887 -0.0008745951
0.0004938872 0.003027064 -0.0017474209 -0.0002668161 0.00038901335 -0.0013465767 -0.0014012425 -0.001738149
0.0009651967 0.00018903885 0.0023493727 0.00283291 -0.002620172 -0.001172362 0.00019517248 -0.0022425556
0.0016949706 -0.0022026887 0.001974244 0.00048742848 -0.0002628814 0.00082867825 -0.0024426458 0.00090314384
00000000: 9c00 253b 3b77 143b 0e28 18bb 84c6 8b3a
00000010: d763 c03a a0e6 f039 e84e 33ba afd8 f1ba
00000020: 2eb7 2aba 905e 81ba b60c bdb8 46e0 58bb
00000030: 43ab fcba d569 b53a 2318 53ba 449c ee38
00000040: 3232 32ba 1c3b 61bb ca70 ee3a 6e68 0a3b
00000050: cd52 9eb9 3569 1bba e8aa 44bb 0bc0 ccba
00000060: c13f be39 7d88 1539 e295 74bb 13ee 28bb
00000070: 6fd5 003b 41c8 d53a fb73 d7b9 5480 6eba
00000080: b470 33bb 1d23 24bb f249 353b 2418 20bb
00000090: 8da8 14bb fc0b 9938 5066 5fbb 5a23 b8ba
000000a0: aa84 743a 8639 543a 0a8e 8f3a ac78 abba
000000b0: 946d fcb9 ec4e 03bb 3379 58bb a732 a5ba
000000c0: b438 23bb 77a4 1e3b 04dd 703a 2e28 b03a
000000d0: 4bf0 61ba 2b9c 00b9 7cec ab39 cdc6 1d3b
000000e0: a75b 7ab9 0aeb 4bb8 eb5c 3639 c229 0e3a
000000f0: 2162 663a 396c d73a 6683 23bb 903d f33a
00000100: e04e 6eba db1a b639 9df9 f0ba 6b3c 92b9
00000110: d7e7 64b9 116c f63a 7e60 fdb9 3714 db3a
00000120: 103b 8f38 776e f43a 5742 9d3a bf99 aab9
00000130: 8dcd 07bb 3386 8dba baac 253a 43f8 bb3a
00000140: 0718 d9ba b1e9 203b 17f5 dfb8 0240 ac38
00000150: 9b26 eaba aaad 9cba 5f2b abba db91 12bb
00000160: f371 053b 8c41 8a3a 031a b2ba 81e3 b1ba
00000170: 873f 54bb f4a7 c23a e2c9 2e3a d057 9d3b
00000180: 27c6 11bb f634 c63a 9a42 f0b9 1d4e 80bb
00000190: b473 7c39 3afa 87ba 3b04 07bb 1545 65ba
000001a0: 3578 013a b561 463b b709 e5ba 73e3 8bb9
000001b0: 7df4 cb39 9e7f b0ba e5a9 b7ba 9ad2 e3ba
000001c0: 4105 7d3a bb38 4639 eff7 193b 58a8 393b
000001d0: 31b7 2bbb f1a9 99ba 37a7 4c39 d7f7 12bb
000001e0: c729 de3a fc5a 10bb 5162 013b 8b8d ff39
000001f0: 58d3 89b9 a83b 593a cc14 20bb f5c0 6c3a

action_model._continuous_distribution.log_sigma f4 [1, 2]
0.0029675958 0.0010659936
00000000: ff7b 423b cfb8 8b3a

action_model._continuous_distribution.mu.weight f4 [2, 128]
-0.019966932 -0.026710793 0.015060842 0.0025266223 -0.022280972 0.0017394035 0.011841945 0.010939256
-0.022831852 -0.04783681 -0.0019962494 -0.011738077 -0.021420358 -0.034499545 0.035565145 0.014914162
0.01223196 0.0073366407 -0.010540108 -0.011132049 -0.009475411 0.019779226 0.0021594623 0.02527106
-0.007986013 -0.010160784 -0.022204952 0.015829476 0.024323117 -0.029708816 0.022842934 0.0142808035
0.0018395586 0.012770781 0.0186749 -0.009475088 -0.008060264 -0.014906356 0.02147295 0.011347566
0.050435893 0.004149104 -0.012247298 -0.019603908 0.016271204 -0.004444897 -0.014774729 0.0021726242
-0.00432115 -0.0028184378 0.015476674 0.00081315864 -0.008381039 -0.00031427172 -0.0068301805 0.0055585527
-0.016010286 0.00047904337 -0.02744821 -0.02032688 0.00018289634 -0.022984223 0.00022870494 -0.032504093
0.0071880193 -0.007920855 0.007027862 0.0008173681 -0.004704258 -0.027237127 0.014406844 -0.030291112
0.027267624 0.0034153697 0.0006131777 0.008428838 0.024682451 0.017169766 -0.0108342115 -0.023937408
0.006816931 -0.0060689887 0.011121822 0.018530559 0.041415084 0.017481312 0.017732091 -0.025064075
0.0040304568 -0.024026785 0.009004528 0.021196788 0.0003574532 0.0058033695 0.010324592 0.013417401
0.022817874 0.00019271762 -0.0062116683 -0.01861086 -0.032853853 0.0039711157 0.019342834 0.012646959
0.007438713 0.0070268433 0.016098527 -0.023798138 -0.00661945 0.02274522 0.007650868 -0.003810221
-0.0033260954 0.0034620045 -0.025904806 0.014072746 -0.01843364 0.0074554537 -0.033230234 -0.01336971
0.018911494 0.0014544636 0.008253815 -0.008857041 -0.011328718 -0.027136397 0.0046668006 -0.009396483
-0.0063389894 -0.0018327943 -0.006186863 0.013293316 -0.015917141 0.018349683 -0.0051154 0.011712782
0.049517483 0.0002175528 0.022009054 -0.02474074 0.0056239376 0.018880272 -0.0019172647 0.0250911
-0.0032740827 -0.0039842357 -0.013523809 -0.013546158 0.008400297 0.0075792605 -0.00194958 0.0001226617
-0.011147692 -0.016940594 0.017429894 -0.016930854 0.0013173615 -0.015625779 -0.005081973 0.026405271
0.010605367 0.024519851 0.016188843 0.019839415 0.010187512 -0.016597588 -0.005957042 -0.0076839523
-0.005880273 -0.03816782 -0.011056146 0.032089513 0.004686935 0.009105419 -0.020523453 -0.0034282482
0.0023626094 -0.008383798 -0.018444637 -0.009015207 -0.0102647655 0.01940735 0.0046835314 -0.016020615
-0.0017279405 -0.029539892 0.02528975 0.009085973 0.020775588 -0.0096121635 0.010494422 0.013840358
0.002548884 0.01876256 0.008464976 0.0028072214 0.021528855 -0.001787097 0.011532264 0.0035371587
0.004471254 0.011201567 -0.0008480033 0.0035735557 8.836554e-06 -0.00029337025 0.0020235092 -0.020552512
0.018773504 -0.0016882366 -0.02714939 -0.008640202 0.002357942 0.011146592 -0.017169172 0.0040812218
-0.013179585 0.00343821 0.012554777 -0.004573533 0.011566832 -0.0048458716 0.029498858 0.017286552
-0.021158732 -0.005738053 0.019764833 -0.0041008177 0.010507989 0.01914684 0.005302252 0.04434526
-0.022635277 0.019886255 0.018923538 0.0072540576 0.014257013 0.008179908 0.0035442347 -0.006221858
0.015362784 0.022190064 -0.0038462256 0.006360655 -0.009969938 -0.016880203 0.004512805 0.0057487516
-0.011728961 -0.022109801 0.007601496 -0.0070024235 -0.02135813 0.010673456 0.0148309 -0.008343929
00000000: b191 a3bc 98d0 dabc c0c1 763c b095 253b
00000010: 9686 b6bc b2fc e33a b804 423c 913a 333c
00000020: dd09 bbbc 88f0 43bd 82d3 02bb 1051 40bc
00000030: bf79 afbc 654f 0dbd c2ac 113d 885a 743c
00000040: 8f68 483c 3468 f03b 6bb0 2cbc 3363 36bc
00000050: c13e 1bbc 0b08 a23c c485 0d3b 4105 cf3c
00000060: c4d7 02bc 6b79 26bc 29e7 b5bc d1ac 813c
00000070: 4641 c73c e75f f3bc 1b21 bb3c 08fa 693c
00000080: 581d f13a 8a3c 513c 1bfc 983c 663d 1bbc
00000090: 330f 04bc ca39 74bc 0ae8 af3c 24eb 393c
000000a0: de95 4e3d 35f5 873b e4a8 48bc 6098 a0bc
000000b0: 304b 853c 80a6 91bb b411 72bc 9662 0e3b
000000c0: 6f98 8dbb 8ab5 38bb e091 7d3c 272a 553a
000000d0: a050 09bc d6c4 a4b9 b5cf dfbb 8524 b63b
000000e0: 0128 83bc 1d28 fb39 12db e0bc 8f84 a6bc
000000f0: ddc7 3f39 6949 bcbc 84d0 6f39 0323 05bd
00000100: 7a89 eb3b 79c6 01bc fb49 e63b a544 563a
00000110: 2d26 9abb 6520 dfbc af0a 6c3c 1125 f8bc
00000120: 5a60 df3c 65d4 5f3b a9bd 203a 1c19 0a3c
00000130: da32 ca3c 9ca7 8c3c fa81 31bc 6218 c4bc
00000140: 9060 df3b 5ede c6bb 4d38 363c 66cd 973c
00000150: dda2 293d f834 8f3c e442 913c 2d53 cdbc
00000160: ec11 843b d2d3 c4bc ba87 133c e3a4 ad3c
00000170: 8e68 bb39 312a be3b 7a28 293c a9d4 5b3c
00000180: 8dec ba3c 3e14 4a39 408b cbbb cd75 98bc
00000190: c391 06bd 2220 823b dd74 9e3c 3135 4f3c
000001a0: 73c0 f33b 6f41 e63b 0fe1 833c 50f4 c2bc
000001b0: f9e7 d8bb 2f54 ba3c 22b4 fa3b e7b4 79bb
000001c0: 9ffa 59bb cce2 623b 5136 d4bc 6091 663c
000001d0: 2502 97bc e14c f43b 6d1c 08bd a10c 5bbc
000001e0: 47ec 9a3c b3a3 be3a 023b 073c 1f1d 11bc
000001f0: 169c 39bc 264d debc f6eb 983b b5f3 19bc
00000200: 4cb7 cfbb 5f3a f0ba 2bbb cabb 35cc 593c
00000210: aa64 82bc 1352 963c 169f a7bb f8e6 3f3c
00000220: d8d2 4a3d e31e 6439 554c b43c 18ad cabc
00000230: 0249 b83b cdaa 9a3c ba4c fbba da8b cd3c
00000240: fe91 56bb 318e 82bb f792 5dbc b4f0 5dbc
00000250: 66a1 093c 725b f83b 0d89 ffba c09e 0039
00000260: cfa4 36bc 00c7 8abc 23c9 8e3c 93b2 8abc
00000270: 51ab ac3a a201 80bc ae86 a6bb de4f d83c
00000280: 22c2 2d3c dbdd c83c 779e 843c 4586 a23c
00000290: 86e9 263c aaf7 87bc 4a33 c3bb aac9 fbbb
000002a0: 4eaf c0bb dc55 1cbd d624 35bc 4b70 033d
000002b0: dc94 993b e52e 153c cd20 a8bc 76ac 60bb
000002c0: 02d6 1a3b 335c 09bc 3519 97bc 85b4 13bc
000002d0: 8c2d 28bc 2afc 9e3c 4f78 993b aa3d 83bc
000002e0: 107c e2ba a5fd f1bc 732c cf3c 55dd 143c
000002f0: 9131 aa3c 567c 1dbc ccf0 2b3c abc2 623c
00000300: 2d0b 273b f1b3 993c afb0 0a3c 5cf9 373b
00000310: 485d b03c 063d eaba d2f1 3c3c adcf 673b
00000320: 9983 923b c786 373c 8a4c 5eba 5132 6a3b
00000330: b640 1437 7dcf 99b9 da9c 043b be5d a8bc
00000340: e4ca 993c d247 ddba 6668 debc a28f 0dbc
00000350: b487 1a3b 32a0 363c 5da6 8cbc c5bb 853b
00000360: 30ef 57bc 9853 613b 8db2 4d3c 93dd 95bb
00000370: cf82 3d3c 1eca 9ebb 97a7 f13c 879c 8d3c
00000380: 1455 adbc 4706 bcbb dce9 a13c 2760 86bb
00000390: b329 2c3c d5d9 9c3c 83be ad3b 60a3 353d
000003a0: 9e6d b9bc 80e8 a23c 8905 9b3c 72b3 ed3b
000003b0: 3f96 693c 0505 063c 6446 683b bae0 cbbb
000003c0: 30b4 7b3c f0c7 b53c f510 7cbb 0b6d d03b
000003d0: f358 23bc 5a48 8abc 27e0 933b 0660 bc3b
000003e0: d42a 40bc 9d1f b5bc f815 f93b 9674 e5bb
000003f0: 3ff7 aebc b8df 2e3c 4efd 723c fab4 08bc

action_model._continuous_distribution.mu.bias f4 [2]
-0.001548545 -0.00018912333
00000000: 8cf8 caba 684f 46b9

action_model._discrete_distribution.branches.0.weight f4 [5, 128]
-0.0037552617 -0.0043817665 0.014564835 0.0008706314 -0.004922438 -0.0015823822 -0.004454249 -0.010752398
0.007046699 0.02101703 0.0030999852 0.0031568 -0.012065744 -0.01078018 -0.020795804 -0.008073957
0.004763518 0.012197644 0.0040472257 -0.0070768977 0.0031815302 -0.01669496 -0.006530686 0.012772007
0.0024207374 0.025558794 -0.010375254 -0.009838068 -0.017297404 0.017819172 0.007549407 -0.01169429
0.008979381 0.00467386 0.012914729 0.00408524 -0.0055249 0.008215553 -0.0024760368 0.0141126225
-0.019328639 -0.006285477 -0.00081067096 -0.0019204331 0.0004081781 -0.004924079 -0.0016415428 -0.008214068
-0.00703434 -0.0008907578 -0.012847953 -0.0050439085 0.0018597203 0.011129636 0.001228112 0.0099491095
-0.00043985955 0.0053138523 -0.009223167 -0.004325438 0.00928626 0.00640341 0.005511518 -0.00236209
-0.0008502908 -0.0036242486 0.011408292 0.00040693046 0.017265497 -0.016479794 -0.00020184404 -0.010789123
-0.005987045 0.0011411362 -0.021377074 0.0077895247 1.8690707e-05 0.010841482 0.0027091943 -0.007598677
-0.011974141 -0.019974474 0.01551192 0.0017658767 -0.0016518796 0.00048995094 0.017861616 0.018665038
0.0044431384 0.011211945 0.0003758819 0.0013527265 0.010451913 0.01475646 -0.003527778 0.00079906295
-0.0017360048 -0.0051732035 0.010510167 -0.003375823 -0.0029794045 0.0074561085 -0.0030318247 0.0049436605
0.0010437989 0.007621049 0.019860046 -0.008418458 -0.021136118 0.006115421 0.0074316836 0.0042353375
0.0027546661 0.0043623275 -0.0075228377 -0.003975192 0.01617316 0.006039636 -0.010171866 0.010221842
-0.0012564628 -0.0029146774 0.00070828554 0.020251516 0.011592846 -0.013566893 -0.006019178 0.0011392066
0.0027879667 -0.004939753 0.012333094 0.010098002 -0.010051634 0.010443665 -0.028049253 0.00860781
-0.0051782583 0.004200071 -0.004922578 0.0071163075 0.016341243 0.0012048165 0.0019417529 0.0035768896
-0.012490624 0.0029076992 0.0030280983 -0.0052711484 0.008698413 0.010643937 -0.0012031273 0.0066829533
-0.0010481993 -0.016552065 -0.00595261 0.0004577839 0.0064290497 0.016458068 -0.010707705 0.010369877
-0.008015689 0.011244093 0.008844663 -0.011414992 -0.008473722 0.011387366 0.0035516112 -0.0005320512
-0.00057921663 -0.0041441023 0.0015481832 -0.0041857543 -0.0066039246 0.007529511 -8.9849145e-06 0.0034282696
-0.008281127 0.0025920125 0.013284051 -0.009898649 -0.005448308 -0.017653957 0.0003139615 0.007924955
0.011300193 0.0024937075 0.004184507 -0.008137764 0.0027221148 0.013451213 -0.00055805064 -0.003290359
8.351693e-05 -0.015608055 0.006907356 -0.015098409 0.0111455815 0.0015423256 -0.014793474 -0.0150198545
-0.011085576 -0.014644814 -0.0004306052 0.011960959 0.008965895 -0.016532915 0.002449963 -0.006059706
-0.0025937275 0.019473022 -0.0054674544 -0.0028591303 -0.0058908346 -0.0051352936 0.021052603 0.0070046075
0.008667822 0.0047451053 -0.001309035 -0.012993429 -0.027021328 0.007750584 0.002284714 7.895884e-06
-0.009429415 0.008066593 0.0020622008 -0.015218775 0.016104916 0.008226885 0.0053582964 0.00024884564
0.01523751 -0.003983145 -0.00014833237 0.0007558922 0.0013032517 -0.0031930117 0.0035129196 0.002085308
-0.010676661 0.0016375213 -0.008386685 0.004436708 0.0042375787 0.009109449 -0.0037860204 0.020333037
0.009391977 0.0036415674 0.0032045287 0.0004462501 -0.006048198 0.0047338586 0.009817537 0.0029850276
00000000: d61a 76bb ec94 8fbb 58a1 6e3c 163b 643a
00000010: 674c a1bb f067 cfba f3f4 91bb d32a 30bc
00000020: ffe7 e63b e82b ac3c 1f29 4b3b 51e2 4e3b
00000030: 66af 45bc 5a9f 30bc f65b aabc a148 04bc
00000040: 4917 9c3b a1d8 473c 979e 843b 52e5 e7bb
00000050: 3881 503b dec3 88bc 5dff d5bb ae41 513c
00000060: 3ca5 1e3b ad60 d13c f8fc 29bc d92f 21bc
00000070: 49b3 8dbc 83f9 913c 0461 f73b 6899 3fbc
00000080: 411e 133c 2e27 993b 4d98 533c 7add 853b
00000090: 380a b5bb 879a 063c 0145 22bb a138 673c
000000a0: 1857 9ebc 67f6 cdbb 3583 54ba 0bb7 fbba
000000b0: bd00 d639 2b5a a1bb 0929 d7ba 4c94 06bc
000000c0: 5280 e6bb be81 69ba 3880 52bc 5f47 a5bb
000000d0: dcc1 f33a 1459 363c 9af8 a03a 9701 233c
000000e0: f39c e6b9 d31f ae3b c41c 17bc 67bc 8dbb
000000f0: 6625 183c b2d3 d13b f799 b43b 4bcd 1abb
00000100: 0de6 5eba cd84 6dbb d8e9 3a3c 4859 d539
00000110: 5f70 8d3c a200 87bc 19a6 53b9 ddc4 30bc
00000120: f92e c4bb 2d92 953a f91e afbc 453f ff3b
00000130: fdc9 9c37 79a0 313c bd8c 313b 53fe f8bb
00000140: 302f 44bc 82a1 a3bc b525 7e3c fd74 e73a
00000150: e283 d8ba 0d70 003a 8652 923c 6ce7 983c
00000160: bf97 913b 4eb2 373c 0412 c539 f84d b13a
00000170: 803e 2b3c 14c5 713c 4b32 67bb 3578 513a
00000180: a88a e3ba fa83 a9bb d632 2c3c e93c 5dbb
00000190: 1d42 43bb 5f52 f43b 94b1 46bb 6efe a13b
000001a0: 14d0 883a feb9 f93b 89b1 a23c 92ed 09bc
000001b0: a725 adbc df63 c83b 7b85 f33b 96c8 8a3b
000001c0: a187 343b dbf1 8e3b 2382 f6bb 5442 82bb
000001d0: 937d 843c 24e8 c53b e6a7 26bc 8379 273c
000001e0: e5af a4ba 2c04 3fbb 3dac 393a 82e6 a53c
000001f0: ecef 3d3c ac47 5ebc 863c c5bb 6e51 953a
00000200: 52b6 363b a7dd a1bb bf10 4a3c 1772 253c
00000210: 9caf 24bc e81b 2b3c 8cc7 e5bc c607 0d3c
00000220: 61ae a9bb c0a0 893b 944d a1bb ea2f e93b
00000230: 12de 853c efea 9d3a 6a82 fe3a 406a 6a3b
00000240: 79a5 4cbc 198f 3e3b 0f73 463b 99b9 acbb
00000250: ca83 0e3c e863 2e3c 41b2 9dba adfc da3b
00000260: bb63 89ba 3298 87bc 1d0e c3bb b702 f039
00000270: c7aa d23b 12d3 863c 5f6f 2fbc 6be6 293c
00000280: 3d54 03bc 2539 383c 35e9 103c f205 3bbc
00000290: 5ed5 0abc 1392 3a3c 26c2 683b 5a79 0bba
000002a0: 92d6 17ba 40cb 87bb 68ec ca3a a728 89bb
000002b0: bc65 d8bb 1eba f63b eabd 16b7 d2ac 603b
000002c0: 90ad 07bc c1de 293b 59a5 593c f12d 22bc
000002d0: b887 b2bb 089f 90bc 339b a439 acd7 013c
000002e0: 7224 393c 786d 233b 301e 893b 4254 05bc
000002f0: 8265 323b 7a62 5c3c 254a 12ba 10a3 57bb
00000300: cf25 af38 edb8 7fbc 1a57 e23b 515f 77bc
00000310: f59b 363c dc27 ca3a 5460 72bc d615 76bc
00000320: 47a0 35bc cdf0 6fbc dac2 e1b9 e6f7 433c
00000330: b0e5 123c 0970 87bc 8f8f 203b 8090 c6bb
00000340: 87fb 29bb e385 9f3c 5528 b3bb 3f60 3bbb
00000350: e707 c1bb f745 a8bb 8276 ac3c e886 e53b
00000360: 7b03 0e3c d47c 9b3b ed93 abba 64e2 54bc
00000370: d55b ddbc 9cf8 fd3b 24bb 153b 9078 0437
00000380: d57d 1abc be29 043c fd25 073b 2b58 79bc
00000390: 75ee 833c 0fca 063c a694 af3b 7f77 8239
000003a0: c0a6 793c 0b85 82bb ab89 1bb9 1127 463a
000003b0: dfd1 aa3a d941 51bb 0339 663b aaa9 083b
000003c0: 29ed 2ebc 19a2 d63a 4e68 09bc ce61 913b
000003d0: 63db 8a3b cc3f 153c e21e 78bb 7891 a63c
000003e0: cfe0 193c 5da7 6e3b 1203 523b adf6 e939
000003f0: f62f c6bb 7c1e 9b3b bcd9 203c 74a0 433b

action_model._discrete_distribution.branches.0.bias f4 [5]
-0.0018357385 -0.0033112785 0.0020080379 0.00026011292 -0.0003451171
00000000: 2a9d f0ba 0902 59bb 4999 033b c45f 8839
00000010: d5f0 b4b9

exp_avg f4 [128, 48]
6.033641e-08 0.0 1.8776218e-07 -5.177043e-07 -2.1006947e-07 0.0 1.3581315e-07 -5.343518e-07
-9.753617e-07 0.0 -4.0937118e-07 -2.2953219e-07 -6.0336136e-09 0.0 7.900288e-07 5.3698056e-07
-3.2881812e-07 0.0 -3.526511e-07 2.412141e-07 -3.3158817e-10 0.0 1.0171424e-06 6.2633507e-07
-3.3158817e-10 0.0 1.0171424e-06 6.2633507e-07 -2.6895714e-05 -2.45742e-06 1.9169413e-05 4.33662e-05
1.5725341e-06 1.3968291e-06 4.6799883e-05 1.5725341e-06 6.146381e-06 1.2673134e-05 -1.8965251e-06 9.446167e-09
5.533906e-07 9.059535e-06 2.8652298e-08 -4.8697424e-10 -1.7883172e-08 0.0 0.0 0.0
1.8645387e-06 0.0 -3.5112444e-07 -1.5064439e-05 2.7382941e-06 0.0 2.8826703e-06 -2.9898896e-05
-3.3445995e-05 0.0 4.5143247e-06 -1.9410413e-06 4.8294487e-07 0.0 -3.4038407e-05 -3.354126e-05
-1.3864663e-05 0.0 3.3021688e-06 5.4130473e-06 3.7779453e-06 0.0 -4.546469e-05 -3.9410595e-05
3.7779453e-06 0.0 -4.546469e-05 -3.9410595e-05 0.0004340874 0.00014795248 -4.339559e-05 0.0001451589
-9.785214e-05 0.0005128916 0.00012912924 -9.785214e-05 0.0005925752 2.6276897e-05 -5.5347547e-05 8.7255506e-07
1.3334157e-05 0.00011401649 -1.273502e-07 3.2985426e-07 3.01171e-08 0.0 0.0 0.0
1.0638282e-06 0.0 -2.8691466e-06 -8.635257e-06 -3.6242163e-06 0.0 1.8071256e-06 -1.6226006e-05
9.408102e-06 0.0 -6.3843777e-06 -2.342974e-05 2.7519755e-08 0.0 -2.1436768e-05 -1.9560246e-05
2.9987157e-06 0.0 -1.8325484e-06 6.8486856e-06 -1.2228242e-06 0.0 3.4814213e-06 9.540422e-07
-1.2228242e-06 0.0 3.4814213e-06 9.540422e-07 0.00015110166 8.8694986e-05 -9.506045e-06 0.00019782253
-5.735415e-05 0.00030989837 0.00011012751 -5.735415e-05 0.00045988962 -0.00021226653 -5.4032853e-06 7.5479704e-07
2.1788753e-07 8.353227e-05 -1.8020936e-06 4.7985014e-07 2.8232447e-08 0.0 0.0 0.0
6.477342e-07 0.0 2.209055e-06 1.2103277e-06 6.386655e-07 0.0 5.788113e-06 -1.2013024e-06
1.5283655e-05 0.0 2.5516863e-06 -1.3093922e-05 6.2737155e-07 0.0 -7.800218e-06 -5.4455013e-06
-2.9728033e-06 0.0 2.2242682e-06 1.2632145e-07 -6.4976746e-07 0.0 6.8777954e-06 1.0987483e-05
-6.4976746e-07 0.0 6.8777954e-06 1.0987483e-05 4.706403e-05 1.917056e-05 -6.6573964e-05 3.3409975e-05
-1.2930983e-05 3.1671425e-05 0.00019868859 -1.2930983e-05 4.9044644e-05 -9.873613e-05 1.5302985e-05 -2.2287551e-07
-7.7409495e-06 0.00010384867 -3.0498915e-09 -3.5476384e-07 1.4484321e-07 0.0 0.0 0.0
-9.518844e-07 0.0 4.7882857e-08 6.7363244e-06 -2.616515e-06 0.0 5.8225482e-06 7.3138126e-06
-2.827032e-07 0.0 -3.3970564e-06 5.5924883e-08 -2.2199349e-07 0.0 6.494172e-06 8.673418e-06
3.7596153e-06 0.0 -1.3839662e-06 2.1929131e-06 -5.967335e-07 0.0 2.6363432e-06 -3.57452e-07
-5.967335e-07 0.0 2.6363432e-06 -3.57452e-07 0.00013231771 -3.8471182e-05 -2.123917e-05 0.00015162434
2.5692809e-05 -0.00012699522 0.0002626993 2.5692809e-05 -0.00016968085 3.0081368e-05 -1.4360451e-06 -3.8450784e-07
3.5288579e-06 2.3953959e-05 2.7866156e-06 1.1732399e-07 -1.9658182e-06 0.0 0.0 0.0
3.05687e-07 0.0 2.793797e-08 -1.2103026e-06 -2.4796113e-06 0.0 -1.0157191e-06 -2.3183238e-06
2.930278e-06 0.0 -2.5938975e-06 -3.6300728e-06 -6.1567334e-08 0.0 -6.464855e-06 -4.2876104e-06
00000000: 4b92 8133 0000 0000 ad9b 4934 5ef8 0ab5
00000010: 758f 61b4 0000 0000 09d4 1134 6070 0fb5
00000020: 2ce9 82b5 0000 0000 8cc7 dbb4 5475 76b4
00000030: 3a50 cfb1 0000 0000 5e12 5435 0625 1035
00000040: 6b88 b0b4 0000 0000 0054 bdb4 3780 8134
00000050: e34a b6af 0000 0000 bf84 8835 6b21 2835
00000060: e34a b6af 0000 0000 bf84 8835 6b21 2835
00000070: 1b9e e1b7 27ea 24b6 00ce a037 1ae4 3538
00000080: dc0f d335 af7a bb35 fe4a 4438 dc0f d335
00000090: 033d ce36 b29e 5437 1b8c feb5 af48 2232
000000a0: b68c 1435 68fe 1737 121f f632 c4db 05b0
000000b0: 839d 99b2 0000 0000 0000 0000 0000 0000
000000c0: 1041 fa35 0000 0000 2d82 bcb4 46bd 7cb7
000000d0: 89c3 3736 0000 0000 e673 4136 64cf fab7
000000e0: 5d48 0cb8 0000 0000 c179 9736 d642 02b6
000000f0: b8a3 0135 0000 0000 76c4 0eb8 a7ae 0cb8
00000100: 469c 68b7 0000 0000 d49a 5d36 b9a1 b536
00000110: 9b88 7d36 0000 0000 57b1 3eb8 ce4c 25b8
00000120: 9b88 7d36 0000 0000 57b1 3eb8 ce4c 25b8
00000130: 3996 e339 b123 1b39 a903 36b8 cc35 1839
00000140: f835 cdb8 9373 063a de66 0739 f835 cdb8
00000150: 0c57 1b3a 356d dc37 fa24 68b8 8739 6a35
00000160: c5b5 5f37 231c ef38 c2bd 08b4 d316 b134
00000170: 1a5a 0133 0000 0000 0000 0000 0000 0000
00000180: dcc8 8e35 0000 0000 908b 40b6 25e0 10b7
00000190: 9037 73b6 0000 0000 5d8c f235 151d 88b7
000001a0: 7ed7 1d37 0000 0000 6339 d6b6 fc8a c4b7
000001b0: 9564 ec32 0000 0000 1cd3 b3b7 4f15 a4b7
000001c0: 8b3d 4936 0000 0000 e2f5 f5b5 c3cd e536
000001d0: eb1f a4b5 0000 0000 5da2 6936 a40c 8035
000001e0: eb1f a4b5 0000 0000 5da2 6936 a40c 8035
000001f0: 0b71 1e39 c201 ba38 277c 1fb7 956e 4f39
00000200: 8d8f 70b8 db79 a239 42f4 e638 8d8f 70b8
00000210: 571d f139 dd93 5eb9 de4d b5b6 429d 4a35
00000220: 78f4 6934 0c2e af38 77df f1b5 0dcf 0035
00000230: cf83 f232 0000 0000 0000 0000 0000 0000
00000240: f5df 2d35 0000 0000 473f 1436 8b72 a235
00000250: c270 2b35 0000 0000 8337 c236 703c a1b5
00000260: 6635 8037 0000 0000 a33d 2b36 f7ad 5bb7
00000270: a568 2835 0000 0000 aedd 02b7 80b8 b6b6
00000280: 5f80 47b6 0000 0000 a344 1536 faa2 0734
00000290: ae6b 2eb5 0000 0000 d0c7 e636 e156 3837
000002a0: ae6b 2eb5 0000 0000 d0c7 e636 e156 3837
000002b0: 9e66 4538 77d0 a037 a09d 8bb8 b021 0c38
000002c0: 26f2 58b7 efd6 0438 1057 5039 26f2 58b7
000002d0: 49b5 4d38 8e10 cfb8 e95e 8037 8e4f 6fb4
000002e0: 20df 01b7 55c9 d938 4296 51b1 5f76 beb4
000002f0: 3386 1b34 0000 0000 0000 0000 0000 0000
00000300: ff84 7fb5 0000 0000 c2a7 4d33 9608 e236
00000310: 6397 2fb6 0000 0000 4f5f c336 2c69 f536
00000320: 6fc6 97b4 0000 0000 fcf8 63b6 0f32 7033
00000330: 1b5d 6eb4 0000 0000 83e8 d936 0c84 1137
00000340: b34d 7c36 0000 0000 b7c0 b9b5 f629 1336
00000350: 372f 20b5 0000 0000 08ec 3036 d4e7 bfb4
00000360: 372f 20b5 0000 0000 08ec 3036 d4e7 bfb4
00000370: c4be 0a39 1e5c 21b8 c52a b2b7 59fd 1e39
00000380: e386 d737 052a 05b9 e7ba 8939 e386 d737
00000390: 5bec 31b9 3f57 fc37 22be c0b5 5b6e ceb4
000003a0: 51d1 6c36 bcf0 c837 b101 3b36 8cf3 fb33
000003b0: 80ec 03b6 0000 0000 0000 0000 0000 0000
000003c0: 4d1d a434 0000 0000 3ffc ef32 ae71 a2b5
000003d0: 6667 26b6 0000 0000 d853 88b5 8094 1bb6
000003e0: cba5 4436 0000 0000 d212 2eb6 2d9c 73b6
000003f0: 0037 84b3 0000 0000 aeec d8b6 4bde 8fb6

exp_avg_sq f4 [128, 48]
6.490788e-13 0.0 1.5319095e-12 5.490443e-12 2.5950496e-13 0.0 2.7706457e-12 1.2999608e-11
9.290762e-13 0.0 5.4114807e-12 1.1990505e-11 1.5654639e-13 0.0 4.0962837e-11 3.952102e-11
2.254689e-13 0.0 6.9165077e-12 1.0718786e-11 9.129185e-17 0.0 4.0626544e-11 3.9658655e-11
9.129185e-17 0.0 4.0626544e-11 3.9658655e-11 1.4041611e-08 7.598368e-10 1.3326485e-09 3.8274173e-08
3.3652137e-10 3.7802366e-08 4.906581e-09 3.3652137e-10 1.0741817e-08 3.9692236e-09 6.8811856e-13 5.3621594e-14
3.3074327e-12 2.1146405e-09 3.9192083e-15 1.157267e-18 9.149058e-16 0.0 0.0 0.0
3.3003043e-12 0.0 4.502956e-12 1.5770425e-10 1.1063117e-12 0.0 4.413657e-11 5.6825117e-10
3.759545e-10 0.0 2.422835e-11 1.2453172e-10 1.4291984e-12 0.0 8.257643e-10 8.374596e-10
2.1052078e-10 0.0 2.9609412e-11 6.643227e-11 2.1989203e-12 0.0 6.8454437e-10 6.6735917e-10
2.1989203e-12 0.0 6.8454437e-10 6.6735917e-10 1.3993716e-07 1.608234e-08 3.8357393e-09 5.766471e-08
7.1598945e-09 3.2705753e-07 6.16873e-08 7.1598945e-09 3.3032725e-07 1.7766979e-08 5.0389454e-10 1.0387299e-13
7.874523e-11 7.9062215e-09 7.205724e-13 1.5155781e-14 5.7982326e-12 0.0 0.0 0.0
2.8683176e-12 0.0 2.116127e-11 2.410627e-10 1.4825629e-11 0.0 8.975477e-11 5.532597e-10
7.538303e-11 0.0 9.759263e-11 4.14095e-10 3.5571e-12 0.0 1.1674387e-09 1.2324375e-09
5.5762128e-11 0.0 6.540334e-10 7.309155e-10 1.5092662e-12 0.0 9.044494e-10 1.0275661e-09
1.5092662e-12 0.0 9.044494e-10 1.0275661e-09 2.009766e-07 2.480234e-08 2.1714682e-08 7.608585e-07
1.1133837e-08 5.1621123e-07 5.120784e-07 1.1133837e-08 4.424997e-07 9.918707e-08 1.6360888e-10 1.7701053e-12
6.2601785e-11 2.3909811e-08 4.132956e-12 3.733217e-14 2.0837436e-12 0.0 0.0 0.0
3.2415201e-12 0.0 3.6726516e-12 6.654688e-11 1.0331501e-12 0.0 2.5775026e-11 2.097765e-10
9.4385416e-11 0.0 1.6310158e-11 9.767474e-11 6.528477e-13 0.0 3.0663966e-10 3.0807462e-10
2.7681633e-11 0.0 1.7662517e-11 3.8338083e-11 6.572505e-13 0.0 2.3901847e-10 2.4155525e-10
6.572505e-13 0.0 2.3901847e-10 2.4155525e-10 5.851412e-08 5.9173413e-09 3.3963774e-09 1.5833598e-08
2.636578e-09 1.06840886e-07 2.8817432e-08 2.636578e-09 1.2225951e-07 8.8568575e-09 1.5831599e-10 1.0579543e-14
3.7101513e-11 3.5142813e-09 1.2592957e-13 2.985719e-14 1.9512536e-13 0.0 0.0 0.0
9.208467e-13 0.0 9.327424e-12 8.892114e-11 8.747112e-12 0.0 4.047235e-11 2.5551403e-10
1.5495837e-11 0.0 3.724645e-11 2.3937133e-10 3.6375336e-12 0.0 6.785879e-10 7.299761e-10
1.23649745e-11 0.0 6.35202e-10 6.465712e-10 1.7430421e-12 0.0 6.231713e-10 6.4461886e-10
1.7430421e-12 0.0 6.231713e-10 6.4461886e-10 8.9572936e-08 1.3821877e-08 1.342552e-08 5.3760084e-07
6.144624e-09 2.6717498e-07 3.4013993e-07 6.144624e-09 1.7876847e-07 7.4520685e-08 1.921435e-11 1.4919157e-13
1.1386894e-11 5.790249e-09 7.777547e-12 9.445851e-15 7.373308e-12 0.0 0.0 0.0
8.178051e-13 0.0 2.1619416e-12 9.572497e-11 5.81581e-12 0.0 6.766594e-12 3.460677e-10
1.5047179e-11 0.0 2.9973586e-11 3.520327e-10 1.4307229e-12 0.0 1.0501868e-09 1.0933746e-09
00000000: 0fb3 362b 0000 0000 db98 d72b 842d c12c
00000010: 9b16 922a 0000 0000 84f7 422c 08b1 642d
00000020: 7fc1 822b 0000 0000 4966 be2c 6ff0 522d
00000030: 6d41 302a 0000 0000 0e28 342e b6d0 2d2e
00000040: fcda 7d2a 0000 0000 5d5a f32c 1f91 3c2d
00000050: 3281 d224 0000 0000 6cad 322e ad6b 2e2e
00000060: 3281 d224 0000 0000 6cad 322e ad6b 2e2e
00000070: a93b 7132 c3dc 5030 6728 b730 e662 2433
00000080: 2c01 b92f 245c 2233 be96 a831 2c01 b92f
00000090: 038b 3832 a961 8831 2bb0 412b 7d7d 7129
000000a0: 69bd 682c 2651 1131 5134 8d27 50c8 aa21
000000b0: 11da 8326 0000 0000 0000 0000 0000 0000
000000c0: ff3c 682c 0000 0000 066f 9e2c cd65 2d2f
000000d0: 14b3 9b2b 0000 0000 5c1d 422e 1f33 1c30
000000e0: e4ae ce2f 0000 0000 651d d52d 90ec 082f
000000f0: 4d24 c92b 0000 0000 fffb 6230 fb32 6630
00000100: 5578 672f 0000 0000 3c39 022e 0b16 922e
00000110: 3abc 1a2c 0000 0000 872a 3c30 3a71 3730
00000120: 3abc 1a2c 0000 0000 872a 3c30 3a71 3730
00000130: a241 1634 7125 8a32 85cb 8331 05ab 7733
00000140: 1903 f631 7296 af34 f478 8433 1903 f631
00000150: d557 b134 009e 9832 6d82 0a30 b4e6 e929
00000160: a029 ad2e eed3 0732 b7d2 4a2b da82 8828
00000170: d601 cc2c 0000 0000 0000 0000 0000 0000
00000180: 04d7 492c 0000 0000 f222 ba2d 8f86 842f
00000190: 5968 822d 0000 0000 725f c52e 3114 1830
000001a0: e0c4 a52e 0000 0000 c49b d62e b1a6 e32f
000001b0: 044f 7a2c 0000 0000 9973 a030 8a62 a930
000001c0: 933e 752e 0000 0000 82c7 3330 9be9 4830
000001d0: 0c69 d42b 0000 0000 f89c 7830 453a 8d30
000001e0: 0c69 d42b 0000 0000 f89c 7830 453a 8d30
000001f0: 07cc 5734 ec0c d532 1787 ba32 cc3d 4c35
00000200: 2247 3f32 c491 0a35 c275 0935 2247 3f32
00000210: b290 ed34 ab00 d533 cee3 332f c41e f92b
00000220: aca9 892e 3b62 cd32 5c6a 912c 1021 2829
00000230: 63a1 122c 0000 0000 0000 0000 0000 0000
00000240: 091a 642c 0000 0000 4e38 812c 9056 922e
00000250: 2867 912b 0000 0000 33b8 e22d d6a6 662f
00000260: 448e cf2e 0000 0000 3677 8f2d fec9 d62e
00000270: a2c2 372b 0000 0000 b293 a82f a65d a92f
00000280: 7f7d f32d 0000 0000 745c 9b2d d89c 282e
00000290: e4ff 382b 0000 0000 dc66 832f e1cb 842f
000002a0: e4ff 382b 0000 0000 dc66 832f e1cb 842f
000002b0: f550 7b33 7c51 cb31 b465 6931 7302 8832
000002c0: 2c2f 3531 6670 e533 348a f732 2c2f 3531
000002d0: 7046 0334 df28 1832 fd11 2e2f 8895 3e28
000002e0: 972c 232e e47f 7131 bac8 0d2a ff76 0629
000002f0: 0eb1 5b2a 0000 0000 0000 0000 0000 0000
00000300: 0099 812b 0000 0000 fc16 242d 278a c32e
00000310: 7ee1 192d 0000 0000 d1ff 312e 6778 8c2f
00000320: 864d 882d 0000 0000 c6cf 232e 8598 832f
00000330: fbf7 7f2c 0000 0000 6187 3a30 80a7 4830
00000340: e586 592d 0000 0000 5e9a 2e30 67ba 3130
00000350: b64f f52b 0000 0000 c84b 2b30 0531 3130
00000360: b64f f52b 0000 0000 c84b 2b30 0531 3130
00000370: 3e5b c033 4275 6d32 10a6 6632 a64f 1035
00000380: af20 d331 4070 8f34 7a9c b634 af20 d331
00000390: 81f3 3f34 2e08 a033 df02 a92d 8bf9 272a
000003a0: 0352 482d 92f3 c631 f5d2 082d 4d29 2a28
000003b0: 6db6 012d 0000 0000 0000 0000 0000 0000
000003c0: 1131 662b 0000 0000 1422 182c 5e80 d22e
000003d0: 29a0 cc2c 0000 0000 0f14 ee2c b340 be2f
000003e0: 3c5b 842d 0000 0000 42d3 032e 3388 c12f
000003f0: 3a5b c92b 0000 0000 2a56 9030 b345 9630

exp_avg f4 [128]
5.4038946e-07 -3.3626162e-05 -1.9709323e-05 -4.4436365e-06 8.829142e-06 -3.5396843e-06 1.1366949e-05 -6.4500716e-07
1.9710046e-07 -3.4630796e-06 -1.9252805e-06 -2.2342654e-09 -1.603104e-07 7.9085744e-08 -1.9113006e-05 1.8208279e-05
-2.1990363e-07 1.5158733e-07 -9.813939e-06 2.226962e-06 -1.4801129e-05 -5.8657834e-06 -2.0399282e-06 1.21677585e-05
-1.1966224e-08 -2.3652468e-07 -1.5981401e-06 2.8659279e-06 7.2684893e-06 -3.8084305e-05 -5.411542e-05 -3.6343925e-05
-2.095608e-05 -6.3831567e-06 -2.8096663e-05 -5.3202e-05 -1.7529045e-06 -2.9465135e-05 4.2426973e-07 2.6272506e-05
-1.760248e-05 -1.6427e-05 5.5384142e-05 2.1101877e-07 -7.725461e-06 -2.1684253e-05 1.1803473e-06 8.80546e-06
3.3315753e-06 4.5375637e-07 -1.447309e-05 -5.043724e-06 3.839001e-05 5.7994774e-05 1.4149288e-06 1.1651748e-06
4.959459e-06 -2.083343e-06 5.3896188e-06 1.9722593e-05 1.3353488e-06 7.318683e-07 7.0281394e-06 -8.60758e-06
-6.44025e-06 -2.852979e-05 -3.0037993e-06 9.700493e-06 -4.532342e-06 -7.5410353e-06 1.6645812e-05 -3.377453e-06
-5.7045627e-06 2.0718255e-06 -4.1337913e-05 -2.244942e-08 -1.3244919e-06 1.9135023e-05 4.4641754e-05 6.997641e-07
-7.826527e-05 -2.0567245e-06 3.082758e-05 2.2245704e-05 4.250456e-06 3.9762494e-06 -5.09106e-05 5.9569184e-06
1.7994389e-06 -1.0301002e-06 -3.3721333e-06 3.566452e-05 1.0096103e-05 1.5202561e-05 1.7713828e-05 3.4836197e-05
9.914015e-07 5.416195e-06 4.2521544e-05 -4.0220428e-07 5.6594432e-05 -1.5541652e-06 6.9238263e-06 -1.04116525e-05
7.807001e-06 -3.714699e-05 -3.3355547e-05 -1.2264909e-06 -6.9924295e-06 -1.4742437e-05 -3.55914e-05 1.5321441e-06
-9.712835e-06 -7.0650756e-05 -6.315268e-06 1.3400878e-05 -2.0453761e-05 -2.5585055e-05 2.699412e-06 -2.4363464e-06
2.0740183e-06 1.8674456e-05 -2.8415468e-06 -2.2475946e-05 2.399503e-05 2.65296e-07 7.5424696e-06 -2.558223e-05
00000000: 480f 1135 d109 0db8 7355 a5b7 8c1a 95b6
00000010: e020 1437 508b 6db6 adb4 3e37 8e24 2db5
00000020: 90a2 5334 4167 68b6 1134 01b6 9d89 19b1
00000030: ca21 2cb4 d9d5 a933 de54 a0b7 fbbd 9837
00000040: a61e 6cb4 02c4 2234 8ca6 24b7 ea72 1536
00000050: 5d52 78b7 b2d2 c4b6 b3e5 08b6 2024 4c37
00000060: 0294 4db2 69f7 7db4 ad7f d6b5 4454 4036
00000070: d9e3 f336 b6bc 1fb8 fdf9 62b8 fe6f 18b8
00000080: d7ca afb7 e62e d6b6 20b1 ebb7 3625 5fb8
00000090: 5745 ebb5 e52b f7b7 30c7 e334 c763 dc37
000000a0: 0aa9 93b7 b7cc 89b7 454c 6838 6694 6234
000000b0: 9a9c 01b7 94e6 b5b7 6d6c 9e35 2abb 1337
000000c0: 0794 5f36 cd9b f334 73d1 72b7 423d a9b6
000000d0: f604 2138 6a3f 7338 95e8 bd35 1a63 9c35
000000e0: 6e69 a636 8fcf 0bb6 79d8 b436 f271 a537
000000f0: 3c3a b335 9b75 4435 42d3 eb36 4669 10b7
00000100: 5419 d8b6 4253 efb7 e194 49b6 4dbf 2237
00000110: 8514 98b6 0009 fdb6 9ca2 8b37 33a8 62b6
00000120: d269 bfb6 b109 0b36 3f62 2db8 ccd6 c0b2
00000130: 32c5 b1b5 2684 a037 b83d 3b38 6cd7 3b35
00000140: 5922 a4b8 4206 0ab6 dd4c 0138 499c ba37
00000150: 249f 8e36 b96b 8536 d788 55b8 8ae1 c736
00000160: 4084 f135 f941 8ab5 cf4c 62b6 7d96 1538
00000170: 6f62 2937 810e 7f37 2898 9437 151d 1238
00000180: 4c10 8535 c3bc b536 2959 3238 89ee d7b4
00000190: cf5f 6d38 b698 d0b5 3753 e836 b5ad 2eb7
000001a0: d0fa 0237 47ce 1bb8 3fe7 0bb8 e89d a4b5
000001b0: 83a0 eab6 4956 77b7 fa47 15b8 12a4 cd35
000001c0: 4ff4 22b7 562a 94b8 bde7 d3b6 55d4 6037
000001d0: 1e94 abb7 7d9f d6b7 8c27 3536 1d80 23b6
000001e0: 5d2f 0b36 17a7 9c37 67b1 3eb6 ba8a bcb7
000001f0: ef48 c937 016e 8e34 5215 fd36 6c99 d6b7
