3DPlayground/results/Test32/MoveToGoal/MoveToGoal-205162.pt (torch, 864398 bytes, 42 tensors)

network_body._body_endoder.seq_layers.0.weight f4 [128, 140]
0.009007032 -0.019731343 -0.117357306 0.05715023 -0.100462995 0.0432443 -0.054406468 0.03523285
-0.087507166 0.083475225 0.07006215 0.053898968 -0.06505115 -0.104833245 -0.12146448 0.012813019
-0.01429024 -0.0602764 0.05470325 -0.06813402 -0.13866194 -0.007107451 0.07452843 -0.021663172
0.07335834 0.22132346 0.06382627 0.16478513 0.05114289 0.0432852 0.003035469 -0.049713288
0.12014075 -0.024546923 0.064784884 0.04288213 -0.1366216 0.076645374 -0.027332952 0.05274815
-0.056980915 0.065973684 -0.051605865 -0.14072692 -0.018446935 -0.0016469007 -0.20585805 0.061294742
0.21566965 -0.13248342 0.061662465 -0.013850747 0.243486 -0.11679787 -0.024829546 0.0012295925
0.045413695 -0.04663123 -0.02445566 0.10102006 0.0425296 -0.01471823 -0.015377384 0.036712494
0.17712057 -0.03937541 0.07444069 0.0032866574 0.07626666 0.05229153 0.13966787 -0.122394495
0.03480353 0.030654658 -0.05161524 0.0025459884 0.022592532 0.031161569 0.055252574 -0.07141811
-0.02964728 -0.06986564 -0.05025131 -0.065826066 -0.08179641 -0.051740915 -0.113104776 0.048522014
0.049320247 0.1560651 0.082209505 0.07569763 0.08982245 0.011473162 -0.08142173 0.011459194
-0.010425014 -0.15286213 -0.07819377 -0.0061489744 -0.1585063 -0.039109357 -0.015293715 0.017329922
0.0033089563 -0.037622757 0.022581376 -0.03524425 0.038499303 -0.02616229 -0.06414798 0.012352725
-0.095131844 -0.090045914 -0.07892895 -0.052908693 0.03682687 -0.077492476 -0.042059265 -0.10402931
-0.14009972 -0.015363947 0.009477067 -0.15379895 0.008225574 0.008632852 -0.056831233 0.00855713
-0.13659807 0.11658384 -0.07358971 0.047618836 0.013411191 -0.10167238 0.039491616 0.10539355
0.08173519 -0.14311215 -0.015464212 0.11765988 -0.17220722 0.1099618 -0.03514882 -0.15165357
0.07133795 0.12143482 0.016656114 -0.030989088 -0.06331929 0.09668327 -0.009703901 -0.060251374
0.15114376 -0.080746636 0.043524295 -0.07376854 -0.053035155 0.05035929 0.13556755 -0.002595716
0.06612824 0.041665815 0.053131197 -0.024413522 -0.05276919 -0.07322708 -0.01660772 0.037986003
0.037851017 -0.08482725 -0.07128852 0.040498197 0.021525875 -0.052700352 0.080608815 0.014107851
0.011748931 -0.06146297 0.019568797 -0.029491724 0.10920687 -0.0667599 -0.07518342 -0.01378195
-0.026675703 0.06672025 0.005130304 -0.011467646 -0.045611113 -0.02904286 0.0882979 -0.04989412
0.14013733 0.12444013 0.04050648 -0.10377598 -0.014458981 -0.11113444 0.05995817 0.12816735
0.10233495 0.078425445 -0.059714142 -0.1307555 -0.053494424 0.001364537 -0.1048659 -0.048294213
-0.10805075 -0.018386876 -0.041303586 0.14151214 -0.03071781 -0.06515249 0.036947243 0.037620217
0.1530932 -0.011568024 0.020910002 0.10230662 0.1650021 -0.03105225 0.083256446 0.022365872
-0.07928468 0.00044373254 -0.22431871 -0.098218195 0.005380787 0.09659298 0.022697097 0.14328776
-0.001060164 0.11875029 -0.09657838 0.09857467 0.07277837 0.056911778 -0.0976068 -0.014438719
-0.011490133 0.0748013 -0.049299706 -0.10056184 0.10182751 0.0764134 -0.152714 -0.019355843
-0.079355754 0.03855209 -0.03475123 -0.01826097 0.0303591 0.010667811 -0.058791682 0.026872788
00000000: 3b92 133c a0a3 a1bc 0759 f0bd 5c16 6a3d
00000010: 8bbf cdbd ef20 313d 51d9 5ebd 5250 103d
00000020: f536 b3bd 0ff5 aa3d bf7c 8f3d 2ac5 5c3d
00000030: 8a39 85bd d0b2 d6bd 5fc2 f8bd b2ed 513c
00000040: 9c21 6abc 63e4 76bd 8410 603d d989 8bbd
00000050: 65fd 0dbe 9fe5 e8bb 5da2 983d f776 b1bc
00000060: e63c 963d 9ea2 623e 59b7 823d 6fbd 283e
00000070: 357b 513d d24b 313d b8ee 463b 29a0 4bbd
00000080: 5b0c f63d a116 c9bc f0ad 843d 2ca5 2f3d
00000090: 88e6 0bbe 40f8 9c3d 5be9 dfbc 720e 583d
000000a0: d264 69bd 361d 873d ac60 53bd b81a 10be
000000b0: 071e 97bc d1dc d7ba 74cc 52be 3210 7b3d
000000c0: 81d8 5c3e bca9 07be c891 7c3d 3eee 62bc
000000d0: 6554 793e b933 efbd 5567 cbbc 472a a13a
000000e0: b603 3a3d 6300 3fbd 3c57 c8bc 9be3 ce3d
000000f0: 8533 2e3d bb24 71bc 6cf1 7bbc d75f 163d
00000100: 185f 353e 1c48 21bd 5c74 983d f664 573b
00000110: b231 9c3d a52f 563d 1805 0f3e f7a9 fabd
00000120: 258e 0e3d 7a1f fb3c 806a 53bd 99da 263b
00000130: f913 b93c 8c46 ff3c 8650 623d a843 92bd
00000140: dade f2bc b715 8fbd 51d4 4dbd d1cf 86bd
00000150: e084 a7bd 48ee 53bd 7aa3 e7bd 05bf 463d
00000160: 0704 4a3d 88cf 1f3e 755d a83d 5c07 9b3d
00000170: d5f4 b73d eef9 3b3c 70c0 a6bd 58bf 3b3c
00000180: aecd 2abc e487 1cbe 0e24 a0bd 567d c9bb
00000190: 7a4f 22be 2231 20bd 7d92 7abc 7bf7 8d3c
000001a0: 13db 583b 521a 1abd 94fc b83c 465c 10bd
000001b0: 72b1 1d3d 4c52 d6bc 0460 83bd 1563 4a3c
000001c0: 7cd4 c2bd fe69 b8bd 80a5 a1bd c9b6 58bd
000001d0: c6d7 163d 60b4 9ebd 5646 2cbd 520d d5bd
000001e0: 4d76 0fbe 10b9 7bbc b345 1b3c 797d 1dbe
000001f0: 8fc4 063c ce70 0d3c dec7 68bd 3433 0c3c
00000200: 5de0 0bbe 82c3 ee3d 34b6 96bd f80b 433d
00000210: 9dba 5b3c 9c39 d0bd f6c1 213d 93d8 d73d
00000220: c764 a73d fe8b 12be 9b5d 7dbc aaf7 f03d
00000230: 1757 30be a733 e13d 36f8 0fbd 134b 1bbe
00000240: a219 923d d2b2 f83d 6772 883c d4dc fdbc
00000250: 8bad 81bd e101 c63d 1cfd 1ebc 25ca 76bd
00000260: 6ec5 1a3e 7e5e a5bd 8846 323d f613 97bd
00000270: 643b 59bd 8b45 4e3d 38d2 0a3e e31c 2abb
00000280: 3e6e 873d c6a9 2a3d 19a0 593d defe c7bc
00000290: 8224 58bd 14f8 95bd ea0c 88bc 3697 1b3d
000002a0: ab09 1b3d e9b9 adbd b7ff 91bd 70e1 253d
000002b0: 0857 b03c 53dc 57bd 3c16 a53d 9e24 673c
000002c0: 977e 403c 98c0 7bbd be4e a03c a198 f1bc
000002d0: daa7 df3d 6ab9 88bd c4f9 99bd b0cd 61bc
000002e0: 0187 dabc a0a4 883d 1c1c a83b cbe2 3bbc
000002f0: b8d2 3abd 4beb edbc 88d5 b43d c75d 4cbd
00000300: 2980 0f3e 78da fe3d 1fea 253d 8088 d4bd
00000310: 5de5 6cbc 749a e3bd b396 753d 4d3e 033e
00000320: fc94 d13d 859d a03d d196 74bd c5e4 05be
00000330: f81c 5bbd 44da b23a efc3 d6bd 27d0 45bd
00000340: b649 ddbd 13a0 96bc f32d 29bd 8fe8 103e
00000350: eba3 fbbc ab6e 85bd fe55 173d a817 1a3d
00000360: 77c4 1c3e cf87 3dbc 744b ab3c 2286 d13d
00000370: 4ff6 283e 4a61 febc 5b82 aa3d a238 b73c
00000380: 0260 a2bd c6a4 e839 ceb3 65be 9f26 c9bd
00000390: 5051 b03b 8ad2 c53d 43ef b93c 07ba 123e
000003a0: 33f5 8aba 5a33 f33d e3ca c5bd 84e1 c93d
000003b0: d30c 953d 531c 693d 13e6 c7bd 6090 6cbc
000003c0: 1c41 3cbc 6d31 993d 7dee 49bd 5ef3 cdbd
000003d0: f18a d03d a17e 9c3d 0f61 1cbe 2590 9ebc
000003e0: 4585 a2bd cce8 1d3d 4e57 0ebd 0898 95bc
000003f0: a6b3 f83c 0bc8 2e3c 8ccf 70bd 5224 dc3c

network_body._body_endoder.seq_layers.0.bias f4 [128]
0.008240333 -0.003403838 0.0027177061 0.008448734 0.0020178605 -0.0010766754 0.0055794595 -0.0034463187
-0.0049558273 5.4068423e-05 -0.0038064637 0.012492648 -0.0035851637 -0.0060915784 -0.0040779607 0.0028921054
-0.008595918 -0.015298677 0.00894297 0.0063561755 -0.007877225 0.012167942 -0.011492287 0.0018144711
0.0019927914 0.0011408849 0.015413819 -0.0027354474 -0.007466666 0.009010149 -0.003995827 0.0016553026
0.005081727 -0.0016060206 0.00013756801 -0.005865404 -0.002991379 0.0063263862 -0.00030079315 0.001130272
-0.0020489076 -0.0020001275 -0.0015323118 -0.008814653 -0.0053426754 0.002810583 -0.0009124659 0.0053709815
0.0014523324 -0.00071551837 0.0029112196 -0.0016383294 -0.0076217386 -0.0035795323 -0.0018786024 0.0066511817
0.0087547535 -0.0025255475 -0.0049349377 -0.0017326369 0.002488185 -0.0022657232 0.0114379 0.002176513
-0.00027781018 -0.00043278967 0.003043983 0.009241671 -0.0047898153 0.01062815 0.0007123157 -0.0048805596
0.01645415 -0.0033220027 -0.006544109 -0.0023670197 -0.004637496 0.0035467367 0.008655669 -0.005962691
0.0018159795 0.0012061587 0.015584393 0.0035031242 0.0058285627 -0.0002956692 0.011148798 -0.0032856402
0.005702237 0.0063470067 0.002727961 0.0011432855 -0.0036724487 0.0012889398 -0.002729428 -0.002924877
0.018189626 -0.0030504002 0.007359618 -0.004543957 0.006412285 0.005972222 0.002558162 0.002115436
0.0002654511 0.0020771236 0.011427082 0.0024146682 -0.010131952 0.00020290006 0.005416009 0.005816387
-0.008865021 -0.00089258474 0.01180849 0.003220442 -0.004874699 0.029767761 -0.0022430734 -0.001010106
0.0035127383 0.00075314543 0.004821135 0.01117807 -0.0032399113 -0.0053439336 -9.421014e-05 -0.00417851
00000000: 7602 073c ed12 5fbb 8b1b 323b 8f6c 0a3c
00000010: 153e 043b 3b1f 8dba e6d3 b63b a2db 61bb
00000020: 7e64 a2bb 87c7 6238 dd75 79bb f7ad 4c3c
00000030: 11f5 6abb dd9b c7bb 6aa0 85bb 7a89 3d3b
00000040: e5d5 0cbc 4da7 7abc 8985 123c 7747 d03b
00000050: 7a0f 01bc 0c5c 473c 254a 3cbc 8cd3 ed3a
00000060: 7e99 023b bf89 953a 3e8a 7c3c 3145 33bb
00000070: efaa f4bb 4e9f 133c 6def 82bb bdf6 d83a
00000080: 9e84 a63b 1c81 d2ba 2240 1039 9332 c0bb
00000090: 030b 44bb 934d cf3b c6b3 9db9 a325 943a
000000a0: f746 06bb 9214 03bb dad7 c8ba 566b 10bc
000000b0: 9c11 afbb c231 383b 8d32 6fba 0fff af3b
000000c0: 305c be3a a091 3bba 29ca 3e3b 36bd d6ba
000000d0: c7bf f9bb 9696 6abb 703b f6ba 28f2 d93b
000000e0: 1970 0f3c a883 25bb 42b5 a1bb a619 e3ba
000000f0: d110 233b 877c 14bb 0866 3b3c d4a3 0e3b
00000100: 0da7 91b9 0ce8 e2b9 8f7d 473b 616a 173c
00000110: e2f3 9cbb b121 2e3c b3ba 3a3a 1aed 9fbb
00000120: dbca 863c f5b5 59bb f76f d6bb 0020 1bbb
00000130: 23f6 97bb 5e70 683b 82d0 0d3c ad62 c3bb
00000140: 2906 ee3a f817 9e3a af55 7f3c ac94 653b
00000150: 87fd be3b 0c04 9bb9 73a9 363c e553 57bb
00000160: d5d9 ba3b 8dfa cf3b 97c7 323b 4cda 953a
00000170: 77ad 70bb a5f1 a83a 34e0 32bb 4baf 3fbb
00000180: 6902 953c 39e9 47bb f328 f13b 79e5 94bb
00000190: 251e d23b a1b2 c33b d6a6 273b 20a3 0a3b
000001a0: 3e2c 8b39 5a20 083b a838 3b3c 693f 1e3b
000001b0: 7d00 26bc 92c1 5439 c778 b13b 6497 be3b
000001c0: 983e 11bc 59fc 69ba 6678 413c 0d0e 533b
000001d0: f0bb 9fbb 85db f33c 8700 13bb 8865 84ba
000001e0: f835 663b bc6e 453a 9dfa 9d3b 3924 373c
000001f0: b154 54bb 2a1c afbb af92 c5b8 e2eb 88bb

network_body._body_endoder.seq_layers.2.weight f4 [128, 128]
-0.023652771 0.06841265 -0.045303468 0.016314872 -0.027296871 0.000140174 0.016163604 -0.0007864915
-0.028237429 -0.003831544 -0.058443826 -0.09807926 -0.062269658 -0.044988368 -0.0066155056 -0.033078372
0.01669851 -0.060940564 -0.076680675 -0.07123711 0.028851042 -0.04317085 0.064593874 -0.0031181446
-0.10745721 -0.051801052 0.032480255 -0.058457974 0.10958465 -0.042604484 0.054901253 -0.07551239
-0.00081103673 -0.040507276 0.11570389 0.1424376 -0.038590606 -0.21833816 -0.07597154 -0.09051812
-0.05848189 0.09600899 -0.08439632 0.030148238 0.20271738 -0.00058043736 0.16095752 0.26718742
0.0053223423 0.15036921 0.0021365955 0.0278196 0.11596289 0.036558196 -0.039149646 0.008203632
-0.017168174 -0.03346634 0.003574209 0.044987753 -0.018309783 -0.08360262 0.020721575 0.0053308466
-0.09209801 -0.0075153224 0.18128912 -0.00036236094 -0.04253612 -0.08746601 0.12293042 0.15658057
-0.123707876 0.01399942 0.060372725 0.025835477 0.040565833 -0.021726435 0.06876564 0.0058538755
0.034057193 -0.17138895 -0.10652995 0.048698246 -0.15133646 -0.010370357 -0.020812087 0.2323528
-0.07387721 0.053662896 -0.2028764 0.06486799 0.08718085 -0.1699196 0.12592602 0.098318025
0.11865856 -0.08875769 -0.0044283476 0.005991733 0.039171234 0.03526447 -0.053859893 0.024124313
0.056275617 0.043612305 -0.107958205 -0.029250437 0.1096838 -0.1325541 -0.06236997 0.01884021
0.02661653 0.12712656 0.061123118 -0.007428785 0.0805246 -0.075247556 0.116165854 -0.039755512
0.07831983 -0.08613957 0.0671778 -0.10073206 0.010083981 0.17574738 -0.04809454 -0.005383419
0.0052652764 -0.05942311 -0.015947495 0.0655245 0.18310513 0.022728728 -0.026849473 -0.034188285
-0.095479585 0.2079769 -0.037024196 -0.17976123 -0.036780786 -0.060407486 -0.01111871 -0.0035079827
0.1754574 -0.03491213 -0.14060032 -0.034176636 0.090471536 0.0140293045 0.07811399 -0.11859804
0.052188374 -0.058962893 0.025167348 0.10213766 -0.07864312 0.23051435 0.12339961 0.107498474
0.011567012 0.069070436 0.1222746 0.019578379 0.18084657 0.060586113 0.0032016155 0.02957369
-0.086211115 0.06372538 0.14633396 0.0028843512 -0.13829279 0.055505868 -0.060898673 0.00070712646
0.16061354 0.011045423 -0.08353992 0.0904363 0.0108897155 0.032743167 0.03098248 -0.03435993
0.036071833 -0.038307782 0.12736711 0.004817417 -0.059986364 0.038656045 0.1199033 -0.087406
-0.012496019 0.07669092 -0.120145515 0.062370062 -0.1091599 -0.02430547 0.1900527 0.15751249
0.06547579 -0.013585577 0.019965943 0.048872046 -0.113297924 0.12277991 -0.016015215 -0.049116593
-0.00066789903 0.14133641 0.20871656 -0.02421684 0.07248811 -0.033644352 -0.008489967 0.1259741
0.14723524 0.0811461 -0.022523195 0.12822224 0.0684168 -0.004983653 0.024640616 0.21116512
0.19223501 -0.047178198 0.01169861 0.034623884 0.046306476 0.090269886 -0.03936048 -0.17556287
-0.003915846 -0.1921207 0.0017271754 -0.16440031 0.10778394 -0.018304091 -0.0028982372 -0.013497721
-0.27512166 0.07116044 0.008060229 0.13899115 -0.026937054 0.13476527 -0.03848621 -0.011038476
-0.07769138 -0.09150751 -0.055574372 0.045230184 -0.17147781 0.05599088 0.03820624 0.061062597
00000000: 75c3 c1bc ee1b 8c3d 2190 39bd c4a6 853c
00000010: b09d dfbc acfb 1239 8969 843c 8d2c 4eba
00000020: 2e52 e7bc a41a 7bbb cb62 6fbd c7dd c8bd
00000030: 780e 7fbd b945 38bd e2c6 d8bb 307d 07bd
00000040: 50cb 883c d09c 79bd c20a 9dbd c3e4 91bd
00000050: 0559 ec3c ebd3 30bd cb49 843d c959 4cbb
00000060: 8712 dcbd 572d 54bd 040a 053d a171 6fbd
00000070: eb6d e03d 0a82 2ebd 23e0 603d 3da6 9abd
00000080: c19b 54ba f5ea 25bd 29f6 ec3d 2adb 113e
00000090: 2f11 1ebd 0a94 5fbe f796 9bbd 9061 b9bd
000000a0: b58a 6fbd 5da0 c43d fad7 acbd 70f9 f63c
000000b0: 2595 4f3e 7e28 18ba 0cd2 243e cacc 883e
000000c0: 0b67 ae3b 63fa 193e 2006 0c3b eee5 e33c
000000d0: f47d ed3d 0cbe 153d 615b 20bd 8768 063c
000000e0: 45a4 8cbc 0014 09bd 473d 6a3b 1445 383d
000000f0: 66fe 95bc da37 abbd 4bc0 a93c 62ae ae3b
00000100: e29d bcbd 1843 f6bb dba3 393e 43fb bdb9
00000110: 5b3a 2ebd 6121 b3bd f2c2 fb3d a856 203e
00000120: 8e5a fdbd d35d 653c 6449 773d eca4 d33c
00000130: 5c28 263d a3fb b1bc 00d5 8c3d ded1 bf3b
00000140: 8e7f 0b3d 9680 2fbe 602c dabd d077 473d
00000150: f2f7 1abe 6ee8 29bc 1c7e aabc e4ed 6d3e
00000160: ef4c 97bd a0cd 5b3d d5be 4fbe 82d9 843d
00000170: e08b b23d 67ff 2dbe c0f2 003e f65a c93d
00000180: 4203 f33d 97c6 b5bd ac1b 91bb 4d56 c43b
00000190: 0472 203d 7a71 103d 319c 5cbd 5aa0 c53c
000001a0: 4381 663d d1a2 323d 3119 ddbd 9d9e efbc
000001b0: e6a1 e03d 43bc 07be a777 7fbd c956 9a3c
000001c0: e90a da3c 772d 023e 3c5c 7a3d 2a6d f3bb
000001d0: 15ea a43d 641b 9abd 5de8 ed3d add6 22bd
000001e0: 2666 a03d f169 b0bd 8494 893d 9c4c cebd
000001f0: 4837 253c 1ff7 333e c8fe 44bd 6467 b0bb
00000200: 5788 ac3b a665 73bd 52a4 82bc b631 863d
00000210: e97f 3b3e 9931 ba3c 6df3 dbbc 0409 0cbd
00000220: cd8a c3bd e5f7 543e afa6 17bd 5413 38be
00000230: 73a7 16bd d76d 77bd 402b 36bc 2fe6 65bb
00000240: 1bab 333e 0600 0fbd 88f9 0fbe cdfc 0bbd
00000250: 2449 b93d 2bdb 653c 3afa 9f3d 87e3 f2bd
00000260: 7ac3 553d 1383 71bd c12b ce3c 8d2d d13d
00000270: a50f a1bd f40b 6c3e efb8 fc3d 2928 dc3d
00000280: 9183 3d3c cd74 8d3d 1b6b fa3d d662 a03c
00000290: d82f 393e 2529 783d 32d2 513b 8644 f23c
000002a0: 748f b0bd 7482 823d 92d8 153e 6207 3d3b
000002b0: a09c 0dbe 1f5a 633d e370 79bd 745e 393a
000002c0: e077 243e ddf7 343c fa16 abbd ab36 b93d
000002d0: c76a 323c b31d 063d f8ce fd3c ffbc 0cbd
000002e0: 0fc0 133d 9fe8 1cbd 866c 023e 6cdb 9d3b
000002f0: 43b4 75bd cd55 1e3d dd8f f53d eb01 b3bd
00000300: 1abc 4cbc 2110 9d3d da0e f6bd c077 7f3d
00000310: 3a8f dfbd 441c c7bc 2d9d 423e f44a 213e
00000320: 2c18 863d 0a96 5ebc 9e8f a33c 0e2e 483d
00000330: be08 e8bd 0974 fb3d 5732 83bc 7b2e 49bd
00000340: f215 2fba 7eba 103e cbb9 553e 6562 c6bc
00000350: a574 943d a9ce 09bd 8119 0bbc 5bff 003e
00000360: d6c4 163e ed2f a63d 9082 b8bc b14c 033e
00000370: 1b1e 8c3d e94d a3bb 1edb c93c ab3b 583e
00000380: 41d9 443e ed3d 41bd 87ab 3f3c c6d1 0d3d
00000390: dcab 3d3d 6bdf b83d 7438 21bd c1c6 33be
000003a0: 7f50 80bb 4abb 44be 6462 e23a 8e58 28be
000003b0: d4bd dc3d 76f2 95bc 5af0 3dbb 8c25 5dbc
000003c0: bfdc 8cbe 91bc 913d 0d0f 043c b253 0e3e
000003d0: 19ab dcbc e8ff 093e b7a3 1dbd b9da 34bc
000003e0: a91c 9fbd 4a68 bbbd f4a1 63bd 4943 393d
000003f0: e197 2fbe b156 653d 257e 1c3d c61c 7a3d

network_body._body_endoder.seq_layers.2.bias f4 [128]
-0.0005307254 -0.0033674128 0.01380599 -0.00068248104 -0.0036732315 0.013404689 0.008243218 0.0048467335
0.0027545537 0.0021598847 0.00512849 -0.0021152585 0.0012249326 0.0010360045 0.00019376249 0.000367942
0.0017885554 -0.0015706635 -0.0012269783 -0.005690089 -0.0028760636 0.0048120013 0.003652051 0.0024851798
-0.005426188 0.002411128 -0.0017796049 -9.696685e-05 -0.0038674828 -0.0036213319 0.0014584629 -0.010721419
-0.0047501773 0.00045906196 -0.004762729 -0.0006278907 0.0048186537 0.014815693 -0.0029348885 0.0019810493
0.0042866683 -0.0010024535 -0.00857537 0.0129503785 0.002729151 -0.0059948065 -0.009748122 -0.0013310087
0.0014262194 0.005714974 0.0067020915 -0.001302483 -0.0011713592 -0.0031745431 -0.0021565151 -0.0047308947
0.008625475 0.0018974056 -0.007327513 -0.0004568949 -0.00035478894 0.019005988 -0.004290862 0.0068914825
-0.0039169877 0.0018521902 0.01169957 0.0058578877 0.0028795467 0.00019877689 -0.0018342325 0.008327437
0.0068205823 0.003918137 -0.0038942986 -0.005058201 0.0054206704 0.003018679 -0.0019762525 0.0194813
-0.0038183208 0.0019927814 -0.00033806168 -0.0007687053 0.0046798196 0.00092382677 -0.010156792 0.001123451
-0.0015142147 -0.0037032438 -0.0024506268 -0.005360433 -0.003579901 0.0026083235 -0.00091028155 -0.0005285294
-0.0016427368 -0.0065290984 0.005466111 -0.007693965 -0.0072064074 -0.001894438 0.009202388 0.003441108
0.0039449623 -0.00912976 0.012360501 0.0013005935 0.0022855222 -0.002615161 0.0035550094 -0.007199134
0.0012962916 -0.003223434 0.001480541 0.0060590645 0.007565065 0.0030990958 -0.0020727995 -0.0038684383
0.0011485014 0.00059407 0.0033815186 0.0027125156 -0.0013808302 -0.00054528075 -0.008063885 -0.0021193333
00000000: 6120 0bba d0af 5cbb 8532 623c 87e8 32ba
00000010: 99ba 70bb 579f 5b3c 900e 073c 59d1 9e3b
00000020: be85 343b da8c 0d3b e40c a83b 26a0 0abb
00000030: eb8d a03a 8bca 873a b92c 4b39 57e8 c039
00000040: f66d ea3a b9de cdba 8fd2 a0ba ed73 babb
00000050: 577c 3cbb fead 9d3b 4057 6f3b 66de 223b
00000060: 2ace b1bb 0404 1e3b a241 e9ba ae5a cbb8
00000070: 9875 7dbb de53 6dbb e529 bf3a e4a8 2fbc
00000080: 60a7 9bbb 41ae f039 ab10 9cbb 0899 24ba
00000090: cce5 9d3b 85bd 723c 4257 40bb 7ed4 013b
000000a0: 2e77 8c3b c264 83ba b57f 0cbc d32d 543c
000000b0: 8edb 323b 1570 c4bb 96b6 1fbc 3e75 aeba
000000c0: fbef ba3a ad44 bb3b 389d db3b 14b8 aaba
000000d0: 4b88 99ba ff0b 50bb 5254 0dbb 9f05 9bbb
000000e0: dd51 0d3c 5eb2 f83a a21b f0bb 658b efb9
000000f0: f702 bab9 72b2 9b3c 5c9a 8cbb f2d1 e13b
00000100: 135a 80bb 31c5 f23a 8eaf 3f3c 86f3 bf3b
00000110: c7b6 3c3b c46e 5039 a16a f0ba cd6f 083c
00000120: 317f df3b b763 803b 7d37 7fbb 44bf a5bb
00000130: e19f b13b 08d5 453b 0484 01bb 3f97 9f3c
00000140: cb3c 7abb 5399 023b df3d b1b9 f082 49ba
00000150: 2c59 993b f72c 723a ac68 26bc c340 933a
00000160: 9d78 c6ba 1fb2 72bb b29a 20bb 92a6 afbb
00000170: c69c 6abb 68f0 2a3b f69f 6eba 028d 0aba
00000180: 1a51 d7ba 0cf2 d5bb 101d b33b a81d fcbb
00000190: ba23 ecbb cb4e f8ba 9dc5 163c 3684 613b
000001a0: be44 813b fd94 15bc b383 4a3c ad78 aa3a
000001b0: b3c8 153b 1f63 2bbb 29fb 683b b7e6 ebbb
000001c0: 54e8 a93a 4040 53bb b60e c23a 1e8b c63b
000001d0: 5de4 f73b 331a 4b3b ced7 07bb a085 7dbb
000001e0: 5089 963a 5dbb 1b3a 789c 5d3b 76c4 313b
000001f0: f9fc b4ba 2cf1 0eba 631e 04bc 83e4 0abb

action_model._continuous_distribution.log_sigma f4 [1, 2]
-0.0036988568 0.023604516
00000000: 8568 72bb 425e c13c

action_model._continuous_distribution.mu.weight f4 [2, 128]
0.038386 0.0075674774 0.005708531 -0.0006494757 0.0072377534 -0.017322058 0.0072691264 -5.6714365e-05
0.016253406 -0.006021837 0.0045631267 0.030609168 -0.0066048848 0.001247927 0.021313397 0.019909602
-0.009057904 -0.00052970805 0.00830758 -0.007595348 -0.0015083376 -0.04294525 -0.015609 0.005445648
-0.028022658 0.0035882993 -0.015140583 -0.0057404367 0.011920288 -0.017183088 -0.008155062 -0.011665795
-0.022388937 0.010033784 -0.00016603169 0.025030574 0.019206377 -0.017228294 -0.0021506972 -0.046354756
0.01382198 -0.024260499 0.017375737 -0.019448794 0.01926979 -0.028769674 0.0073933387 0.009377458
0.015637679 0.0030525667 0.005905546 0.025994351 -0.013260716 -0.014910203 0.012021064 -0.005323349
0.0034892587 0.008515579 0.021252876 0.041175168 0.014432703 -0.04971227 0.01577741 0.013601521
0.018647831 -0.015933264 -0.04045017 0.010970766 -0.013786742 0.027309792 -0.026204966 0.020479895
0.02099586 0.002755905 0.01749907 0.0101977065 -0.030472746 -0.012411981 0.026490157 0.013845867
-0.0074487054 -0.0070947083 -0.014494764 0.009440889 0.0038460314 -0.021910958 0.018138232 -0.014401473
0.023278117 -0.00877205 0.00097263546 -0.009843149 -0.008673164 -0.0334459 0.009675516 -0.013298165
-0.011814316 0.0031860946 -0.016001722 0.017063437 -0.0092352675 -0.022202592 -0.01897196 0.02024344
0.0014828587 0.010989691 -0.01719847 0.003166551 0.052732963 -0.025847241 -0.004073282 0.013056407
0.01480652 -0.023316715 0.013447737 0.011317129 0.0061941105 0.01779711 0.006354859 0.007174034
0.035640463 -0.002552838 -8.063684e-05 -0.0037630145 0.0068443757 -0.004513503 -0.012324224 0.007158218
-0.028107394 -0.0044227373 0.033552613 -0.019849466 0.0020606813 -0.017372124 0.022061234 0.0067034704
0.01143913 0.045408357 -0.03794497 -0.0021216332 0.0066851666 0.0026444755 -0.017248146 -0.019107128
-0.052295685 0.020188728 0.035361007 -0.0034252002 0.00905179 -0.0062549254 0.028308107 -0.016828474
0.002814986 -0.017693322 0.02134288 -0.019355724 -0.019537477 0.0021907415 0.008002858 -0.0067840223
-0.024254397 -0.021513147 0.038267706 0.00088364515 -0.044245183 0.009981455 0.0015187932 -0.031292547
0.045148715 -0.007980377 -0.020786783 0.035543088 -0.025244243 0.010054658 0.0030642466 0.0140376175
-0.0139668025 0.016489323 -0.009569104 0.031154819 -0.004966077 0.019281648 0.035157993 0.0055794558
0.009902622 0.014007459 0.0062829 0.009757003 -0.009445789 -0.023422047 -0.035553522 0.026262451
-0.0019802698 -0.04008126 0.0011647058 0.016162228 -0.03772515 0.017245665 -0.014810574 -0.042808134
0.055019073 0.01676732 0.018797645 0.02017765 0.011444475 -0.031694762 -0.00068768533 0.039104924
0.00072918326 0.0035967592 -0.014103687 0.01312875 0.034433644 -0.027399609 0.003126532 0.007313219
0.021938711 0.0051913476 -0.0051814783 0.012044799 0.009714742 -0.042711042 -0.019677522 -0.018565845
0.0022035493 -0.012169167 0.03828462 -0.017003082 -0.0017456262 -0.0055500385 0.015284926 -0.025591295
-0.037658487 -0.0013780242 0.0065575372 -0.015795456 0.01619359 0.004691323 0.028381603 -0.008439989
-0.020810492 0.0011019409 0.009370633 0.03893599 0.01993132 -0.017624112 -0.019527001 -0.004315627
-0.008337628 -0.0020146952 0.039476153 0.013160663 0.0031549886 -0.0025786634 0.0003089545 0.037579734
00000000: a33a 1d3d 9af8 f73b a10e bb3b 9441 2aba
00000010: ad2a ed3b fde6 8dbc da31 ee3b 96e0 6db8
00000020: dd25 853c d452 c5bb 4886 953b 14c0 fa3c
00000030: ca6d d8bb 7b91 a33a 6f99 ae3c 7619 a33c
00000040: 9a67 14bc 1bdc 0aba 841c 083c 66e2 f8bb
00000050: 69b3 c5ba 5ce7 2fbd e4bc 7fbc 6871 b23b
00000060: c68f e5bc ac29 6b3b 3510 78bc 461a bcbb
00000070: 504d 433c 8cc3 8cbc cf9c 05bc e421 3fbc
00000080: 0169 b7bc be64 243c cb18 2eb9 eb0c cd3c
00000090: b156 9d3c 5a22 8dbc b6f2 0cbb 7cde 3dbd
000000a0: 9675 623c f4bd c6bc 9057 8e3c 1453 9fbc
000000b0: aedb 9d3c 61ae ebbc d243 f23b e9a3 193c
000000c0: 971a 803c 920d 483b 4f83 c13b 1bf2 d43c
000000d0: 7943 59bc ed49 74bc fff3 443c 7d6f aebb
000000e0: 0cac 643b ed84 0b3c 831a ae3c 4ba7 283d
000000f0: 2577 6c3c 189f 4bbd a03f 813c ead8 5e3c
00000100: 56c3 983c 7a86 82bc 14af 25bd babe 333c
00000110: cae1 61bc c9b8 df3c ccab d6bc 74c5 a73c
00000120: 83ff ab3c 6a9c 343b 365a 8f3c 4814 273c
00000130: fba1 f9bc 9f5b 4bbc e301 d93c c6d9 623c
00000140: 4514 f4bb ba7a e8bb 727b 6dbc f5ad 1a3c
00000150: b30d 7c3b 9c7e b3bc a196 943c 28f4 6bbc
00000160: c0b1 be3c a5b8 0fbc 76f8 7e3a 2945 21bc
00000170: e319 0ebc 91fe 08bd 0e86 1e3c 8ce0 59bc
00000180: d590 41bc cccd 503b 0b16 83bc 9fc8 8b3c
00000190: 854f 17bc 36e2 b5bc 156b 9bbc 92d5 a53c
000001a0: 7b5c c23a 1b0e 343c cee3 8cbc e985 4f3b
000001b0: 85fe 573d 98bd d3bc 2a79 85bb 8aea 553c
000001c0: 0c97 723c b202 bfbc e653 5c3c 7b6b 393c
000001d0: f7f7 ca3b 3fcb 913c 6c3c d03b 2914 eb3b
000001e0: bcfb 113d 844d 27bb 931b a9b8 e89c 76bb
000001f0: c946 e03b 02e6 93bb 8beb 49bc 7c8f ea3b
00000200: 7a41 e6bc 9cec 90bb 776e 093d 599b a2bc
00000210: 7f0c 073b fc4f 8ebc c3b9 b43c c9a8 db3b
00000220: 306b 3b3c 1dfe 393d 2f6c 1bbd 190b 0bbb
00000230: 3e0f db3b f04e 2d3b fc4b 8dbc 8d86 9cbc
00000240: 0034 56bd d562 a53c b4d6 103d 5379 60bb
00000250: f64d 143c 1ef6 ccbb 67e6 e73c dedb 89bc
00000260: a17b 383b 96f1 90bc 43d7 ae3c e58f 9ebc
00000270: 0f0d a0bc 8b92 0f3b 6b1e 033c 814c debb
00000280: 28b1 c6bc 573c b0bc 99be 1c3d 6ca4 673a
00000290: 703a 35bd 4289 233c 3e12 c73a 9d2c 00bd
000002a0: dced 383d 21c0 02bc 0b49 aabc a195 113d
000002b0: 04cd cebc 4bbc 243c 87d1 483b 09fe 653c
000002c0: 04d5 64bc 9e14 873c bbc7 1cbc 6438 ff3c
000002d0: 79ba a2bb 8cf4 9d3c d401 103d ded3 b63b
000002e0: 9b3e 223c 8b7f 653c c9e0 cd3b d6db 1f3c
000002f0: 83c2 1abc 98df bfbc 92a0 11bd 5a24 d73c
00000300: 6ac7 01bb 3f2c 24bd 0ba9 983a a666 843c
00000310: b085 1abd c846 8d3c 0da8 72bc 9557 2fbd
00000320: ae5b 613d 9e5b 893c 85fd 993c 994b a53c
00000330: 9b81 3b3c 5ed2 01bd c845 34ba 7c2c 203d
00000340: a926 3f3a 9bb7 6b3b 2713 67bc f819 573c
00000350: 4b0a 0d3d 2575 e0bc 81e6 4c3b baa3 ef3b
00000360: d0b8 b33c 2e1c aa3b 64c9 a9bb 8c57 453c
00000370: 952a 1f3c c6f1 2ebd c132 a1bc 6617 98bc
00000380: 6c69 103b 3061 47bc 55d0 1c3d 0c4a 8bbc
00000390: 7fcd e4ba 19dd b5bb a06d 7a3c d6a4 d1bc
000003a0: c93f 1abd d29e b4ba 9ce0 d63b 7965 81bc
000003b0: 6ba8 843c abb9 993b 8980 e83c e147 0abc
000003c0: c47a aabc 006f 903a 4987 193c 587b 1f3d
000003d0: 0247 a33c 7160 90bc 17f7 9fbc 1a6a 8dbb
000003e0: 8c9a 08bc fa08 04bb bfb1 213d d29f 573c
000003f0: edc3 4e3b cbfe 28bb 2cfb a139 35ed 193d

action_model._continuous_distribution.mu.bias f4 [2]
-0.00048368017 -0.0008757226
00000000: 7496 fdb9 c090 65ba

action_model._discrete_distribution.branches.0.weight f4 [5, 128]
-0.006163716 -0.010135773 0.0070055933 -0.0022710254 0.001730644 -0.0052486956 0.0038679177 -0.0018020876
0.0053303964 0.009825852 0.008213461 -0.0065969704 -0.0057172845 -0.0074850614 -0.010238095 -0.0009374851
-0.012582302 0.011840198 0.0048741917 -0.010573171 0.008758943 0.0034168381 -0.009648837 0.0033911979
-0.0014497727 -0.01036216 0.006870407 0.0059365206 0.0049376907 -0.008565349 -0.007613537 0.0053288448
0.02046696 -0.014288323 -0.0016361229 -0.0031444093 -0.0075460775 -0.00113814 -0.0031243104 0.017739292
0.010278612 -0.0103723295 0.01350897 -0.009073681 0.0021425798 0.0018872811 -0.010256204 0.010344807
-0.002990847 -0.0066665993 -0.014759399 0.0040504327 -0.0078001665 0.031656343 -0.005701361 -0.004762844
-0.014999548 0.0065890923 0.0025220816 0.024614241 0.0009809616 -0.017473873 0.0045162896 -0.014976815
-0.01684447 -0.007644281 -0.007966604 -0.021446083 -0.016657317 -0.0003067237 0.003606911 0.009510541
-0.007711885 -0.021496879 -0.008843191 -0.0027843323 0.0041282936 0.010750176 -0.0081344815 -0.00015578412
-0.0013489691 -0.0076652425 -0.0028378698 0.014234517 0.009350273 -0.005092314 -0.009844533 0.010088564
-0.013483805 -0.0050142044 0.014164646 -0.0032872723 -0.0037430539 -0.0070754928 0.013660188 0.0095177945
0.0143376645 0.0098174 0.0044809934 -0.00079530454 -0.01345026 0.005969 0.0007468805 -0.014709284
0.006292645 -0.0016130205 -0.01159448 -0.007538888 0.009999571 -0.020796973 -0.014020244 0.0012314508
-0.003011482 -0.012341762 0.0072957543 0.0089951325 -0.0019057206 -0.010945063 0.005118667 -0.016386783
0.002938721 0.009279848 -0.00019345601 0.0030601826 -0.016909413 -0.005831552 0.0025634314 0.009695708
0.0022755214 -0.005848257 -0.019079462 0.0072660516 0.0051596058 -0.020374404 -0.015369744 -0.0031285174
-0.02426653 -0.008620068 0.0036950582 -0.01932573 -0.010115824 -0.00836518 0.0055450955 0.017333012
-0.0027408118 0.012054842 0.0074845254 0.01754944 0.0021606425 -0.012457464 -0.005329869 -0.009958596
0.003945469 -0.0030362168 0.0050851316 0.0028461698 -0.016123062 0.007829828 -0.013608817 -4.647794e-05
-0.0011087051 -0.0003887787 0.0054135835 -0.0062617166 0.0017854692 0.0020420277 -0.006515706 0.013064204
-0.010057188 0.0019086403 0.015021064 -0.0035556948 0.0057013906 -0.01675401 0.007764829 -0.002466013
-0.002767493 -0.0182401 0.009071676 6.191554e-05 0.0019423808 -0.01470854 -0.010908293 -0.006524776
-0.017318688 4.1815892e-06 -0.016595975 -0.010588991 -0.017379573 0.011858641 -0.01729586 -0.0068762377
-0.0039531966 -0.0017033735 -0.009824055 -0.018160116 -0.0058457274 0.008038881 0.009304682 -0.0043300884
-0.006204596 -0.010975853 -0.015094349 -0.0018904506 -0.0021259824 0.004587399 0.0072950497 0.0025127083
0.009013747 -0.0124609135 -0.008532794 0.019993072 0.011221012 -0.0063713756 0.0018815843 -0.004220328
0.0013915846 -0.014943505 -0.006925465 -0.0052104886 0.011707753 0.0069563044 0.007409488 0.016700137
0.0139536625 -0.0040386897 -0.0038741217 -0.007234759 -0.0064024725 0.0049160053 0.01588627 -0.0027942057
0.008299645 0.008427409 0.012715982 -0.0160983 -0.0021179544 0.0016615595 -0.0017429094 0.012180432
-0.0035569363 0.0053514796 -0.002258447 0.0020385846 0.017309925 0.009128574 -0.0008400704 0.0059165247
0.012137794 -0.0032693113 0.004174149 0.015778625 0.002576809 -0.012090678 0.015179892 0.005316376
00000000: fff8 c9bb 8310 26bc 2d8f e53b 7cd5 14bb
00000010: c7d6 e23a 40fd abbb e47c 7d3b 0734 ecba
00000020: 9baa ae3b 9cfc 203c c191 063c 662b d8bb
00000030: 0f58 bbbb 3f45 f5bb afbd 27bc 8fc1 75ba
00000040: 0026 4ebc 64fd 413c afb7 9f3b 183b 2dbc
00000050: ab81 0f3c 08ed 5f3b 2816 1ebc dc3e 5e3b
00000060: 4d06 beba 0dc6 29bc 2721 e13b 2587 c23b
00000070: 5acc a13b ad55 0cbc fa7a f9bb 979d ae3b
00000080: 53aa a73c 9219 6abc 2d73 d6ba 6f12 4ebb
00000090: 1645 f7bb a42d 95ba 3bc1 4cbb fe51 913c
000000a0: a067 283c b4f0 29bc ba54 5d3c c7a9 14bc
000000b0: 866a 0c3b a55e f73a a309 28bc 447d 293c
000000c0: 1602 44bb 7d73 dabb 68d1 71bc 7eb9 843b
000000d0: 8a98 ffbb 15aa 013d 7cd2 babb a211 9cbb
000000e0: aac0 75bc 50e9 d73b 8249 253b cea3 c93c
000000f0: 9c93 803a 5e25 8fbc 62fd 933b 5161 75bc
00000100: 6afd 89bc e07c fabb 5c86 02bc b2af afbc
00000110: ed74 88bc c2cf a0b9 ed61 6c3b 1ad2 1b3c
00000120: fbb3 fcbb 391a b0bc 08e3 10bc 5879 36bb
00000130: a346 873b 8221 303c 7d46 05bc fb59 23b9
00000140: e4cf b0ba b72c fbbb 8efb 39bb e437 693c
00000150: e331 193c 6ddd a6bb f74a 21bc 814a 253c
00000160: 2deb 5cbc 324e a4bb d512 683c 476f 57bb
00000170: 064e 75bb 89d9 e7bb fbce 5f3c 86f0 1b3c
00000180: 86e8 6a3c 29d9 203c 4cd5 923b fc7b 50ba
00000190: 7b5e 5cbc 9a97 c33b 4dca 433a 35ff 70bc
000001a0: 8832 ce3b fd6b d3ba c6f6 3dbc c708 f7bb
000001b0: 3ed5 233c 6a5e aabc 2ab5 65bc a268 a13a
000001c0: 495c 45bb 1a35 4abc 3911 ef3b 5260 133c
000001d0: 5fc9 f9ba ec52 33bc 7eba a73b 933d 86bc
000001e0: 8f97 403b 810a 183c 74da 4ab9 588d 483b
000001f0: 9c85 8abc 9b16 bfbb 3eff 273b bfda 1e3c
00000200: ea20 153b bca2 bfbb 884c 9cbc 0f18 ee3b
00000210: e911 a93b 39e8 a6bc 61d1 7bbc d007 4dbb
00000220: 9aca c6bc 303b 0dbc ca28 723b fe50 9ebc
00000230: d7bc 25bc 1c0e 09bc a2b3 b53b f6fd 8d3c
00000240: 319f 33bb ac81 453c c040 f53b d8c3 8f3c
00000250: 9199 0d3b 641a 4cbc 2fa6 aebb 6129 23bc
00000260: fe48 813b 44fb 46bb 2da1 a63b ce86 3a3b
00000270: 8314 84bc ae48 003c 84f7 5ebc 4ff1 42b8
00000280: f851 91ba fed4 cbb9 6e64 b13b 162f cdbb
00000290: 6806 ea3a 8ad3 053b b481 d5bb 3e0b 563c
000002a0: e7c6 24bc 572b fa3a e91a 763c a906 69bb
000002b0: bbd2 ba3b b53f 89bc 1b70 fe3b d59c 21bb
000002c0: d45e 35bb 436c 95bc 5ea1 143c a7d8 8138
000002d0: 7c97 fe3a 17fc 70bc b2b8 32bc cacd d5bb
000002e0: ecdf 8dbc 944f 8c36 48f4 87bc 737d 2dbc
000002f0: 9b5f 8ebc bf4a 423c 0cb0 8dbc 1052 e1bb
00000300: d189 81bb bb43 dfba 13f5 20bc 86c4 94bc
00000310: 848d bfbb 83b5 033c aa72 183c 6ae3 8dbb
00000320: ec4f cbbb 10d4 33bc 4a4e 77bc ffc8 f7ba
00000330: 1154 0bbb e451 963b 500b ef3b 40ac 243b
00000340: 65ae 133c dc28 4cbc 22cd 0bbc 83c8 a33c
00000350: 56d8 373c f9c6 d0bb 7e9f f63a ad4a 8abb
00000360: d565 b63a 9ad5 74bc 03ef e2bb bfbc aabb
00000370: e0d1 3f3c b6f1 e33b 4acb f23b bace 883c
00000380: e79d 643c fc56 84bb fae4 7dbb 8f11 edbb
00000390: d5cb d1bb 7116 a13b ec23 823c fe1e 37bb
000003a0: 3cfb 073c 1e13 0a3c b256 503c 95e0 83bc
000003b0: 61cd 0abb afc8 d93a 5672 e4ba 6f90 473c
000003c0: 7d1b 69bb 775b af3b 7402 14bb c699 053b
000003d0: 8bcd 8d3c 0490 153c 2c38 5cba 68df c13b
000003e0: 99dd 463c f141 56bb 4dc7 883b 2d42 813c
000003f0: aedf 283b fb17 46bc 15b5 783c ff34 ae3b

action_model._discrete_distribution.branches.0.bias f4 [5]
0.0013682129 0.0005277083 -0.00034191256 0.0013098213 -0.002836291
00000000: 9b55 b33a e855 0a3a ba42 b3b9 4fae ab3a
00000010: 11e1 39bb

exp_avg f4 [128, 140]
1.3699596e-05 0.0 -5.9968526e-31 3.8620374e-06 1.02819795e-05 0.0 -1.8163171e-26 6.270541e-06
1.3213592e-05 0.0 -9.142848e-30 7.1472673e-06 5.9524715e-05 0.0 -1.7252192e-06 -5.34829e-06
1.938498e-05 0.0 -9.717801e-30 1.1458444e-05 0.00010396463 0.0 2.062859e-27 -2.0519534e-05
1.1074559e-05 0.0 -1.427185e-29 1.8668765e-05 0.00011889593 0.0 2.0635844e-27 -1.8324745e-05
-7.006022e-06 0.0 -1.4408976e-29 2.8622993e-05 6.5803055e-05 0.0 2.0637905e-27 6.273729e-06
-2.4943101e-06 0.0 8.234231e-16 3.320883e-05 6.5137945e-05 0.0 9.333945e-11 4.1049398e-06
-9.912166e-06 0.0 -9.118106e-30 1.9864045e-05 5.5836654e-06 0.0 2.0637905e-27 1.2666306e-05
-8.122229e-06 0.0 -9.118106e-30 1.3269723e-05 -6.981297e-06 0.0 2.0116148e-27 1.4047169e-05
-1.1096637e-05 0.0 -8.9379475e-30 1.01152345e-05 1.5106384e-06 0.0 0.0 1.0784904e-05
1.5106384e-06 0.0 0.0 1.0784904e-05 5.175777e-05 -0.0002259362 -3.2071894e-05 0.0012656458
0.00015155606 -0.0008370459 6.6398825e-05 0.00015155606 -0.0010151911 0.0003956834 -2.3452183e-05 3.336592e-07
-3.5794237e-05 0.0003516009 -7.081792e-05 -1.0609135e-06 -3.6388203e-05 0.0 0.0 0.0
0.0 0.0 0.0 0.0 0.0 0.0 0.0 0.0
0.0 0.0 0.0 0.0 0.0 0.0 0.0 0.0
0.0 0.0 0.0 0.0 0.0 0.0 0.0 0.0
0.0 0.0 0.0 0.0 0.0 0.0 0.0 0.0
0.0 0.0 0.0 0.0 0.0 0.0 0.0 0.0
0.0 0.0 0.0 0.0 3.476298e-05 0.0 -8.897371e-30 1.0257885e-05
4.7129928e-05 0.0 1.5403246e-25 6.0797106e-06 1.531031e-05 0.0 -9.732598e-28 1.6044662e-05
6.2296174e-05 0.0 -4.5933093e-06 -1.8050405e-06 1.4965921e-05 0.0 -9.782727e-28 1.6490425e-05
6.7454734e-05 0.0 1.0124324e-26 2.550726e-06 4.602269e-05 0.0 -9.830377e-28 9.397969e-06
5.5364704e-05 0.0 1.0118792e-26 8.62533e-06 1.1694092e-05 0.0 -9.642917e-28 1.8214141e-05
4.3079366e-05 0.0 1.012069e-26 1.01829e-05 7.1599247e-06 0.0 -6.3301763e-16 2.0530928e-05
6.2942425e-05 0.0 6.158974e-12 -2.6290172e-07 9.438738e-06 0.0 -9.693762e-28 1.3127121e-05
5.980783e-05 0.0 1.012069e-26 1.6850915e-06 8.744894e-06 0.0 -9.693762e-28 8.876328e-06
-2.363267e-06 0.0 1.031549e-26 1.0019398e-05 5.7604034e-06 0.0 -9.70332e-28 9.86934e-06
-3.1309548e-06 0.0 0.0 1.6757587e-05 -3.1309548e-06 0.0 0.0 1.6757587e-05
0.0002545498 -0.000294873 -0.0006437335 0.00090217404 0.00019752102 -0.0015984604 0.00077753473 0.00019752102
-0.0017447539 0.0004260682 4.2307693e-05 -2.234577e-08 -4.5109402e-05 0.00035142506 -2.3583974e-05 -3.091589e-08
-1.73656e-05 0.0 0.0 0.0 0.0 0.0 0.0 0.0
0.0 0.0 0.0 0.0 0.0 0.0 0.0 0.0
0.0 0.0 0.0 0.0 0.0 0.0 0.0 0.0
00000000: 51d7 6537 0000 0000 e79b 428d a696 8136
00000010: c480 2c37 0000 0000 1ce1 b394 8967 d236
00000020: f2af 5d37 0000 0000 6270 398f 8fd2 ef36
00000030: 2daa 7938 0000 0000 158e e7b5 7675 b3b6
00000040: ed9c a237 0000 0000 b519 458f a43d 4037
00000050: 9607 da38 0000 0000 c06f 2313 5d21 acb7
00000060: decc 3937 0000 0000 d7bb 908f de9a 9c37
00000070: c457 f938 0000 0000 777e 2313 17b8 99b7
00000080: 4515 ebb6 0000 0000 d71f 928f 691b f037
00000090: bfff 8938 0000 0000 a582 2313 ec82 d236
000000a0: ec63 27b6 0000 0000 e755 6d26 b649 0b38
000000b0: ab9a 8838 0000 0000 7041 cd2e 2abd 8936
000000c0: 6e4c 26b7 0000 0000 eaef 388f b6a1 a637
000000d0: 525b bb36 0000 0000 a582 2313 5f81 5437
000000e0: b544 08b7 0000 0000 eaef 388f 07a1 5e37
000000f0: e240 eab6 0000 0000 6560 1f13 22ac 6b37
00000100: b12b 3ab7 0000 0000 7a48 358f 9ab4 2937
00000110: 24c1 ca35 0000 0000 0000 0000 cff0 3437
00000120: 24c1 ca35 0000 0000 0000 0000 cff0 3437
00000130: 7b16 5938 49e9 6cb9 ef84 06b8 07e4 a53a
00000140: 05eb 1e39 336d 5bba 993f 8b38 05eb 1e39
00000150: 2910 85ba ba73 cf39 2ebb c4b7 c521 b334
00000160: c521 16b8 1357 b839 1584 94b8 b664 8eb5
00000170: 899f 18b8 0000 0000 0000 0000 0000 0000
00000180: 0000 0000 0000 0000 0000 0000 0000 0000
00000190: 0000 0000 0000 0000 0000 0000 0000 0000
000001a0: 0000 0000 0000 0000 0000 0000 0000 0000
000001b0: 0000 0000 0000 0000 0000 0000 0000 0000
000001c0: 0000 0000 0000 0000 0000 0000 0000 0000
000001d0: 0000 0000 0000 0000 0000 0000 0000 0000
000001e0: 0000 0000 0000 0000 0000 0000 0000 0000
000001f0: 0000 0000 0000 0000 0000 0000 0000 0000
00000200: 0000 0000 0000 0000 0000 0000 0000 0000
00000210: 0000 0000 0000 0000 0000 0000 0000 0000
00000220: 0000 0000 0000 0000 0000 0000 0000 0000
00000230: 77ce 1138 0000 0000 cb75 348f 4819 2c37
00000240: 60ad 4538 0000 0000 d6ae 3e16 5100 cc36
00000250: a46e 8037 0000 0000 1c38 9a92 a697 8637
00000260: 01a5 8238 0000 0000 3a20 9ab6 b844 f2b5
00000270: 2416 7b37 0000 0000 7503 9b92 eb54 8a37
00000280: 7c76 8d38 0000 0000 6c88 4814 242d 2b36
00000290: 7d08 4138 0000 0000 bfc4 9b92 f8ab 1d37
000002a0: 6637 6838 0000 0000 5f6c 4814 83b5 1037
000002b0: be31 4437 0000 0000 52cc 9892 92ca 9837
000002c0: 1eb0 3438 0000 0000 ff75 4814 39d7 2a37
000002d0: 493f f036 0000 0000 7574 36a6 d539 ac37
000002e0: f5ff 8338 0000 0000 1bb3 d82c f024 8db4
000002f0: 125b 1e37 0000 0000 929a 9992 8e3c 5c37
00000300: 2bda 7a38 0000 0000 ff75 4814 4e2b e235
00000310: 09b7 1237 0000 0000 929a 9992 8aeb 1437
00000320: 9e98 1eb6 0000 0000 c051 4c14 fd18 2837
00000330: 7d49 c136 0000 0000 58c1 9992 7e94 2537
00000340: 651d 52b6 0000 0000 0000 0000 a592 8c37
00000350: 651d 52b6 0000 0000 0000 0000 a592 8c37
00000360: 1975 8539 2f99 9ab9 39c0 28ba e07f 6c3a
00000370: a51d 4f39 6e83 d1ba 79d3 4b3a a51d 4f39
00000380: 3ab0 e4ba e861 df39 8a73 3138 def2 bfb2
00000390: da33 3db8 793f b839 33d6 c5b7 61c8 04b3
000003a0: 58ac 91b7 0000 0000 0000 0000 0000 0000
000003b0: 0000 0000 0000 0000 0000 0000 0000 0000
000003c0: 0000 0000 0000 0000 0000 0000 0000 0000
000003d0: 0000 0000 0000 0000 0000 0000 0000 0000
000003e0: 0000 0000 0000 0000 0000 0000 0000 0000
000003f0: 0000 0000 0000 0000 0000 0000 0000 0000

exp_avg_sq f4 [128, 140]
7.0332135e-10 0.0 7.370673e-13 1.6560147e-09 1.5054494e-09 0.0 3.7846436e-12 1.7766038e-09
6.0818756e-10 0.0 2.7291995e-12 1.7113115e-09 2.9740896e-09 0.0 5.3886505e-12 1.898234e-09
6.48786e-10 0.0 2.684367e-12 2.1953295e-09 3.7947907e-09 0.0 4.184056e-12 1.87794e-09
3.9733066e-09 0.0 2.9535692e-12 2.813288e-09 6.8887185e-09 0.0 7.291783e-12 1.3271643e-09
1.288352e-09 0.0 3.4815861e-12 4.2794834e-09 7.8671345e-09 0.0 2.7652873e-12 8.6981516e-10
1.6212452e-09 0.0 3.6779204e-12 4.0699697e-09 9.065239e-09 0.0 2.1140127e-10 7.1425316e-10
1.8159427e-09 0.0 2.1421686e-12 1.9592008e-09 7.0225594e-09 0.0 2.7652873e-12 4.674002e-10
1.580032e-09 0.0 2.1421686e-12 9.682323e-10 3.5250773e-09 0.0 2.900945e-12 6.4491784e-10
1.4903359e-09 0.0 2.3868618e-12 8.819072e-10 3.1249403e-09 0.0 0.0 9.155854e-10
3.1249403e-09 0.0 0.0 9.1559094e-10 5.1409484e-06 4.1613106e-07 2.874199e-06 1.4010144e-05
1.8565945e-07 1.513865e-05 9.381024e-06 1.8565945e-07 1.6380443e-05 9.634165e-07 8.058142e-09 1.1936296e-12
4.278596e-09 1.223387e-06 5.5746323e-09 8.714958e-13 2.239793e-09 0.0 0.0 0.0
0.0 0.0 0.0 0.0 0.0 0.0 0.0 0.0
0.0 0.0 0.0 0.0 0.0 0.0 0.0 0.0
0.0 0.0 0.0 0.0 0.0 0.0 0.0 0.0
0.0 0.0 0.0 0.0 0.0 0.0 0.0 0.0
0.0 0.0 0.0 0.0 0.0 0.0 0.0 0.0
0.0 0.0 0.0 0.0 1.3103194e-09 0.0 3.5666668e-11 6.36711e-10
1.941041e-09 0.0 5.469271e-11 6.2157546e-10 8.164615e-10 0.0 9.7490016e-11 6.8808764e-10
2.5958706e-09 0.0 5.431662e-11 5.8994754e-10 9.326498e-10 0.0 9.650784e-11 9.065267e-10
3.3151863e-09 0.0 5.977812e-11 6.6014644e-10 1.3097263e-09 0.0 9.891733e-11 1.5318948e-09
4.5171955e-09 0.0 4.907331e-11 8.264201e-10 1.1941684e-09 0.0 7.2261606e-11 2.7718348e-09
4.512184e-09 0.0 1.8505784e-11 9.39106e-10 1.1017258e-09 0.0 6.481414e-11 3.187955e-09
4.0391694e-09 0.0 4.626938e-11 7.5419015e-10 9.581957e-10 0.0 5.675722e-11 1.7989235e-09
3.1531617e-09 0.0 1.8505784e-11 5.9108807e-10 8.39756e-10 0.0 5.675722e-11 1.0347326e-09
2.1024749e-09 0.0 2.4140648e-11 6.300093e-10 1.0604281e-09 0.0 6.02155e-11 8.88594e-10
1.7443604e-09 0.0 0.0 7.9061635e-10 1.7443604e-09 0.0 0.0 7.9062407e-10
4.0604505e-06 2.356755e-07 9.928234e-07 1.0814297e-05 1.051703e-07 6.9679186e-06 7.6007204e-06 1.051703e-07
8.587268e-06 4.6048663e-07 4.5507766e-09 1.16776875e-11 3.4533818e-09 7.443768e-07 2.6161249e-09 3.764034e-12
1.230245e-09 0.0 0.0 0.0 0.0 0.0 0.0 0.0
0.0 0.0 0.0 0.0 0.0 0.0 0.0 0.0
0.0 0.0 0.0 0.0 0.0 0.0 0.0 0.0
00000000: d753 4130 0000 0000 4c77 4f2b d699 e330
00000010: 4be8 ce30 0000 0000 0a29 852c b02c f430
00000020: 652d 2730 0000 0000 e30c 402c 6c33 eb30
00000030: bd60 4c31 0000 0000 a698 bd2c 1672 0231
00000040: 4256 3230 0000 0000 42e5 3c2c a5dc 1631
00000050: 5563 8231 0000 0000 a036 932c 120d 0131
00000060: 9385 8831 0000 0000 c6d6 4f2c e353 4131
00000070: cfb1 ec31 0000 0000 4547 002d 7167 b630
00000080: db11 b130 0000 0000 aefe 742c bc0a 9331
00000090: 0628 0732 0000 0000 fd96 422c cd17 6f30
000000a0: 7fd2 de30 0000 0000 c367 812c d5d7 8b31
000000b0: 58bd 1b32 0000 0000 2b70 682f 1955 4430
000000c0: ce94 f930 0000 0000 e1bd 162c a0a2 0631
000000d0: 164b f131 0000 0000 fd96 422c 5d7a 0030
000000e0: 6f28 d930 0000 0000 e1bd 162c a512 8530
000000f0: d13d 7231 0000 0000 c722 4c2c 0f46 3130
00000100: 88d4 cc30 0000 0000 e1f5 272c b46a 7230
00000110: 88be 5631 0000 0000 0000 0000 98ac 7b30
00000120: 88be 5631 0000 0000 0000 0000 fcac 7b30
00000130: 6980 ac36 9e68 df34 5de2 4036 1c0d 6b37
00000140: ae59 4734 02fc 7d37 3163 1d37 ae59 4734
00000150: bc68 8937 bd4e 8135 1570 0a32 0afd a72b
00000160: ee02 9331 4233 a435 fc8a bf31 e44d 752b
00000170: dbea 1931 0000 0000 0000 0000 0000 0000
00000180: 0000 0000 0000 0000 0000 0000 0000 0000
00000190: 0000 0000 0000 0000 0000 0000 0000 0000
000001a0: 0000 0000 0000 0000 0000 0000 0000 0000
000001b0: 0000 0000 0000 0000 0000 0000 0000 0000
000001c0: 0000 0000 0000 0000 0000 0000 0000 0000
000001d0: 0000 0000 0000 0000 0000 0000 0000 0000
000001e0: 0000 0000 0000 0000 0000 0000 0000 0000
000001f0: 0000 0000 0000 0000 0000 0000 0000 0000
00000200: 0000 0000 0000 0000 0000 0000 0000 0000
00000210: 0000 0000 0000 0000 0000 0000 0000 0000
00000220: 0000 0000 0000 0000 0000 0000 0000 0000
00000230: c416 b430 0000 0000 19dd 1c2e 8e04 2f30
00000240: 2863 0531 0000 0000 848a 702e 7cdb 2a30
00000250: 5f6d 6030 0000 0000 0062 d62e dd23 3d30
00000260: 0a63 3231 0000 0000 14e3 6e2e de29 2230
00000270: b32e 8030 0000 0000 1639 d42e 252f 7930
00000280: 60d1 6331 0000 0000 1774 832e ad75 3530
00000290: e601 b430 0000 0000 8285 d92e c28a d230
000002a0: ac35 9b31 0000 0000 a3d3 572e 252a 6330
000002b0: 1120 a430 0000 0000 abe7 9e2e a27a 3e31
000002c0: 9709 9b31 0000 0000 52c7 a22d db11 8130
000002d0: 886b 9730 0000 0000 1e87 8e2e 1913 5b31
000002e0: e9c8 8a31 0000 0000 b17e 4b2e 6a4f 4f30
000002f0: 84b1 8330 0000 0000 f39e 792e fe3d f730
00000300: 02af 5831 0000 0000 52c7 a22d 207a 2230
00000310: 93d4 6630 0000 0000 f39e 792e 6b36 8e30
00000320: 217b 1031 0000 0000 e857 d42d f72c 2d30
00000330: 7fbe 9130 0000 0000 506a 842e 3e41 7430
00000340: 3abe ef30 0000 0000 0000 0000 ae52 5930
00000350: 3abe ef30 0000 0000 0000 0000 3953 5930
00000360: 013f 8836 fd0d 7d34 2741 8535 0d6f 3537
00000370: fcd9 e133 f7cd e936 b109 ff36 fcd9 e133
00000380: 0912 1037 cd38 f734 0e5d 9c31 a16f 4d2d
00000390: 8950 6d31 2fd1 4735 5bc7 3331 676f 842c
000003a0: 6615 a930 0000 0000 0000 0000 0000 0000
000003b0: 0000 0000 0000 0000 0000 0000 0000 0000
000003c0: 0000 0000 0000 0000 0000 0000 0000 0000
000003d0: 0000 0000 0000 0000 0000 0000 0000 0000
000003e0: 0000 0000 0000 0000 0000 0000 0000 0000
000003f0: 0000 0000 0000 0000 0000 0000 0000 0000

exp_avg f4 [128]
5.20811e-05 6.787662e-05 -1.8476438e-05 -2.0523392e-05 -1.2947711e-05 -1.7885675e-05 -0.000114977585 5.0163965e-07
-4.8680596e-07 4.0666288e-05 -4.9907044e-06 -1.7617825e-06 6.1716105e-06 2.4181594e-05 4.3173534e-07 8.1533726e-05
-4.4065255e-06 -1.003414e-05 1.2623869e-05 6.46001e-05 -3.7266136e-07 -1.6211277e-05 2.8473912e-07 -6.871964e-05
-4.7102716e-05 -1.9885092e-05 -2.256878e-06 -1.6656735e-05 7.662778e-07 -2.2945098e-05 -7.905364e-06 2.382843e-05
4.107755e-05 3.253215e-06 2.2144782e-06 -5.4186444e-06 1.9027175e-06 2.9471332e-07 6.2419713e-06 -5.534341e-05
2.6769107e-05 -3.5133304e-05 -1.895988e-05 -1.7721692e-05 -1.411452e-05 -2.676804e-06 9.039049e-05 -1.0244472e-05
-4.827004e-05 8.3226405e-05 4.3841592e-05 -7.2387166e-07 4.970884e-06 -1.4463402e-05 -4.03202e-06 0.00010278628
-8.805494e-08 -4.077359e-06 9.291354e-07 -3.534665e-05 -6.304029e-08 -1.0794161e-05 -1.8481656e-05 -7.6788965e-06
-2.621324e-06 -1.0238892e-05 7.289342e-06 -4.392858e-06 -2.6187984e-06 -4.1609088e-05 -3.5600806e-05 6.573226e-06
-1.9724826e-06 7.560654e-06 4.2468655e-06 -4.267351e-05 0.00011004083 2.711619e-06 1.8859371e-05 2.329408e-05
-3.064522e-05 1.3604208e-05 -1.5290324e-06 3.757927e-06 -2.374087e-05 -2.8834696e-05 -2.9265806e-05 1.5958824e-06
5.8652827e-06 6.3200445e-05 -5.782533e-05 -1.2906344e-05 -2.1147791e-06 -1.9098123e-05 6.687113e-05 -7.024139e-06
3.63387e-05 -7.391568e-09 4.4237742e-05 8.852939e-05 3.1197214e-07 1.3150974e-05 -4.529009e-06 4.242459e-05
3.2797245e-06 8.3855974e-07 -4.1975938e-05 1.1147258e-06 5.3413445e-05 3.7506873e-06 -2.8108952e-05 -3.8130594e-05
8.239982e-06 1.9844041e-05 -2.8061052e-06 -1.799025e-05 3.847717e-07 -5.2206342e-05 -4.354435e-06 1.4111907e-07
3.8893173e-05 -4.1808882e-05 5.5881114e-06 3.8014612e-05 3.5659068e-05 -2.6323785e-06 1.4677611e-06 -6.4294386e-07
00000000: a871 5a38 fc58 8e38 d9fd 9ab7 a629 acb7
00000010: ff39 59b7 3209 96b7 1f20 f1b8 6aa8 0635
00000020: 0dad 02b5 1891 2a38 d375 a7b6 6376 ecb5
00000030: bb15 cf36 94d9 ca37 41c9 e734 16fd aa38
00000040: c4db 93b6 4e58 28b7 1bcb 5337 ea79 8738
00000050: 3012 c8b4 74fd 87b7 3fde 9834 931d 90b8
00000060: 2890 45b8 e9ce a6b7 de74 17b6 11ba 8bb7
00000070: 36b2 4d35 397a c0b7 48a1 04b7 2ae3 c737
00000080: af4a 2c38 cf51 5a36 729c 1436 cdd1 b5b6
00000090: e060 ff35 1739 9e34 2072 d136 8920 68b8
000000a0: 388e e037 195c 13b8 080c 9fb7 0ba9 94b7
000000b0: 67cd 6cb7 24a3 33b6 0690 bd38 acdf 2bb7
000000c0: 9075 4ab8 d689 ae38 8de2 3738 1550 42b5
000000d0: 92cb a636 d7a7 72b7 ca4a 87b6 f78e d738
000000e0: b718 bdb3 3fd0 88b6 b369 7935 2d41 14b8
000000f0: c460 87b3 9218 35b7 0e09 9bb7 9cd4 00b7
00000100: 01ea 2fb6 b5c7 2bb7 f996 f436 5d66 93b6
00000110: 9dbe 2fb6 6b85 2eb8 1352 15b8 958f dc36
00000120: fe5e 04b6 86b1 fd36 4c80 8e36 55fc 32b8
00000130: b9c5 e638 42f9 3536 3134 9e37 a867 c337
00000140: 0e89 00b8 a13d 6437 2739 cdb5 b230 7c36
00000150: 2127 c7b7 0ae2 f1b7 d77f f5b7 1a32 d635
00000160: 65ce c436 7b8a 8438 7a89 72b8 5388 58b7
00000170: a1eb 0db6 e834 a0b7 2a3d 8c38 e5b0 ebb6
00000180: 626a 1838 ebf8 fdb1 ea8b 3938 dba8 b938
00000190: 207d a734 01a3 5c37 e4f7 97b6 0ff1 3138
000001a0: 3d19 5c36 6319 6135 520f 30b8 b09d 9535
000001b0: 4008 6038 51b4 7b36 84cb ebb7 6aee 1fb8
000001c0: 743e 0a37 c176 a637 8550 3cb6 c5e9 96b7
000001d0: 9f92 ce34 22f8 5ab8 501c 92b6 8486 1734
000001e0: 3a21 2338 f25b 2fb8 8381 bb36 e171 1f38
000001f0: a290 1538 eba7 30b6 e3ff c435 c496 2cb5
