3DPlayground/results/TestA1/MoveToGoal2/MoveToGoal2-61758.pt (torch, 744590 bytes, 42 tensors)

network_body._body_endoder.seq_layers.0.weight f4 [128, 101]
00000000: ee88 bbbd 093f 1dbe 1cff f23d ca1e 183c
00000010: 1a78 163b f4d2 dcbb 4e28 c73d a2d1 123e
00000020: c243 fabd 7761 c03d 1239 35bd a39e 44bd
00000030: ffad 9ebb 81c7 20bc 9818 b3bd becf 6b3e
00000040: 9b78 e93d 6717 193d 44af a7bd 1785 71bd
00000050: 1bcd 5cbd cbb0 a0bd 7196 4cbe 9314 05bc
00000060: 5d24 073d 6d29 5b3d f361 eabd f8be 3b3d
00000070: b86a c83a def5 ad3d 3a53 5c3b 6706 943d
00000080: 3ccf 48be 410a 683b b3cf acbd cccf 573d
00000090: f1d4 013e e6a3 82bc 6aff 983c d730 8fbd
000000a0: 9bb0 03be 2454 ecbd 6e9d 7bbd e747 2c3e
000000b0: 1a68 263e 0906 8ebd 68a8 293d ec39 943d
000000c0: 3352 39bc 5a3f bcbd 49eb 18bd 1a06 443e
000000d0: c625 213c 46ca 693b 80d9 44be 4fef 883d
000000e0: 46f8 533d d6c2 a4bd 05ee c23d 502d b63c
000000f0: aae7 8ebb 5b24 e0bc f14d 3ebd 2c7a 9abd
00000100: acd0 37bd 41bb 033e 7ad4 003e d976 34be
00000110: 29a0 de3c ddf9 c53d e3aa b53d e517 4e3d
00000120: 2174 f5bc a2c6 333e 7fa0 1bbd 5681 6e3d
00000130: e5c5 8abd 41ef 273e 5acf b5bc 9cb5 f83a
00000140: 4e42 983c 3431 853d cbc3 123e 75d4 21bb
00000150: ec82 053e 5c8d 3b3d c6a1 24bd 5003 35be
00000160: bead 793d 2596 0c3c 1eb3 83bb 700e 37be
00000170: 9f8c 8cbd 17c6 753c faf8 91bd 9484 79bd
00000180: bccc 04be 1d47 d8bd 49e5 26bd f8ca 963d
00000190: 123a 8c3c f75f da3d c095 f33c a4b7 883d
000001a0: af9a 553e 9b29 1b3e cee6 223e a888 afbd
000001b0: cfca 5abd 4154 aabd 87df 5abd 5837 003c
000001c0: 598b 75be e67e aebd 7c0f 2d3d 8b9a 8dbd
000001d0: 1c76 df3d da62 b23d f8c1 933d 7e98 733d
000001e0: 77c1 c33d f941 9bbc 09d0 2abe 3c3b c03d
000001f0: 8a09 83bd 0f4a b8bd 3327 443d f0bf a73c
00000200: f925 f739 8532 c3bd 79db 853d 84e3 a43d
00000210: ba00 c33c 5e48 7b3d 6d0c 3e3b e972 88bd
00000220: 874d 83bd f676 29bc e6d9 383e e1dc 233e
00000230: 31bf fc3c 51c5 44be 8bd8 84bd 8549 23be
00000240: 3b4a 3cbd 065b cc3d 9d0b 8d3d 9bf2 083d
00000250: 158b c8bc b907 c8bc 181e 5c3d b88b 58be
00000260: 6a73 a3bc 7e66 7fbd 3d3d 8ebc 50f6 07bd
00000270: 35ff bc3c 70ef 05be 25eb 8b3e 3104 e8bc
00000280: 0fa5 25be 476e a3bd 62e9 b0bc 9cca de3d
00000290: 80e0 8dbd 2736 723c 3487 9ebc 097c 923d
000002a0: 8f8e ebbc 2942 95bc 5f12 d1bd cdd2 ac3d
000002b0: 5fe8 1a3e 40b3 363d 1f3e f83d 55c0 a33c
000002c0: d00e e33d 5108 82be c8a7 28ba a0d1 343e
000002d0: 196d a5bd 25d1 12bd 4c4c 413e b4dc 2ebd
000002e0: 33f5 62bb 93a5 b5bd 17b6 853d f53d 133e
000002f0: 5c47 0b3e 29d2 513d 8056 1ebe 53ee ca3d
00000300: 43b9 083d 0a94 ccbc f144 9dbd 9f41 d03c
00000310: 6c07 6c3d 53e9 92bd d128 b93c 2b6e 55be
00000320: 2e68 d9bd 8e5c a33d 6526 c23b adb7 c73c
00000330: 1cb6 20be 7301 193c 1031 803d b85f e83c
00000340: ac79 3abd ba29 d3bd 6724 f73c eef9 923c
00000350: c2f5 8ab8 5cce 35be 2171 43bc 7708 38bd
00000360: 45bb d93c 03ec babd 13b3 33be e742 e4bb
00000370: a875 afbd a135 d3bd 8ce5 c53b c7fe 4c3d
00000380: 4584 80bd a009 0fbe ab9c 963d 993f d0bc
00000390: a91e 17bd 79e5 133e f07b 5c3d 10a8 1ebe
000003a0: 61a9 a2bd b9ad f13d a5b4 1abe 1d02 e03d
000003b0: d56b 8cbd 7b48 1bbe 54b6 e23c 0faa 4e3d
000003c0: eb67 353d 6632 cdbd 39d1 15bc d459 cd3d
000003d0: 3f2d 263d 4b9e 9bbd 9bb3 be3d 0d69 023e
000003e0: 8579 90bd 876e b33d 74ff 05be 1219 91be
000003f0: fe6e b8bb 8245 79bd 1c19 223c 0602 dfbc
-0.09156977 -0.15356077 0.118650645 0.009284684 0.002295977 -0.0067390148 0.097244844 0.14337781
-0.12219955 0.0939359 -0.04424388 -0.04800285 -0.0048425193 -0.00981319 -0.08744925 0.23028466
0.11399957 0.037375834 -0.08187726 -0.058964815 -0.05390654 -0.078462206 -0.19979264 -0.008122581
0.032993663 0.053506304 -0.114444636 0.04583642 0.0015290594 0.08494161 0.0033618943 0.07227784
-0.19610304 0.0035406502 -0.08438053 0.052688405 0.12678887 -0.015947293 0.018676478 -0.06991737
-0.12860338 -0.11539486 -0.061429434 0.16824304 0.16250649 -0.06934745 0.04142037 0.0723761
-0.011311102 -0.09191771 -0.03733376 0.19142953 0.009835666 0.0035673543 -0.19223595 0.066862695
0.051750444 -0.080449745 0.09518055 0.022238404 -0.0043611126 -0.027361086 -0.04646105 -0.07542834
-0.04487674 0.128644 0.12581053 -0.17623462 0.02717598 0.09666798 0.08870485 0.050315756
-0.029962601 0.17556241 -0.037994858 0.058228813 -0.06776027 0.16399862 -0.0221936 0.0018975022
0.018586304 0.065035254 0.14332502 -0.0024693285 0.13038224 0.045789108 -0.04019334 -0.17677045
0.06095671 0.008580719 -0.004019155 -0.17876601 -0.06862759 0.015000842 -0.07127567 -0.060917452
-0.12968725 -0.10560439 -0.040746007 0.07362932 0.017117534 0.10662835 0.029734492 0.06675652
0.20859788 0.1515259 0.15908358 -0.08570987 -0.05341607 -0.083168514 -0.05343583 0.007825695
-0.23978938 -0.08520298 0.042251095 -0.06914242 0.109111995 0.08710261 0.07214731 0.0594716
0.09558385 -0.018952357 -0.16680922 0.09386298 -0.06398304 -0.089985006 0.047888946 0.020477265
0.00047139803 -0.0953112 0.06536002 0.08051208 0.023804057 0.06134831 0.0028999106 -0.066625424
-0.064112715 -0.010343304 0.18051872 0.16002227 0.030852886 -0.19215895 -0.06486615 -0.15946014
-0.04596923 0.09978299 0.06886981 0.03343449 -0.024480382 -0.024417745 0.053739637 -0.21147048
-0.019952495 -0.062353604 -0.017363185 -0.033193886 0.023070911 -0.1307962 0.2732784 -0.028322311
-0.16176246 -0.07980018 -0.02159566 0.108784884 -0.069275856 0.014783419 -0.01935158 0.07152564
-0.0287545 -0.018220024 -0.10208582 0.084386446 0.15127705 0.04460454 0.12121224 0.019989172
0.1108681 -0.2539697 -0.0006433693 0.1765809 -0.08077449 -0.035843987 0.18876761 -0.042690948
-0.0034631013 -0.088694714 0.065288715 0.14379103 0.1360144 0.051225815 -0.15462685 0.09908738
0.033379804 -0.024972934 -0.07679165 0.025421916 0.057624266 -0.07173409 0.02260247 -0.20842807
-0.10615574 0.07976638 0.005924987 0.024379576 -0.15694469 0.009338724 0.06259358 0.028365955
-0.04552619 -0.10310693 0.030168725 0.017941441 -6.626129e-05 -0.17754501 -0.0119288275 -0.044929948
0.026578555 -0.09127047 -0.1754878 -0.006965983 -0.08567363 -0.10312963 0.006039327 0.050047662
-0.062752284 -0.13968515 0.07354101 -0.02542095 -0.036894474 0.14443006 0.053829134 -0.15493798
-0.07942463 0.11800713 -0.15107973 0.10937903 -0.06856505 -0.15164368 0.027674831 0.05045515
0.044288557 -0.10019378 -0.009144121 0.10026899 0.040570494 -0.07598551 0.09311601 0.12735386
-0.07054428 0.08761316 -0.13085729 -0.2833944 -0.0056284657 -0.060857303 0.009893682 -0.027222645

network_body._body_endoder.seq_layers.0.bias f4 [128]
00000000: 47c0 893a c5b4 253c 762e a0ba 8c60 6e3b
00000010: a62a 83bb c46a 8abb a424 77bb b5fb ca3b
00000020: ec99 a23b b4b0 813a 1ef6 0bba 0248 feba
00000030: 1b5d dd39 0f52 d33a 360d 8abb f22b 9a3b
00000040: d2d1 a4b9 be31 d23a a320 883b a4cf 76bb
00000050: b538 303b 55d4 173b c04a b43b fd1c 133b
00000060: 8d3f 923b ac5e 053a 6a65 36bb 7605 9dbb
00000070: 3a09 44bb 0c74 67b9 0208 8b38 6c79 afba
00000080: 4c3f 8cbb d224 dd3b 860e 0a3c 7c6b be3b
00000090: 95bd 9739 0ff9 7eba 130b 0f3a 82ef 1f3c
000000a0: 125a 35bb f70a 31ba e8f2 29bb 3407 d43b
000000b0: eebd 8a3b fe6d 00ba 3480 d9bb eb57 e2bb
000000c0: 44f8 a53b 4b58 0bbc 4ccc c33b d659 883b
000000d0: a444 9cba 2825 6b3b 6dbd 65bb 8ffb ad3a
000000e0: 29b2 9bbb dfba 193c c7d7 70bb d393 ddbb
000000f0: f562 3e3a 9144 923b 2b03 54bb d2a4 8ebb
00000100: b5b6 073a 6683 38b9 572c caba c78d a1b9
00000110: 8012 ba39 6647 253c b285 e93b 3e0f babb
00000120: 942d 9cbb 05fe a639 44fb 98bb 6a06 65bb
00000130: 68b2 ce3b bdce 453b ebb4 183c af6b 223b
00000140: 7053 bc3b f065 ecba 61cb 323b 34db fc3b
00000150: 0161 0e3c 0012 223b ec31 76ba 9881 443b
00000160: ac23 5aba 132a 38bb ee87 96bb fce9 123c
00000170: ca27 fa3b c34c debb cf51 1a3c ff2f 903b
00000180: ea51 053b ac80 623a eb02 15bc bf63 403b
00000190: 5309 463c c3cd 6aba 5cbf 063b be7f e93a
000001a0: ddfb 683c 033d 273a 8dbf 4ab8 b190 9b3a
000001b0: 0fb5 fdba 1114 053b a7ee a43a bc9c a13b
000001c0: 6c0b c03b 7e5e 36ba dc32 e2bb 3c82 0cbc
000001d0: cf3f cebb e658 e63a 78c4 10bb eeb2 a3bb
000001e0: fa4f 833a caa1 be3a de4c 9b3b 78a4 4a3a
000001f0: d56e 563b cea0 0bbc dbac d2bb b2e5 8a3a
0.0010509574 0.0101139 -0.0012220878 0.0036373464 -0.004002887 -0.0042241532 -0.0037711048 0.0061945566
0.0049621966 0.000989458 -0.00053391035 -0.0019400122 0.00042221774 0.0016122478 -0.0042130006 0.0047049457
-0.00031436846 0.0016036553 0.004154281 -0.0037660385 0.0026889269 0.0023167331 0.005502075 0.0022447698
0.0044631422 0.00050876546 -0.0027831444 -0.0047919108 -0.0029912726 -0.00022073108 6.629528e-05 -0.0013387627
-0.0042800065 0.006748774 0.008426314 0.005811153 0.00028942214 -0.00097264437 0.0005456667 0.009761693
-0.0027672094 -0.0006753648 -0.0025932137 0.0064705852 0.004234067 -0.00048992026 -0.0066375975 -0.0069074533
0.005064996 -0.008504937 0.005975282 0.0041611 -0.0011922312 0.00358803 -0.0035055534 0.0013273823
-0.004751463 0.009382932 -0.0036749707 -0.006762007 0.00072626706 0.00446374 -0.003235052 -0.004353144
0.0005177067 -0.00017596557 -0.0015424591 -0.00030813945 0.00035490468 0.0100878235 0.0071265334 -0.0056780865
-0.0047661755 0.00031851247 -0.004668625 -0.003494645 0.006307889 0.003018304 0.009320478 0.0024783423
0.005747251 -0.0018035751 0.0027281868 0.0077165607 0.00869012 0.0024729967 -0.0009391594 0.002998447
-0.00083213556 -0.002810125 -0.004593841 0.008966919 0.0076341378 -0.006784053 0.009418919 0.004400253
0.0020343014 0.00086403894 -0.009094934 0.0029356328 0.012087184 -0.00089570525 0.0020560836 0.0017814559
0.014220205 0.0006379636 -4.833895e-05 0.0011868683 -0.0019356328 0.002030615 0.0012583331 0.0049320143
0.0058607366 -0.00069568295 -0.0069030356 -0.008575972 -0.0062942277 0.0017574101 -0.002208976 -0.0049956953
0.0010018342 0.0014544067 0.004739388 0.0007730196 0.003271987 -0.008522226 -0.0064292974 0.0010597019

network_body._body_endoder.seq_layers.2.weight f4 [128, 128]
00000000: 2232 97bd 2a7d 8cbc d55f e63d bd74 57be
00000010: c39a 853d 6753 d23d 6d67 99bc eb51 ab3c
00000020: 3506 143e 0ffb 85bb 1391 ed3d 975f 2bbd
00000030: 0bae e03d 8f89 5c3c 7550 103c 5194 3fbd
00000040: e1d9 833c 50d2 a3bc a32a 14bc 445a 063e
00000050: e085 1dbd 4437 c0bd a243 2d3d b890 60bd
00000060: 5f9f 99bc 186f b63a e39c ccbd c232 bebd
00000070: f7a2 813d c876 babc 85ab 1b3c 0ca7 293d
00000080: bfaa 8a3d 2691 d73d 54cd 963d aba8 4dbe
00000090: 7410 163d 811f 82bd 1367 3e3d c6d8 833b
000000a0: c82a 503e 5f80 5bbd 6180 46be bb2d edbb
000000b0: 9eae 7bbc 8dde 8c3d 5f88 013d 0a68 04be
000000c0: a687 293e 8c7c 07be 86a3 7cbb 81e4 89bd
000000d0: faff 593c 1c60 853d ecdf 1a3e f634 3cbe
000000e0: de89 bf3d c736 033e 5c45 31bd f6b2 043e
000000f0: 3271 4abd 9d10 24bd 2da1 a3bd fb0e 82bd
00000100: 098c a5bc e1ce 4bbd 194d b7bc 80e6 9dbd
00000110: 2940 a93d 49f6 e0bd 5980 f93c f203 5b3d
00000120: 0cf8 1a3d e762 fc3d 2319 943d 9bb6 773d
00000130: f16e 8e3d 0130 81bd fc6d 793d fa7d 90bd
00000140: 57b3 8a3a df85 34bd f3eb 5f3c eee1 b3bc
00000150: a68d 39bd f608 f93a 8996 ddbd ca5f 1b3d
00000160: 4662 b73c 9f97 86bd 2eeb 093d 19f9 b0bd
00000170: b2fd 24be d82b 2d3d 935c c83d 8569 88bd
00000180: 9290 423d 0e59 40bd 5a69 91bc be9b 283e
00000190: 5345 bd3d 5ab6 abbd be8a 0ebe 697a eebc
000001a0: c9ef dc3c 3c69 443d c02b c23c 67c9 283e
000001b0: e8c3 aa3c 6fc7 f3bc 2c15 a5bd 59c2 d03d
000001c0: ef34 1abe 3032 92bc 0877 163e 5c96 283e
000001d0: 70cc 253c bb5d cfbd ca9a 66bd 6368 ff3d
000001e0: bdf9 6e3d 0d1c 44bd 8f8c eb3c 927e 57bd
000001f0: 1533 f93b 421d 8ebd 6b88 14be 7a44 32bd
00000200: b35f c9bd 5963 7ebc aff8 52be f4b1 1bbe
00000210: ace0 10be 1874 813d dc8a 0dbe 58b3 febc
00000220: f8c9 a53d 48a1 0cbe e477 b2bc 6aa8 e23d
00000230: 8428 083e 0bcd 02bd 7031 6e3d 41a4 b2bd
00000240: 70ed 4bbd d595 70bd cd00 a63b 7513 173d
00000250: d62a 9f3c df60 cdbc c2e4 f8bb 5cd8 c4bd
00000260: 8d49 dabc 1a1d c93d 7d58 17bd 8c80 1c3e
00000270: e31d a0bd b4c6 17be e9d1 a6bd 4fdc 4e3c
00000280: 7f94 dabd 0191 8dbc ab07 21be db9f af3d
00000290: c092 4bbd f303 7cbd 17aa bb3d ecb7 1c3c
000002a0: 13ad bf3d 0174 74be e4cb 273e b6fc 03be
000002b0: dc24 973d 2bfb dabd 6d0d 3ebd 77d1 67bd
000002c0: 4c7d 983d 8fc8 c53d cb9f 2e3d 6501 19bd
000002d0: d0dc c63d 702a 02be 231d bcbd d3c7 0b3d
000002e0: e014 1dbd db4d 8dbd a4c3 5cbe 026a ba3c
000002f0: a54b 75bd 7805 25be 8c98 0f3e fb6a fdbd
00000300: 16fe fabc 4c33 11bd 315e 703d c826 a43d
00000310: b629 763c b446 d73d 5651 6b3d 82f8 adbd
00000320: 924b a53d 0a8e 763d c4ee d83d cd2c d9bd
00000330: 7361 393b 9761 2fbd ad5b da3c 2123 b3bd
00000340: 33ce 61bb f35c 88bc 75c8 0bbd c2d8 cd3d
00000350: 55c4 fe3b 36f9 c4bc 6dec 823d 8677 883d
00000360: adec 43bd 664f 623d 12f3 2cbe 86ba 533d
00000370: 28e3 1d3e c31a b4bd e37e 81bd 9b5f 013b
00000380: bb3d 8c3c 49bc f83d 2b2a c83d 5e0b 97bc
00000390: 343c 083c c821 61bd d43e 35bd aa45 c53d
000003a0: 0887 703d 685a 0abd 2710 be3d aad4 55bb
000003b0: 767d 5d3d 2160 31bd 7576 1c3e e527 183e
000003c0: 6cd3 dbbd 0a91 a43d 8391 713e de20 4b3d
000003d0: d191 a9bc d025 5c3d 3cfe 26bc 9f08 09bd
000003e0: 190f 753c 5231 563e eb5f 163e 40c8 9fbd
000003f0: 8f15 133e 504d 8c3d 38d1 223c 022a 29bd
-0.07382609 -0.017149527 0.11248747 -0.21040626 0.06523659 0.10269814 -0.018726075 0.020913085
0.14455493 -0.0040887664 0.11599936 -0.04183921 0.10970696 0.013460531 0.008808245 -0.046772305
0.016095104 -0.019997746 -0.0090433685 0.13120371 -0.03845775 -0.09385541 0.042300828 -0.054825515
-0.018752752 0.0013918607 -0.09990861 -0.09287025 0.06329911 -0.022761717 0.009501343 0.041419074
0.067708485 0.10525732 0.07363382 -0.20083873 0.036636785 -0.06353665 0.046485018 0.004023644
0.2032882 -0.05358922 -0.1938491 -0.0072381175 -0.015361456 0.06878386 0.031624194 -0.12930313
0.16555652 -0.13231105 -0.0038549616 -0.06733037 0.0133056585 0.06512472 0.15124482 -0.18379578
0.09352468 0.12813865 -0.043279037 0.12958893 -0.049424358 -0.040054906 -0.07989726 -0.063505135
-0.020208376 -0.049757842 -0.02237563 -0.0770998 0.08264191 -0.10984475 0.030456709 0.05347056
0.037834212 0.123235516 0.07231357 0.06047688 0.06954754 -0.06307984 0.060895905 -0.07055278
0.0010582012 -0.044072982 0.0136670945 -0.021958318 -0.045301102 0.0018999863 -0.10819728 0.03793315
0.022385728 -0.06571888 0.03367155 -0.086412616 -0.16112402 0.04227814 0.09783282 -0.06660751
0.047501154 -0.04695993 -0.01775043 0.16465661 0.09241738 -0.0838439 -0.13920113 -0.029111104
0.026969807 0.04795192 0.023702502 0.16483079 0.020845369 -0.029758183 -0.08060679 0.10193319
-0.15059255 -0.017846197 0.14693844 0.16463608 0.0101195425 -0.101252995 -0.056299962 0.12471082
0.058343638 -0.047878314 0.028753547 -0.05261094 0.0076049664 -0.06939174 -0.14505164 -0.043522336
-0.09832706 -0.015526616 -0.20602678 -0.15204602 -0.14148206 0.06320971 -0.13822502 -0.031091377
0.08095163 -0.13733399 -0.021785684 0.11067279 0.13296705 -0.031933825 0.058152616 -0.08722735
-0.049786985 -0.05873664 0.0050660134 0.03688379 0.019429605 -0.025070606 -0.0075956294 -0.0961158
-0.0266464 0.09820004 -0.036949623 0.15283412 -0.078182004 -0.14821893 -0.08145506 0.012625768
-0.10672855 -0.017281057 -0.15725581 0.08575412 -0.0497005 -0.061527204 0.091633014 0.009565335
0.09359183 -0.23872377 0.16386372 -0.1288937 0.07380077 -0.10692438 -0.046399523 -0.056596246
0.074457735 0.09657394 0.04263286 -0.037354846 0.097100854 -0.12711501 -0.09185245 0.034126114
-0.038349986 -0.068996154 -0.21559006 0.022755627 -0.059886593 -0.16115367 0.14023036 -0.123739205
-0.030638736 -0.03544931 0.058683578 0.080152094 0.015024593 0.105115324 0.057450615 -0.08494665
0.080710545 0.060194053 0.10592416 -0.10604248 0.0028286844 -0.04281768 0.026655043 -0.08746935
-0.003445518 -0.016645884 -0.034126718 0.10051109 0.0077748694 -0.024044614 0.06392751 0.06663422
-0.047833133 0.0552515 -0.16889599 0.051691554 0.15418684 -0.08794167 -0.0632303 0.0019740823
0.01711928 0.121452875 0.09773668 -0.018438037 0.008315135 -0.054963857 -0.04424937 0.09632428
0.058722526 -0.033777624 0.092804246 -0.0032627978 0.054074727 -0.043304566 0.15279563 0.14858969
-0.10733685 0.080354765 0.23590665 0.04959189 -0.020699413 0.053747 -0.01019245 -0.033455487
0.014957213 0.20917252 0.14685027 -0.078018665 0.14363693 0.06850684 0.009937577 -0.041299827

network_body._body_endoder.seq_layers.2.bias f4 [128]
00000000: 345d 92bb a782 983b 6687 4dba 18cd 97bb
00000010: 24ff 02bb 64d1 573b 568d 963b c943 783b
00000020: 9450 38bb ede7 a33b bc22 6fbb 392e 1abc
00000030: 08ea 65bb e598 59ba 68b8 973b 9d06 973b
00000040: e78d 0ab8 bb9b 98bb 6d99 b2bb e266 6f3b
00000050: 7cfd 21bb 9a4c acbb a8d9 543a 117f 29bb
00000060: ae2b 693b ecbd 493b 6929 153a 99ce 78ba
00000070: e956 45bb 5f6e 57b9 74a1 233b db90 233c
00000080: 5680 923b a3c6 0a3b 5e3d be3b fd09 313a
00000090: 5a35 e2bb e243 90b9 a750 53bb 23a8 d43a
000000a0: 669a 57ba e503 18bb 9161 053b 5790 d4b9
000000b0: 6273 74bb b0d4 023b b7b9 96ba 4351 26ba
000000c0: ee91 113a 7389 33bb 5b16 8cb9 c5ef 233c
000000d0: eef8 9cbb a981 44bc d60c d6ba b63e 59bb
000000e0: 311a 473b 8a35 c73a 0d7e 913b 6230 e33b
000000f0: 9e29 4ebb 0b5e 283b 5351 6eba 6c25 de3a
00000100: 4748 3e3c dd63 b23a 59b5 ea3a 8b9a 71ba
00000110: 4d31 46ba 9b8e 8eba fc78 9f3a bb0a ccbb
00000120: fa4d babb be0f 8e3b bf17 9abb c993 23bc
00000130: d54b 58bb f7da e6b9 4536 87bb c61e 243a
00000140: c58c 8b39 6c5a 08bc 8c1c ffb9 fd60 fab9
00000150: ec36 013c 354a bdbb e504 883b 7e4b 983b
00000160: acf5 2f3a 7fce 4dbb 673d 91bb 7ab7 b33a
00000170: 2ce9 90bb a825 3dbb 2438 22bb f117 82bb
00000180: bfc6 87bb f82d faba dbaa 1d3a 8c64 2b3b
00000190: e79c 73bb 8df7 50bb b5b0 0f3b fb73 16bb
000001a0: d1d7 dcbb a489 16bc 2bc7 7dbb 4d01 7e3a
000001b0: f9a2 0fbb 1cf5 28bb c111 7a3b 4111 95ba
000001c0: 6ec4 603c dcba a5bb a9a2 d6bb 666a 8cbb
000001d0: e0dc 023b d0ed bfbb 19a2 f0ba 45f4 d9bb
000001e0: e98d 38bb 021f c73b a42a 6b3c 9b62 7a3b
000001f0: 34c5 84bb 8f26 2a3b f5fd 423c 73e6 a2bb
-0.004466677 0.004654247 -0.00078403053 -0.0046326034 -0.0019988501 0.0032931203 0.0045944853 0.00378822
-0.00281242 0.005002013 -0.003648921 -0.009410434 -0.003508212 -0.0008300676 0.0046301372 0.0046089427
-3.303392e-05 -0.0046572364 -0.0054504187 0.0036529829 -0.002471774 -0.005258155 0.00081195915 -0.002586309
0.0035579014 0.0030783368 0.00056900695 -0.00094912347 -0.0030111617 -0.00020545114 0.002496806 0.009983267
0.0044708652 0.0021175526 0.0058056554 0.00067535025 -0.0069033327 -0.00027516397 -0.0032244117 0.0016224425
-0.0008224606 -0.002319568 0.0020352344 -0.00040543333 -0.0037300219 0.0019963197 -0.0011499439 -0.00063445064
0.0005553056 -0.0027395159 -0.00026719537 0.010005896 -0.004790417 -0.011993804 -0.001633073 -0.003314895
0.0030380602 0.0015198451 0.0044400753 0.006933258 -0.0031457911 0.002569082 -0.0009091098 0.0016948408
0.011613912 0.0013610084 0.0017906829 -0.0009216449 -0.0007560447 -0.001087624 0.0012166793 -0.006226865
-0.005685565 0.0043353727 -0.004702538 -0.009983965 -0.0033004184 -0.0004403216 -0.0041263425 0.0006260689
0.00026617027 -0.0083223395 -0.0004865866 -0.00047755978 0.00788663 -0.0057766684 0.004150974 0.0046476712
0.0006712328 -0.00314036 -0.0044323686 0.0013711296 -0.0044223275 -0.0028861556 -0.00247527 -0.003970139
-0.0041435654 -0.0019087186 0.0006014534 0.002615246 -0.0037172379 -0.0031885833 0.0021925394 -0.0022957313
-0.0067395945 -0.0091880895 -0.003872345 0.0009689525 -0.0021917208 -0.0025780862 0.0038157555 -0.001137294
0.0137187075 -0.0050576758 -0.0065501523 -0.0042851446 0.0019968078 -0.005857207 -0.0018358856 -0.0066514337
-0.0028160757 0.0060766945 0.014353428 0.0038205746 -0.0040518288 0.0025962924 0.011901368 -0.0049713193

action_model._continuous_distribution.log_sigma f4 [1, 2]
00000000: f047 fe3a 560c 9d3b
0.0019400101 0.0047927303

action_model._continuous_distribution.mu.weight f4 [2, 128]
00000000: f30a d4bc 8387 38bb 18c4 7f3c 8cd8 783b
00000010: 3d24 b0bc bdbe b03b badc ce3a 510f f5bc
00000020: 1b53 47bc 5e4c 99bb 141a 4a3c 9ebd 57bb
00000030: 6327 c0bc 1e0b ed3b 4e8d 88bc 8d67 3b3c
00000040: b7cc 9cba fe37 87bc 5219 263c baf5 c03c
00000050: 7a76 003c 39d2 1939 3991 513d 8883 6abc
00000060: 74d6 85bc dd8c 52bc d8a5 77bc c84b e23c
00000070: 7500 d7bb 3740 e83c e0d0 d0bc 9055 683c
00000080: 8e83 813c c917 16bb ca34 bcbc 47ea 873c
00000090: 312d 9d3c 99a9 5c3c 24d1 f2bc cde5 d23c
000000a0: 7fbf 8f3b ab8a 1a3c 8faf 123d 157d 6b3c
000000b0: ab66 5b3b 5911 d6ba b417 713c b6b4 0abc
000000c0: 8e81 803c 7153 14bd 4cd4 913c 2ae5 cc3c
000000d0: 5f6b c43c 528f cdbc 1b5a 013d e4b9 633c
000000e0: 447d 0bbc 57de 333b 3b19 093c d698 d0bb
000000f0: 6215 043c 8b53 6ebc f4e2 c1bb 96e6 2dba
00000100: 194b 98bc 56a6 7b3c 47e2 97ba 2df7 afbc
00000110: 555d 19bd 3bd5 583c 764b bb3c 7c21 15bc
00000120: 1c03 83bc bb44 c03c a02c 96bc c117 13bc
00000130: 065e 733b 4dbf cabc d5ba b5bb 3b98 aebc
00000140: 3be4 523a 05ee d2bc fa68 a2bc 1f0c 353d
00000150: 49c2 1f3c 8dd2 06bc fd1d 953b ecbb 5bbc
00000160: ee98 14bc 835a 1a3b 6099 6ab9 e3e0 76bc
00000170: ebc7 2fbb 82de 69bb 7cd9 05bd c774 57bb
00000180: 8d3c 87bc ff20 95bb 8c6b 81bc 7a96 08bc
00000190: f543 a53c 5a2f b23c 24d9 633d 7aaf 29bc
000001a0: e18b 0ebc c4d2 853b 5023 993c 9026 ca3c
000001b0: c656 1d3c 0adf c33b 2cb5 a03b deeb 9bbc
000001c0: a100 1cbb 3283 053c 5f35 fa3a f677 823b
000001d0: c248 4f3c 71d7 8e3c 08a6 14ba 60ff c7bc
000001e0: 827c 843b f18d a43b 72f3 f3bb 5e68 ddbc
000001f0: 48aa d5b9 cf49 3abc d01d 953c 481b f7bb
00000200: 7e24 10bd 65bb 0f3d 1d4e abbc 46a9 18bd
00000210: e085 0abd a39a c9ba 3dcc 04b9 f3dc bfbc
00000220: ce1b cdbc 7c5e 863d d69d 6ebc 81a3 e1bc
00000230: 9110 7b3a ec8f f5bc 5134 2ebc 3e66 133d
00000240: 0b52 6a3b a8cf b3bc 8ffd 183c cb0a 553b
00000250: 8399 1dbd 8c84 01bc 08c4 91bb f9a7 df3b
00000260: c28d 213d cdf3 da3c 4162 343c 664b 9ebc
00000270: cb6e 1ebc 9e27 f2bc e3ac 123d e229 0bbb
00000280: 92fc e43b 13a4 833c 027c 6cbc 67a6 a4bb
00000290: ce18 f83a 171f 25bc 5733 0fbc de03 5bbb
000002a0: 3f5b c1bb 0478 78bc af51 503c c1fc 12bb
000002b0: f55d 00bd 369e a53c e961 05bd 0fcd 17bc
000002c0: c36e 303c eaff 72bc 5969 64bc e33e 063d
000002d0: 8b0d 7b3b 6251 c4bb c31c 7c3c 14c3 e1bc
000002e0: 8e2d 873c c587 513c 2f7c 3d3c ff99 8a3c
000002f0: 8e27 c6bc 0554 df39 98e7 2ebc 22cf 343d
00000300: 924c 45bc af72 83bb 7ef4 93bc 46e2 afbc
00000310: 7952 823b 18c5 c4bb c42a 46bc f206 77bb
00000320: ef99 6dbc 5494 a03c 1a3d 9ebb ea30 073b
00000330: efc9 94bc a068 333c 67ab 7b3c 3458 0a3c
00000340: a926 2cba d60f 9dbc 8a4c b7ba 3a4d c83c
00000350: d049 d0bc cff2 e0bb 462d 013b 293d 89bc
00000360: 72a5 7e3c e52c 06bc 9156 a7bc 64b3 64bb
00000370: cd8b a0bc 61a7 813b 61d3 06bc 67c5 aebb
00000380: 02fb 00bc 0190 d6b9 d87c 15bc 471f 143c
00000390: c600 aebb 9d53 97bc 8c1e 3abd 2bf2 00bd
000003a0: b3c4 29bc 1550 183c 7540 a4bc 47c7 443c
000003b0: a500 c9bb 1ec5 5cbc 0d66 013c 232f 7f3b
000003c0: e777 923c 49d9 a4bb 7b52 16bc 4625 7a3b
000003d0: 557f 8b3b b397 a3bb 09f6 0e3b a35b bf3c
000003e0: 8175 543b 9207 59bb eb5e 8abc 8dc9 aa3c
000003f0: 29df d9bc e37f aeba 093e e23c 924f e6bc
-0.025884127 -0.0028156943 0.015610717 0.003797087 -0.021501655 0.0053938315 0.0015782334 -0.02991453
-0.01216581 -0.004678293 0.012335319 -0.0032919417 -0.023456281 0.0072339913 -0.016668942 0.011438263
-0.0011962865 -0.016506191 0.010137873 0.023554672 0.007840747 0.00014669531 0.051163886 -0.014313586
-0.01633761 -0.012850967 -0.015115224 0.027624026 -0.006561334 0.028350933 -0.025490224 0.014180556
0.0158098 -0.002290236 -0.02297439 0.016591204 0.019186588 0.01346817 -0.029640742 0.025744343
0.004386842 0.009432475 0.035811957 0.014373084 0.0033477943 -0.0016332074 0.014715124 -0.008465936
0.015686776 -0.03621239 0.017801426 0.025011618 0.02397698 -0.025092755 0.031580072 0.0138993
-0.008513752 0.0027445757 0.008367832 -0.0063658757 0.008061739 -0.014546285 -0.0059169475 -0.0006633786
-0.018590497 0.015359482 -0.0011587822 -0.021480167 -0.037442524 0.013234432 0.022863131 -0.009102222
-0.015992694 0.023470273 -0.018331826 -0.008977831 0.00371349 -0.024749422 -0.0055459538 -0.021312824
0.0008044873 -0.025748262 -0.019825447 0.044201013 0.009750911 -0.00822891 0.004550694 -0.013411503
-0.009069664 0.0023552484 -0.00022373116 -0.015068266 -0.0026822041 -0.0035685604 -0.032678112 -0.0032876001
-0.016508365 -0.0045510526 -0.015798353 -0.008336658 0.020174006 0.021751095 0.055627003 -0.010356778
-0.008700342 0.004083963 0.018693596 0.024676591 0.009603208 0.005977516 0.00490441 -0.019033369
-0.0023804086 0.008148955 0.0019089392 0.0039815856 0.012651624 0.017436715 -0.00056704925 -0.024413764
0.004043163 0.0050218035 -0.0074447924 -0.027027305 -0.00040753395 -0.011370136 0.018202692 -0.007541094
-0.03519105 0.035090823 -0.02091127 -0.037270807 -0.03381908 -0.0015381168 -0.00012664586 -0.023420786
-0.025037672 0.0656099 -0.014563998 -0.027543785 0.0009577359 -0.029975854 -0.01063259 0.035986178
0.0035754468 -0.021949604 0.009337797 0.0032507654 -0.03847648 -0.007905137 -0.0044484176 0.006825444
0.03944183 0.026727581 0.011009754 -0.019323062 -0.00966997 -0.029559907 0.03580941 -0.002123468
0.0069881165 0.016069448 -0.014433863 -0.0050247195 0.0018928291 -0.010078213 -0.008740268 -0.0033419053
-0.00590077 -0.015165333 0.012714787 -0.0022428485 -0.031339604 0.020217042 -0.032564078 -0.009265198
0.010768595 -0.0148315225 -0.013941132 0.032774817 0.0038307633 -0.005991147 0.015387717 -0.02755884
0.016501214 0.012788718 0.011565252 0.016919134 -0.024188783 0.00042596474 -0.010675333 0.04414285
-0.012042182 -0.004011474 -0.018060919 -0.0214702 0.0039771167 -0.0060049407 -0.012095157 -0.0037693349
-0.014502033 0.019601978 -0.004829061 0.002062852 -0.018162696 0.0109502375 0.01536069 0.008443881
-0.000656704 -0.01917259 -0.0013984602 0.024450887 -0.025425822 -0.0068648825 0.0019710823 -0.016752796
0.015542375 -0.008189415 -0.02042702 -0.0034896964 -0.019597912 0.0039567207 -0.008229108 -0.005333591
-0.007872345 -0.00040924552 -0.009124003 0.00904066 -0.005310151 -0.018472487 -0.045439288 -0.03148095
-0.010361838 0.009296437 -0.020050267 0.012010402 -0.00613411 -0.013474731 0.007897866 0.0038938008
0.01787944 -0.005030785 -0.009174938 0.003816919 0.0042571225 -0.004992449 0.002181413 0.023359125
0.003241867 -0.0033116085 -0.016890964 0.02084806 -0.026595669 -0.001331326 0.027617471 -0.028114114

action_model._continuous_distribution.mu.bias f4 [2]
00000000: a2ad 0f3b 5655 863b
0.0021923562 0.0040995283

action_model._discrete_distribution.branches.0.weight f4 [5, 128]
00000000: 1728 9fbc 3e66 c63a ec64 48bc 7a37 1fbb
00000010: 3cc6 a93b 099e 28bc f21a dcbb 93df 05bc
00000020: ae9c 3bbc e70b 6eba ad60 453b 926d 86bc
00000030: 13e0 d13b b004 c93b 728d 29bc 37f0 ec3b
00000040: 3e2b 353c b68d 8cbb 2efc b83b 96e8 473c
00000050: 6b1b 3a3c be52 50b9 d8af 6a3a 0f3b 823b
00000060: df93 733c a063 8c3c 7877 8cba ac77 31bc
00000070: 8c49 2e3c 7ea7 71bb 37f8 b7ba 8ba1 063c
00000080: 9bae 47bc cde1 b3bc 690f bd3b 5cb7 053c
00000090: c9fe 683c b38a bb3b 1beb 15bc 4361 8b3c
000000a0: f1b3 813c ecdb 99bc a1ed b73a f7bb 673c
000000b0: 748e 73bb 1ebe 433b d356 223c 8200 2c3c
000000c0: 4e0b 1d3c 4d15 f9bb 1d45 7a3c 613a 33bc
000000d0: af36 453c 1f44 a83c 2a66 b9bb 9a23 62bb
000000e0: ace5 6fbb 6948 f33a e832 8abb eec3 bcbb
000000f0: 234f 84bc 7cbb 88bc 1afc 583c b84d c63b
00000100: 18b4 953b 97de f83b dfcc 8db8 54cd d73b
00000110: 969b d53b df6b 8fbb a649 ebbb 237a 0e3c
00000120: 9391 7eba 3e21 e43b 97fc dfba eb42 46bb
00000130: f6c6 f53b 9b5d 0b3c 3bd7 743c 3fd3 b83c
00000140: f748 12bc 1df8 2b3c c859 31bc 1bf5 2fbc
00000150: 657d 843c 81fe ea3a 6a27 4cbb a77d 0abc
00000160: 8faa 94bb 1409 7f3b ad31 e63b 651b 2fbc
00000170: cb70 cc3b d6db 9d3b e18f ae3b c284 b53a
00000180: f64d d5bb 2bbc 463b bea0 843c ad33 4dbc
00000190: 384e 83bc b9b3 8c3c 67ca f3bb 72d3 1bbc
000001a0: 29e8 813c ff59 9dbb aa64 333c 4bae 223c
000001b0: 82e1 b23b 683f 60bc ae72 5bbc 6bb5 2bbc
000001c0: 8a04 aabb 1ef6 b3bb 7f18 033c e85f 133c
000001d0: 12ed 59bb 6430 c83a e5c9 d53b 632d 273c
000001e0: d65e 613b 9a1c 783b 1284 1f3c 40e5 8abc
000001f0: b4c9 8bbc c494 27bc ec1d 7e3c 4259 68bb
00000200: 880d f2bb 4d4e 0a3b 9a9e a3bc 9e96 6d3c
00000210: cd64 f8bb d9db f73b 7ab1 513c 0433 babb
00000220: 7ce2 8d3c 73bd 5ebc 0032 1d3c 2699 58bc
00000230: 7145 b3bb 5001 5abb 6ac6 623b 5b6f 39bc
00000240: 2445 54bb 57b1 11ba 6dde ce3a 8491 a6ba
00000250: 26a1 353c d6cd 0abc db91 67bb 673f 0abc
00000260: 7d58 0a3b 009a d03c 78ae 30bc b97b c8ba
00000270: e074 913c 300f 4ebc 2bc4 873b 20cf c83b
00000280: a805 d2bb 3ed7 0f3c fb4e 52ba 8ebb 58bc
00000290: 0f1c 46bc 8f9f 4c3b 5ba9 bc3b 1f1a cfbb
000002a0: b226 0bbc a8bd 50bc cef1 033c f8a9 3a3b
000002b0: c809 fbbb 37f5 62bc 4bfd 4ebc baa2 663c
000002c0: 46a5 79bc 8755 9f3c 5eca 1d3c 3a04 263c
000002d0: 3e10 8eba 6db2 33b9 d180 0b3c b04e 213a
000002e0: 401d 95bb a513 713b d4bc 693c b9e2 04bc
000002f0: 511e 5b3c 4b73 843a 5f5d f6bb 63f7 1ebb
00000300: dc6d 35bc 4a2e 91bc 7b02 e53b a424 ba3b
00000310: 49d5 82bc bd4c d2bb f1c8 9e3b ab10 33bb
00000320: 5158 323c b67c 8cbb 40d2 2c3c d4ed 79bb
00000330: 4445 36bc 6035 a0ba 1125 093b 1fe1 bbbc
00000340: a380 9cba cfb6 b3bc dce4 52bc 63af dabb
00000350: 2e45 d83b 9fcc 093c d376 83bb 5894 2cbc
00000360: 1870 07bc 079c 46bc dc09 953b 333f 84bc
00000370: a5e9 b43b 4e35 caba 52b5 6ebc c230 8e3b
00000380: 5765 d13b 4538 3f3c e489 9d3b ba33 18bb
00000390: 5150 ffba 9c97 83bb 6dba 50bb 6781 59bb
000003a0: 05dd c4bb 2fb5 a43b 2353 3c3c 0432 01bb
000003b0: bbe2 213c 2535 273c 83ad 0fbc 1e57 433c
000003c0: f93a 9e3b 25d6 ac3b 5fb0 1fbb d76f 34bc
000003d0: de0a 673b d50d 303b bed4 15bc 64c9 15bc
000003e0: 562a 4eb9 294d 87bb fab0 07bc b8fb 3a3c
000003f0: 0899 153c 3919 ea3a 8253 ae3b 6647 453c
-0.019428296 0.0015136672 -0.012231093 -0.0024294541 0.005181102 -0.010291585 -0.0067170793 -0.00817098
-0.01145093 -0.0009080753 0.0030117438 -0.01640967 0.0064048856 0.006134592 -0.010348665 0.0072307843
0.011057673 -0.004289354 0.0056452965 0.012201449 0.011359076 -0.0001986725 0.00089525944 0.0039743255
0.014866798 0.017137349 -0.0010716757 -0.010831755 0.010637652 -0.0036873515 -0.0014035766 0.008217226
-0.012187625 -0.021958256 0.0057696593 0.008161392 0.014220902 0.0057233213 -0.009150292 0.017014151
0.015832873 -0.018781625 0.0014032611 0.014143935 -0.0037163766 0.0029867957 0.009908396 0.010498168
0.009585215 -0.007601416 0.015275267 -0.010939212 0.012036963 0.020540295 -0.005657931 -0.0034506083
-0.00366054 0.0018561009 -0.0042174943 -0.0057606613 -0.016151017 -0.016690962 0.013243699 0.0060517453
0.004568588 0.007594894 -6.761564e-05 0.0065857563 0.0065187914 -0.004376873 -0.0071804104 0.008696112
-0.00097110233 0.0069619706 -0.0017088827 -0.0030252289 0.0075005246 0.008506204 0.014943893 0.022561667
-0.008928529 0.010496167 -0.010824628 -0.01073959 0.016173074 0.0017928631 -0.0031151422 -0.008452809
-0.0045369337 0.0038915323 0.007024965 -0.010687684 0.006239032 0.0048174663 0.0053272103 0.0013848769
-0.006509538 0.003032456 0.01618993 -0.0125245275 -0.016028509 0.017175542 -0.0074398997 -0.009510862
0.015857773 -0.004801988 0.010949293 0.00992925 0.0054590115 -0.013686992 -0.013394041 -0.010480265
-0.0051885294 -0.005491986 0.008001446 0.008995034 -0.0033252877 0.0015273211 0.006524312 0.010203692
0.0034388802 0.0037858845 0.009736078 -0.016955018 -0.017063953 -0.01022834 0.015510064 -0.0035453592
-0.007386867 0.00211038 -0.019973088 0.014501242 -0.0075803758 0.0075640497 0.012798661 -0.005682351
0.01731991 -0.013594973 0.00959444 -0.013220107 -0.0054709245 -0.0033264942 0.0034603127 -0.011318053
-0.0032389844 -0.0005557737 0.0015782841 -0.0012708162 0.011085784 -0.008471927 -0.003533474 -0.008437968
0.0021109872 0.025464058 -0.010783784 -0.0015295661 0.017755926 -0.012576863 0.004143258 0.006128207
-0.0064093657 0.008779345 -0.0008022633 -0.01322831 -0.012091651 0.0031223034 0.0057574934 -0.0063202525
-0.008493112 -0.01274053 0.008053256 0.0028482657 -0.007661078 -0.013852409 -0.012633632 0.014076883
-0.015237158 0.019449962 0.009630768 0.010132844 -0.0010838581 -0.00017137239 0.008514599 0.0006153388
-0.004550606 0.003678539 0.014266212 -0.0081106955 0.013373927 0.0010105161 -0.007518455 -0.002425634
-0.011073556 -0.017722268 0.006988821 0.0056806374 -0.015970843 -0.0064178393 0.0048457314 -0.0027323167
0.010885314 -0.0042873276 0.010548174 -0.0038136141 -0.011124913 -0.0012222938 0.0020926634 -0.022934495
-0.0011940192 -0.021937756 -0.012871947 -0.0066737398 0.0066000437 0.008410602 -0.0040119677 -0.010533415
-0.008266471 -0.012122161 0.0045482945 -0.016143417 0.0055210167 -0.0015427263 -0.014569597 0.0043393085
0.0063902545 0.011671131 0.0048076976 -0.002322419 -0.0019478892 -0.004015876 -0.00318494 -0.0033188702
-0.006007793 0.0050264816 0.011494431 -0.001971365 0.009880717 0.010205542 -0.008769396 0.011922626
0.0048288074 0.0052745515 -0.00243666 -0.011012993 0.003525428 0.0026863713 -0.00914496 -0.009142254
-0.00019661462 -0.0041290713 -0.008281941 0.0114125535 0.009130724 0.00178603 0.0053200135 0.0120409485

action_model._discrete_distribution.branches.0.bias f4 [5]
00000000: 8dd4 90bb 998c 943a 5d1f 94b9 0b37 ae3b
00000010: c314 8bbb
-0.0044198693 0.0011333405 -0.00028252127 0.00531662 -0.0042444183

exp_avg f4 [128, 101]
00000000: b170 fb34 0000 0000 f546 be32 4af0 4534
00000010: 6d10 7bb5 0000 0000 f546 be32 c2fd c134
00000020: bc99 0035 0000 0000 f546 be32 785a 5b34
00000030: 324b b2b5 0000 0000 048d 8f32 ac28 9734
00000040: 6fee 3ab6 0000 0000 1940 19b2 ee4f 2c35
00000050: cde4 4936 0000 0000 048d 8f32 5e14 8fb5
00000060: fe9b a5b5 0000 0000 d391 a6b1 80df 9735
00000070: 7eaf 3436 0000 0000 cc9c f432 a899 94b4
00000080: fd55 8d35 0000 0000 0000 0000 b347 c535
00000090: 6210 56b4 0000 0000 a385 b3ae 795e 2035
000000a0: 1d91 6635 0000 0000 a385 b3ae b1f1 9135
000000b0: d7be d731 0000 0000 237a b3ae ad09 a335
000000c0: a881 5033 0000 0000 237a b3ae c6bd c535
000000d0: dc7f c5b2 0000 0000 237a b3ae b129 6a35
000000e0: 97b3 b4b4 0000 0000 237a b3ae b0fa 8035
000000f0: 8a38 42b4 0000 0000 237a b3ae c61c 2c35
00000100: 2e79 6d35 0000 0000 237a b3ae 31b3 d435
00000110: e775 c334 0000 0000 237a b3ae 730c 3d35
00000120: e775 c334 0000 0000 237a b3ae 730c 3d35
00000130: 34ca 4738 83d8 48b7 28d8 1f37 9337 a437
00000140: 66a8 0237 e610 52b8 f6dc e537 434d 64b6
00000150: 08e1 2032 dd0f 5135 0000 0000 0000 0000
00000160: 0000 0000 0000 0000 0000 0000 0000 0000
00000170: 0000 0000 0000 0000 0000 0000 0000 0000
00000180: 0000 0000 0000 0000 0000 0000 0000 0000
00000190: 0000 0000 443b c3b2 0000 0000 5ea2 28b0
000001a0: a007 bfb3 6778 49b4 0000 0000 5ea2 28b0
000001b0: 743f 82b3 e0e7 8f32 0000 0000 5ea2 28b0
000001c0: f41f dab3 88a6 8cb4 0000 0000 c849 35b0
000001d0: 783c 48b3 6f5c 88b4 0000 0000 7501 d6ae
000001e0: 4e38 9db3 842e df32 0000 0000 c849 35b0
000001f0: e1f4 38b4 bb22 a1b4 0000 0000 c88b a7ad
00000200: 20a3 45b3 207c 0234 0000 0000 e2ca 5eb0
00000210: c610 3cb4 646e 35b4 0000 0000 0000 0000
00000220: 3a89 33b3 564c 8133 0000 0000 236c 1b28
00000230: f7a4 0fb4 9a46 1134 0000 0000 236c 1b28
00000240: a432 ddb3 206f 4633 0000 0000 cceb 1b28
00000250: 7a95 e7b2 da3e 1a34 0000 0000 cceb 1b28
00000260: 46a6 e9b3 c60b a232 0000 0000 cceb 1b28
00000270: a38e b230 12bb 0ab4 0000 0000 cceb 1b28
00000280: d3f4 58b1 20e2 a233 0000 0000 cceb 1b28
00000290: 775c abb2 7a28 f033 0000 0000 cceb 1b28
000002a0: b4c0 0db2 ddf5 be33 0000 0000 cceb 1b28
000002b0: 21b4 09b3 ddf5 be33 0000 0000 cceb 1b28
000002c0: 21b4 09b3 7cb0 d0b4 2fde 5c35 27b0 6f36
000002d0: 90f5 2936 5f8a 12b5 adb5 0a36 8a7d 78b5
000002e0: 92cf b732 763a a431 e967 2735 0000 0000
000002f0: 0000 0000 0000 0000 0000 0000 0000 0000
00000300: 0000 0000 0000 0000 0000 0000 0000 0000
00000310: 0000 0000 0000 0000 0000 0000 0000 0000
00000320: 0000 0000 0000 0000 fd09 db36 0000 0000
00000330: 5da7 3635 5fa0 9cb6 726d 1b37 0000 0000
00000340: 5da7 3635 0eb5 aab6 4360 ae36 0000 0000
00000350: 5da7 3635 c3f3 84b6 b1bf 0b38 0000 0000
00000360: 61f0 5535 c74f 85b7 d332 c737 0000 0000
00000370: 43cb e6b3 ae7e 16b7 549b 1eb7 0000 0000
00000380: 61f0 5535 7398 72b6 6d42 af37 0000 0000
00000390: cc77 1db4 96a1 a8b7 fc28 32b7 0000 0000
000003a0: aa98 3c35 38d7 82b5 4e4a 1d37 0000 0000
000003b0: 0000 0000 b650 53b7 1e68 d0b7 0000 0000
000003c0: 566e 67ae 9af8 7936 427b 3037 0000 0000
000003d0: 566e 67ae edf1 6db7 8337 e8b7 0000 0000
000003e0: 5d34 67ae 92a3 04b7 96ed 0eb5 0000 0000
000003f0: 5d34 67ae 58b0 3bb5 7fcc b3b7 0000 0000
4.6834387e-07 0.0 2.2151179e-08 1.8434471e-07 -9.352869e-07 0.0 2.2151179e-08 3.6133684e-07
4.790743e-07 0.0 2.2151179e-08 2.0428877e-07 -1.3283918e-06 0.0 1.6711518e-08 2.8155534e-07
-2.7854946e-06 0.0 -8.920346e-09 6.4191306e-07 3.0084514e-06 0.0 1.6711518e-08 -1.0660258e-06
-1.2338858e-06 0.0 -4.847814e-09 1.1315424e-06 2.692424e-06 0.0 2.8476641e-08 -2.7678948e-07
1.0530345e-06 0.0 0.0 1.4698511e-06 -1.9936263e-07 0.0 -8.163716e-11 5.974212e-07
8.5892844e-07 0.0 -8.163716e-11 1.0873683e-06 6.2790195e-09 0.0 -8.1616734e-11 1.2147262e-06
4.8546696e-08 0.0 -8.1616734e-11 1.4732875e-06 -2.2991962e-08 0.0 -8.1616734e-11 8.723246e-07
-3.3658281e-07 0.0 -8.1616734e-11 9.609703e-07 -1.8088227e-07 0.0 -8.1616734e-11 6.4116864e-07
8.846572e-07 0.0 -8.1616734e-11 1.5847382e-06 3.6407366e-07 0.0 -8.1616734e-11 7.04261e-07
3.6407366e-07 0.0 -8.1616734e-11 7.04261e-07 4.7633614e-05 -1.19713395e-05 9.527466e-06 1.9576202e-05
7.787812e-06 -5.008364e-05 2.740182e-05 -3.401962e-06 9.364392e-09 7.788165e-07 0.0 0.0
0.0 0.0 0.0 0.0 0.0 0.0 0.0 0.0
0.0 0.0 0.0 0.0 0.0 -2.2727939e-08 0.0 -6.134878e-10
-8.8955176e-08 -1.8763386e-07 0.0 -6.134878e-10 -6.065139e-08 1.6752836e-08 0.0 -6.134878e-10
-1.0157228e-07 -2.61982e-07 0.0 -6.5952266e-10 -4.6621125e-08 -2.5399228e-07 0.0 -9.731852e-11
-7.321124e-08 2.598177e-08 0.0 -6.5952266e-10 -1.7225422e-07 -3.0013857e-07 0.0 -1.9047777e-11
-4.6015998e-08 1.215235e-07 0.0 -8.1051443e-10 -1.7514967e-07 -1.6897098e-07 0.0 0.0
-4.1801492e-08 6.020916e-08 0.0 8.627677e-15 -1.3377927e-07 1.3529862e-07 0.0 8.627677e-15
-1.0300326e-07 4.6201535e-08 0.0 8.655359e-15 -2.6959913e-08 1.4365233e-07 0.0 8.655359e-15
-1.0880153e-07 1.8864636e-08 0.0 8.655359e-15 1.2991744e-09 -1.2920307e-07 0.0 8.655359e-15
-3.1571303e-09 7.584845e-08 0.0 8.655359e-15 -1.9949068e-08 1.11832335e-07 0.0 8.655359e-15
-8.251096e-09 8.892287e-08 0.0 8.655359e-15 -3.2061624e-08 8.892287e-08 0.0 8.655359e-15
-3.2061624e-08 -3.8871428e-07 8.2279706e-07 3.571631e-06 2.5325899e-06 -5.4590595e-07 2.0669352e-06 -9.256988e-07
2.1398396e-08 4.7796744e-09 6.236356e-07 0.0 0.0 0.0 0.0 0.0
0.0 0.0 0.0 0.0 0.0 0.0 0.0 0.0
0.0 0.0 6.5278714e-06 0.0 6.804383e-07 -4.667832e-06 9.264202e-06 0.0
6.804383e-07 -5.0874723e-06 5.1968104e-06 0.0 6.804383e-07 -3.962284e-06 3.331871e-05 0.0
7.969848e-07 -1.5891985e-05 2.3746315e-05 0.0 -1.0747183e-07 -8.970192e-06 -9.453699e-06 0.0
7.969848e-07 -3.6149547e-06 2.0892558e-05 0.0 -1.4665346e-07 -2.0102405e-05 -1.0619169e-05 0.0
7.0257613e-07 -9.748392e-07 9.37523e-06 0.0 0.0 -1.2595372e-05 -2.4844016e-05 0.0
-5.2621317e-11 3.7248597e-06 1.0519116e-05 0.0 -5.2621317e-11 -1.4182629e-05 -2.7682405e-05 0.0
-5.2569827e-11 -7.905897e-06 -5.3244855e-07 0.0 -5.2569827e-11 -6.991954e-07 -2.1433689e-05 0.0

exp_avg_sq f4 [128, 101]
00000000: c2be 4a2d 0000 0000 99e6 952c a811 e92d
00000010: 7089 402d 0000 0000 99e6 952c 59d8 fe2d
00000020: f75e 362d 0000 0000 99e6 952c cd1d df2d
00000030: 4f6d 9b2d 0000 0000 3d22 962c 69aa 1c2e
00000040: 5c0b 9f2d 0000 0000 5c81 8f2c ab27 e22d
00000050: 5f98 f12d 0000 0000 3d22 962c 2813 6e2e
00000060: 1586 fb2c 0000 0000 9461 8e2c ae6d b02d
00000070: 533d 012e 0000 0000 037d 4b2a ad46 882e
00000080: 3b18 ab2c 0000 0000 0000 0000 d5a3 532d
00000090: 6ac6 9e2d 0000 0000 9212 6329 618e 292e
000000a0: 3a4f 382b 0000 0000 9212 6329 feeb 3f2d
000000b0: e898 202d 0000 0000 de73 3529 1ed9 902d
000000c0: 2c34 8a2a 0000 0000 de73 3529 7a96 302d
000000d0: 374b df2c 0000 0000 de73 3529 1282 1e2d
000000e0: ca51 972b 0000 0000 de73 3529 5d0e 042d
000000f0: 9129 9d2c 0000 0000 de73 3529 08be 082d
00000100: 9c24 1f2c 0000 0000 de73 3529 d756 f62c
00000110: 5907 242c 0000 0000 de73 3529 768b 162d
00000120: 5907 242c 0000 0000 de73 3529 768b 162d
00000130: d01c f232 56d1 a131 4493 4033 d7e7 5034
00000140: ff83 1131 fceb 0b34 7ff0 b332 e718 cd2d
00000150: 41c8 1329 c0a7 a12d 0000 0000 0000 0000
00000160: 0000 0000 0000 0000 0000 0000 0000 0000
00000170: 0000 0000 0000 0000 0000 0000 0000 0000
00000180: 0000 0000 0000 0000 0000 0000 0000 0000
00000190: 0000 0000 71bc 1a2a 0000 0000 1e87 9f25
000001a0: 16bb cd28 427b 232a 0000 0000 1e87 9f25
000001b0: 4e48 ef28 3fad 452a 0000 0000 1e87 9f25
000001c0: 4e82 de28 cde6 c729 0000 0000 88ea 9f25
000001d0: 9048 4329 b1e4 9329 0000 0000 c341 1f25
000001e0: 445f f028 def5 fa29 0000 0000 88ea 9f25
000001f0: 467a d629 6ad9 1229 0000 0000 c302 2025
00000200: 9454 2229 aa64 f429 0000 0000 62ff 1125
00000210: 12db bc2a 371f 5628 0000 0000 0000 0000
00000220: 859d 1d29 0da6 3129 0000 0000 f874 d11e
00000230: 8e10 e42a ba32 6928 0000 0000 f874 d11e
00000240: 32d9 1d29 0ed1 9028 0000 0000 5f2c d61b
00000250: 78ef 8b2a f593 8828 0000 0000 5f2c d61b
00000260: c26e 4629 0d6f 7d29 0000 0000 5f2c d61b
00000270: 2d47 e129 3f1f 1628 0000 0000 5f2c d61b
00000280: 0572 3b29 4457 e927 0000 0000 5f2c d61b
00000290: f857 e629 51a2 6627 0000 0000 5f2c d61b
000002a0: 2a2d 6d29 098b 9f27 0000 0000 5f2c d61b
000002b0: 8e64 a029 098b 9f27 0000 0000 5f2c d61b
000002c0: 8e64 a029 dd97 6a2f 965b a22d ae12 d72d
000002d0: 1191 672f ff40 122d a802 a92f 26d5 6e2e
000002e0: a3c6 872a c5e3 3526 cea2 a02a 0000 0000
000002f0: 0000 0000 0000 0000 0000 0000 0000 0000
00000300: 0000 0000 0000 0000 0000 0000 0000 0000
00000310: 0000 0000 0000 0000 0000 0000 0000 0000
00000320: 0000 0000 0000 0000 9a72 8a2f 0000 0000
00000330: cfe4 f330 6358 2831 c547 d42f 0000 0000
00000340: cfe4 f330 6e6b 2a31 1532 ae2e 0000 0000
00000350: cfe4 f330 7e59 2d31 a6fd 8230 0000 0000
00000360: 4f0b f730 a00f 4131 ca94 d02e 0000 0000
00000370: af9d e530 d3da 3831 507a c130 0000 0000
00000380: 4f0b f730 bfb5 5431 1ae1 0f2f 0000 0000
00000390: a5ce e430 3743 5931 bc57 e730 0000 0000
000003a0: 850d e02e 07b9 d430 f20f 232f 0000 0000
000003b0: 0000 0000 33b4 d730 9fe1 9230 0000 0000
000003c0: 2fce 8f29 0c61 b030 ff8b a12f 0000 0000
000003d0: 2fce 8f29 ea73 1831 45df ad30 0000 0000
000003e0: 6498 7427 247f 7430 bbd0 cc2e 0000 0000
000003f0: 6498 7427 9247 0d31 d59d 2430 0000 0000
1.1524727e-11 0.0 4.260436e-12 2.6496874e-11 1.0944454e-11 0.0 4.260436e-12 2.8972534e-11
1.0366589e-11 0.0 4.260436e-12 2.5365399e-11 1.7670003e-11 0.0 4.2670576e-12 3.5621648e-11
1.8081252e-11 0.0 4.0786662e-12 2.5710841e-11 2.7466194e-11 0.0 4.2670576e-12 5.413195e-11
7.148735e-12 0.0 4.046716e-12 2.0057591e-11 2.938567e-11 0.0 1.8073394e-13 6.1971185e-11
4.8628024e-12 0.0 0.0 1.2030339e-11 1.8050634e-11 0.0 5.0420232e-14 3.855261e-11
6.547988e-13 0.0 5.0420232e-14 1.0909494e-11 9.128899e-12 0.0 4.0290572e-14 1.6467324e-11
2.4549926e-13 0.0 4.0290572e-14 1.0037854e-11 6.3463917e-12 0.0 4.0290572e-14 9.010142e-12
1.0751896e-12 0.0 4.0290572e-14 7.506521e-12 4.466823e-12 0.0 4.0290572e-14 7.7729e-12
2.2615581e-12 0.0 4.0290572e-14 7.0013817e-12 2.330988e-12 0.0 4.0290572e-14 8.557479e-12
2.330988e-12 0.0 4.0290572e-14 8.557479e-12 2.818561e-08 4.7095154e-09 4.483742e-08 1.9455852e-07
2.1175308e-09 1.3031234e-07 2.0947708e-08 2.331686e-11 3.281425e-14 1.8378077e-11 0.0 0.0
0.0 0.0 0.0 0.0 0.0 0.0 0.0 0.0
0.0 0.0 0.0 0.0 0.0 1.3743326e-13 0.0 2.7673662e-16
2.2840708e-14 1.4520072e-13 0.0 2.7673662e-16 2.6565687e-14 1.7557222e-13 0.0 2.7673662e-16
2.4703462e-14 8.877413e-14 0.0 2.7741028e-16 4.3361636e-14 6.567783e-14 0.0 1.3813333e-16
2.6686667e-14 1.11448814e-13 0.0 2.7741028e-16 9.52472e-14 3.260709e-14 0.0 1.3878724e-16
3.6044586e-14 1.0853239e-13 0.0 1.2663272e-16 3.354752e-13 1.1886155e-14 0.0 0.0
3.499763e-14 3.944592e-14 0.0 2.2177113e-20 4.0512423e-13 1.2945098e-14 0.0 2.2177113e-20
3.504939e-14 1.6077875e-14 0.0 3.5432004e-22 2.4857525e-13 1.51632e-14 0.0 3.5432004e-22
4.40609e-14 5.6273606e-14 0.0 3.5432004e-22 1.0004354e-13 8.333448e-15 0.0 3.5432004e-22
4.1621237e-14 6.4765105e-15 0.0 3.5432004e-22 1.0229312e-13 3.2006904e-15 0.0 3.5432004e-22
5.2663745e-14 4.4282107e-15 0.0 3.5432004e-22 7.122871e-14 4.4282107e-15 0.0 3.5432004e-22
7.122871e-14 2.1336129e-10 1.845794e-11 2.4450966e-11 2.1060866e-10 8.313571e-12 3.0742808e-10 5.430425e-11
2.411865e-13 6.3105675e-16 2.8534678e-13 0.0 0.0 0.0 0.0 0.0
0.0 0.0 0.0 0.0 0.0 0.0 0.0 0.0
0.0 0.0 2.5183483e-10 0.0 1.7745608e-09 2.449746e-09 3.861357e-10 0.0
1.7745608e-09 2.4799323e-09 7.9215e-11 0.0 1.7745608e-09 2.5225684e-09 9.530836e-10 0.0
1.7974829e-09 2.8094078e-09 9.485175e-11 0.0 1.6706759e-09 2.6899911e-09 1.4077361e-09 0.0
1.7974829e-09 3.095337e-09 1.3085746e-10 0.0 1.6647915e-09 3.1615863e-09 1.6832398e-09 0.0
1.0188742e-10 1.5477618e-09 1.4830429e-10 0.0 0.0 1.5694525e-09 1.0687023e-09 0.0
6.386243e-14 1.2833268e-09 2.9385203e-10 0.0 6.386243e-14 2.21848e-09 1.2650864e-09 0.0
3.3944413e-15 8.894736e-10 9.313924e-11 0.0 3.3944413e-15 2.0558883e-09 5.9887145e-10 0.0

exp_avg f4 [128]
00000000: 2999 3336 256e 49b4 108e 95b7 3446 1cb8
00000010: ecd2 5c36 941b 0b37 4779 03b7 8e9b 75b7
00000020: 9407 a6b7 8932 2c37 c7b3 b9b5 233b 8936
00000030: 0915 2fb8 04bd e0b5 02ff 1536 4611 d5b1
00000040: 9f47 0338 b90d 1838 fe11 83b7 b451 b136
00000050: 6551 5f35 45e9 f9b7 defd 6436 485a 0538
00000060: ba4d d5b6 894c 1337 3dcb 7e35 06bb a4b7
00000070: 1623 8eb6 32a5 13b8 1a34 07b5 2ccd 1834
00000080: 0a50 1eb6 e504 02b5 fcbc 36b6 0d2d a9b7
00000090: b664 d5b7 3d53 8136 06e3 7736 e21f 0033
000000a0: 194a 1535 72c0 aa37 07e1 1138 63e2 7db6
000000b0: e7e1 6eb7 80db 93b7 3cd5 b137 2024 dd36
000000c0: 2557 9fb7 2642 1736 b6a0 43b6 e6cf 62b7
000000d0: d3a6 f5b7 ec75 8536 a43d 0437 39d3 1e37
000000e0: 7883 1a36 bdc8 3eb6 1afc dc34 55c0 a4b7
000000f0: 3817 2db8 686e 29b6 b5bd 2a37 6799 cdb6
00000100: e1f9 11b8 a620 fcb5 de52 1438 e1a1 15b5
00000110: e4ed b5b7 7f50 b6b7 ba22 4fb7 7086 2cb6
00000120: 5cad a536 dd8e a336 e8b7 24b6 2f1c 9b37
00000130: 34a2 b0b7 5fe9 bcb6 14ab 37b7 ef20 2f37
00000140: aeba 04b7 8a9e c7b6 2020 4536 3529 d5b7
00000150: 24a9 6c36 764e 8337 cfb7 eeb4 bd1e d7b7
00000160: 0bbd 9435 e39e acb7 49af 4b37 4a8f d8b6
00000170: 4b28 89b7 1bc1 e335 d209 c8b2 db45 3137
00000180: da2f 31b7 b28b 6eb6 ba40 0535 4097 bfb4
00000190: 7abb 2337 5548 1337 3738 8e35 5dc7 5a36
000001a0: 33d9 8fb6 36d7 c3b4 a60e edb7 e891 e5b7
000001b0: 672d 6e36 b822 bcb7 62f2 8136 3c47 7d37
000001c0: 8b36 33b7 1247 7eb7 4723 97b6 21f2 bcb7
000001d0: 9fe1 8237 901b 0f35 24b3 aeb7 1543 87b7
000001e0: c746 98b7 19d5 26b8 7959 f2b6 5131 85b5
000001f0: e3bf c236 e86a 2136 4f5f 8237 9bd1 01b8
2.676223e-06 -1.8759654e-07 -1.7828337e-05 -3.725868e-05 3.2905327e-06 8.291467e-06 -7.836446e-06 -1.4639356e-05
-1.979227e-05 1.0263765e-05 -1.3835896e-06 4.0898026e-06 -4.1742842e-05 -1.6744311e-06 2.2351164e-06 -6.2010796e-09
3.1299536e-05 3.6252404e-05 -1.5624795e-05 5.2845226e-06 8.319242e-07 -2.9791738e-05 3.4122418e-06 3.1793752e-05
-6.3569432e-06 8.7797025e-06 9.4918124e-07 -1.9637413e-05 -4.2360143e-06 -3.520138e-05 -5.0367237e-07 1.4230744e-07
-2.3590424e-06 -4.8435896e-07 -2.7230117e-06 -2.0167348e-05 -2.5438476e-05 3.85419e-06 3.6938013e-06 2.983132e-08
5.561465e-07 2.0355194e-05 3.4780267e-05 -3.7831712e-06 -1.4238502e-05 -1.7625978e-05 2.119934e-05 6.5905188e-06
-1.8994857e-05 2.2539257e-06 -2.915081e-06 -1.3519055e-05 -2.928396e-05 3.977437e-06 7.882165e-06 9.466713e-06
2.3024313e-06 -2.8429051e-06 4.116162e-07 -1.9639885e-05 -4.126804e-05 -2.5247227e-06 1.0176959e-05 -6.1273345e-06
-3.4803412e-05 -1.8784965e-06 3.5363126e-05 -5.574239e-07 -2.1687658e-05 -2.1733575e-05 -1.2346247e-05 -2.570825e-06
4.937565e-06 4.87441e-06 -2.4544952e-06 1.8490564e-05 -2.1056367e-05 -5.6300046e-06 -1.0947482e-05 1.0438481e-05
-7.911278e-06 -5.9491185e-06 2.9373987e-06 -2.5410767e-05 3.5265193e-06 1.5652953e-05 -4.4464693e-07 -2.564431e-05
1.1081878e-06 -2.0577985e-05 1.2140555e-05 -6.4539827e-06 -1.6350436e-05 1.6969019e-06 -2.328753e-08 1.0566287e-05
-1.0561163e-05 -3.5546077e-06 4.964055e-07 -3.568657e-07 9.759207e-06 8.778724e-06 1.0596185e-06 3.2600576e-06
-4.2870174e-06 -3.6478167e-07 -2.8259423e-05 -2.736687e-05 3.5491191e-06 -2.2427514e-05 3.8727167e-06 1.5096561e-05
-1.0681931e-05 -1.5156127e-05 -4.5042575e-06 -2.2524096e-05 1.560227e-05 5.331176e-07 -2.0825835e-05 -1.6124492e-05
-1.815277e-05 -3.9775947e-05 -7.222578e-06 -9.923625e-07 5.803989e-06 2.4053097e-06 1.554159e-05 -3.0951207e-05
