3DPlayground/results/Test24/MoveToGoal/checkpoint.pt (torch, 716459 bytes, 42 tensors)

network_body._body_endoder.seq_layers.0.weight f4 [128, 92]
000000 65 ed f1 3c f5 81 99 bd d1 72 1d be 52 4f 3b be
       0.029532144 -0.074954905 -0.1537583 -0.18291977
000010 52 2c a6 3c 06 ba 0d 3e 3d 00 63 3e ff 81 f4 bd
       0.020284805 0.13840494 0.2216806 -0.11938857
000020 5a c5 9f bd 19 ee a5 bd a7 cd e5 bc f4 54 0b 3e
       -0.07801314 -0.08102054 -0.028052164 0.13606626
000030 1c 35 25 be 97 68 27 bd 8e 8d 2c 3d 70 16 c8 3c
       -0.16133541 -0.04087123 0.042127185 0.024424762
000040 8e d6 b6 bc 92 8e 83 bd 7d e7 20 be de 3a 56 3d
       -0.022319105 -0.064236775 -0.15713306 0.052302234
000050 ad 16 35 3e e3 2e 11 be 9b dc dd bc f5 61 25 be
       0.17684431 -0.14178042 -0.027082732 -0.16150649
000060 5d 96 45 bd d1 67 23 bd 96 4b 64 3e 50 10 9c bd
       -0.0482391 -0.03989393 0.22294459 -0.07620299
000070 b3 d3 9c ba ff 79 ff 3c 3c d5 63 3d 93 fb 8c 3b
       -0.0011964947 0.031186102 0.055623278 0.004302451
000080 82 69 3f be b2 f1 52 3d d1 9e 00 be 13 05 71 bc
       -0.18692592 0.05150003 -0.12560584 -0.014710682
000090 07 10 08 bb c2 cd 28 bd e7 07 1c bb 9d 57 d8 3c
       -0.0020761506 -0.04121185 -0.002380842 0.026408965
0000a0 9b e7 84 bd 86 73 ec bd 0f 1b b4 ba 8d ec 9c 3b
       -0.06489488 -0.11545472 -0.0013740974 0.0047889412
0000b0 1a a1 96 3d 01 68 8b bd aa 4e 90 bd e2 82 22 bd
       0.073549464 -0.068069465 -0.07046254 -0.0396756
0000c0 bd f9 31 bd 51 15 04 be d7 e5 95 3d 6a 2e 07 be
       -0.04345106 -0.12898757 0.07319229 -0.132013
0000d0 4a e5 08 be be 05 91 bc 76 18 c0 3c 13 c2 10 be
       -0.13368717 -0.017702933 0.023449164 -0.14136533
0000e0 5e 06 75 be 10 4d fd bc 0c 51 34 3d 02 50 02 be
       -0.2392821 -0.030920535 0.044022605 -0.12725833
0000f0 23 c6 82 3c 02 fb 41 3e 86 9b b6 bb f6 40 91 3c
       0.01596362 0.18943408 -0.005572739 0.017731171
000100 f7 71 05 3e e1 41 05 3e 15 3a 93 3d 97 3c 85 3d
       0.13031755 0.13013412 0.07188813 0.06505697
000110 ab e8 c3 3d a6 61 eb 3d af 6b 0f be 59 54 1a 3e
       0.09565862 0.11493234 -0.14005922 0.15071239
000120 ea b0 be bc 6c 05 30 3e 25 57 b4 3d d0 2f e9 3d
       -0.023277719 0.17189568 0.08805684 0.11386073
000130 e8 e2 0e bc 3f 1f d2 bc d2 15 f4 3c 7d c9 a4 3c
       -0.008721091 -0.025649665 0.029795561 0.020115608
000140 d5 64 4c 3d 8f 4b bf 3d ab 68 ba bd 8d b9 07 3e
       0.04990085 0.093405835 -0.09101995 0.13254376
000150 aa ae 95 3d 15 40 ba 3d bc a3 2e be 45 43 47 3d
       0.07308705 0.09094254 -0.17054647 0.048648138
000160 79 7d b5 bd 3b 42 46 bd 8a 36 77 bd 01 c7 34 3e
       -0.08861823 -0.048403006 -0.060354747 0.17654039
000170 a3 76 94 bd 1d b9 c8 bd 84 31 9a 3d da 69 3c be
       -0.07249191 -0.098009326 0.075289756 -0.18399754
000180 8a f9 09 3d 0f 56 29 3c ad ee ac bd f8 04 30 bd
       0.033685245 0.010335459 -0.08443961 -0.04297349
000190 51 d9 87 bd 04 90 08 3e 48 57 14 3e 4b 2d a6 bd
       -0.06633247 0.13336188 0.1448642 -0.08114108
0001a0 77 e5 be 3d cc 60 bc 3d 30 1f e5 3d f2 0a 7f bd
       0.09321111 0.0919815 0.11187589 -0.062266298
0001b0 aa 3e 06 3e b3 e6 c9 3c 26 f3 d1 bc a9 e3 4c 3e
       0.13109842 0.024646139 -0.025628638 0.2000872
0001c0 ac 8e 2d be 36 e6 59 3e 85 09 0b bc 52 2c b8 bd
       -0.16948956 0.21279225 -0.008486156 -0.089928284
0001d0 d0 d4 01 3e d3 bc 4b 3e 9c 9a a9 bd 44 03 db bc
       0.12678838 0.1989625 -0.082814425 -0.026734956
0001e0 fc 99 84 3d 0e f5 ea bc e9 37 80 be f1 b3 dd 3d
       0.06474683 -0.028681304 -0.25042656 0.10825337
0001f0 40 47 a2 bc fe a1 1c 3d 25 1f 0c bd 69 3d 2f bd
       -0.019809365 0.038240425 -0.03420939 -0.042783175
000200 2a a6 0b bc 53 4d a7 3b ec 60 e6 bd ab 10 e2 3d
       -0.008523503 0.0051056533 -0.11248955 0.110383354
000210 ad d2 6e 3d 60 ab 0f 3e 92 ac b1 bc c9 7e 4a 3d
       0.058306385 0.14030218 -0.021688733 0.049437318
000220 17 db d8 3c d5 17 d0 bd 88 f1 66 3d d0 30 11 3e
       0.026471658 -0.101607956 0.056382686 0.14178777
000230 2f 59 de 3d c7 3d eb 3c d3 67 92 bc 4d 38 82 3d
       0.10856854 0.028715981 -0.017871773 0.06358395
000240 d1 a7 30 3e e4 0c 8a be af 2e c2 3d a8 fc 0e bd
       0.17251517 -0.2696296 0.094815604 -0.03490892
000250 c0 67 7f 3e 26 ee 34 be 5f 50 40 3e ec 16 93 3d
       0.24941921 -0.17668971 0.18780659 0.071821064
000260 9a 78 ec 3c be 50 67 3d f3 0c 0d bd 0f fa f1 3b
       0.028866101 0.056473486 -0.034436177 0.0073845456
000270 ef a9 09 bd 82 85 58 3d 53 4c 9c 3d a5 03 70 bd
       -0.033609327 0.052861698 0.07631745 -0.058597226
000280 74 6f 0e be d4 fd 24 3e b1 87 13 bd 1a 33 18 bb
       -0.13909703 0.16112453 -0.036018077 -0.0023223818
000290 57 a6 00 3e f9 e3 c2 3d 7e 24 1d bc 9a 92 cd 3d
       0.12563454 0.095161386 -0.00959122 0.10037728
0002a0 15 ee 8b bd c0 ec fb 3d f6 a1 b2 be a5 a9 3f 3c
       -0.0683252 0.12301016 -0.3488919 0.011698161
0002b0 ee 09 9a bc 02 19 38 3e 8d fd 1b bd 01 8f 02 3e
       -0.018803563 0.1797829 -0.0380836 0.12749864
0002c0 45 22 ac 3d d5 d7 8f 3d b4 d5 1c be 74 da aa bb
       0.08404974 0.070235886 -0.15315896 -0.00521403
0002d0 e3 df b4 3d 3b 6e a7 bd f9 3b af bc f8 a3 d0 bd
       0.088317655 -0.08175322 -0.021390902 -0.101875246
0002e0 4b 5b 8a 3e 90 6a b7 3d 55 91 03 be 05 66 1f 3e
       0.27022776 0.08955872 -0.12848409 0.15566261
0002f0 91 b0 1d 3e c3 6f 4a 3d 2e c8 59 bd 97 a8 5b 3d
       0.15399386 0.04942299 -0.05316942 0.053627577
000300 28 d6 96 3d 85 c5 89 3d 53 9c 52 bd 76 53 11 3e
       0.07365066 0.06727127 -0.051418614 0.14191994
000310 ca ec 33 be f2 14 60 bd 98 3e 1e 3e d9 ec da bd
       -0.17570797 -0.054707475 0.15453565 -0.10689706
000320 e3 3e 20 3d f7 02 a2 3d 87 17 0b be c1 58 74 be
       0.039122473 0.07910722 -0.13583194 -0.23861982
000330 1e ba 69 3d 32 65 1d bc 3c 04 4e 3e c4 6f 94 3d
       0.05706226 -0.009606646 0.20118803 0.0724788
000340 72 0e 77 bd 3b ac 82 3d 02 ac 4b bd a3 2d 03 be
       -0.06031651 0.063805066 -0.049724586 -0.12810378
000350 53 55 57 3d d6 89 d6 bd 57 64 3b 3d d3 f6 c7 bd
       0.052571606 -0.10475509 0.04574999 -0.09763875
000360 6b 8f a3 bd 62 43 8d 3c 14 e4 80 3d e3 3f d9 bc
       -0.07986339 0.017244045 0.062935024 -0.026519721
000370 4f 77 dc 3c 07 ea e5 3d 4f 86 93 3c 3e f9 c2 bb
       0.02691236 0.11226278 0.01800838 -0.005950122
000380 36 a7 0a be e7 dd 3a 3e 30 a1 b6 ba 46 45 d1 3d
       -0.13540348 0.18248712 -0.0013933536 0.10218291
000390 09 1e 87 bc f2 7e 2e bd cd d8 a2 bd 2e 2c 4c be
       -0.016493814 -0.042601533 -0.07951508 -0.19938728
0003a0 08 87 13 3e c8 9b b3 ba c7 05 99 3d 22 64 5b be
       0.14406979 -0.0013703043 0.07471805 -0.21424916
0003b0 50 35 09 be 7b 83 24 3e c0 64 ae bd 81 5f 14 be
       -0.13399243 0.16065781 -0.0851531 -0.14489557
0003c0 88 73 48 3c d7 db a1 3b 83 59 77 3e 89 86 14 3e
       0.012234576 0.004939537 0.2415524 0.14504446
0003d0 03 ca 72 be 68 e0 ef bc 91 f5 d1 bd 9f 2d 52 3d
       -0.23709874 -0.02928181 -0.10251916 0.05131304
0003e0 1e 52 9e bc 8e ed fc 3d 10 f1 8c 3c 72 35 55 bc
       -0.019326266 0.123499975 0.017204791 -0.013013231
0003f0 27 75 f5 bd da 1b b9 bb 87 df f0 bd cd 10 ae 3d
       -0.11985236 -0.005649072 -0.117613845 0.08499298

network_body._body_endoder.seq_layers.0.bias f4 [128]
000000 fc 5b 5b bb 3d ab d0 bb 6b 65 a4 39 63 47 ca b9
       -0.0033471575 -0.0063680694 0.0003135608 -0.0003858163
000010 75 3d 4e bc 45 e3 25 bc 79 e4 93 bb d3 89 ab 3a
       -0.012587895 -0.010124986 -0.00451332 0.001308734
000020 34 69 28 3b b5 67 d4 3a 7f e8 f1 bb 35 07 db 3b
       0.0025697472 0.0016205224 -0.007382452 0.0066842088
000030 ec 78 dc ba 0d 45 11 3c 91 a1 ce ba 49 d2 f7 38
       -0.0016820705 0.008866561 -0.0015764703 0.000118170465
000040 5e 90 8b 3a bb 1e 99 3b c9 c0 8e 3b de 9f 7d 3b
       0.0010647883 0.004672853 0.004356478 0.0038700025
000050 91 21 06 3c 19 01 14 3c 3c 36 d6 bb c1 a8 5b 3c
       0.008186714 0.009033465 -0.006537227 0.013406933
000060 ba 2a 9b 3a 7d d6 b8 ba f3 db 67 bc 81 ab d5 3c
       0.0011838295 -0.0014102008 -0.014151561 0.026082756
000070 45 68 1e ba 2f c5 61 3c 7b 04 a1 bb e7 64 82 bc
       -0.0006042759 0.013779922 -0.004913864 -0.015917255
000080 43 cc 47 3b 23 a1 79 bb a4 e3 28 3b 6c 43 14 bc
       0.003048674 -0.003809043 0.002577045 -0.009049278
000090 85 16 a9 3a 6e 3b c7 3b 9f 8a 34 bb 8c 42 c7 3a
       0.0012900388 0.0060800826 -0.0027548445 0.0015202328
0000a0 27 95 e7 ba 34 6b e4 3b ff 0f 61 ba 8e 71 17 3c
       -0.0017668352 0.0069707874 -0.00085854525 0.009243382
0000b0 71 a2 ce 3b aa 02 01 bb ed 1d c5 ba b3 2b 29 bb
       0.0063059856 -0.0019685426 -0.0015038826 -0.00258134
0000c0 2f 8b c2 bb 24 71 25 bc 1c da 0d bc c9 4e 4b bc
       -0.005937002 -0.010097776 -0.008657958 -0.012408921
0000d0 0e 72 54 bb 3c ca 09 3b 61 0f d1 b9 af 0a 69 ba
       -0.0032416615 0.0021025082 -0.00039875045 -0.00088898366
0000e0 b4 9d 7b bb 60 e7 9e 3b e1 76 f8 3b fa ee b3 3b
       -0.003839356 0.0048493594 0.007582531 0.0054911347
0000f0 5c 9a 8e 3c f1 e7 c3 39 ae 1e ea 3b c2 c4 5a bc
       0.017407589 0.00037366108 0.0071447706 -0.013352575
000100 dc f8 7f 3c 87 d4 bc ba 97 d6 ce bb ad d9 d0 3c
       0.015623298 -0.00144066 -0.006312202 0.02549442
000110 a7 48 9b 3b 55 90 8a 3c 80 e6 1f 3b 01 fe 86 ba
       0.0047388854 0.016914526 0.0024398863 -0.0010299088
000120 e6 06 1f bc ae 5b 61 3b c2 7b 2c 3b 33 6d 0c bc
       -0.009706235 0.003438692 0.0026318883 -0.008570957
000130 4a 5f c8 3b d5 44 9e bb 92 32 45 3c f1 d4 7a 3c
       0.006114875 -0.0048299828 0.012035983 0.015309558
000140 f0 e8 af ba 69 c3 8e bb 57 b4 5d bb 5b 14 60 bb
       -0.0013420861 -0.004356791 -0.0033829415 -0.003419182
000150 3a 80 fc 38 13 8b 7a bc a8 72 57 bb 42 c5 8c 3b
       0.000120401804 -0.015291947 -0.0032874737 0.004295976
000160 da 9b 18 3c 1e ff 3e 3d 5d d2 18 3b 26 87 c1 bb
       0.009314502 0.046630017 0.0023318746 -0.0059060035
000170 8c 26 33 bb 2e 75 aa bb 8b e2 8e bb b2 3d 29 3c
       -0.0027336208 -0.005201957 -0.004360502 0.010329651
000180 57 74 07 bb 7a 04 d7 ba 21 b3 79 bb 4d 9d 1e 3b
       -0.002066871 -0.0016404532 -0.0038101154 0.0024202645
000190 31 07 1d bc cc 05 95 3c 9a eb 02 3c 69 b5 ac 3b
       -0.009584234 0.01819124 0.007990742 0.005270649
0001a0 fe 04 d3 bb 13 e5 f5 3a bb de d2 ba e5 e6 fc 3b
       -0.006439804 0.0018760286 -0.0016088107 0.0077179545
0001b0 fa 6e 9d ba fc 1a e2 ba 2d b0 56 bc 00 6c eb bb
       -0.0012011223 -0.0017250474 -0.013103527 -0.0071845055
0001c0 53 4c 1a bb d9 f3 65 bc a8 00 c6 3c bf 56 aa 3a
       -0.0023544028 -0.014035189 0.024170235 0.0012995823
0001d0 58 00 fb 3a 4e 47 15 b9 7a 28 76 3b 3d e1 e4 3b
       0.0019149883 -0.0001423631 0.0037560747 0.0069848583
0001e0 87 b4 aa 3c a0 81 aa bb e8 60 98 b9 d5 4b c8 39
       0.020838035 -0.005203441 -0.000290639 0.00038203472
0001f0 1e e9 21 bc 1c 78 ca 3c fd 8a 9b bb be 37 4a bc
       -0.00988224 0.024715476 -0.0047467933 -0.012342392

network_body._body_endoder.seq_layers.2.weight f4 [128, 128]
000000 e3 5a 6e 3d 57 3e cc 3c a1 a1 99 bc 18 ec cc bd
       0.058192145 0.02493207 -0.018753828 -0.10005969
000010 07 b1 64 3d 23 6c b6 bd 3a 02 50 3d 02 5b 27 3e
       0.05583289 -0.08907344 0.050783373 0.1634331
000020 e0 8c b6 3d 2d 66 2f bd d3 02 0c 3e aa b9 a8 bc
       0.089135885 -0.04282205 0.13672952 -0.020596344
000030 bf c5 fd 3d 57 62 b6 3b 30 32 f7 bc 7d be 6a bc
       0.12391233 0.0055659222 -0.030175298 -0.0143276425
000040 b2 f4 de bb e6 b7 d4 3d 58 5e c0 bd ef d5 75 3d
       -0.0068040723 0.10386638 -0.09392995 0.060018476
000050 dc 68 64 ba 43 86 7d 3d 23 be 3b 3c b7 ac 2e 3d
       -0.0008713135 0.06189562 0.011458906 0.042645182
000060 e0 3d 6b 3d c5 f7 8e bd 8a a8 fc bd db 40 1f bc
       0.057432055 -0.06980852 -0.12336834 -0.009720053
000070 20 36 74 bc 0e 5b 32 3e 4c 6f 55 bc 19 1b 0d 3d
       -0.0149054825 0.17417547 -0.0130270235 0.03444967
000080 11 b5 6e 3d ea a4 a3 3c b1 c5 e5 bd a9 10 5f 3e
       0.058278147 0.019976098 -0.11219347 0.21783699
000090 4d 44 fe bc 29 04 a0 bd 39 7f 99 3d c5 b1 1c 3d
       -0.031038428 -0.078132935 0.07494969 0.03825547
0000a0 96 94 3e 3c 81 4e e0 3c 13 ac fe 3c c2 9a f9 bc
       0.011632105 0.027381184 0.03108791 -0.030469302
0000b0 16 8f 74 bd d5 2d ed bd c7 c8 6d 3d 38 8d e6 3d
       -0.05970677 -0.115810074 0.058052804 0.11257404
0000c0 31 81 be 3d 02 d2 7b bc 81 55 bd bc 58 1d 57 bd
       0.09301985 -0.015369894 -0.02311206 -0.05251822
0000d0 6f 80 83 bd 79 4f 07 bd 4e 79 fd bd 40 9f 87 39
       -0.06420981 -0.033034775 -0.12376653 0.00025867857
0000e0 fd 03 4e bd eb 1f ec 3d 47 38 10 be 7a 73 ff bc
       -0.050296772 0.11529525 -0.14083968 -0.031182993
0000f0 89 28 6d 3d f5 fc 17 3d dc 29 a3 3d c8 ff 03 3e
       0.057899985 0.037106473 0.079669684 0.12890542
000100 61 2c d9 bd c4 21 a7 bd 6f b4 26 3d 39 cc ed 3a
       -0.10604168 -0.08160737 0.04069942 0.0018142528
000110 95 c4 2c bd a0 55 1d 3e e9 59 46 3d b0 f1 68 3b
       -0.042179663 0.15364695 0.04842559 0.0035544448
000120 3a bd e5 3d 54 d7 3b 3d 76 83 ad 3c 73 cc 5e bd
       0.11217733 0.04585965 0.02118085 -0.054394197
000130 f2 cf 57 3d 4a 6d fc bd 54 60 ad 3c 3b 7d 5a bc
       0.052688546 -0.12325533 0.021164097 -0.013335521
000140 92 e5 d5 3d 65 f1 cd bd 4f d8 06 3e 57 d4 00 3e
       0.10444178 -0.10055808 0.13168453 0.12581001
000150 38 22 9f bc da 46 55 3d d6 f9 12 bd a1 59 00 3e
       -0.019425496 0.052069522 -0.035882793 0.1253419
000160 1b 36 82 bd 43 37 18 3d a2 36 20 bd 78 f3 82 bd
       -0.06357976 0.037162077 -0.039114602 -0.06394094
000170 71 b2 b2 3d ca 98 89 bd 7c a4 3d 3d 37 81 80 bd
       0.08725441 -0.06718595 0.046299443 -0.06274646
000180 b8 19 36 be b0 b0 af 3c 8d e1 31 3d 49 0f e9 bd
       -0.17783248 0.021446556 0.043427993 -0.113798685
000190 0f 68 ae 3c 9f 07 87 bd a9 d8 c2 3c 58 24 17 be
       0.021289853 -0.065932505 0.023784952 -0.14759958
0001a0 ef 8b 3b be 02 3c 20 be 70 f6 d8 3d 14 51 66 3e
       -0.18315099 -0.15647891 0.10593879 0.22491866
0001b0 a6 fe 85 bd 89 cb 14 be 16 21 d0 3d a0 87 0b 3d
       -0.06542711 -0.14530768 0.10162561 0.03406489
0001c0 a9 d4 56 3d d8 12 b9 3c f8 6d e9 bd 67 c0 e0 bd
       0.052448902 0.022591993 -0.11397928 -0.10974198
0001d0 e4 ab 9d 3d 40 9c 28 be e9 7b 55 bc b6 ae f4 3c
       0.07698801 -0.16465855 -0.013030031 0.029868465
0001e0 e6 2f 17 3e 4f ee b3 3d b1 f0 f6 bc 25 87 23 3e
       0.14764366 0.08785688 -0.030144067 0.15969522
0001f0 1a 59 c1 bb 38 ae a7 3d 1e 73 b9 3d 74 95 e9 3d
       -0.0059005143 0.081875265 0.0905516 0.11405459
000200 01 ef 0b bd 6f e7 39 bc 5a f9 31 3c c8 14 12 bc
       -0.03416348 -0.011346682 0.010862673 -0.008916087
000210 0f 75 a3 3d da c7 ca bd 46 bd 7f bd 71 2b 93 3c
       0.079813115 -0.099014 -0.062436365 0.01796505
000220 53 c4 64 3c fd 46 0e 3d 60 fe 54 3d 7f 0a 8e 3d
       0.013962823 0.03473567 0.052000403 0.06935596
000230 ba 9a 3d bd 31 5b 90 3b c5 4c 84 bd 55 00 c9 bd
       -0.046290137 0.004405402 -0.06459955 -0.098145165
000240 99 d9 cc 3d 2a d3 f2 3d 49 1e 45 bd f3 a2 3f bc
       0.10002441 0.118566826 -0.048124585 -0.011696565
000250 a2 3d 04 bd 79 bd 00 3e fb 72 d3 bd 76 f6 a0 bc
       -0.03228534 0.12572278 -0.10324665 -0.019648772
000260 1a 7c c1 bc e2 1e d5 bc cb be 61 3d 46 87 34 3e
       -0.023618747 -0.026015703 0.055113595 0.17629728
000270 38 13 b7 3d be e5 76 bd ea ce 5f 3d 5f 7c 79 bb
       0.089392126 -0.060277693 0.054640688 -0.0038068516
000280 c3 1b df 3b 19 03 ae 3d 5b 71 f2 ba 94 cb fe bd
       0.0068087294 0.084966846 -0.0018496917 -0.12441173
000290 af 43 05 bd 12 37 b2 bd e6 01 65 3d 34 0a 52 3d
       -0.03253525 -0.0870191 0.055910014 0.05127926
0002a0 42 1d 16 3d aa d1 df bd 81 d2 0c be 0d 59 06 bc
       0.036648996 -0.10928662 -0.13752176 -0.008199942
0002b0 c2 8d ab bd 86 63 a3 bd e5 21 fd 3d 0e b0 a9 bd
       -0.083766475 -0.07977967 0.123599805 -0.08285533
0002c0 9b fa 57 bd df 43 8b ba 0c 8e 6f bd ee a9 42 be
       -0.05272923 -0.0010625086 -0.058485076 -0.19010136
0002d0 02 03 a6 3a 60 43 29 3c 34 1c 89 bd 11 01 fa bd
       0.0012665691 0.010331005 -0.066948324 -0.12207235
0002e0 f1 48 d1 3d 9a fb c0 3c ce c8 f6 3c e7 91 f6 bb
       0.102189906 0.023557473 0.030125048 -0.007524717
0002f0 6f 0e 16 be fc 56 45 bd f9 43 37 bc b3 3c 82 bc
       -0.14653943 -0.048178658 -0.01118564 -0.015898084
000300 24 b0 ef 3c 9b 19 07 3d 78 6b cf 3b 0f 61 09 3b
       0.029258795 0.032983404 0.00632995 0.0020962392
000310 47 60 1b bd 68 34 16 bb 1a 11 a7 3c c9 c9 df bc
       -0.037933614 -0.002291942 0.020393897 -0.027317898
000320 50 1f 94 3d 73 9b 05 bd cb a3 6b 3e 7e 14 11 bd
       0.07232535 -0.03261895 0.23011701 -0.035419933
000330 cf 28 ba bc 76 32 13 be 0d 97 33 3c 2c 4b c7 bc
       -0.022724537 -0.14374718 0.010961306 -0.024327837
000340 eb 7b ed bd d9 3d 7f 3d 86 c8 20 bd b1 5a 9a bd
       -0.11595901 0.062314842 -0.039253734 -0.07536829
000350 0e ca ba 3d 3f 89 05 bd 51 0a d6 bd 03 44 d1 bd
       0.0912057 -0.03260159 -0.104511864 -0.1021805
000360 4b 99 8b bd a3 7e b7 3c 85 66 46 bd 25 30 05 3d
       -0.06816348 0.022399252 -0.048437614 0.032516617
000370 4e f6 a8 bd c1 18 ed bd 95 d2 05 be a3 71 9b bd
       -0.08250104 -0.11576987 -0.13068612 -0.07590034
000380 e4 38 c4 3d dd 49 50 3d 0f 01 a8 3d 58 ec 65 3d
       0.095811635 0.05085169 0.08203327 0.056133598
000390 8e 03 61 3d 15 74 39 3d 35 b4 8c 3c 4b 14 39 3e
       0.05493503 0.04527672 0.017175773 0.18074147
0003a0 97 e5 a1 3d 3b 95 9e bd b1 c7 d5 bd fc 8b 00 3e
       0.07905119 -0.07743307 -0.10438479 0.125534
0003b0 5f 6a cb bd 28 17 00 3d 89 07 01 bd 15 ab cf 3c
       -0.09932398 0.031272084 -0.031501327 0.025350133
0003c0 39 51 35 bd a1 9b bb bd 50 9e 32 be 5c dd 98 bb
       -0.044266913 -0.09160543 -0.17443204 -0.00466506
0003d0 97 97 61 bc 53 6c 91 3d 4a 7d a1 3d 1d 4f e1 3b
       -0.013769052 0.07100739 0.07885225 0.006875886
0003e0 ff 52 c6 bc e6 5f 08 3c 76 65 1c be 48 37 d7 bb
       -0.024209497 0.008323645 -0.1527308 -0.0065678693
0003f0 2a 41 11 bd 51 e6 29 bc d9 b5 ff bd d7 2f 0f be
       -0.035462536 -0.010369853 -0.124858566 -0.13983093

network_body._body_endoder.seq_layers.2.bias f4 [128]
000000 7b 67 b2 ba 52 04 c4 3b f4 0d e7 3b 02 c9 34 ba
       -0.0013611162 0.0059819603 0.007051224 -0.00068964076
000010 9d c9 82 bb dd 89 9d 3b 02 d4 f6 b9 ee d3 2e 3c
       -0.0039913193 0.0048076943 -0.00047078734 0.010670645
000020 cf ce a7 3a 38 7f f1 bb 04 71 dc bb d8 e6 ed 3b
       0.0012802723 -0.007369902 -0.0067273397 0.0072601847
000030 11 f1 17 3b 39 84 07 bb 2f e6 94 3b 04 3a ac b8
       0.0023184458 -0.0020678176 0.0045440416 -8.2124054e-05
000040 15 fd c7 ba d4 cb 99 bb a9 7c 0e 3b e1 3f 90 3b
       -0.001525792 -0.0046934877 0.0021741784 0.004402146
000050 af 09 0c bc 54 b3 23 3c e0 5b 87 bb 45 05 98 bb
       -0.008547231 0.009991486 -0.0041308254 -0.0046393
000060 05 4b de bb 25 57 c7 bb d3 59 13 bc 48 d3 2a bb
       -0.0067838454 -0.0060833865 -0.008993584 -0.0026065875
000070 84 59 0a bc 90 d0 4b ba 56 9f 0c 3b 63 d1 53 bb
       -0.008444194 -0.00077749137 0.0021457276 -0.003232085
000080 63 37 0b bb 67 2d 88 bb 31 6c e5 bb 10 35 cd 3a
       -0.002124273 -0.004155803 -0.007001423 0.0015656073
000090 9e c2 0e bb 02 14 30 bb b7 7b 28 bb 28 19 6b 3c
       -0.0021783481 -0.0026867394 -0.0025708505 0.014349259
0000a0 59 50 a5 b9 71 a0 a6 3b 03 c0 46 bb 02 80 96 3c
       -0.00031531116 0.005085044 -0.003032685 0.018371586
0000b0 85 df 67 ba 0c bc 19 3c 53 5a ba 39 e4 f0 5a bb
       -0.00088452577 0.009383213 0.0003554398 -0.0033407742
0000c0 6e 6f 67 3b 88 59 d9 ba b6 d5 24 bc 03 60 b2 3b
       0.003531422 -0.0016582469 -0.010060718 0.0054435744
0000d0 f2 02 cd bb 3d 3c 1c 3c 09 d8 7a 3c 85 12 c3 bb
       -0.0062564546 0.009535846 0.015310296 -0.0059531354
0000e0 36 ed 1f bb a4 c2 88 bb 0e b0 9b 3b 23 ff 47 3b
       -0.0024402863 -0.0041735936 0.004751212 0.0030517064
0000f0 c5 71 df bb 82 3a 52 3c 39 36 14 bb 0c 60 f5 38
       -0.0068189823 0.012831332 -0.0022615327 0.000117004005
000100 af 1b 45 3a 2b c2 ad 3a 29 7d 67 3b da df ce ba
       0.0007519079 0.0013256719 0.0035322404 -0.0015783266
000110 ed 7f 8b 3c 4a f6 6d bb 4b 8a 5e b9 4b 0b d9 ba
       0.017028773 -0.003631013 -0.00021223088 -0.0016559152
000120 5d ba f6 ba 14 c0 08 bc 5b b7 b0 3a 07 1f bc ba
       -0.0018823851 -0.008346576 0.0013482379 -0.0014352509
000130 23 cc bc bb ff ab 14 3b de 23 88 bb 2c 0d 0c 3c
       -0.0057616397 0.0022685525 -0.0041546663 0.008548062
000140 2c fb ac ba e9 71 bf b9 1d aa 95 bb 39 c4 7b 3c
       -0.0013197414 -0.0003651523 -0.004567398 0.015366607
000150 bb bf e6 39 5d 96 6f 35 4c 1e 0c 3b 62 6d d3 bb
       0.0004401187 8.9253246e-07 0.0021380363 -0.0064522484
000160 e4 8a 42 3b 36 c8 f5 bb cd b9 91 bb 0a 48 98 3b
       0.0029684836 -0.0075006736 -0.004447198 0.0046472596
000170 8f 3c 00 3c 5d 9a eb 3b 18 2e 38 3c 72 e5 f4 3b
       0.007826938 0.0071900324 0.011241458 0.007473641
000180 a6 49 fc 39 a7 da e0 3b a9 e8 12 bc 33 97 37 3b
       0.00048120058 0.006862003 -0.008966603 0.0028013706
000190 95 d1 da bb 1c c7 17 bb 69 cd cd ba bf 22 a1 3b
       -0.006677816 -0.002315945 -0.0015701476 0.004917472
0001a0 98 a5 0c 3b 6d 46 73 bb 63 06 05 3c 35 76 cf bb
       0.0021461006 -0.0037120834 0.0081191985 -0.00633123
0001b0 2a a7 85 39 de a0 99 3b 87 0e e1 bb e0 6f 3a bb
       0.00025492284 0.0046883663 -0.006868187 -0.002844803
0001c0 88 f1 42 bb 4f 81 39 3a 7b a8 ff bb 3f cb 15 3c
       -0.0029746015 0.00070764584 -0.007802067 0.009142696
0001d0 8d 85 0e bc a6 71 8b b9 12 a7 ac bb 63 c6 95 bb
       -0.008698833 -0.0002659682 -0.00526894 -0.0045707687
0001e0 c7 3f 71 3a e1 c1 6e bb 9a ce ae ba db 77 be b9
       0.0009202924 -0.0036431479 -0.0013336719 -0.00036328923
0001f0 94 eb 06 3a 9e 8f 4e 3a f9 ef 70 bb c3 8e 05 bc
       0.0005146798 0.0007879677 -0.0036764129 -0.008151713

action_model._continuous_distribution.log_sigma f4 [1, 2]
000000 14 8c 01 bc 7c 14 13 3c
       -0.007906932 0.008977052

action_model._continuous_distribution.mu.weight f4 [2, 128]
000000 1a 42 23 3c 77 b9 1a 3c 40 3c b7 3b ac 33 80 bc
       0.00996449 0.009443632 0.005591899 -0.01564964
000010 bc 14 9f bb b8 ed a3 3c fd 15 4a 3c 1a c7 c7 bc
       -0.0048547667 0.020010814 0.012334344 -0.024386931
000020 2b 09 46 bc d3 f8 13 3c 49 77 88 3c 9b fb a6 bc
       -0.012087147 0.009031492 0.016658442 -0.020383647
000030 9f b6 f7 bb 75 23 1c 3c 63 28 e5 bc b3 35 ab bc
       -0.007559612 0.009529938 -0.02797336 -0.02089963
000040 29 ef c3 3c 09 92 5a 3c dc 37 bb 3c 5d 48 7d 3b
       0.023917751 0.013340482 0.022853784 0.0038647868
000050 20 0f 79 3b 34 11 42 bc dd d7 d9 3b be 22 e3 3b
       0.00380034 -0.011844922 0.0066480474 0.006931632
000060 f2 65 0b bc 34 f4 e4 3c a1 b8 36 bc 47 e7 22 3c
       -0.008508192 0.027948476 -0.011152417 0.009942836
000070 80 24 99 3a 72 ad 9d 3c 4f b8 a6 bc 98 48 4e 3b
       0.0011683851 0.019247744 -0.020351557 0.0031476375
000080 1f 6f 9b 3c af a8 a0 3b 62 6b 51 3c f2 5c e7 3c
       0.018973885 0.004902921 0.01278195 0.028242562
000090 0a 95 f2 bb ed 57 c8 3c 80 aa f3 3c f6 7c e6 3c
       -0.0074030207 0.024455989 0.029744387 0.028135758
0000a0 94 18 bb bb 66 2e 93 3d a4 85 d6 bb c5 3a 91 bc
       -0.005709717 0.07186584 -0.006546693 -0.017728219
0000b0 b8 96 06 3d 13 31 da 3c 4d cb 9b bc 23 80 00 3d
       0.03285858 0.026634729 -0.01901784 0.0313722
0000c0 f8 c6 13 3b 03 c1 4c 3c cb d8 83 3c 04 55 1b bd
       0.0022549015 0.012497189 0.016094586 -0.037922874
0000d0 8b ab c4 bb f8 d8 c8 bc 63 01 af 3c ec 2f ad 3a
       -0.006001895 -0.024517521 0.021362966 0.0013213134
0000e0 cb 86 4d 3c e4 87 74 bc f9 b4 05 bd 8c 1d bf bc
       0.012544344 -0.014924977 -0.032643292 -0.023329519
0000f0 a1 f3 e4 bc c5 60 c2 bc 76 84 ec bb 79 06 59 3d
       -0.027948203 -0.023727784 -0.007217939 0.05298469
000100 82 77 7c 3c 52 62 49 3b cc dd 52 ba 6e 8c ad 3c
       0.015409352 0.003072877 -0.00080439146 0.021185126
000110 51 31 00 bd 6b 15 82 3c 25 c3 0b bc e6 c8 68 bb
       -0.03129703 0.015879354 -0.008530413 -0.0035520135
000120 c2 eb 63 bc 12 b9 26 3b aa 20 2a 3c ba ff 3d 3b
       -0.0139111895 0.00254399 0.010383764 0.0028991536
000130 f8 d9 f1 3c 24 52 a7 bb aa a4 04 3d 5c 61 20 3d
       0.02952288 -0.0051062275 0.0323836 0.03915535
000140 dc 62 25 bb af 14 17 3c bb a3 ce 3c 70 c8 38 bd
       -0.0025235927 0.00922124 0.025224557 -0.045113027
000150 c2 54 1c 3c 11 73 e8 bb 50 16 47 bc 43 e5 4a 3c
       0.009541692 -0.007093795 -0.012151316 0.012383762
000160 b7 56 21 3c fe 61 10 3c f6 10 e4 3b 07 90 b4 3b
       0.009847335 0.008812426 0.0069600297 0.0055103335
000170 43 0f a3 3c bb d6 13 3d ed 19 9c 3c d1 ee 28 bc
       0.019904738 0.036093455 0.019055331 -0.0103108445
000180 93 a6 3b bd 5b 0c 2c bc 13 65 b4 3c 76 be bb bc
       -0.045813154 -0.010500993 0.022020852 -0.022917967
000190 fb 49 42 3c 4b 2e 0e bc f2 ae 30 3d f6 f0 dd bc
       0.011858459 -0.008678029 0.04313559 -0.027092438
0001a0 30 85 03 bc ca 63 a1 3b 18 17 b1 3c fc 62 58 bc
       -0.00802736 0.004925226 0.021617457 -0.013207193
0001b0 69 8b c0 3c 6d 50 af bb 81 3b 03 3d a1 1d 87 bc
       0.023503976 -0.0053501637 0.03203917 -0.01649362
0001c0 b8 a1 e6 ba e1 54 53 3c 54 1d 0d 3c 78 92 ee 3c
       -0.0017595803 0.012898655 0.008612949 0.029122576
0001d0 83 15 43 bb 5d 08 d6 bc 63 36 6b 3b ed 6d 21 3b
       -0.002976746 -0.026127035 0.0035890571 0.0024632171
0001e0 02 f5 55 3c a1 1c 7a bb ad 3d 27 3c 0c 6c c9 bb
       0.013058903 -0.0038164037 0.010207576 -0.0061469134
0001f0 de 51 d8 bc 0b e1 25 bd 4f 58 0f bc 52 8f 02 3d
       -0.026406225 -0.04049782 -0.008749082 0.031874962
000200 3e 58 af bb 10 35 bd 3c b2 fc 40 bb c4 8b 8b ba
       -0.0053510955 0.023096591 -0.0029447493 -0.0010646512
000210 a3 8f 90 bc d9 3b 80 3a 75 ef d7 bc c9 6e 33 bd
       -0.017646616 0.0009783461 -0.0263593 -0.043806825
000220 46 03 d6 3b 21 25 d9 3b 86 e4 04 3b 2b 0e 8c bc
       0.006531152 0.0066267406 0.0020277812 -0.0170966
000230 7a ad a9 3c 85 20 b8 bc 02 2c ed 3a 30 36 15 3d
       0.020712603 -0.022476444 0.001809478 0.03642863
000240 6f 11 f7 3b b4 a7 21 bc a7 f7 33 bc 09 81 33 3c
       0.00753992 -0.009866644 -0.010984338 0.010956057
000250 37 27 05 ba 91 f0 e6 bc aa c6 18 bc 55 94 9c 3c
       -0.0005079391 -0.028190883 -0.009324709 0.019113699
000260 9a f3 09 bd 53 30 eb 3b 46 40 82 3c a2 d8 3d bb
       -0.033679582 0.0071773916 0.015899789 -0.0028968235
000270 dd 7d 7b b9 63 a2 87 3c 95 64 63 bc ed ba 18 3c
       -0.00023984113 0.016556924 -0.013878961 0.00932191
000280 cd 12 bb 3b 21 f8 5e bc 9d 8e a7 3c 57 de 85 3c
       0.0057090283 -0.013608963 0.020453745 0.016341371
000290 22 2c a4 3c ca 19 90 3b 61 a7 df 3a 00 d6 3a 3c
       0.020040575 0.0043976055 0.0017063433 0.011403561
0002a0 79 86 42 3c aa 6d c5 bc 2b 76 e9 ba b9 8b 00 3d
       0.011872881 -0.024100143 -0.0017811706 0.03138325
0002b0 2a dd 79 3c 0f 7e e7 bc 8f 40 67 3b c7 69 86 bc
       0.0152504835 -0.028258352 0.0035286283 -0.01640786
0002c0 28 65 aa 3c 0a 98 18 3b f0 aa dd 3a 4d 91 33 bc
       0.020800188 0.0023283982 0.0016911905 -0.010959935
0002d0 8b 32 7d bb d0 7e dc 3c f7 d9 f0 3c 02 81 c0 bb
       -0.0038634862 0.026915938 0.029400809 -0.005874754
0002e0 ff aa 96 3c 2e ef 2e bb 93 56 07 3c a9 ec a5 bc
       0.018392084 -0.0026692855 0.008260387 -0.02025445
0002f0 e8 2a ac bb 48 5f 30 3c 00 7f e3 bc 80 62 19 bd
       -0.0052541383 0.010764904 -0.02777052 -0.037447453
000300 4e 90 79 3d 8b 60 fc 3c a7 ab 11 bd 7e f5 4a bc
       0.060928635 0.030807754 -0.03556409 -0.012387631
000310 49 32 51 3c 23 7c 1b bc d3 b8 84 3c 42 01 71 3c
       0.012768337 -0.009490046 0.016201412 0.014709773
000320 85 86 8e bc 34 2d 1b bc fb 56 df bc 30 b3 9e 3c
       -0.017398128 -0.0094712265 -0.027263155 0.019372553
000330 e6 5c 80 3b d5 69 00 bd 0b 14 e9 bc 10 4b 04 bc
       0.0039173244 -0.03135093 -0.02845194 -0.008074537
000340 7f c7 f5 3c f2 4c 0b bb 5d 14 ec bb 20 da c3 3b
       0.030002354 -0.002125558 -0.007204576 0.0059769303
000350 7b 8c 05 bd 82 33 be 3c 06 d7 09 3c 45 7a 5a 3c
       -0.032604676 0.02321792 0.008413082 0.013334815
000360 10 dc af bc 7a 10 a1 bc ab b7 14 bc 55 7a 5f 3c
       -0.021467239 -0.019661177 -0.009076993 0.013640006
000370 58 e8 40 3c 37 f2 de 3c 53 53 00 3c 18 ae a5 3c
       0.011774145 0.027215106 0.007832366 0.020224616
000380 e7 27 55 bc f7 f6 03 3d d7 33 65 bc 1b 99 c1 3b
       -0.013010002 0.032217946 -0.01398941 0.005908144
000390 fb de 85 bc bd 84 99 bc 0f b9 2c 3a ef 29 0e 3d
       -0.016341677 -0.018740052 0.0006588855 0.03470796
0003a0 eb 3c 07 bd 34 95 d4 bb e5 59 a6 3b 01 22 22 bc
       -0.03301708 -0.006487513 0.005076634 -0.0098958025
0003b0 4e 09 05 3c 97 b4 57 bc cf e6 a3 bc a0 70 86 bc
       0.008119894 -0.013165615 -0.020007519 -0.016411126
0003c0 c1 35 34 bc 25 32 b8 bc 63 7c 95 3a 4e 31 38 3a
       -0.010999144 -0.022484848 0.0011404868 0.000702639
0003d0 ab 68 24 3c 1e 10 3a bc 43 0d bf bc 88 07 f4 3b
       0.01003472 -0.011356382 -0.023321753 0.007447187
0003e0 82 2e b7 3c 53 6d 39 3c 3c c7 8c bb 5e 72 19 3d
       0.022361044 0.011317569 -0.0042962115 0.037462585
0003f0 07 66 04 37 eb e9 82 3b cc 01 cf bb b8 7a 3e bc
       7.891568e-06 0.0039951704 -0.006317353 -0.011625938

action_model._continuous_distribution.mu.bias f4 [2]
000000 a2 78 d0 ba 48 97 96 3a
       -0.0015905092 0.0011489177

action_model._discrete_distribution.branches.0.weight f4 [5, 128]
000000 c1 9a 9a ba 74 8c 03 3b fa 21 72 bc 0d 77 a1 bc
       -0.0011795388 0.002007273 -0.014778608 -0.019710088
000010 7d 03 11 bc cb e2 1d 3c 8d ba 89 bb a1 ea ab bc
       -0.008850929 0.009636591 -0.004203147 -0.020985903
000020 3c cf df 3a 99 d1 e1 bb db b7 21 ba 26 da 75 3a
       0.001707531 -0.006891441 -0.0006169059 0.0009378515
000030 56 41 76 bc b8 28 a8 3b 82 ff 1d 3c 46 f2 75 3c
       -0.015030226 0.005131807 0.009643437 0.015011376
000040 94 e7 56 3c 36 47 ba ba d1 66 b8 3b 67 08 81 bc
       0.013116736 -0.0014211896 0.005627491 -0.015751077
000050 f8 59 ca b7 c8 f4 6b 3b c8 3f 6a ba a8 5b a8 bb
       -2.4122171e-05 0.0036004055 -0.0008935896 -0.0051378794
000060 1d ea c0 3b 40 8e 03 3b cb 06 8b 3c ff 67 26 3c
       0.0058872835 0.0020073801 0.016971013 0.010156631
000070 68 20 c9 bb ca 7c 9f 3c 48 89 1b 3c fb b0 9c 3c
       -0.0061378963 0.019468684 0.00949318 0.01912736
000080 e1 1a 54 bc 44 27 4a bc 56 d2 e8 ba aa d9 99 3b
       -0.012945862 -0.012338463 -0.001776288 0.004695137
000090 d2 a9 ad 3b dd 62 ab 3c 59 e4 38 bc 68 88 ab 3c
       0.005299785 0.020921165 -0.011284911 0.020939067
0000a0 6c a4 15 3b 7f fa 36 ba 18 1f 57 3c a3 e5 ca bc
       0.0022833599 -0.0006980076 0.013129972 -0.024767702
0000b0 92 8e 89 bb 78 5d 8b bc 9a 0b a0 3b f8 9c 57 3a
       -0.004197904 -0.017012343 0.0048841955 0.0008224989
0000c0 c5 40 4f 3c 31 c3 ab 3b f7 c7 0f bc 16 7d 17 3c
       0.01264972 0.0052417745 -0.008775703 0.009246131
0000d0 79 cb 89 3b 4e 25 fd bb 99 ad c4 3a 89 12 d8 bb
       0.004205164 -0.0077253943 0.0015005349 -0.0065940064
0000e0 20 cc ee 3b 6f 08 84 bc 66 e1 6f 3b 8d 14 b2 bc
       0.007287517 -0.016117303 0.0036602854 -0.021738315
0000f0 70 fe c9 bb 3c ad ca 39 5b a6 85 bc 60 af ba 3c
       -0.0061643645 0.00038657512 -0.016314676 0.022788703
000100 d7 31 ca 3a 46 a3 47 b9 7d 58 fd 3b bc a1 31 3c
       0.001542623 -0.00019038943 0.007731496 0.010841783
000110 9f d4 7b bc 37 d7 2f 3c eb 5e 2a bc 21 ed 75 3b
       -0.015370517 0.010732464 -0.010398607 0.0037525373
000120 eb de a3 3b 73 76 4f bc ec 60 d3 3b 93 99 2b 3b
       0.005000939 -0.012662518 0.006450763 0.0026184067
000130 06 3a 62 3c 18 7c 01 3c e4 2b 75 bb b7 f7 d2 3b
       0.013807779 0.007903121 -0.0037410194 0.0064382213
000140 6a 5c 91 bb 00 e3 5e 3c a6 19 d7 ba 60 fc 5a bb
       -0.0044360654 0.013603926 -0.0016410842 -0.0033414587
000150 2a 15 ea 3c 19 a4 7e 3c 0c 31 1f 3c 91 46 07 bc
       0.028574545 0.015542054 0.0097162835 -0.00825657
000160 db b6 7d bc 1f 32 07 bb b0 25 b4 bb d7 d3 30 3a
       -0.015485491 -0.002062924 -0.0054976568 0.0006745434
000170 10 57 4e 38 c8 47 ea ba dd 21 c8 bb c0 df df 3c
       4.919531e-05 -0.0017874176 -0.0061075524 0.027328372
000180 bc 2f cb b9 07 66 2f 3c 14 31 66 3c 22 0b a6 3c
       -0.00038754742 0.010705478 0.014049787 0.02026898
000190 e3 68 db b9 4a ce 63 3b be 0d 98 3b cf 18 3b bc
       -0.00041849082 0.003476041 0.00464031 -0.011419489
0001a0 97 50 52 3c 65 59 5f 3c 8f aa d0 bb 78 20 3c 3c
       0.012836597 0.013632153 -0.0063679884 0.0114823505
0001b0 01 7e d6 3b d4 7a 02 bc 1d e0 1c bc d2 ee c3 ba
       0.0065457826 -0.007963855 -0.009574917 -0.0014948493
0001c0 24 20 8c 3c 2c 0a 8e bc b0 22 0e bc dd 61 2b bc
       0.01710517 -0.017338835 -0.008675262 -0.010460344
0001d0 19 c3 77 3b f3 78 5e 3b 23 fe 27 bc 80 bd ba bc
       0.0037805496 0.0033946603 -0.010253462 -0.022795439
0001e0 13 81 83 bb 0a b6 b2 bb 4b 31 06 3c 3f 5a 27 3b
       -0.0040131896 -0.0054538297 0.008190463 0.0025535969
0001f0 f9 c5 38 3c ea 77 c0 3b e5 b2 aa 3b 90 9a 6e bc
       0.011277669 0.00587367 0.005209314 -0.014563218
000200 ef f8 12 bc b9 ca 72 ba ef 06 46 bc f7 ec 09 bc
       -0.008970483 -0.00092617754 -0.012086614 -0.008418313
000210 fa 7b 0c bc aa 1e 27 3c 15 5d ba 3b 3f e4 65 bb
       -0.00857448 0.010200182 0.005687366 -0.0035078672
000220 7d b9 26 3c 93 7d ae bb e5 13 61 3c 92 34 12 3b
       0.01017606 -0.005325028 0.013737653 0.0022309166
000230 6a 30 37 bb 27 01 f7 39 e9 7a d6 3a cd 03 87 ba
       -0.002795244 0.0004711237 0.0016363534 -0.0010300815
000240 ac c7 0f 3b bb 1b e2 3a 92 2b 03 bb 79 78 f0 3a
       0.0021939082 0.0017250696 -0.0020014984 0.001834645
000250 84 fe 7b bb 0e 3a 32 3c 41 a0 c2 3b 8a da 3b 3b
       -0.0038451264 0.010878099 0.005939514 0.0028664195
000260 9a 40 9d 3c c5 7f be 3b 62 ef ac bb 7b 23 90 bb
       0.019195843 0.005813571 -0.00527756 -0.004398761
000270 17 5f e8 ba 85 2f 9d bb cb 8c 47 bb 44 3e 0c bc
       -0.0017728534 -0.0047969245 -0.003044891 -0.008559767
000280 88 ad 03 bc eb 19 9a 3b fa 74 f4 ba a7 88 c3 b9
       -0.008036979 0.0047027967 -0.0018650584 -0.00037295112
000290 b4 e1 1b 3c 4f 1e a0 bb a2 19 b8 bb c0 f4 f9 ba
       0.009514261 -0.0048864256 -0.00561829 -0.0019070134
0002a0 43 ae 27 3b c2 ef de 3b c1 23 1a bc 9b 3d a3 3c
       0.0025586046 0.0068034837 -0.009407938 0.019926837
0002b0 ab 85 9f bc 49 62 17 3c 32 4b 7e bc 73 2b ca 3b
       -0.019472918 0.009239742 -0.015520858 0.0061697303
0002c0 6a 3c ba bb ed 6d 24 bc 70 17 48 bb 91 9f 37 3c
       -0.0056834714 -0.010035974 -0.0030531548 0.011207477
0002d0 81 be 07 3c 4d ca 48 3b 50 ba 03 3c f5 b8 a8 ba
       0.008285166 0.0030638159 0.008040026 -0.0012872504
0002e0 6e f7 0c bb 08 2e e4 bb eb b4 66 bc bb 8c 50 bc
       -0.0021509784 -0.006963495 -0.01408122 -0.012728865
0002f0 e9 1e 5e bb a2 8f b0 3c 44 f3 2a 3b 24 40 86 3b
       -0.0033892936 0.021552864 0.002608494 0.0040970016
000300 c4 26 85 bc f0 00 01 bc b6 19 70 bc bc 93 16 3b
       -0.016253836 -0.007873759 -0.014654567 0.002297624
000310 53 97 25 3c cb 58 76 3c 82 47 5b bc 9d e8 7b 3b
       0.010106879 0.015035818 -0.013383748 0.003843821
000320 57 0c dd bb 89 53 ca bc 8b 44 ad bb 5c dd e7 bb
       -0.006745856 -0.024698036 -0.005287712 -0.0070759486
000330 f1 b2 1e ba 96 72 25 3b 97 fb a4 ba 52 d1 a1 bc
       -0.0006053886 0.00252453 -0.0012587187 -0.019753132
000340 ab 37 ec 3b e2 06 26 bc 79 7e 53 bb c8 c7 f9 ba
       0.0072087846 -0.010133477 -0.0032271428 -0.0019056732
000350 c0 82 3b 3c a2 54 6d 3b 71 6a 64 ba ae a3 02 3c
       0.011444747 0.0036213775 -0.0008713371 0.007973595
000360 00 57 b8 39 98 3d 03 bc 06 53 29 3c 37 e3 ba 3b
       0.00035160035 -0.008010291 0.010334736 0.0057033557
000370 cb 67 7f bc f7 fb 66 3c fb 35 5e 39 ae 9b fe 3b
       -0.015588711 0.014098159 0.00021191679 0.0077700233
000380 fe 61 4d 3b 04 63 29 3c 11 23 68 3c 07 b3 60 bc
       0.0031338925 0.010338549 0.014168517 -0.013714558
000390 7a 03 c3 bb 6c e0 b7 bb b5 1c 92 bc 10 b4 9c ba
       -0.005951342 -0.00561147 -0.017835954 -0.0011955518
0003a0 c5 d0 4f 3c c3 cc 4d bc 26 46 c8 bc a4 2d 66 bb
       0.012684052 -0.012561026 -0.024447512 -0.0035122419
0003b0 a4 e4 4f 3c 85 b2 50 3a a2 4d d3 3c ce b1 2b 3b
       0.0126887895 0.0007961172 0.025793854 0.002619851
0003c0 b8 6d ac 3c 41 9d 2d ba a4 7a 51 3a af 1e 2b bc
       0.021048412 -0.0006622859 0.0007990992 -0.010444327
0003d0 64 6a 39 3c e4 ac 98 bc 4a ad a4 bc 78 61 b6 bb
       0.011316869 -0.018637128 -0.020102162 -0.0055658184
0003e0 9d fb 63 bb 64 d5 26 3c 03 6d 02 bc 0b 96 ce 3c
       -0.0034787424 0.010182712 -0.007960561 0.02521803
0003f0 0a d6 72 bc 55 7b 48 bb 71 a5 a2 3c e1 34 35 3c
       -0.014821539 -0.003059109 0.01985428 0.011059971

action_model._discrete_distribution.branches.0.bias f4 [5]
000000 39 a2 25 3c 81 fb 78 ba 0b 1e fd ba aa 7e 54 bb
       0.010109478 -0.0009497926 -0.0019311322 -0.003242413
000010 b6 1c 7e bb
       -0.0038774437

exp_avg f4 [128, 92]
000000 35 91 04 b4 00 00 00 00 b9 77 70 36 e5 41 45 b5
       -1.2346284e-07 0.0 3.5832475e-06 -7.348411e-07
000010 4a d3 7e b3 00 00 00 00 2e 6e e9 b4 89 fc 89 b6
       -5.933115e-08 0.0 -4.3479798e-07 -4.112317e-06
000020 fd f9 58 b4 00 00 00 00 ce dc 98 b5 a2 7a 4d b6
       -2.0207513e-07 0.0 -1.1389145e-06 -3.0618762e-06
000030 6f a7 8a 34 00 00 00 00 6a df 0a b7 5e 15 13 b7
       2.5826327e-07 0.0 -8.277459e-06 -8.766858e-06
000040 aa 70 ab b3 00 00 00 00 ca 5c ae b5 fe 93 71 b6
       -7.9833015e-08 0.0 -1.2991015e-06 -3.5997941e-06
000050 76 28 8b b4 00 00 00 00 c6 93 94 b5 29 4d 2e b7
       -2.5920207e-07 0.0 -1.1069867e-06 -1.0389173e-05
000060 76 28 8b b4 00 00 00 00 c6 93 94 b5 29 4d 2e b7
       -2.5920207e-07 0.0 -1.1069867e-06 -1.0389173e-05
000070 ae 86 cc 38 98 b3 10 38 5a 4c 3a 33 1c b5 9b b9
       9.752564e-05 3.4499535e-05 4.337594e-08 -0.0002969884
000080 9e ad c1 b7 ff 1f 6d 39 7d 6f a6 b7 9e ad c1 b7
       -2.308824e-05 0.00022614001 -1.9840658e-05 -2.308824e-05
000090 81 60 f0 38 14 f3 76 b8 15 a5 62 b4 31 c7 31 2f
       0.00011462067 -5.8877355e-05 -2.1107947e-07 1.6168823e-10
0000a0 9c 6b ee 34 e2 37 0b b6 56 14 54 b2 09 01 8a 2f
       4.440925e-07 -2.0745142e-06 -1.2344648e-08 2.510279e-10
0000b0 9f 2a 32 32 00 00 00 00 00 00 00 00 00 00 00 00
       1.0370655e-08 0.0 0.0 0.0
0000c0 00 00 00 00 00 00 00 00 00 00 00 00 00 00 00 00
       0.0 0.0 0.0 0.0
0000d0 00 00 00 00 00 00 00 00 00 00 00 00 00 00 00 00
       0.0 0.0 0.0 0.0
0000e0 00 00 00 00 00 00 00 00 00 00 00 00 00 00 00 00
       0.0 0.0 0.0 0.0
0000f0 00 00 00 00 00 00 00 00 00 00 00 00 00 00 00 00
       0.0 0.0 0.0 0.0
000100 00 00 00 00 00 00 00 00 00 00 00 00 00 00 00 00
       0.0 0.0 0.0 0.0
000110 00 00 00 00 00 00 00 00 00 00 00 00 00 00 00 00
       0.0 0.0 0.0 0.0
000120 00 00 00 00 00 00 00 00 00 00 00 00 00 00 00 00
       0.0 0.0 0.0 0.0
000130 00 00 00 00 00 00 00 00 00 00 00 00 00 00 00 00
       0.0 0.0 0.0 0.0
000140 00 00 00 00 00 00 00 00 00 00 00 00 00 00 00 00
       0.0 0.0 0.0 0.0
000150 00 00 00 00 00 00 00 00 00 00 00 00 00 00 00 00
       0.0 0.0 0.0 0.0
000160 00 00 00 00 00 00 00 00 00 00 00 00 00 00 00 00
       0.0 0.0 0.0 0.0
000170 0e 90 60 35 00 00 00 00 95 52 08 b7 b4 70 ad b7
       8.365613e-07 0.0 -8.125459e-06 -2.0675689e-05
000180 b8 c9 b2 35 00 00 00 00 9d 53 71 b8 e8 f1 ad b7
       1.3320741e-06 0.0 -5.753675e-05 -2.0735853e-05
000190 21 10 01 b5 00 00 00 00 4a 17 37 b8 21 61 5b b8
       -4.8079715e-07 0.0 -4.365229e-05 -5.2304127e-05
0001a0 0f 02 3a 36 00 00 00 00 ec 7a e3 36 bd dc 71 37
       2.7717358e-06 0.0 6.779437e-06 1.4416114e-05
0001b0 92 6c f4 35 00 00 00 00 87 b5 a7 36 ff 5f 9a b6
       1.8211015e-06 0.0 4.9981204e-06 -4.600733e-06
0001c0 cf e7 b1 35 00 00 00 00 aa e0 d0 36 91 f8 90 b7
       1.3254993e-06 0.0 6.2250374e-06 -1.7281885e-05
0001d0 cf e7 b1 35 00 00 00 00 aa e0 d0 36 91 f8 90 b7
       1.3254993e-06 0.0 6.2250374e-06 -1.7281885e-05
0001e0 22 70 0e 37 ba da 4b b7 4d ea e0 39 43 1f 62 b9
       8.4899675e-06 -1.2150669e-05 0.00042899177 -0.00021564685
0001f0 3c 77 0a 37 15 d6 5e b9 38 02 aa 38 3c 77 0a 37
       8.253202e-06 -0.00021251322 8.106645e-05 8.253202e-06
000200 dc 39 d4 39 af 69 4e 39 0a 54 3d b6 62 15 19 33
       0.000404789 0.00019685061 -2.8212112e-06 3.5642536e-08
000210 2d a2 c5 35 a9 36 f7 37 80 22 30 33 49 58 6f 31
       1.4724843e-06 2.9470148e-05 4.100957e-08 3.4829262e-09
000220 c3 a5 e0 32 00 00 00 00 00 00 00 00 00 00 00 00
       2.6152412e-08 0.0 0.0 0.0
000230 00 00 00 00 00 00 00 00 00 00 00 00 00 00 00 00
       0.0 0.0 0.0 0.0
000240 00 00 00 00 00 00 00 00 00 00 00 00 00 00 00 00
       0.0 0.0 0.0 0.0
000250 00 00 00 00 00 00 00 00 00 00 00 00 00 00 00 00
       0.0 0.0 0.0 0.0
000260 00 00 00 00 00 00 00 00 00 00 00 00 00 00 00 00
       0.0 0.0 0.0 0.0
000270 00 00 00 00 00 00 00 00 00 00 00 00 00 00 00 00
       0.0 0.0 0.0 0.0
000280 00 00 00 00 00 00 00 00 00 00 00 00 00 00 00 00
       0.0 0.0 0.0 0.0
000290 00 00 00 00 00 00 00 00 00 00 00 00 00 00 00 00
       0.0 0.0 0.0 0.0
0002a0 00 00 00 00 00 00 00 00 00 00 00 00 00 00 00 00
       0.0 0.0 0.0 0.0
0002b0 00 00 00 00 00 00 00 00 00 00 00 00 00 00 00 00
       0.0 0.0 0.0 0.0
0002c0 00 00 00 00 00 00 00 00 00 00 00 00 00 00 00 00
       0.0 0.0 0.0 0.0
0002d0 00 00 00 00 00 00 00 00 00 00 00 00 00 00 00 00
       0.0 0.0 0.0 0.0
0002e0 c9 63 06 35 00 00 00 00 16 df 11 38 7b da 41 37
       5.0064097e-07 0.0 3.477846e-05 1.1554565e-05
0002f0 3a 65 2d 35 00 00 00 00 14 c2 1e b8 ed 0c 54 b8
       6.4594826e-07 0.0 -3.7850885e-05 -5.0556777e-05
000300 54 94 a4 37 00 00 00 00 c9 1c 95 37 80 6b 8f 38
       1.9619394e-05 0.0 1.7775588e-05 6.838795e-05
000310 48 62 d2 34 00 00 00 00 7b b1 15 b8 3c 64 30 b7
       3.9187057e-07 0.0 -3.568966e-05 -1.0513755e-05
000320 cb ed 35 b7 00 00 00 00 d3 ae c3 38 ff 5d ac 38
       -1.0843806e-05 0.0 9.330888e-05 8.219107e-05
000330 f4 f5 c7 35 00 00 00 00 f0 0f 2e 36 5d a3 90 38
       1.4898237e-06 0.0 2.5937297e-06 6.896884e-05
000340 f4 f5 c7 35 00 00 00 00 f0 0f 2e 36 5d a3 90 38
       1.4898237e-06 0.0 2.5937297e-06 6.896884e-05
000350 e0 4f 24 3a 29 bb 6d b9 43 1d 81 b9 53 a6 74 b7
       0.0006268006 -0.00022671804 -0.000246266 -1.4582259e-05
000360 b0 99 1c 39 74 d2 ba ba 8e 24 05 3b b0 99 1c 39
       0.00014934572 -0.0014253394 0.0020315978 0.00014934572
000370 b4 45 7b ba 22 a8 35 3a 83 41 0d 35 c3 f6 9c 33
       -0.0009585277 0.0006929656 5.2621925e-07 7.309202e-08
000380 8d dc db 35 59 a4 1b 39 c8 d5 96 b3 6a 52 10 30
       1.638096e-06 0.00014843176 -7.023806e-08 5.250401e-10
000390 9b 32 4b b3 00 00 00 00 00 00 00 00 00 00 00 00
       -4.7310646e-08 0.0 0.0 0.0
0003a0 00 00 00 00 00 00 00 00 00 00 00 00 00 00 00 00
       0.0 0.0 0.0 0.0
0003b0 00 00 00 00 00 00 00 00 00 00 00 00 00 00 00 00
       0.0 0.0 0.0 0.0
0003c0 00 00 00 00 00 00 00 00 00 00 00 00 00 00 00 00
       0.0 0.0 0.0 0.0
0003d0 00 00 00 00 00 00 00 00 00 00 00 00 00 00 00 00
       0.0 0.0 0.0 0.0
0003e0 00 00 00 00 00 00 00 00 00 00 00 00 00 00 00 00
       0.0 0.0 0.0 0.0
0003f0 00 00 00 00 00 00 00 00 00 00 00 00 00 00 00 00
       0.0 0.0 0.0 0.0

exp_avg_sq f4 [128, 92]
000000 02 02 54 2c 00 00 00 00 25 19 24 2e 90 23 95 2e
       3.0128127e-12 0.0 3.7311616e-11 6.782053e-11
000010 1f cf cc 2b 00 00 00 00 13 ea b2 2e c9 af df 2e
       1.455256e-12 0.0 8.136083e-11 1.01720916e-10
000020 14 f7 fc 2a 00 00 00 00 ed 7a bd 2d 86 80 81 2e
       4.4935637e-13 0.0 2.1541402e-11 5.889071e-11
000030 b9 30 da 2b 00 00 00 00 08 3d 92 2e 59 bd b9 2e
       1.5503355e-12 0.0 6.6501527e-11 8.446461e-11
000040 26 9d 9e 2b 00 00 00 00 e8 33 d9 2d fc 7e 70 2e
       1.1270193e-12 0.0 2.4693095e-11 5.4682467e-11
000050 81 5a 02 2c 00 00 00 00 67 9c 31 2e 6a 1d 9a 2e
       1.852435e-12 0.0 4.0384054e-11 7.008334e-11
000060 81 5a 02 2c 00 00 00 00 67 9c 31 2e 6a 1d 9a 2e
       1.852435e-12 0.0 4.0384054e-11 7.008334e-11
000070 35 2c ab 32 e3 47 31 31 42 ee 3c 32 39 73 01 34
       1.9927123e-08 2.5797753e-09 1.0997214e-08 1.2055979e-07
000080 50 25 9e 30 40 5b c8 33 d6 d0 65 32 50 25 9e 30
       1.1506618e-09 9.329824e-08 1.3377038e-08 1.1506618e-09
000090 04 4b c4 33 82 d3 46 32 11 6e d6 2c e0 5d 00 26
       9.1406065e-08 1.1573208e-08 6.0944656e-12 4.4536145e-16
0000a0 6d 16 a2 2c 8e 04 87 2f cf c9 6d 28 5c cf 0b 25
       4.6068067e-12 2.4559593e-10 1.3199903e-14 1.2126584e-16
0000b0 16 aa ef 28 00 00 00 00 00 00 00 00 00 00 00 00
       2.6608093e-14 0.0 0.0 0.0
0000c0 00 00 00 00 00 00 00 00 00 00 00 00 00 00 00 00
       0.0 0.0 0.0 0.0
0000d0 00 00 00 00 00 00 00 00 00 00 00 00 00 00 00 00
       0.0 0.0 0.0 0.0
0000e0 00 00 00 00 00 00 00 00 00 00 00 00 00 00 00 00
       0.0 0.0 0.0 0.0
0000f0 00 00 00 00 00 00 00 00 00 00 00 00 00 00 00 00
       0.0 0.0 0.0 0.0
000100 00 00 00 00 00 00 00 00 00 00 00 00 00 00 00 00
       0.0 0.0 0.0 0.0
000110 00 00 00 00 00 00 00 00 00 00 00 00 00 00 00 00
       0.0 0.0 0.0 0.0
000120 00 00 00 00 00 00 00 00 00 00 00 00 00 00 00 00
       0.0 0.0 0.0 0.0
000130 00 00 00 00 00 00 00 00 00 00 00 00 00 00 00 00
       0.0 0.0 0.0 0.0
000140 00 00 00 00 00 00 00 00 00 00 00 00 00 00 00 00
       0.0 0.0 0.0 0.0
000150 00 00 00 00 00 00 00 00 00 00 00 00 00 00 00 00
       0.0 0.0 0.0 0.0
000160 00 00 00 00 00 00 00 00 00 00 00 00 00 00 00 00
       0.0 0.0 0.0 0.0
000170 45 48 91 2f 00 00 00 00 fb 94 9f 31 8d c9 2d 32
       2.6426697e-10 0.0 4.644446e-09 1.0115753e-08
000180 3e 3f 9c 2f 00 00 00 00 fe 04 04 32 be 69 31 32
       2.842117e-10 0.0 7.684546e-09 1.0326799e-08
000190 a5 71 1c 30 00 00 00 00 3a 6d 37 32 48 d3 6d 32
       5.691397e-10 0.0 1.0676837e-08 1.3843255e-08
0001a0 fd d8 ba 2f 00 00 00 00 fc 1b bd 31 8a d0 23 32
       3.3987382e-10 0.0 5.5038054e-09 9.535265e-09
0001b0 5f e5 15 30 00 00 00 00 87 bf 34 32 8d 32 6c 32
       5.453184e-10 0.0 1.0520927e-08 1.3748502e-08
0001c0 6c 9e e5 2f 00 00 00 00 3d 67 c6 31 44 33 41 32
       4.1767423e-10 0.0 5.7742953e-09 1.1245735e-08
0001d0 6c 9e e5 2f 00 00 00 00 3d 67 c6 31 44 33 41 32
       4.1767423e-10 0.0 5.7742953e-09 1.1245735e-08
0001e0 5a 86 dd 36 e0 13 d4 34 b4 04 ce 35 50 ca 7c 37
       6.601954e-06 3.9502538e-07 1.5349565e-06 1.5067475e-05
0001f0 11 19 3d 34 3e 13 63 37 5a 99 94 37 11 19 3d 34
       1.7611116e-07 1.35347345e-05 1.7714385e-05 1.7611116e-07
000200 67 dd 62 37 ab 3e fc 35 89 40 8e 30 e8 01 06 2a
       1.3522199e-05 1.8793702e-06 1.0350202e-09 1.1902252e-13
000210 4c e7 9f 30 7d 51 1a 34 97 8c 50 2c a0 a7 f1 29
       1.1634511e-09 1.4372013e-07 2.963662e-12 1.0731628e-13
000220 fc 43 a4 2c 00 00 00 00 00 00 00 00 00 00 00 00
       4.668708e-12 0.0 0.0 0.0
000230 00 00 00 00 00 00 00 00 00 00 00 00 00 00 00 00
       0.0 0.0 0.0 0.0
000240 00 00 00 00 00 00 00 00 00 00 00 00 00 00 00 00
       0.0 0.0 0.0 0.0
000250 00 00 00 00 00 00 00 00 00 00 00 00 00 00 00 00
       0.0 0.0 0.0 0.0
000260 00 00 00 00 00 00 00 00 00 00 00 00 00 00 00 00
       0.0 0.0 0.0 0.0
000270 00 00 00 00 00 00 00 00 00 00 00 00 00 00 00 00
       0.0 0.0 0.0 0.0
000280 00 00 00 00 00 00 00 00 00 00 00 00 00 00 00 00
       0.0 0.0 0.0 0.0
000290 00 00 00 00 00 00 00 00 00 00 00 00 00 00 00 00
       0.0 0.0 0.0 0.0
0002a0 00 00 00 00 00 00 00 00 00 00 00 00 00 00 00 00
       0.0 0.0 0.0 0.0
0002b0 00 00 00 00 00 00 00 00 00 00 00 00 00 00 00 00
       0.0 0.0 0.0 0.0
0002c0 00 00 00 00 00 00 00 00 00 00 00 00 00 00 00 00
       0.0 0.0 0.0 0.0
0002d0 00 00 00 00 00 00 00 00 00 00 00 00 00 00 00 00
       0.0 0.0 0.0 0.0
0002e0 5f bf 05 2e 00 00 00 00 1f 7d 89 31 71 db 4f 32
       3.041067e-11 0.0 4.0014494e-09 1.2098881e-08
0002f0 9e 57 67 2d 00 00 00 00 53 88 ba 31 90 64 38 32
       1.3150285e-11 0.0 5.4288107e-09 1.0733075e-08
000300 cc 2c 1c 30 00 00 00 00 87 8e 8b 32 d5 a0 ae 32
       5.681613e-10 0.0 1.6246544e-08 2.0329404e-08
000310 b4 99 2d 2d 00 00 00 00 84 3b 9e 31 c2 7a 36 32
       9.86804e-12 0.0 4.6051714e-09 1.0621706e-08
000320 a1 b4 97 30 00 00 00 00 74 f8 80 32 64 cb a7 32
       1.1038034e-09 0.0 1.5014145e-08 1.953385e-08
000330 5a 67 b6 2e 00 00 00 00 95 3b f1 31 60 35 74 32
       8.294761e-11 0.0 7.020797e-09 1.4214805e-08
000340 5a 67 b6 2e 00 00 00 00 95 3b f1 31 60 35 74 32
       8.294761e-11 0.0 7.020797e-09 1.4214805e-08
000350 ce 14 14 37 ea 71 0a 35 d8 c5 d3 35 7f 38 aa 36
       8.826331e-06 5.1574773e-07 1.5778305e-06 5.072972e-06
000360 48 dd 76 34 d2 35 97 37 ad 52 f4 37 48 dd 76 34
       2.2991037e-07 1.8025665e-05 2.9125566e-05 2.2991037e-07
000370 f0 47 8e 37 c9 92 32 36 92 c0 d1 2f c7 6b 12 29
       1.6961218e-05 2.6609507e-06 3.8153708e-10 3.2511994e-14
000380 d1 b5 6f 2f 1a 87 10 34 7a 16 aa 2b 58 3a 2c 29
       2.1801518e-10 1.3460195e-07 1.2085465e-12 3.8242277e-14
000390 49 ea e4 2b 00 00 00 00 00 00 00 00 00 00 00 00
       1.6265402e-12 0.0 0.0 0.0
0003a0 00 00 00 00 00 00 00 00 00 00 00 00 00 00 00 00
       0.0 0.0 0.0 0.0
0003b0 00 00 00 00 00 00 00 00 00 00 00 00 00 00 00 00
       0.0 0.0 0.0 0.0
0003c0 00 00 00 00 00 00 00 00 00 00 00 00 00 00 00 00
       0.0 0.0 0.0 0.0
0003d0 00 00 00 00 00 00 00 00 00 00 00 00 00 00 00 00
       0.0 0.0 0.0 0.0
0003e0 00 00 00 00 00 00 00 00 00 00 00 00 00 00 00 00
       0.0 0.0 0.0 0.0
0003f0 00 00 00 00 00 00 00 00 00 00 00 00 00 00 00 00
       0.0 0.0 0.0 0.0
