3DPlayground/results/Test12/MoveToGoal/MoveToGoal-499988.pt (torch, 551054 bytes, 42 tensors)

network_body._body_endoder.seq_layers.0.weight f4 [128, 38]
00000000: 13d4 fb3b 2415 89bd 2d75 48be 1e50 f53d
00000010: 92e0 a8bd 4dd6 543e e6a2 bb3d 58b8 ddbc
00000020: ef95 8d3d cacc f43d 48b1 c73b cfae 413e
00000030: 2c6a 923d 06c3 813e 441d 663e 2b18 1c3e
00000040: 135d 0ebe f26d 73be c63f 84be db35 8e3d
00000050: 6909 ec3d 4a2f 18bd 1386 18be e1e0 293d
00000060: ac05 8f3d 3c24 f7bc 65c9 57bd b4b2 b2bb
00000070: da00 0ebe e08f b23c c19d 663e f3cf 38be
00000080: 86fa 6a3e 8b46 b93d 9595 e9bd 3b43 e43e
00000090: c280 7fbc 2ca8 42be 45dd 173d bc50 1fbe
000000a0: 8f4d b2be 868d 7fbe 2ba1 8ebb af51 63be
000000b0: a4e5 dabd 8fb8 58be 9462 c03d b1a7 08be
000000c0: d3c9 05be 5846 0e3c 7e04 22be 42c1 7d3e
000000d0: 24c6 5b3e 2809 0b3d bc42 b8bd 475b 2cbc
000000e0: 389e a1be 23a8 a43d 7378 98be 23b9 ee3c
000000f0: d962 d9bc a0a7 f9bd f1d0 82be 6357 133e
00000100: f716 bd3d 65bc 073d c6c9 cabd fa65 64bd
00000110: 0fa3 bc3b 5457 38bc f75e f9bd 9ade 97bd
00000120: 75be bbbc 1c9d 0b3e ef27 b33d 5b9e 37be
00000130: 7e08 d83d 3d31 fc3d a88e 9cbd 06e4 afbe
00000140: 68d9 09bd 1ce0 ddbd 0b4e c6bd 454f 5e3d
00000150: b732 60be d3b3 c6bd 2c45 9bbe c083 313e
00000160: 9f37 5abe 9f12 1cbd b54e 763d d407 8fbd
00000170: 33d0 68bd 750a c0bd cf39 6c3d 4b38 6d3e
00000180: 9704 37bd 66fc 8dbd ccec 41be 0346 b1bd
00000190: 1481 75be abba d7bd 2c9a dcbd e840 383e
000001a0: 38b7 6abe 76bb 743d 8ced 8abd 92a4 363e
000001b0: 772d e2bd aafa 813e 4d04 1b3e 50f0 5b3e
000001c0: b493 2cbd b588 973d 75a2 77be 0dca 51bd
000001d0: 2b0e 8c3e ccbc 333d 9708 6d3c 5e41 94be
000001e0: 2681 073d bee6 063e f058 93be e5d3 d13d
000001f0: bd2c 66bd da2d 1e3e 2238 223e a38a d03d
00000200: 79fa 33be 6c29 2f3e 17a3 0dbe d8c6 883e
00000210: 0c09 f3bd a0a9 5c3c 7e01 09be 39ee 2f3e
00000220: dc3c b0bd 094c 89bd 9285 2d3e f43c 76bd
00000230: f7b6 4a3c 565f 38bd 8af5 9b3d 9bf4 c03c
00000240: 6b18 c73e 9b13 073e 7f83 833c 75db 87be
00000250: c0e0 013e 211e 8cbe 9453 c8bc 52e1 84be
00000260: 34d3 393e de56 7f3d 7f78 a53d c74e 45be
00000270: ead3 e9bd 982b a4be fa95 563e 5d1e 013e
00000280: de87 583e 1932 c43d a274 883d 45e1 533d
00000290: 4736 35be b80c 783e c7ed 833c 23a2 1abd
000002a0: dbb8 54bd a586 dd3d 74cf 913e fe37 fa3c
000002b0: 33a3 063d 69b1 3dbd be71 60be 5f07 1b3e
000002c0: 9020 003e 1612 52be 4d52 073b 3bef 883d
000002d0: ab29 9ebd 617b 47be 6a7a e03d 4e95 c43d
000002e0: fb47 9d3d a7d1 053f a98a 02be 5a4a 963e
000002f0: 2e48 89be 5464 bfbe 6fb7 4f3e 8aa9 983e
00000300: 3b2f e93d e62d 57be 65e1 033e 59f2 863e
00000310: 964a 223e 876c 3cbe a59d 57be ced1 543e
00000320: fd43 34bd cc4a acb9 fa88 323e ae2f b1bc
00000330: d7b7 e1bc f993 70bd e6a4 e63d 553c 663e
00000340: a875 a1be d6c9 6dbb 43ff c93d adf1 4d3e
00000350: ea7e 733e 1963 8c3e 69ba 713d 7900 873e
00000360: d056 123e 131d 493d f934 5e3e 7a0d a9bd
00000370: 9a95 c53d 2902 053e af99 dfbd 19df ecbb
00000380: 8ccc b7bd 015e 26bd a1c6 68be ef93 1cbd
00000390: 033e 21be fc74 073c 60af bd3c 2505 aabc
000003a0: d405 fabd 87e5 b7bc 5453 f93c df33 35be
000003b0: 623c b93e 9ef5 f8bd 9fdb b8ba a1b1 423c
000003c0: 3155 42be a55a d03c dd17 20bd 5881 3b3e
000003d0: 9356 4c3e 0217 cfbd 0963 9cbe c46a abbd
000003e0: 2b2e 45bd e564 f2bd 8947 cb3d b8b7 843d
000003f0: ea63 8fbe 4283 2abd 0513 c7bd e028 393e
0.0076851933 -0.066934854 -0.19575949 0.11978172 -0.082459584 0.20784874 0.0916193 -0.027065441
0.06913363 0.11953123 0.0060941316 0.1891434 0.07149157 0.25344104 0.22472101 0.15243594
-0.13902692 -0.2377241 -0.25829905 0.06943866 0.11525232 -0.037154473 -0.14894895 0.041474227
0.06983504 -0.030168645 -0.0526823 -0.005453432 -0.13867512 0.02179712 0.22521116 -0.18048076
0.2294713 0.09046658 -0.11405484 0.44582543 -0.015594663 -0.19009465 0.037076253 -0.15558141
-0.34824798 -0.2495633 -0.004352709 -0.22199129 -0.10688332 -0.21164154 0.09393802 -0.13345219
-0.13065271 0.008683763 -0.15822026 0.24780753 0.21462303 0.03394428 -0.089971036 -0.010519809
-0.31566024 0.08039882 -0.29779395 0.029141014 -0.026536392 -0.12190175 -0.25550035 0.14388804
0.09232896 0.03313865 -0.099017665 -0.055761315 0.005756743 -0.011251289 -0.12176316 -0.07415505
-0.022917965 0.13634151 0.08747851 -0.17931502 0.10548495 0.12314079 -0.07644397 -0.34353656
-0.0336546 -0.10833761 -0.09682854 0.054274816 -0.21894346 -0.097022675 -0.3032621 0.17335415
-0.2131028 -0.038103696 0.060133655 -0.06983915 -0.05683918 -0.093769945 0.057672318 0.23166005
-0.04468211 -0.06932907 -0.18937987 -0.08655932 -0.2397502 -0.10533651 -0.107715935 0.1799351
-0.22921455 0.05974909 -0.0678359 0.17836216 -0.11043828 0.25386554 0.1513836 0.2147839
-0.04213305 0.07399122 -0.24183066 -0.05121808 0.2735456 0.043881223 0.01446738 -0.2895612
0.03308215 0.13173959 -0.2877879 0.10245494 -0.05619501 0.15447178 0.15841725 0.10182693
-0.17576016 0.17105645 -0.13831745 0.26714206 -0.1186696 0.013468176 -0.13379475 0.17180718
-0.08605358 -0.06703956 0.16945484 -0.060116723 0.012372724 -0.045012794 0.07615192 0.023554137
0.38885817 0.13191073 0.016053913 -0.2653462 0.12683392 -0.27366737 -0.024453916 -0.25953156
0.18146974 0.062338702 0.080796234 -0.19268332 -0.114173725 -0.3206451 0.20955649 0.12609239
0.21145579 0.09579868 0.06662871 0.051728506 -0.17696486 0.24223602 0.016104592 -0.037752282
-0.051934104 0.10816697 0.28478587 0.030544277 0.032870483 -0.04631177 -0.21918389 0.1513953
0.12512422 -0.20514712 0.002064842 0.066862546 -0.07722791 -0.19480659 0.10960849 0.0959879
0.07679745 0.5227303 -0.12748207 0.293536 -0.2681288 -0.37381232 0.20284818 0.29816848
0.113859616 -0.21013603 0.1287895 0.26356772 0.15848765 -0.18400775 -0.2105623 0.20783159
-0.04401015 -0.00032862124 0.17435065 -0.02162918 -0.027553482 -0.058734868 0.11261921 0.22483952
-0.31535077 -0.0036283634 0.098631404 0.20111723 0.23778883 0.27419356 0.059015665 0.26367548
0.14290929 0.049099993 0.21699895 -0.082545236 0.09647675 0.12989105 -0.10917985 -0.0072287438
-0.08974561 -0.040616993 -0.22732021 -0.038227018 -0.15746312 0.008267637 0.023154914 -0.020754406
-0.12208143 -0.022448314 0.030435242 -0.17695569 0.3617888 -0.12156223 -0.0014103538 0.01188317
-0.1897781 0.025433848 -0.039085258 0.1831106 0.199549 -0.1011181 -0.30544308 -0.08369973
-0.048139732 -0.1183565 0.099257536 0.06480354 -0.28005916 -0.041629083 -0.097204246 0.18081999

network_body._body_endoder.seq_layers.0.bias f4 [128]
00000000: 8827 0dbc 7ff5 203d 375e 26bb cbf3 4aba
00000010: d3db b23d 96b5 cbbb 63e4 923c 333b 223b
00000020: 8a43 1bbb e3ce 6abc 4c8d 48bc d20e 813c
00000030: 4ed9 1dbc 1d55 3abb 5060 813b b5d6 3b3b
00000040: 5c8d b7bb 1a11 f73b 6e63 b3bc c1ee aabb
00000050: 391f 09bc e866 ff3c 1613 8d3c 7ee9 e2bb
00000060: ccd7 083d 536d 04bc 1059 503b 8536 cd3b
00000070: c905 81bc 7061 2e3c a5b2 1b3c f0a4 233b
00000080: fa5a d13b 4d01 a0ba a6f4 d93c 2238 5fbc
00000090: 8c69 57bc d563 98bb f27b 0c3c e112 773d
000000a0: de1d 69bb 2ce6 ab3c 59e5 163c ea5d d83b
000000b0: 3a1d 27bc cc23 943b 900d ddbb 228d 563d
000000c0: d277 563c dd63 1b3d 1fd6 72bc db48 0b3d
000000d0: d48a 9f3b 460f 143d 084d bc3c 9598 28bc
000000e0: d1c0 8a3c 6d81 aa3c bc14 40bc 8846 8aba
000000f0: de9c 54bc 9491 c93c b269 8c3d ea17 00bc
00000100: fd01 7b3d c220 ad3b 8eca 3dbc f954 d03b
00000110: 40c5 813c 5129 0dbc 8cf5 743c a170 fc3b
00000120: 55b6 d93c 24aa 6b3c 4d19 acbb 70d9 113c
00000130: 30c6 a0bc 31ff 9bbc f1a2 ec3c 1ca0 f93c
00000140: b438 703c e0dd 643b 660a 4a3c f5dc 253b
00000150: 7b96 073c 2102 053a fc49 5e3c 8826 e83c
00000160: 4669 61bb 6a71 e83b 7505 5b39 4dbe 0e3c
00000170: 933f 04bc bc90 253d db78 d13b 75ba babc
00000180: 1498 8d3c fc83 90bc 169c d23c b80e 76bc
00000190: 0349 913c a645 823c ff57 3e3b bb4a d5ba
000001a0: 54ff e03c 8e69 28bc fc3d 753d 15c5 23b8
000001b0: 1893 063b c786 b93c a74d 593c a6f9 e0bb
000001c0: e92b 86bb fa70 f8bb dfce 213d d9ee ed3b
000001d0: c345 973a 1f48 9cbc 48e7 4c3c 201b c33b
000001e0: fcc0 aa3b 78e2 9fbc cdc3 cabb f1c1 343a
000001f0: 076f 58bc 9ec3 ba3c 4f1d 0b3d 0ffd 553c
-0.008615382 0.039296623 -0.0025385746 -0.00077420165 0.087333344 -0.006216715 0.017931169 0.0024754524
-0.002369138 -0.014331552 -0.012240719 0.015754137 -0.009634329 -0.002843208 0.003948249 0.002866191
-0.005601568 0.0075398805 -0.021897998 -0.00521645 -0.0083692605 0.031177 0.017221015 -0.006924807
0.033408925 -0.008082706 0.0031791367 0.0062626028 -0.015749829 0.010643348 0.009503041 0.0024970137
0.006389019 -0.0012207419 0.026605915 -0.013624223 -0.013147723 -0.004650573 0.008574473 0.06032074
-0.003557078 0.020983778 0.009209954 0.0066029923 -0.010199839 0.004520869 -0.0067460015 0.05238069
0.013090091 0.037937034 -0.014821558 0.034005027 0.0048688445 0.03614738 0.02298595 -0.010290285
0.016937645 0.020813668 -0.011723693 -0.0010549584 -0.012976853 0.02460555 0.06856097 -0.007818202
0.061281193 0.005283446 -0.011583937 0.006357786 0.015841126 -0.008615808 0.014951121 0.007703856
0.0265762 0.014383826 -0.0052520395 0.008901939 -0.019625753 -0.019042583 0.02888629 0.030471854
0.014661957 0.0034922287 0.012331581 0.0025308703 0.008275623 0.00050738646 0.013567444 0.028338686
-0.0034395023 0.007093598 0.000208875 0.008712363 -0.008071798 0.040421233 0.006392581 -0.022793988
0.01728443 -0.01764106 0.025709193 -0.015018158 0.01773501 0.015902352 0.002904415 -0.0016272882
0.0274655 -0.010279072 0.059873566 -3.9045775e-05 0.0020534452 0.022647275 0.013263143 -0.006865698
-0.00409459 -0.007581827 0.03950393 0.007261139 0.0011541176 -0.019077359 0.012506314 0.0059541613
0.005210994 -0.019517168 -0.006187892 0.00068953546 -0.013210065 0.022798356 0.033963498 0.013060822

network_body._body_endoder.seq_layers.2.weight f4 [128, 128]
00000000: 3677 9d3d 3dc8 8fbd 342a 083c 48cd 7a3d
00000010: 1880 f6bd 1bf4 83bc c129 3abd 134d 083d
00000020: cb0e 8c3d 85c8 07be b2b0 f3bc 8d4d 9d3c
00000030: c8aa ea3d 7790 3fbd df81 8e3d 1878 a83d
00000040: ef32 f1bd 68ba 933b 90b3 db3d 4b9f c5bd
00000050: e5ad f43c dea3 843d 436f 9abd 2be8 0bbd
00000060: 6560 d9bd 41b7 36bd 2383 743d 757e f53c
00000070: daf7 3d3c a9de 2ebd 752f 653c 95bb e63d
00000080: 04a9 443d 3a14 91bd 8ca5 973d 8ee9 76bd
00000090: 635d 563d 654d b33b 7edf efbd 807f f5bc
000000a0: e261 3a3d 6bba a53d 23a2 4738 91bb 043c
000000b0: 7be7 5abd c8ff be3d 9b7c bab8 de8a ff3d
000000c0: 4d3a 18bd 372c 29be 9c93 d7bd 4e9e 333e
000000d0: e9c8 423d e3f0 f2ba 2043 09be e31b af3c
000000e0: 8462 66bd 5cb7 d23d f0d7 fe3c 0218 2bbd
000000f0: 04e2 cb3d 4cdb fe3b e578 f8bd 9a92 f63c
00000100: 3437 ddbd 5b59 08bd 4aac a1bc c36f 753d
00000110: a5f2 c0bc 679e bbbd 4498 89bd a9f8 1cbe
00000120: 8b11 183c 66e2 223d c24b 15bd 98c9 a8bd
00000130: 7fef 41bd 6a84 4a3e 85fd 903d 35c8 163b
00000140: 7b42 67bd dd7f 15bd 1a9e 503a 0349 c8bc
00000150: b820 eb3b e0e8 24be 296c a5bd 4d31 ccbd
00000160: 0e88 0bbd 1e68 0ebe a4cf fe3b 6b3e 0f3e
00000170: 729e b13b 0297 abbd bf7d 983b 285c b8bc
00000180: 8530 d5bd 944d 1a3e 93c4 9a3c b258 29bc
00000190: b727 babd e655 743c f41f 3fbb 7b17 f23c
000001a0: b2b4 89bd 4f01 2cbd 730d d2bd 4aad c5bd
000001b0: b594 453d fb0e 043e 58de 423d 1a5b 1c3e
000001c0: 5363 463d d3ec ffbc c9b6 d8bc a04f 89bd
000001d0: 80aa f03d b28b ddbc 3ed0 833d c1a9 c4bb
000001e0: e2c1 373e 9897 52bd 48ca 0cbd 942a 80bb
000001f0: 7c40 97bd abf2 1b3b 938d ac3d bdcf 26be
00000200: 0f88 94bd 34d9 f9bd a2c2 343c 58c3 773d
00000210: b8b5 ed3d 9105 a1bc 0fb0 32bc 4322 b4bd
00000220: 2d4d 0b3e accf 88bc 73b8 e73d dbb0 0abd
00000230: 0ea6 04bd 254c 59be 1d4d 3cbe 1c02 debd
00000240: 9122 763c e4a4 433d 37be d93c 0f95 663d
00000250: f56f dc3d 99af 82bd 5964 30be afea fc3c
00000260: 4956 27be be5a acbd 8e2e 9ebd e005 cd3d
00000270: 9a69 fa3d cf28 adbd 6957 713e aebc 4f3c
00000280: a35d a4bd 645e f13d 913f 8d3d b3aa f73d
00000290: 5230 f03c a986 6abd dcaa bc3d c85b 6d3c
000002a0: aec9 c0bd d446 bb3c fbb0 223d f9a4 84bd
000002b0: 7db7 82bd eaa8 3e3d 9de9 183d 88f8 c0bd
000002c0: 0832 ac3d bafa b63c e881 a93c fa06 353e
000002d0: 7366 28be b598 99be 3d53 033e 1b71 c43d
000002e0: 9b2a 06be b61e fa3d 28b4 553d 3a3c 32bb
000002f0: 3be9 133e 48a2 3b3e 894d 053a 5c29 043b
00000300: 5753 fcbb 6922 87bd c593 813d f0a2 8cbd
00000310: d225 2c3d 05d1 dc3d 4445 203e 88b2 c03d
00000320: 76fd cd3d 7771 a13d 69af d4bc 088d 643d
00000330: 6892 8c3d d67b 01bd c234 8b3d 8c4e 853d
00000340: 35f1 c13c c38b 0b3e bd6e 913d caa4 f03c
00000350: 9d66 18bd 158c 1f3c d59a 3e3d 923e 7fbe
00000360: 2ea0 1a3e 8a01 8dbd ee10 cdbc 1678 9d3c
00000370: 0407 633d 9ecd 91bc d41f aabd a09a 0abd
00000380: c1f7 43be cc52 42bd ff2d e33c ec10 43bd
00000390: 498b d6bd 472e 1cbd a18e 013e 769d f5bd
000003a0: 2d02 b3bd acb9 96bd e941 e5bd 8eb2 65bd
000003b0: 7985 f43d c9bc 8a3d 7212 fe3c 3d00 283d
000003c0: c9fa 99bd 9125 423d 72ba 00be 8f21 9d3c
000003d0: 9c3f b0bd 82e3 62bd 02a3 dd3b 026f fd3d
000003e0: e6dc d13d 34dc 46bc 7f5f 91bc 442a 27be
000003f0: 2d8e 92bc 53f2 2b3d 562d cfbd 4a2e fb3d
0.07688753 -0.07020614 0.008310843 0.061230928 -0.12036151 -0.01610761 -0.045449976 0.03327663
0.06838759 -0.13260086 -0.02974734 0.019202018 0.11458355 -0.04676863 0.06958365 0.08226031
-0.11777293 0.0045083053 0.10727608 -0.09649523 0.029868076 0.06476568 -0.07540753 -0.03415696
-0.10614089 -0.04460836 0.059695374 0.029967526 0.011594737 -0.042692814 0.013988365 0.11266247
0.04801275 -0.07083936 0.074046224 -0.06028133 0.052335154 0.0054718726 -0.117125496 -0.029968023
0.045503505 0.08092197 4.75963e-05 0.00810136 -0.053443413 0.0932613 -8.892381e-05 0.12477659
-0.037164975 -0.16520773 -0.10526201 0.17540857 0.047554884 -0.0018534925 -0.13404512 0.021375602
-0.056246296 0.10288879 0.031108826 -0.041770943 0.099552184 0.007777607 -0.12132434 0.030099202
-0.10801545 -0.03328834 -0.019735474 0.059921037 -0.023553202 -0.09161072 -0.067184955 -0.15329231
0.009281526 0.03976669 -0.0364492 -0.08241576 -0.047347542 0.19777074 0.07079605 0.0023007516
-0.056459885 -0.036498893 0.0007958129 -0.024448877 0.0071755312 -0.1610446 -0.080772705 -0.09970341
-0.0340653 -0.13906905 0.0077762175 0.13988654 0.0054204995 -0.08378412 0.004653662 -0.022504881
-0.10409645 0.15068656 0.018892562 -0.010336088 -0.09089606 0.014913058 -0.0029163333 0.029552212
-0.06723918 -0.041993435 -0.102564715 -0.09652193 0.04823752 0.1289634 0.047575325 0.15269127
0.048434567 -0.031240856 -0.026454346 -0.067046404 0.1175127 -0.027044151 0.064362034 -0.0060016816
0.17945054 -0.051414102 -0.034372598 -0.0039113257 -0.07385346 0.0023795764 0.08425441 -0.16290183
-0.072525136 -0.12199631 0.011032732 0.06048903 0.11606926 -0.019655975 -0.010906233 -0.087955974
0.13603659 -0.016700588 0.11314478 -0.03386007 -0.032384925 -0.21220453 -0.18388791 -0.10840246
0.01502289 0.047764674 0.02657996 0.056294497 0.107635416 -0.06381149 -0.1722578 0.030873625
-0.16341509 -0.08415745 -0.07723723 0.10010886 0.12227173 -0.08455049 0.235685 0.012679262
-0.08025672 0.11785582 0.0689689 0.12093105 0.029319916 -0.05725733 0.09212276 0.014487214
-0.09413467 0.022860922 0.039719563 -0.064767785 -0.06382654 0.046547808 0.037332166 -0.094224036
0.0840798 0.022336353 0.020691827 0.17678443 -0.16445331 -0.2999932 0.12824722 0.09591886
-0.1310219 0.12212889 0.052173764 -0.0027196542 0.14444439 0.18323624 0.0005085101 0.0020166254
-0.0077003646 -0.0659836 0.06327013 -0.06867015 0.042028256 0.10782055 0.15651423 0.09409052
0.100581095 0.0788297 -0.025962548 0.05579856 0.06863862 -0.03161224 0.06797172 0.06509122
0.023674587 0.13627534 0.071012 0.029375453 -0.037207235 0.009737988 0.046534378 -0.24926212
0.15100166 -0.06885059 -0.025032487 0.0192223 0.055426612 -0.017798241 -0.08306852 -0.03383887
-0.1913748 -0.047442243 0.027731894 -0.04762356 -0.10475785 -0.03813007 0.12652065 -0.11992924
-0.08740649 -0.07359633 -0.11194212 -0.056078486 0.119395204 0.06774289 0.031014655 0.041015852
-0.075185366 0.047399107 -0.12571123 0.019181041 -0.086058825 -0.05539275 0.006763817 0.12374689
0.10247211 -0.012137461 -0.017745731 -0.16324717 -0.01789006 0.041979145 -0.10116069 0.12264688

network_body._body_endoder.seq_layers.2.bias f4 [128]
00000000: f09b 21bc b932 443c 0655 433c cea3 00bc
00000010: 6451 483b 86a6 3eba c0fe af3b 4d25 e2ba
00000020: 24b1 72bc bbbf 513c 9cd1 acbb e0de 13bc
00000030: 0f2a 59bb 46b5 563c e351 83bc fcd7 28bc
00000040: 067c 8b3c 28a8 60bc 9e9f 513c de27 8f3c
00000050: 4888 4a3c 665b 84bc 9970 053b 8f82 a938
00000060: a0b2 fe3a 9e52 7a3c b3d0 73bc 4831 74bc
00000070: 49ea af3c b9d0 9a3c 0536 af3c c9ee 81bc
00000080: 3615 c13c 511a fe3b fc8e 91bb b6fe c33b
00000090: 92c2 87bb a521 a93c fd24 20bc e15d 6aba
000000a0: 3ac7 38bc ee82 613a 8106 78bc 07fd 393c
000000b0: cfd6 c4bb cdd7 39bc 12f5 a5bb 7e37 ef3b
000000c0: e2c2 ecbb b4f6 ef3b 49e2 2f3c e552 49bc
000000d0: 5c6b 4b3c bf79 f93a fe01 55bc 3922 ecba
000000e0: 3e41 943c 00f9 cabc 58b3 dd3c 9275 4f3b
000000f0: c292 e93c f2d6 73bc a2a1 0e3c 5304 ff3c
00000100: 0918 76ba 6203 8abb 6c80 b93b 9732 fdbb
00000110: c0cf 1bba 17cc 98bb 50e1 013b c076 19bc
00000120: 3c12 aa3c 78e2 533c 13fc 2d3c e986 0dbb
00000130: e513 a63c 8ec8 8b3c dffe 0c3d 92f1 4eba
00000140: 4732 bc3c e1f4 f8bb 24ab c439 626a 103d
00000150: 4d4b 143c 5650 42bc 6525 073d 03dd 753b
00000160: 771c 8a3c 7b13 ad3a 4350 b1bb 5a0b 8dba
00000170: 50bf fcbb 1722 1dbb 50ba 1aba e58d 463b
00000180: 5664 e33c 54d8 e33b 58d7 9b3b a8b5 a6bc
00000190: 7639 c9bb 3687 f83b 6a53 b63b a88b 783c
000001a0: 2f5f 943c f201 d63c d989 adbb d5b5 34bc
000001b0: 5f33 a33b 498f 883c 764f 53bc 83dc ab3c
000001c0: 8a08 23bc 6b17 91bc 0a72 c23b 15aa f239
000001d0: 172c ccbb 017d 97bb 9fdb ab39 a8ee a5bb
000001e0: e3b9 7abc 0492 1bbb 34e7 463c db96 763c
000001f0: c0b2 c0bb bf25 33bc 41b5 203c 7f4b 06bc
-0.009863839 0.011974984 0.011922127 -0.007851554 0.003056609 -0.0007272739 0.0053709447 -0.0017253548
-0.014812741 0.01280206 -0.005274011 -0.0090253055 -0.003313664 0.013104742 -0.016030258 -0.010305401
0.017026912 -0.013711967 0.012794403 0.017475065 0.012361594 -0.016156863 0.0020361303 8.0828664e-05
0.0019431897 0.015278487 -0.014881301 -0.014904328 0.02147402 0.018898355 0.021388063 -0.015860932
0.023569684 0.007754602 -0.004442094 0.0059812916 -0.0041430676 0.020645926 -0.009774444 -0.00089403806
-0.011277968 0.0008602579 -0.015138269 0.01135183 -0.0060070525 -0.011342955 -0.005064615 0.0073003164
-0.0072253803 0.0073231105 0.010735103 -0.01228783 0.012415733 0.0019033476 -0.013000963 -0.001801557
0.018097516 -0.024776936 0.027063057 0.003165577 0.028512362 -0.01488279 0.008705528 0.031129992
-0.0009387737 -0.004211829 0.005661061 -0.007726978 -0.0005943738 -0.0046630013 0.0019818135 -0.009366691
0.020760648 0.012932412 0.010619181 -0.0021595305 0.020273158 0.017063405 0.03442275 -0.0007894273
0.022973193 -0.007597551 0.00037511543 0.035257705 0.009051156 -0.011859974 0.032994647 0.0037515766
0.016859276 0.0013204658 -0.0054111793 -0.0010760829 -0.007713236 -0.0023976618 -0.00059023965 0.0030296978
0.027757805 0.0069532786 0.0047558956 -0.020350292 -0.006140883 0.007584478 0.005564143 0.015170015
0.018111793 0.026123974 -0.0052959737 -0.01102968 0.004980489 0.016669886 -0.012897363 0.020979172
-0.009950766 -0.017711362 0.0059340047 0.00046284558 -0.006230842 -0.004623056 0.00032779292 -0.0050638504
-0.015303108 -0.0023738155 0.012140084 0.015050615 -0.0058806837 -0.010934292 0.009808839 -0.008196711

action_model._continuous_distribution.log_sigma f4 [1, 2]
00000000: eacd 1abc d65a 65bb
-0.009448508 -0.003499677

action_model._continuous_distribution.mu.weight f4 [2, 128]
00000000: e46d 453a 4365 fcbc 3dc7 883c 5cea 773b
00000010: 4dd7 013c a9d8 0b3d 9b7b e3bb 15f8 2a3d
00000020: bd0e 503c ad3e 393d 1f3f eebc a73a 3d3c
00000030: a7a0 ffbc 6ec5 e2bc c9ac 0e3c 15ee dd3c
00000040: 2b3a 4fbd 1cca 923c b056 f33c 4c0f 55bd
00000050: 5b06 c3bc dfea d73c 8a9d 71bc 0a25 293d
00000060: 44f3 703c 8a92 2f3c 8253 163d 57a2 8e3b
00000070: a698 b4bc ac55 393d aa81 80bc 1892 a73c
00000080: 233d 75bd d4df 9e3c 4579 3f3d 1907 863d
00000090: f02b fabb 3bbd 8a3b 5960 e23c 1566 73bc
000000a0: c58f 5b3c 3f27 afbc 87d8 1f3d e9c3 9fbb
000000b0: cd24 3c3d 9f6a c63c efb8 df3c 869e c1bc
000000c0: 3358 003c 9b2d ef3c 3c28 e6bc f417 3e3d
000000d0: 074e 08bc 0072 c63b 4fec a63b ef7c 26bb
000000e0: f873 043a a5dd 533c c2e4 343d a7de c2bc
000000f0: 1984 15bc a196 2dbc babc d03b 1a15 e5bc
00000100: 6d5c 08bd face 4e3c 6a19 343d 3bcd d73c
00000110: 377b 3f3d cd61 c2bc 65e5 9c3d e85a 40bd
00000120: bbfb 0fbd 7545 db3d 5ede 273d f4fc 1f3d
00000130: 8823 a1bc 7f54 2fbd 8b93 a9bb 8ff8 fe3b
00000140: e6cb 6ebd e309 0e3c 6643 93bc 0b60 5ebd
00000150: c5fa ed3b 63fe 663d 623c cdbc 45bb 173d
00000160: 4ca3 13bd 839a 923c 6ec3 2a3d 0ab9 80bb
00000170: 7cdb 523d ddf3 be3c 9a79 3d3d 1f02 cc3a
00000180: bf42 013d ee43 243c ff06 a63c aa98 4b3c
00000190: bd18 b5bb 7f6b 0bbd 320d 133d 8ada 31bd
000001a0: cba0 15bd 4444 eb3c 2ec3 4f3d aab6 46bb
000001b0: bcce 93bb e3eb 41bd 0bdd a7ba 1f88 f9bc
000001c0: c33b 233d 6538 9e3c 9045 d8ba 5579 423c
000001d0: 98c2 443d 8266 163b 9271 db3b 9828 353b
000001e0: 4f26 efbb c7e4 af3c a069 25bd f2f2 05bd
000001f0: 3a74 9c3a a991 1b3d 54de 3cbd 2be8 4f3d
00000200: 255e 44bc a27e b8bc 48bd 523c e281 aabc
00000210: 3c07 0cbd ac9c c8bc 9f71 0d3d 6e35 f0bc
00000220: 2b19 acbc 8534 87bd eb9b c6bc 7a10 11bc
00000230: 1c5c 6dbb 9e99 8f3b f250 44bd 578d efba
00000240: 6d77 873b 655b dabc 4a2e 503d 4ce6 413b
00000250: 9c1c 51ba de49 16bd 2c5b 20bd 50b4 91bc
00000260: d564 893c 72e3 94bd f758 3cbc 2379 9e3c
00000270: ea83 d43c 70b7 3c3d aa58 3d3c 24b7 23bd
00000280: 3227 54bb 41d5 9abd 800c 58bd 22ea 6dbb
00000290: 224e 01bd 17c4 2c3d 8d3c 9cbc 1035 30bc
000002a0: 427b 84bc 3ada acba d715 57bc 5141 04bd
000002b0: 5457 543c 42fe 95bc 3949 01bc 43d6 30bc
000002c0: 193e 66bd e1ec 1c3c b698 d13b 4e11 5bbc
000002d0: 5e7f f73c 5d33 a13b aab6 d0bc e550 4b3c
000002e0: c90e 9ebd 4ffe 59bc ef3d 88bd 8117 4fbd
000002f0: de34 753d ed68 cebb 3014 af3c fe08 0d3d
00000300: 6930 18bd d229 0cbd e402 3cbd 210b 0bbc
00000310: 0c5e d63b 086c eebc 7757 23bc 238b 21bd
00000320: d70c 373d ec6c 81bd 59f0 aa3c b885 333c
00000330: 3920 b5b9 fb2a c83b 3925 443d 40ce 87bc
00000340: dd20 773c b1e1 85bb be21 25bd a572 b4ba
00000350: f508 88bd a66a 6cbb dca9 653d 2843 07bc
00000360: f11b 113d 632f 7ebb 09d5 90bc f8c4 f8bc
00000370: 9a8c 68bc bd1e 5c3c 7509 f4bb 5374 c3bb
00000380: 70b6 0e3d ed1f 41bd 19b1 863c 3546 17bc
00000390: 1f23 debc a643 84bd 0071 7a3c 4f21 6cbc
000003a0: 850d e63c 4400 99bd 30a3 0e3b 63a8 33bd
000003b0: a51e cd3c 5128 033d 7cf4 6fbc a683 b3bc
000003c0: 3f33 3abd 674a 85bc 5774 e73c 0133 13bd
000003d0: 59e3 c139 1ed4 ca3b cdde 26bd b832 91bd
000003e0: cb41 12bd 63dd 14bd ded3 b53c 4344 653d
000003f0: 718c 0cbd 1dd8 dfbc 3249 61bd 9fcd 13bc
0.00075313286 -0.030810004 0.016696567 0.0037828898 0.007924867 0.03414217 -0.006942225 0.041740496
0.012698826 0.045225788 -0.029082833 0.011549628 -0.031204535 -0.027682032 0.008708187 0.027091065
-0.050592583 0.017918639 0.029704422 -0.05201654 -0.023806741 0.026357112 -0.014747033 0.04129509
0.014706437 0.01071609 0.036700733 0.0043528485 -0.022045445 0.04524772 -0.015686829 0.020455405
-0.059872758 0.019393839 0.04674651 0.065443225 -0.0076346323 0.004233984 0.027633833 -0.014855881
0.013400977 -0.021381019 0.039024856 -0.004875649 0.045933533 0.024220763 0.027309863 -0.02363516
0.007833528 0.029196551 -0.028095357 0.046409562 -0.008319384 0.0060560703 0.005094088 -0.0025404056
0.0005052681 0.012931262 0.044163473 -0.02378781 -0.009125733 -0.010594995 0.006370154 -0.027964164
-0.03329127 0.012622589 0.04396955 0.026342979 0.046748366 -0.023728276 0.07660941 -0.046961695
-0.03515218 0.10706607 0.04098355 0.039059594 -0.019670263 -0.04280519 -0.005175059 0.0077810953
-0.05829992 0.008669349 -0.017976474 -0.054290812 0.00726256 0.056394946 -0.025053207 0.03704383
-0.036044404 0.017895943 0.041690283 -0.0039283084 0.051478848 0.023309642 0.046258546 0.0015564597
0.031557795 0.010025961 0.020267008 0.012426535 -0.0055266307 -0.034038063 0.035901256 -0.043421306
-0.036530297 0.028719075 0.050723247 -0.0030321279 -0.0045107286 -0.0473441 -0.0012806965 -0.030460415
0.039851915 0.019314 -0.0016500223 0.011869748 0.04803714 0.0022949283 0.0066968882 0.0027642604
-0.007298268 0.021471394 -0.040383935 -0.032702394 0.0011936494 0.03798071 -0.046110466 0.050758522
-0.011985336 -0.02252132 0.012862511 -0.020813886 -0.034186587 -0.02448877 0.034532186 -0.029322352
-0.021008095 -0.06601814 -0.02424427 -0.008854026 -0.0036218232 0.0043823263 -0.047928758 -0.0018276375
0.0041341097 -0.026654908 0.050825395 0.002958673 -0.00079769804 -0.03669154 -0.03914945 -0.017786175
0.016771713 -0.07269944 -0.01149582 0.019344872 0.025941808 0.046073377 0.011556784 -0.03996958
-0.0032371995 -0.07560206 -0.052746296 -0.0036302884 -0.031568654 0.042179193 -0.019071842 -0.010754839
-0.016172055 -0.0013187595 -0.013127766 -0.032288853 0.012960274 -0.018309716 -0.007890993 -0.0107932715
-0.056211565 0.009577961 0.0063963784 -0.013370825 0.0302121 0.004919453 -0.025477726 0.0124094235
-0.07717664 -0.013305261 -0.06652438 -0.050559524 0.05986487 -0.006299129 0.02137193 0.034432404
-0.037155543 -0.03421957 -0.045901194 -0.00848654 0.006541973 -0.029104248 -0.009969584 -0.03943933
0.04468998 -0.06319603 0.02086656 0.010957174 -0.00034547018 0.0061086393 0.04788706 -0.01657784
0.015083519 -0.0040857424 -0.040315382 -0.0013767077 -0.066423334 -0.003607431 0.056070194 -0.008255757
0.035427038 -0.003878557 -0.017679708 -0.03036736 -0.014193678 0.013435063 -0.0074474164 -0.0059647947
0.034841955 -0.047149587 0.016441869 -0.009233047 -0.027116356 -0.064582154 0.01528573 -0.014412238
0.028082618 -0.07470754 0.0021764748 -0.043861758 0.025039027 0.03202087 -0.014645692 -0.02191336
-0.04545903 -0.01627083 0.028253717 -0.035937313 0.00036981216 0.006189837 -0.040739823 -0.07089752
-0.035707276 -0.036343943 0.022195753 0.055973303 -0.034313623 -0.02732473 -0.055001445 -0.009021192

action_model._continuous_distribution.mu.bias f4 [2]
00000000: 7696 e5bb 19b5 823c
-0.0070064617 0.015955495

action_model._discrete_distribution.branches.0.weight f4 [5, 128]
00000000: 0b6c c9ba ffcf 7abc 5409 0eba 1eee 21bb
00000010: da3a 31bc 06d2 64bc ae77 503a eac1 9dbc
00000020: d445 b93b cd32 88bc 4574 8ab8 0ee3 09ba
00000030: 27a6 13bc 5799 8ebb c705 73bc 6ba4 2e3a
00000040: 1fd4 aa3c 0092 923c 26c7 173c 521b 85ba
00000050: 4f6c 173c 1bda 2b3c 41b6 9cbc 221c c63a
00000060: 0313 f4bb ddfd 8bbc c0ce 3bbc 38f5 edbb
00000070: c938 333c 9d2f 103b ffaa a03c 2694 383c
00000080: 355a 983b 9806 9cbc 9832 113c 9741 8dbc
00000090: 7c80 a2ba 77c3 823b 5cd8 0c3c a49a ba3a
000000a0: 938d 82bc 9d3f b0bc 34bd 25bc 1058 6cbc
000000b0: a615 8e3b 39f2 ab3b 2f6c ab3b fe2f 3f3c
000000c0: 920f 9d3c f3ff d03a ecc1 6abb 6fd7 a93b
000000d0: 63e6 5d3b b9d9 abba 4373 943c d138 39bc
000000e0: 52cb 30bd 38a9 91bb b4c2 d43b 8408 0ebd
000000f0: 8c3f 5dbc 1478 153c ad9e f43b f661 8a3c
00000100: c40b e3bb e3d2 8bbb df34 8dbc a566 f63a
00000110: 5ac4 42bc 4e55 803c 082e ae3b 86cf 50bc
00000120: 7d4c d7bc 68e1 b9bc d5ff 1c3d 9a86 1f3c
00000130: 5321 703c 7422 f63b 39e0 29bc 6a2a 40bb
00000140: c0a8 a03c d1a1 52bc 772a 26bc dcd1 0a3c
00000150: 4b63 85bc 588c 143c 7ba0 82bc 29ea dfbb
00000160: 87fa 61bc eb74 a6bb de97 ea38 0850 823b
00000170: 13ee 1c3c 8019 8c3c 60c1 3239 e092 1f3a
00000180: 7b6b a0bc 1c74 94bc 8ebb b43b 7f9c e43a
00000190: 589b a6bc 020b 293c 30af fcbb abd7 643c
000001a0: 0164 053b 3dfb 22bc 360c 81bb df69 e2bb
000001b0: a221 5f3c 84d4 fd3a e191 003c 173c 3bbc
000001c0: 0065 4cbc 0a60 45bc 1274 baba 6a4f 51bc
000001d0: 0903 d6bb 7147 f5bb b6b4 853c 298b aabc
000001e0: 371c 40bb 33d2 6e3c 8a3d 08bc de5a 31bb
000001f0: 3ae5 e938 fe1f 32ba 477e a9bb 48c5 453c
00000200: 38f2 fa3b eed3 25bc 7983 ccbc 827c bc3b
00000210: ea9d 9f3c ae15 01bc 2b99 35bc 9317 b9bb
00000220: 8df4 1e3c 6b17 0cbc 966c 4b3b 8b7d 213c
00000230: 6a26 0ebc bb1e babc f40e 103d 2efd 523b
00000240: 2b6d ab3b aeb8 1b3c ca98 d23b 079a f03a
00000250: 230d ae3b 9784 62bb 1f66 49bb a67f a439
00000260: 65e0 afbb af2a 633a 183e a6bc c2f4 e93b
00000270: 716b 423b 463f 45bb ef0c b3bc 42c4 273c
00000280: ca96 37bb dbdc e7bb 0abb a63b 1d8c c2bb
00000290: d740 8cbb 5da5 323b fe06 18bc ff79 a83b
000002a0: c0b0 1fbb fa66 3f3c d0e0 293c 2cfc 5c3b
000002b0: 8ff0 a9bc 39f8 a33b 7aec 19bb f74f 123c
000002c0: a0f8 783b a8c2 5d3c e22d dc3a e7c7 efbb
000002d0: 844c 4d3c 0e71 8e3b 9648 a7bb a896 68bc
000002e0: 57e5 b33c db77 9fbb dbb9 fb3b b271 7a3b
000002f0: fb7f 903b 6d38 003c 284c 04bb eeac 4abc
00000300: 363b 063c 8385 20ba f8c3 3bbb d6c3 363b
00000310: 39c0 523b 38d4 16bb f685 11ba dcf8 693c
00000320: f2f1 683c 7582 14bc 290e e43a fa02 933c
00000330: 5fb9 753c 815e 973c fc98 3cba ca22 b33c
00000340: 895e 48bc ee95 7d3c 1241 153b 41c8 433c
00000350: bbbb 853b f31f 96bc 13bd 4dba 0ddf 06bc
00000360: e073 f3bb 14ae f83b 59eb 003c f4a7 c9bb
00000370: 5409 33bc 4a66 503c ef53 2a3c 38de b639
00000380: 0a1a a3bb fbd3 3f3c 8c58 19bc 742f 063c
00000390: d1d9 003c a258 a3ba 6a04 81bc 7d14 91bc
000003a0: 9cd6 4f3b c7f1 0dbc 1e0c e43b 0cf0 9fbb
000003b0: 9131 82bb b39b 18bc 0143 83bb a18b 913b
000003c0: 4039 393c 7f46 333a 7b12 503c 58e9 20bc
000003d0: b98f 633a 8144 b6bc 6eae 073c ce72 c3bb
000003e0: 878b 4a3c bed3 013c 1551 84bc 13c6 8f3b
000003f0: a8fa 95bc af22 a53b 4ac0 c1bb c855 913b
-0.0015367282 -0.015308379 -0.000541826 -0.002470858 -0.010817254 -0.013966089 0.0007952404 -0.019257504
0.005654076 -0.016625786 -6.60201e-05 -0.0005259969 -0.009011782 -0.0043517756 -0.01483292 0.00066620734
0.0208531 0.017891884 0.009263789 -0.0010155237 0.009242131 0.010489012 -0.019129874 0.0015114585
-0.0074485554 -0.017088825 -0.011462867 -0.0072618984 0.010938832 0.0022001036 0.019612787 0.01126579
0.0046494254 -0.019046113 0.00886216 -0.01724319 -0.001239791 0.0039905864 0.008596506 0.001423676
-0.015936648 -0.021514708 -0.01011591 -0.014425293 0.004336077 0.005247381 0.0052314023 0.011669157
0.019172464 0.001594542 -0.0035821153 0.0051831524 0.0033859245 -0.0013111151 0.018121367 -0.01130505
-0.04316265 -0.0044452213 0.006492937 -0.03467609 -0.01350392 0.009122867 0.0074652047 0.016892415
-0.006928893 -0.004267083 -0.017237125 0.0018798901 -0.011887634 0.015665676 0.005315546 -0.01274479
-0.02628159 -0.02269049 0.038329918 0.009736681 0.014656383 0.0075114314 -0.0103684 -0.0029322156
0.019611716 -0.012855963 -0.01014196 0.008472886 -0.016282698 0.009066664 -0.015945664 -0.006833334
-0.0137926405 -0.0050798557 0.00011186277 0.0039768256 0.009578246 0.017102003 0.0001704744 0.0006087255
-0.0195825 -0.018121772 0.0055155223 0.0017441659 -0.020337746 0.010317566 -0.0077113137 0.013967435
0.0020353796 -0.009947595 -0.0039382232 -0.0069095935 0.0136188585 0.0019365703 0.00784728 -0.011427901
-0.012475252 -0.012046823 -0.0014225265 -0.012775281 -0.0065311235 -0.007485323 0.016321521 -0.02081831
-0.0029313692 0.014576483 -0.008315453 -0.0027062218 0.000111530026 -0.00067949283 -0.005172524 0.012070961
0.0076582693 -0.010121329 -0.024965035 0.005752147 0.019484479 -0.007878704 -0.011083881 -0.005648562
0.00970186 -0.008550505 0.0031040064 0.009856592 -0.008676151 -0.022719732 0.03517051 0.0032194364
0.0052315197 0.00950448 0.0064269053 0.0018356451 0.0053116246 -0.0034563893 -0.0030731035 0.00031375623
-0.005367326 0.0008665723 -0.02029328 0.007139773 0.002966609 -0.0030097528 -0.021856753 0.010239663
-0.0028013461 -0.0070758886 0.0050882148 -0.005937113 -0.0042801904 0.0027259209 -0.009279011 0.005141496
-0.0024366826 0.011682266 0.010368541 0.0033719642 -0.02074459 0.0050039557 -0.0023486898 0.008930198
0.003798999 0.013535179 0.0016798342 -0.0073175314 0.01253045 0.0043469733 -0.0051050885 -0.0141960755
0.021959944 -0.004866583 0.007682068 0.003821474 0.0044097877 0.007825953 -0.0020186994 -0.012370331
0.008192828 -0.00061234104 -0.0028650742 0.0027887723 0.003215803 -0.0023014676 -0.0005551273 0.014280524
0.0142178405 -0.0090643065 0.001739924 0.017945755 0.014997809 0.01847768 -0.00071944273 0.021867175
-0.01222957 0.015477641 0.002277438 0.0119496 0.004081217 -0.018325781 -0.00078483036 -0.00823189
-0.007429585 0.007589111 0.007868611 -0.006154055 -0.010927517 0.0127197 0.010395988 0.0003487931
-0.0049774693 0.011708255 -0.00935949 0.008190025 0.0078644315 -0.0012462328 -0.015749175 -0.017709965
0.003171361 -0.008663601 0.0069594523 -0.0048809107 -0.003973194 -0.009314465 -0.00400579 0.004441694
0.011305153 0.0006838813 0.012699719 -0.0098212585 0.0008680779 -0.022249462 0.008281333 -0.0059646135
0.0123623675 0.007924018 -0.016151944 0.004387626 -0.018307999 0.005039535 -0.005912815 0.0044352747

action_model._discrete_distribution.branches.0.bias f4 [5]
00000000: 728e 1b3c 4212 f13a 44f7 dbbb c40e 783b
00000010: 4238 e5bb
0.009494411 0.0018392282 -0.006712826 0.0037850598 -0.006995232

exp_avg f4 [128, 38]
00000000: 91f9 1b37 0000 0000 78b9 8934 9871 b0b7
00000010: 84e8 d736 0000 0000 9324 a3b7 7e01 24b8
00000020: e233 25b7 0000 0000 6ecf cb35 df27 b2b7
00000030: 5013 a934 0000 0000 b4d8 2bb8 f548 2cb8
00000040: 0a77 88b7 0000 0000 a212 82b5 1092 c1b7
00000050: e7bd 5bb6 0000 0000 e01a 4eb7 8080 11b8
00000060: e7bd 5bb6 0000 0000 e01a 4eb7 8080 11b8
00000070: 1c9e de39 f999 3c39 be3a 9e37 4c5b 2139
00000080: 58f8 f8b8 f040 453a 4c39 b1b9 c126 5db8
00000090: 969a fd32 080d 80b7 7168 1337 0000 0000
000000a0: b4bd 3db8 7851 4fb9 d007 4838 0000 0000
000000b0: f75c 4bb9 8ea7 a2b9 2de3 afb8 0000 0000
000000c0: c408 67b8 bdd0 53b9 7507 5038 0000 0000
000000d0: 47f2 85b9 464f 9eb9 2078 4cb8 0000 0000
000000e0: d91c dcb8 110a 80b9 d023 1638 0000 0000
000000f0: 2c62 58b9 c86a 8bb9 d023 1638 0000 0000
00000100: 2c62 58b9 c86a 8bb9 62c6 e53a 4006 b53a
00000110: fe06 883a 4d04 773b b549 79ba 672e ea3b
00000120: af3d 5dbb d52b a5b9 c0b5 87b5 5b99 4139
00000130: 5fbc 9ab6 0000 0000 203a 3cb7 9a7d 26b8
00000140: 44d9 6036 0000 0000 30bb 05b8 caba 71b8
00000150: 0e66 b5b5 0000 0000 14ff 83b5 1ef0 3ab8
00000160: 3d1a 3136 0000 0000 805c 63b8 1456 94b8
00000170: bd48 b436 0000 0000 9307 b0b7 ab62 67b8
00000180: b727 3836 0000 0000 8cf1 1bb8 79c7 74b8
00000190: b727 3836 0000 0000 8cf1 1bb8 79c7 74b8
000001a0: eea0 643a 30e0 9c39 3297 5c39 130b dbba
000001b0: d741 5ab9 e0fb be3a 3380 4bba dd57 1934
000001c0: bb6f e8b2 2e4f 0637 fb2b 37b5 0000 0000
000001d0: 6c7e ad36 2b1a c0b6 0801 00b7 0000 0000
000001e0: 08da 9437 e47f be36 43a8 9637 0000 0000
000001f0: d02c 24b8 149a d3b7 773b 07b7 0000 0000
00000200: 2c9f 4c37 cba6 cab6 38ac 7f37 0000 0000
00000210: 1d58 52b6 af4e d4b7 8fe7 3db7 0000 0000
00000220: a6da 2bb7 6424 f6b6 8fe7 3db7 0000 0000
00000230: a6da 2bb7 6224 f6b6 25cf b7b9 d2ad 9138
00000240: 8aa0 2e37 29a7 053a b8ab 35b8 620d f039
00000250: ab16 b0b9 d52a 7d38 b536 7035 c5c5 9bb7
00000260: a086 ddb6 0000 0000 89be c1b3 eafa acb6
00000270: 768c 6937 0000 0000 82aa 84b6 e3be 84b7
00000280: c744 30b7 0000 0000 39a4 f0b5 b281 f1b6
00000290: 87fa b9b2 0000 0000 d227 fab6 aa89 7bb7
000002a0: 9140 dcb4 0000 0000 f5db 7eb7 308d 7bb7
000002b0: cae7 7c35 0000 0000 f24b 4bb7 d2ab 80b7
000002c0: cae7 7c35 0000 0000 f24b 4bb7 d2ab 80b7
000002d0: 3bdc c0b8 34f3 8d38 289b 23b7 fd06 7fb9
000002e0: 1587 40b8 8fc1 4b39 7237 6eb8 0192 e4b7
000002f0: ff67 0334 c9bb 8937 8ebb d037 0000 0000
00000300: 7553 8337 e350 6db8 1eec 7437 0000 0000
00000310: cf40 44b8 46fe afb8 1deb a4b4 0000 0000
00000320: 2e86 82b8 acbf a9b8 7bf8 f6b7 0000 0000
00000330: 1a82 f0b8 d457 c4b8 774f 8eb7 0000 0000
00000340: 2bf2 c5b8 a207 c3b8 a7ef dcb7 0000 0000
00000350: bea9 42b8 3b0c b7b8 a7ef dcb7 0000 0000
00000360: bea9 42b8 3b0c b7b8 4a7e 5ab9 d5dd dc39
00000370: c42d 03b9 a7d7 06bb 4612 94b9 54e6 2d3b
00000380: 5c36 49ba 4a45 08b8 90d8 18b5 e8c9 13b9
00000390: f6dd 8037 0000 0000 48dd a3b7 ea18 35b9
000003a0: b713 bf37 0000 0000 c728 05b9 7a8e 8ab9
000003b0: e0f1 e5b8 0000 0000 3304 19b7 222e 1db9
000003c0: 6948 0a38 0000 0000 8605 75b9 ed01 9eb9
000003d0: 1b8d 0bb9 0000 0000 6e98 ddb8 7dfc 48b9
000003e0: 47ee 1cb5 0000 0000 2722 4ab9 bfe4 8db9
000003f0: 47ee 1cb5 0000 0000 2722 4ab9 bfe4 8db9
9.296827e-06 0.0 2.5653185e-07 -2.1033731e-05 6.4345677e-06 0.0 -1.9448145e-05 -3.9102037e-05
-9.846846e-06 0.0 1.5185049e-06 -2.123782e-05 3.1492755e-07 0.0 -4.0971398e-05 -4.1075942e-05
-1.6267895e-05 0.0 -9.691178e-07 -2.3075409e-05 -3.274408e-06 0.0 -1.2284814e-05 -3.469037e-05
-3.274408e-06 0.0 -1.2284814e-05 -3.469037e-05 0.0004246094 0.00017986436 1.8862422e-05 0.00015388167
-0.00011871819 0.000752463 -0.0003380276 -5.27266e-05 2.9523374e-08 -1.5264857e-05 8.7862e-06 0.0
-4.5237786e-05 -0.00019771408 4.769099e-05 0.0 -0.0001939422 -0.00031023886 -8.386965e-05 0.0
-5.5082855e-05 -0.00020200289 4.959801e-05 0.0 -0.00025548248 -0.00030195172 -4.8749265e-05 0.0
-0.00010495791 -0.00024421563 3.579614e-05 0.0 -0.00020635937 -0.00026591704 3.579614e-05 0.0
-0.00020635937 -0.00026591704 0.0017530436 0.0013811067 0.001037806 0.0037691772 -0.00095095794 0.007146645
-0.003375869 -0.0003150391 -1.011118e-06 0.00018463044 -4.611487e-06 0.0 -1.12192065e-05 -3.969446e-05
3.3505066e-06 0.0 -3.1884003e-05 -5.763284e-05 -1.3515253e-06 0.0 -9.834498e-07 -4.4569482e-05
2.6390328e-06 0.0 -5.4207165e-05 -7.073223e-05 5.372886e-06 0.0 -2.0984362e-05 -5.5166583e-05
2.7441254e-06 0.0 -3.7179838e-05 -5.8359907e-05 2.7441254e-06 0.0 -3.7179838e-05 -5.8359907e-05
0.000872149 0.0002992167 0.0002103716 -0.0016711674 -0.00020814627 0.0014570914 -0.00077629386 1.42812e-07
-2.7059164e-08 8.005458e-06 -6.823681e-07 0.0 5.170519e-06 -5.7250923e-06 -7.629635e-06 0.0
1.7744504e-05 5.6773297e-06 1.7959746e-05 0.0 -3.9142382e-05 -2.5224908e-05 -8.060472e-06 0.0
1.2196408e-05 -6.0394864e-06 1.5239282e-05 0.0 -3.1343727e-06 -2.530901e-05 -1.1319192e-05 0.0
-1.0243302e-05 -7.3356077e-06 -1.1319192e-05 0.0 -1.0243302e-05 -7.335607e-06 -0.00035058815 6.946515e-05
1.0408587e-05 0.0005098456 -4.331369e-05 0.00045786338 -0.00033586225 6.035979e-05 8.9486576e-07 -1.8569533e-05
-6.6019857e-06 0.0 -9.021921e-08 -5.1552097e-06 1.3920586e-05 0.0 -3.9537563e-06 -1.5824515e-05
-1.0506431e-05 0.0 -1.7929189e-06 -7.197458e-06 -2.1650761e-08 0.0 -7.4552163e-06 -1.4992818e-05
-4.1025172e-07 0.0 -1.51907925e-05 -1.4993639e-05 9.4214613e-07 0.0 -1.2117425e-05 -1.53388e-05
9.4214613e-07 0.0 -1.2117425e-05 -1.53388e-05 -9.1962946e-05 6.768704e-05 -9.751682e-06 -0.00024321298
-4.5902172e-05 0.00019431695 -5.679526e-05 -2.7247706e-05 1.2238159e-07 1.6419117e-05 2.488287e-05 0.0
1.565528e-05 -5.6580535e-05 1.4598509e-05 0.0 -4.67904e-05 -8.3920124e-05 -3.0718448e-07 0.0
-6.223876e-05 -8.09425e-05 -2.9441193e-05 0.0 -0.00011468325 -9.3623676e-05 -1.6964723e-05 0.0
-9.438799e-05 -9.299746e-05 -2.633764e-05 0.0 -4.641129e-05 -8.728398e-05 -2.633764e-05 0.0
-4.641129e-05 -8.728398e-05 -0.00020837146 0.00042126948 -0.00012510183 -0.0020575316 -0.00028242375 0.0026534991
-0.00076756417 -3.2489457e-05 -5.693955e-07 -0.00014094228 1.5362148e-05 0.0 -1.9534156e-05 -0.00017270786
2.2778155e-05 0.0 -0.00012699059 -0.00026427564 -0.00010964624 0.0 -9.120488e-06 -0.00014989873
3.29692e-05 0.0 -0.00023367078 -0.00030137543 -0.00013308639 0.0 -0.000105664934 -0.00019167546
-5.846127e-07 0.0 -0.00019276944 -0.00027064045 -5.846127e-07 0.0 -0.00019276944 -0.00027064045

exp_avg_sq f4 [128, 38]
00000000: 03f8 9b2f 0000 0000 e6fe 112d 7403 d82f
00000010: a322 682f 0000 0000 cb2c e72f 023a c530
00000020: 3c6d 6430 0000 0000 0f3e 862d 1d0d 5830
00000030: a330 bb2e 0000 0000 dcee 5731 d5ec 5631
00000040: 8f38 992f 0000 0000 ae49 4d2f 8b2b cb30
00000050: 9368 a22e 0000 0000 444a 1031 d1e3 4231
00000060: 9368 a22e 0000 0000 444a 1031 d1e3 4231
00000070: 68ae fc34 7e69 7e33 05f3 4033 3870 5333
00000080: 12b0 e332 5a35 5835 0def ea33 f208 1131
00000090: 0661 f72b a983 7430 accf 5c31 0000 0000
000000a0: 9fbd 4332 b279 8033 aaca 7431 0000 0000
000000b0: 803d a733 c31a f233 9d9f 7832 0000 0000
000000c0: cd8a df32 6eb6 a133 bee9 ab31 0000 0000
000000d0: 9c37 d133 e5f9 0834 b2fe 5932 0000 0000
000000e0: b749 e432 a383 ac33 110e 8c31 0000 0000
000000f0: 95ee 1333 ec84 bd33 110e 8c31 0000 0000
00000100: 95ee 1333 ec84 bd33 db4c 4437 f07d 3336
00000110: 94e0 b736 0615 5c37 fff1 a135 5a62 be38
00000120: 330a 1737 b706 b633 184e 572e 3b96 0d33
00000130: 3f9d 972e 0000 0000 3f51 a22f 46a2 1f31
00000140: f5cd 0f30 0000 0000 6fae 5c31 7fdb 9d31
00000150: f0ec e42d 0000 0000 e4e6 0d31 26ff 8231
00000160: 28cb 282e 0000 0000 304f a131 5755 bd31
00000170: 16e9 8f2d 0000 0000 b725 5431 f5a1 9531
00000180: 42d2 fa2c 0000 0000 0ffe 2531 90a4 9231
00000190: 42d2 fa2c 0000 0000 0ffe 2531 90a4 9231
000001a0: d754 2e35 d567 ee33 6646 8034 c144 d636
000001b0: 0645 5f33 c73c 1936 3f03 1835 534c 4630
000001c0: 7c1a a72a 3a8f 6e2f d9c0 3030 0000 0000
000001d0: 1383 f230 5af8 d531 aacf 8a30 0000 0000
000001e0: 953f ee31 f950 1d32 1423 b230 0000 0000
000001f0: 6d6e a731 691f 0632 aefb b630 0000 0000
00000200: f90a dd31 f355 1932 25aa b730 0000 0000
00000210: b2ca a231 e387 0832 bf6e 8130 0000 0000
00000220: 8af3 6531 fbb8 ef31 bf6e 8130 0000 0000
00000230: 8af3 6531 fbb8 ef31 f1e0 0c36 fcce 7d34
00000240: d88e 5635 a0a3 bb36 08c6 e633 3e9f 0a37
00000250: 341e 2b35 f32b e431 72c4 282d 63ed 5231
00000260: 17f2 9b2e 0000 0000 fd4e 0b2b e75d 112e
00000270: ffcf b62e 0000 0000 61a6 e72d 6dfa e52e
00000280: 581a d72e 0000 0000 ec64 c02d 99f9 c62e
00000290: 97d1 602d 0000 0000 d9b8 862f d1e7 aa2f
000002a0: 624c a12d 0000 0000 252b 972f b329 b12f
000002b0: 624b 192c 0000 0000 f121 b92f 8219 d12f
000002c0: 624b 192c 0000 0000 f121 b92f 8219 d12f
000002d0: 93bd ca33 ee94 0332 afc6 3332 a53a a634
000002e0: 918b 6c31 2dd4 8833 4f52 2632 148a 942f
000002f0: b5be 0a2a 1ef0 2a2f 0209 7230 0000 0000
00000300: 4639 a330 45bd b231 0361 9d30 0000 0000
00000310: 61d8 a131 46f0 0332 214e 4b30 0000 0000
00000320: 0585 ee31 49c6 1e32 3c52 a430 0000 0000
00000330: 2626 b531 6609 0732 cf5f 7830 0000 0000
00000340: a130 0332 2a56 2232 bb62 a730 0000 0000
00000350: 7da3 7631 2aa2 fa31 bb62 a730 0000 0000
00000360: 7da3 7631 2aa2 fa31 1d7d 0f36 6e4a 7834
00000370: cab1 0635 6793 2c37 d535 e033 c49a 0937
00000380: a470 0d35 ddfe 7b31 fd86 012e 0b8a bc31
00000390: 0a5b 6531 0000 0000 db2f 7e32 0f83 3f33
000003a0: e7a4 6f31 0000 0000 15a7 6433 b382 9533
000003b0: 9400 6832 0000 0000 b521 0e33 b214 5e33
000003c0: 2d7b 0d32 0000 0000 58a5 6333 fbad 9b33
000003d0: 5931 6b32 0000 0000 a255 c732 53dd 4333
000003e0: 97c3 0232 0000 0000 2f2b cd32 a023 5b33
000003f0: 97c3 0232 0000 0000 2f2b cd32 a123 5b33
2.837056e-10 0.0 8.2988946e-12 3.9292625e-10 2.1112583e-10 0.0 4.2050483e-10 1.4350123e-09
8.310115e-10 0.0 1.5261596e-11 7.859898e-10 8.512415e-11 0.0 3.1422394e-09 3.1275722e-09
2.7870725e-10 0.0 1.8670818e-10 1.478257e-09 7.385483e-11 0.0 2.0996973e-09 2.8360214e-09
7.385483e-11 0.0 2.0996973e-09 2.8360214e-09 4.7065555e-07 5.9234928e-08 4.492451e-08 4.9229328e-08
2.6506346e-08 8.054391e-07 1.0939957e-07 2.1105362e-09 1.7577335e-12 8.8953783e-10 3.2132261e-09 0.0
1.1393609e-08 5.982601e-08 3.5621874e-09 0.0 7.78773e-08 1.1273871e-07 1.4471792e-08 0.0
2.6023736e-08 7.5303305e-08 5.0033284e-09 0.0 9.742436e-08 1.2756898e-07 1.2688973e-08 0.0
2.6576215e-08 8.033319e-08 4.0761354e-09 0.0 3.4443094e-08 8.825177e-08 4.0761354e-09 0.0
3.4443094e-08 8.825177e-08 1.1700405e-05 2.6746384e-06 5.4799693e-06 1.3117917e-05 1.2065865e-06 9.0782254e-05
9.002676e-06 8.476257e-08 4.89547e-11 3.2965755e-08 6.8946175e-11 0.0 2.9525357e-10 2.3229787e-09
5.231578e-10 0.0 3.2113368e-09 4.594255e-09 2.602582e-11 0.0 2.0649447e-09 3.812505e-09
3.8379216e-11 0.0 4.6947193e-09 5.510326e-09 1.6360729e-11 0.0 3.0871499e-09 4.354883e-09
7.1287707e-12 0.0 2.4155076e-09 4.267868e-09 7.1287707e-12 0.0 2.4155076e-09 4.267868e-09
6.494351e-07 1.11016256e-07 2.389308e-07 6.385701e-06 5.198401e-08 2.2834154e-06 5.6629136e-07 7.2140444e-10
2.9683536e-13 2.1696858e-10 6.430248e-10 0.0 1.7645071e-09 6.22735e-09 1.0099843e-09 0.0
6.93394e-09 9.157014e-09 1.2961174e-09 0.0 4.8728936e-09 7.806968e-09 1.3313775e-09 0.0
6.433194e-09 8.925315e-09 1.336336e-09 0.0 4.7378643e-09 7.947139e-09 9.417461e-10 0.0
3.3462322e-09 6.9768453e-09 9.417461e-10 0.0 3.3462322e-09 6.9768453e-09 2.0992559e-06 2.3637762e-07
7.992908e-07 5.5920827e-06 1.0746231e-07 8.262517e-06 6.3746415e-07 6.64067e-09 9.593314e-12 3.069396e-09
7.091588e-11 0.0 4.949234e-13 3.3052585e-11 8.313349e-11 0.0 2.6335547e-11 1.0458199e-10
9.7817476e-11 0.0 2.1872691e-11 9.048335e-11 1.2779464e-11 0.0 2.45058e-10 3.1087535e-10
1.8337502e-11 0.0 2.7497396e-10 3.2225742e-10 2.1784454e-12 0.0 3.367542e-10 3.8035003e-10
2.1784454e-12 0.0 3.367542e-10 3.8035003e-10 9.440841e-08 7.659066e-09 1.0464347e-08 3.096258e-07
3.4421854e-09 6.371588e-08 9.6811865e-09 2.7019154e-10 1.2323027e-13 1.5546717e-10 8.805189e-10 0.0
1.1876089e-09 5.2019993e-09 1.1450826e-09 0.0 4.710316e-09 7.679835e-09 7.3962e-10 0.0
6.941834e-09 9.241895e-09 1.1955943e-09 0.0 5.2721303e-09 7.860171e-09 9.0358027e-10 0.0
7.6362605e-09 9.4492325e-09 1.217891e-09 0.0 3.5890644e-09 7.2943935e-09 1.217891e-09 0.0
3.5890644e-09 7.2943935e-09 2.1381486e-06 2.3123877e-07 5.0177607e-07 1.0286319e-05 1.0440605e-07 8.2018705e-06
5.2690507e-07 3.667018e-09 2.9451098e-11 5.487214e-09 3.3375636e-09 0.0 1.4795627e-08 4.458985e-08
3.4872814e-09 0.0 5.3237347e-08 6.962127e-08 1.3504309e-08 0.0 3.3092608e-08 5.1707225e-08
8.235287e-09 0.0 5.3002935e-08 7.249397e-08 1.3690021e-08 0.0 2.320559e-08 4.560327e-08
7.611468e-09 0.0 2.3884779e-08 5.102231e-08 7.611468e-09 0.0 2.3884779e-08 5.1022315e-08

exp_avg f4 [128]
00000000: 0b1d 2bb8 f654 abb9 4401 96b8 1bb8 79b7
00000010: 4852 84b7 d788 cbb8 9b25 a5b9 a3e4 5737
00000020: bbeb a9b9 ed87 35b8 b2b6 a439 83fd 6139
00000030: 73c0 c2b7 d112 4238 2cb4 8c37 fe84 de38
00000040: 103d d2b9 e77c b2b9 ae62 9e37 9c2a 2338
00000050: 290d f3b6 b5cc 83b9 467d 1b37 e0d3 17b7
00000060: a4a5 bab7 450d fd39 8c8c 7239 9a32 ae34
00000070: 2039 d2b8 db32 c737 cbcf 7f39 6de8 3836
00000080: da12 4cb9 5dd4 deb9 ebd6 fbb9 5404 7137
00000090: 4915 af39 4f95 cf39 4ca6 fe38 c5ac cbba
000000a0: 5ad0 5135 5dcc 89b9 9838 8038 fcf0 80b8
000000b0: 947b 97b8 9cc6 86b8 3afe 163a dd83 1739
000000c0: 15dd 74ba aa36 acb9 38c1 1fb7 247c 08ba
000000d0: 40cb b739 689c b8b8 8c1c dbb9 498f f3b9
000000e0: 987d b1b7 711c c6b7 685b a838 9a9d fcb9
000000f0: b811 9037 570b 82b9 a008 f6ba a2a4 5db6
00000100: 0531 e2b9 f518 a739 b205 3eb8 b092 02b9
00000110: c8f7 1aba 8ccd 9db9 cbf7 94ba 57fa 31ba
00000120: ac69 a3b8 0e8a f137 1d50 18b7 e49a d4b7
00000130: ac70 c937 a73e e538 d581 07ba 111a 37b9
00000140: 1473 c8b7 ce06 6ab7 22c6 95b9 e151 af39
00000150: f5a1 3b39 1c2a 1cba 0647 9eb8 1d15 3b37
00000160: db4d aeb8 77a2 1437 9ba5 6a39 51b5 9cb6
00000170: d358 2a37 3369 06b7 af0d a539 3f44 8c34
00000180: 79f7 2a39 5172 073a 24f9 263a 19ad db37
00000190: bf28 14b8 3e12 d537 3abf dcb8 6f37 6837
000001a0: 24af cab9 5cf0 173a 6d60 4539 810d 8339
000001b0: 6531 31b8 65b6 9fb9 87bd 113a 6979 0f39
000001c0: ba88 ea39 d65d e6b8 0c54 f2b8 d62f 4038
000001d0: cc7a a338 14de a1b8 dd06 48ba b1ec 9838
000001e0: 72e9 0838 7d2e c3b8 5391 4b38 d19b 133a
000001f0: 659e 4ab8 4cf8 16b9 b8c1 9437 dcb2 d734
-4.0796625e-05 -0.00032678962 -7.152793e-05 -1.4884422e-05 -1.5773941e-05 -9.705283e-05 -0.0003149927 1.2868232e-05
-0.00032409825 -4.3280354e-05 0.00031416636 0.00021552113 -2.3216218e-05 4.627073e-05 1.67732e-05 0.00010610557
-0.00040099816 -0.00034043865 1.8881019e-05 3.890191e-05 -7.2434964e-06 -0.00025138786 9.267887e-06 -9.049632e-06
-2.225006e-05 0.00048265807 0.00023131276 3.2446843e-07 -0.00010024221 2.374633e-05 0.00024396104 2.7553426e-06
-0.00019461979 -0.00042501363 -0.00048034577 1.4365727e-05 0.0003339446 0.0003959336 0.00012142639 -0.001553916
7.816176e-07 -0.0002628294 6.114057e-05 -6.1484025e-05 -7.223259e-05 -6.426612e-05 0.00057599286 0.00014449605
-0.0009340805 -0.00032847124 -9.522126e-06 -0.00052064867 0.00035055913 -8.802937e-05 -0.00041792204 -0.00046455328
-2.1158528e-05 -2.3616683e-05 8.02789e-05 -0.00048182608 1.7174389e-05 -0.0002480398 -0.0018770881 -3.3027395e-06
-0.00043142601 0.00031871317 -4.5304834e-05 -0.00012452411 -0.0005911556 -0.00030098518 -0.0011365352 -0.00067893177
-7.7921286e-05 2.8793726e-05 -9.078559e-06 -2.5344496e-05 2.4013534e-05 0.00010931241 -0.0005169188 -0.0001746195
-2.3895445e-05 -1.3949071e-05 -0.00028567115 0.00033439606 0.00017894043 -0.00059572025 -7.547256e-05 1.1150984e-05
-8.311468e-05 8.859314e-06 0.00022377672 -4.6702703e-06 1.0153471e-05 -8.011516e-06 0.00031481448 2.6126688e-07
0.00016304654 0.0005166876 0.00063695223 2.618744e-05 -3.5323897e-05 2.5400073e-05 -0.00010526036 1.3841184e-05
-0.00038658932 0.0005796009 0.00018823305 0.00024996328 -4.224609e-05 -0.00030462738 0.0005559553 0.00013682772
0.00044733827 -0.00010984733 -0.00011555114 4.5820918e-05 7.7953184e-05 -7.7184435e-05 -0.0007630417 7.292012e-05
3.264234e-05 -9.306984e-05 4.8534315e-05 0.00056308234 -4.830807e-05 -0.00014397613 1.7733182e-05 4.0177008e-07
