3DPlayground/results/Test26/MoveToGoal/MoveToGoal-499995.onnx (onnx, 124357 bytes, 9 tensors)

network_body._body_endoder.seq_layers.0.weight f4 [128, 92]
0	0xbdf2aa76	-0.11848919
1	0xbcf71432	-0.030160997
2	0xbd4bb4a0	-0.049732804
3	0x3de7c767	0.1131733
4	0x3e060499	0.13087691
5	0x3e247750	0.16061139
6	0xbb93083b	-0.004487065
7	0x3dbc1f18	0.09185618
8	0x3e3b5749	0.18295015
9	0xbd1a8d7a	-0.03773258
10	0xbe3577c1	-0.17721464
11	0xbdb17173	-0.08664217
12	0xbd5e7d35	-0.054318625
13	0x3dba3bf1	0.09093464
14	0xbd0a65c3	-0.033788454
15	0x3d5770df	0.052597877
16	0xbd4e09da	-0.050302364
17	0xbdabbe9f	-0.083859675
18	0x3db9d813	0.09074416
19	0xbd8f71ec	-0.07004151
20	0x3e53a606	0.20668802
21	0x3dc9bc63	0.09850385
22	0xbdfcf1ce	-0.12350808
23	0x3d9eb672	0.077496424
24	0x3d2cd905	0.042199153
25	0xbe79ed40	-0.2440691
26	0x3dc42992	0.095782414
27	0xbc905a3e	-0.017621156
28	0xbdb8e2af	-0.090276115
29	0xbe12102f	-0.14263986
30	0xbcdac6ec	-0.026706181
31	0x3cb0139f	0.021493731
32	0x3dfcce9a	0.123440936
33	0x3d4c8420	0.04993069
34	0x3cf7c41a	0.030244876
35	0x3ba3324e	0.004980362
36	0x3e253e0d	0.16136952
37	0xbdd2ada9	-0.10287029
38	0x3dc5d7d5	0.09660307
39	0x3de86719	0.11347789
40	0xbe112dec	-0.14177674
41	0xbe92c895	-0.28668657
42	0xbdab2a5b	-0.08357688
43	0xbe50ed91	-0.20403124
44	0x3c7b28e9	0.015329578
45	0x3e26fd9c	0.16307682
46	0xbe2386db	-0.15969412
47	0x3d664ef9	0.056227658
48	0x3cd80b0f	0.02637246
49	0x3b67e5c7	0.003538476
50	0x3d204e51	0.03913719
51	0x3d84b0cc	0.06479034
52	0x3e1737b6	0.14767346
53	0xbe03058c	-0.12795085
54	0xbdc61f7d	-0.09673975
55	0x3cb5bdb3	0.022185182
56	0x3d311066	0.04322853
57	0xbd2aa3ad	-0.04166
58	0x3e01b0b4	0.12665063
59	0x3dc1c335	0.09461061
60	0xbe1810cd	-0.14850159
61	0x3dd520f2	0.104066744
62	0xbe12c00d	-0.14331074
63	0xbe60868e	-0.21926329
64	0x3e037f59	0.12841548
65	0x3dd26ad0	0.10274279
66	0xba927c12	-0.0011175892
67	0xbe542b0e	-0.20719549
68	0xbd3afb29	-0.04564968
69	0xbdd33604	-0.10313037
70	0xbd0e2203	-0.034700405
71	0x3dcdbb82	0.1004553
72	0xbcdc28ee	-0.026874986
73	0x3c7222ab	0.014778773
74	0x3de8f3e5	0.11374644
75	0x3d1e1cc5	0.038601656
76	0xbd98a2e2	-0.074529424
77	0x3cdef8f6	0.027218323
78	0xbdc922d6	-0.098210976
79	0xbe130403	-0.14356999
80	0xbc7f73f3	-0.015591609
81	0xbdc68317	-0.09692972
82	0xbe1cc2fc	-0.15308756
83	0x3dd55073	0.10415735
84	0x3da32337	0.07965701
85	0xbe6dbeda	-0.23217335
86	0xbdc2053c	-0.09473655
87	0x3ddbd701	0.10734368
88	0xbb988bc2	-0.0046553323
89	0x3e1af742	0.15133384
90	0x3e669e00	0.2252121
91	0xbcf77ea2	-0.03021175
92	0xbd4a21a5	-0.049348492
93	0xbd41db24	-0.04732813
94	0x3df00f84	0.11721709
95	0xbd863be7	-0.06554394
96	0x3e2f3d35	0.17113192
97	0x3e530a53	0.20609407
98	0xbe34a4f7	-0.17641054
99	0x3d05dd75	0.0326819
100	0xbcce5ca8	-0.025190666
101	0xbd031220	-0.031999707
102	0x3ca66b4d	0.020314837
103	0x3d988b23	0.07448413
104	0xbc435e06	-0.011924272
105	0xbd3119ad	-0.043237377
106	0x3e117912	0.14206341
107	0x3dce502e	0.10073887
108	0xbded0ddc	-0.11574909
109	0xbc5fb3e4	-0.013653729
110	0x3c49aa6c	0.012308698
111	0x3e8d84a7	0.27640268
112	0x3cb5fb89	0.022214668
113	0xbd76aa6e	-0.06022113
114	0x3e4fb816	0.20285067
115	0x3dce87a4	0.10084465
116	0x3d84bf1c	0.06481764
117	0x3e5fdb10	0.2186091
118	0x3d5bfe40	0.05370927
119	0x3d1a2513	0.037633013
120	0x3de6ddaa	0.11272748
121	0xbdf7122e	-0.120640144
122	0x3cec7a93	0.028867042
123	0x3d76da33	0.060266685
124	0xbd67454b	-0.056462567
125	0xbce11221	-0.027474465
126	0xbdde5479	-0.10855956
127	0xbd8decdb	-0.06929942
128	0xbe669636	-0.22518238
129	0xbbc7298a	-0.00607795
130	0xbd93ed2e	-0.07222973
131	0xbd85aee8	-0.06527501
132	0x3be8574d	0.007090485
133	0xbdfbd8f6	-0.122972414
134	0xbcae0bc7	-0.02124585
135	0xbd35e570	-0.04440826
136	0xbe20ddfa	-0.15709677
137	0xbd86e557	-0.06586712
138	0xbd0c2e30	-0.034223735
139	0xbdec0d66	-0.11525993
140	0x3c8ad6d9	0.01694815
141	0x3e309739	0.17245187
142	0xbd9e5878	-0.07731718
143	0xbb2d0eb2	-0.0026406464
144	0x3d8e8061	0.0695808
145	0x3d947798	0.07249373
146	0x3cec6ead	0.028861368
147	0xbdd03ca6	-0.10167818
148	0xbd2fdc73	-0.042934846
149	0xbbbc7c5b	-0.005752129
150	0x3c513ec8	0.012771316
151	0x3c73490d	0.01484896
152	0x3db29c9f	0.08721279
153	0xbd10a429	-0.035312805
154	0x3dd52028	0.10406524
155	0xbaa225fb	-0.0012370938
156	0xbe637553	-0.22212724
157	0x3d372a6b	0.044718187
158	0x3bab525a	0.005228323
159	0xbda00e15	-0.07815186
160	0xbe273c5f	-0.16331623
161	0xbe0d6a96	-0.1381019
162	0x3d1603fb	0.03662489
163	0xbd55be94	-0.052183703
164	0x3da46ab8	0.080281675
165	0xbcd99460	-0.026560009
166	0xbe0a4464	-0.13502651
167	0x3de63606	0.11240773
168	0x3dd01e86	0.10162072
169	0xbe0e1de0	-0.13878584
170	0x3d02bbc0	0.031917334
171	0x3ceea70f	0.029132394
172	0x3de51e72	0.111874476
173	0xbe6c16f8	-0.23055637
174	0x3e0a7fee	0.13525364
175	0x3e38dc1d	0.18052717
176	0xbdc714ab	-0.09720739
177	0x3d6f4f28	0.0584251
178	0x3da1a5b1	0.07892931
179	0x3e140083	0.1445332
180	0xbbb6c069	-0.0055771363
181	0xbe58d211	-0.21173884
182	0x3e64bf99	0.22338714
183	0xbdb9606a	-0.09051593
184	0x3a2f13b1	0.00066786545
185	0xbde71b12	-0.1128446
186	0x3d5e48e6	0.05426874
187	0x3d5a675b	0.053321224
188	0x3d245378	0.040118665
189	0xbdbeca02	-0.09315874
190	0xbdcdaf0d	-0.10043154
191	0xbce37af7	-0.027768595
192	0xbdabc032	-0.08386268
193	0x3e50a4c3	0.20375352
194	0x3dd874cf	0.105691545
195	0x3c1cdf57	0.009574733
196	0x3c5c5abd	0.013449368
197	0x3d9ffa6c	0.07811436
198	0xbe41f2ba	-0.18940249
199	0xbe342138	-0.17590797
200	0x3c86cee4	0.016456075
201	0xbce369ea	-0.027760465
202	0xbdfb2311	-0.12262548
203	0x3d7def7a	0.06199596
204	0xbdeb0152	-0.11474861
205	0xbb75c36b	-0.0037500511
206	0x3ba0cc41	0.0049071615
207	0xbdc54313	-0.09631934
208	0xbce58612	-0.028018031
209	0x3dc21510	0.094766736
210	0xbd50b028	-0.050949246
211	0xbc8f838e	-0.017518785
212	0x3c8a4df6	0.016882878
213	0x3d98b12f	0.0745567
214	0x3d85edce	0.06539498
215	0xbda5acae	-0.08089577
216	0xbb81aaed	-0.0039571435
217	0x3d7a23bc	0.061069235
218	0x3e1a49eb	0.1506726
219	0xbe9009a5	-0.28132358
220	0x3e0457a3	0.12924056
221	0xbc9f624a	-0.019456048
222	0xbe42994e	-0.19003794
223	0xbdbebd64	-0.09313467
224	0x3e6f6615	0.23378785
225	0x3e213449	0.15742601
226	0xbda2e70c	-0.07954225
227	0xbd141a31	-0.03615779
228	0x3df83378	0.12119192
229	0xbd042965	-0.03226604
230	0x3e2c2228	0.16809905
231	0xbd2cede1	-0.042219047
232	0x3c29e388	0.010369189
233	0x3dd6d2b6	0.10489409
234	0xbdb25660	-0.08707881
235	0xbccfae43	-0.02535165
236	0x3ce70b2d	0.028203571
237	0x3d63e94f	0.055642422
238	0x3d8f30d2	0.069917336
239	0xbe006cbe	-0.12541482
240	0x3df0dadb	0.11760493
241	0x3da63a8c	0.08116636
242	0x3d7f375d	0.062308658
243	0x3da5f500	0.08103371
244	0x3da6abfd	0.08138273
245	0x3dcbf4d2	0.09958805
246	0xbca47d38	-0.02007924
247	0x3dc52b20	0.09627366
248	0xbd15026d	-0.036379267
249	0xbd2b8f1f	-0.041884538
250	0xbdd123ac	-0.10211882
251	0x3d4dd534	0.050252154
252	0xbcc0d862	-0.02354068
253	0xbdfec3de	-0.124397025
254	0xbd6ec54b	-0.058293622
255	0x3e367dc0	0.17821407

network_body._body_endoder.seq_layers.0.bias f4 [128]
0	0x3bf13e06	0.00736213
1	0xba267ed2	-0.0006351295
2	0x3ad0b792	0.0015923849
3	0xba374bb8	-0.0006992179
4	0x3ba891a5	0.0051443153
5	0xbbbe321c	-0.0058043133
6	0xb9d0a05f	-0.00039792337
7	0x3c38492e	0.011247916
8	0x3a75da1d	0.000937851
9	0x3b87f381	0.004148901
10	0x3a8f47d6	0.0010931443
11	0xbadc3327	-0.0016799913
12	0xbc15178a	-0.00909985
13	0x3b5f6cbd	0.0034091913
14	0x3c1aafa7	0.009441293
15	0xbb0c8e9a	-0.0021447302
16	0x3b1acfa3	0.0023622296
17	0x3c38c0ad	0.011276406
18	0x3c164b5e	0.009173242
19	0xbc218f4b	-0.009860824
20	0xbc4ddcb2	-0.012564825
21	0x3bc2de98	0.0059469454
22	0xbc2a9866	-0.010412311
23	0x3b3f3845	0.0029177826
24	0xb99a2ff1	-0.00029408888
25	0x3c7df427	0.015500105
26	0xbb2118fe	-0.0024581547
27	0x3b9304c3	0.0044866516
28	0x3a0b0ff3	0.0005304806
29	0xbaa5dc94	-0.0012654238
30	0xbbff35e5	-0.007788407
31	0xbc6eeb4d	-0.014582467
32	0x3c2423f0	0.010018334
33	0x3b530596	0.0032199374
34	0xbaf4add1	-0.0018667524
35	0xb96943e0	-0.00022245897
36	0xbc2198f8	-0.009863131
37	0xbbdbc903	-0.006707312
38	0x3c79f51c	0.015256193
39	0x3aeb225d	0.0017939318
40	0xbbb45ac6	-0.005503985
41	0xbbb033a5	-0.0053772503
42	0xba427471	-0.0007417864
43	0xbb92075a	-0.004456443
44	0xbc41d7c5	-0.011831229
45	0xbc203e36	-0.009780457
46	0xbb322242	-0.0027181064
47	0xb9f5aa79	-0.00046857054
48	0x3bf9ce39	0.0076234606
49	0xbbebecb5	-0.0071998485
50	0xbb6462df	-0.003484897
51	0xbc3ef894	-0.011655945
52	0x3bc331cd	0.0059568645
53	0xbbec828c	-0.007217711
54	0x3c8d4b5c	0.017247848
55	0xbc5790b9	-0.013157063
56	0x3c1ca15a	0.009559954
57	0x3b3fe07e	0.0029278095
58	0x3b3a8203	0.002845884
59	0xbc58573e	-0.013204394
60	0x3b9c3f72	0.0047683055
61	0xbbe59ef4	-0.007007474
62	0x3bfeddda	0.0077779116
63	0x3c623415	0.013806363
64	0x3bd2f4c6	0.0064378707
65	0xbb9717cb	-0.0046109906
66	0x38add7e6	8.289497e-05
67	0x3bb2fd37	0.0054623145
68	0xbb615143	-0.003438071
69	0xbc09c154	-0.008407909
70	0xbb4ecde2	-0.0031555821
71	0x3b4c5317	0.0031177455
72	0x3c17f7b0	0.009275362
73	0xbad89c98	-0.0016526161
74	0x3c181ba3	0.009283933
75	0x3d3a33fa	0.045459725
76	0xbbbabc46	-0.0056987135
77	0xbbaed8bf	-0.0053358967
78	0x3c2fdc02	0.010733606
79	0x3c1dbef0	0.009628043
80	0xbb9a0db0	-0.0047013387
81	0xbc3ed843	-0.0116482405
82	0xbb3cc8fd	-0.0028806322
83	0x3d128dcf	0.03577977
84	0xbbb9d4c1	-0.005671114
85	0xbc1a5abc	-0.009421047
86	0x3ac933d8	0.0015350534
87	0xbb9c4850	-0.0047693625
88	0x3c1e44a1	0.009659917
89	0xba003c46	-0.0004891794
90	0xbb741b74	-0.0037247809
91	0xbca1379b	-0.019679835
92	0x3c2e6179	0.0106433565
93	0xbc5f8e2f	-0.013644739
94	0xbbf80fbc	-0.007570235
95	0x3c312633	0.01081233
96	0xb9ab529e	-0.00032677216
97	0xbb9d9ec9	-0.0048101884
98	0x3c79885d	0.015230265
99	0x3b8171e4	0.0039503444
100	0x3c496286	0.012291556
101	0xb9ff89f2	-0.00048740167
102	0x3a890541	0.0010453836
103	0xbc0ff4d2	-0.008786397
104	0x3b9095ad	0.004412374
105	0xbaa3d62b	-0.001249974
106	0xbb8c9bda	-0.00429104
107	0x3bb98717	0.005661856
108	0xbc27d735	-0.01024418
109	0x3a318e35	0.00067732047
110	0xbc3093d1	-0.01077743
111	0x3b420c1e	0.0029609273
112	0x3bd5beb1	0.0065229763
113	0xbbe3e7cb	-0.006955122
114	0xbb0bbb89	-0.0021321496
115	0xbc173bb3	-0.009230542
116	0x3bffbc65	0.007804441
117	0xb9e48ea2	-0.0004359382
118	0xbc800115	-0.015625516
119	0x3ba5c6e1	0.0050591086
120	0xbb253dae	-0.0025213766
121	0x3bcebb06	0.006308916
122	0x3c41fb90	0.011839762
123	0xbbb2d931	-0.00545802
124	0xbaaf1eaf	-0.0013360585
125	0x3d198229	0.037477646
126	0x3c495d87	0.012290365
127	0x3bc8f98a	0.006133263

network_body._body_endoder.seq_layers.2.weight f4 [128, 128]
0	0xbe41ba14	-0.1891864
1	0xbd7af465	-0.06126823
2	0x3d13eb41	0.036113027
3	0x3e01907c	0.12652773
4	0x3db80f8e	0.08987342
5	0xbdae651e	-0.0851538
6	0x3d7fdaee	0.062464647
7	0xbdcda2fc	-0.100408524
8	0xbdea9de7	-0.11455899
9	0xbd05e81e	-0.032692067
10	0x3ca0d173	0.019631123
11	0x3b9af790	0.004729219
12	0x3da83725	0.08213643
13	0x3e36c6c9	0.17849268
14	0x3d914410	0.0709306
15	0xbcd01d2b	-0.025404533
16	0x3df72440	0.12067461
17	0xbc43f31e	-0.011959819
18	0x398d08a2	0.00026900048
19	0xbd74be10	-0.05975157
20	0x3dbd6dc9	0.092494555
21	0x3e2a4efb	0.16631691
22	0xbd0514eb	-0.032490652
23	0x3d70c9da	0.05878625
24	0xbdc01509	-0.09379012
25	0xbe32b2d4	-0.1745103
26	0x3d4b9e65	0.049711604
27	0x3d88bf67	0.06677132
28	0xbdc5d681	-0.09660054
29	0xbe1cbc21	-0.1530614
30	0x3e097e21	0.1342702
31	0xbd58c5a6	-0.052922867
32	0x3d5e9b98	0.054347605
33	0x3d61dc88	0.055141956
34	0x3d5a1c41	0.0532496
35	0xbcfecc06	-0.031103145
36	0xbe191a92	-0.14951542
37	0xbc80d060	-0.015724361
38	0x3d0a1dab	0.0337197
39	0x3ce3ac2c	0.027792059
40	0xbdacbf51	-0.08434928
41	0xbccd4db2	-0.025061462
42	0xbdf35f64	-0.11883429
43	0x3dd0299c	0.10164186
44	0x3cee5aca	0.029096026
45	0xbdcca38c	-0.099921316
46	0x3d2c6d83	0.042096626
47	0x3c899099	0.016792582
48	0xbc62cf29	-0.013843336
49	0x3da298d8	0.07939309
50	0x3e3fde4d	0.18737145
51	0x3ca742a0	0.020417511
52	0xbda26b61	-0.07930637
53	0x3de20575	0.11036197
54	0x3ce9103f	0.02845013
55	0xb7cc2898	-2.4337598e-05
56	0xbc0a6149	-0.008446046
57	0xbdb2d446	-0.08731894
58	0x3c66aab8	0.014078788
59	0x3e20f58d	0.1571867
60	0xbdcea2b4	-0.10089627
61	0xbe21a865	-0.15786894
62	0x3da74fc1	0.08169509
63	0x3e05314d	0.13007088
64	0x3d9c0d6c	0.076197475
65	0x3c9f6e7b	0.01946186
66	0x3dc44bd7	0.09584778
67	0x3d8b9977	0.068163805
68	0xbd621a9f	-0.05520117
69	0x3d08cd26	0.03339877
70	0xbd912072	-0.070862666
71	0xbada7b6d	-0.0016668864
72	0xbe19e5a4	-0.15029007
73	0xbcaff1bf	-0.021477578
74	0x3e09375b	0.13400023
75	0x3dc40336	0.09570925
76	0x39e657ca	0.00043934427
77	0xbe001d87	-0.12511264
78	0x3e9126ad	0.2834982
79	0x3c39a77b	0.011331434
80	0x3d478dc8	0.048719198
81	0x3d0b395c	0.03399025
82	0x3d9270cc	0.071504205
83	0x3d890e6b	0.06692203
84	0x3dcec1e9	0.10095579
85	0xbe6fdde9	-0.23424496
86	0x3d8c58e0	0.06852889
87	0x3cbe6ee2	0.023246232
88	0x3d82e4ce	0.06391297
89	0x3e191259	0.14948405
90	0xbd212bb6	-0.039348327
91	0x3dde124b	0.10843333
92	0xbe15fbaa	-0.14646783
93	0xbdf6f39f	-0.12058186
94	0xbc8cd3d9	-0.01719086
95	0x3da48121	0.08032442
96	0x3d9e449a	0.077279285
97	0xbdb11dbd	-0.0864825
98	0xbe0c3e4a	-0.13695636
99	0x3a26f282	0.0006368534
100	0xbc3accc2	-0.011401357
101	0xbb609e86	-0.0034274175
102	0xbbe7d793	-0.007075259
103	0xbd4056fc	-0.046957955
104	0xbd8d221e	-0.06891273
105	0x3d3daf37	0.046309676
106	0xbdfcd4e2	-0.12345292
107	0xbd6cad9f	-0.057782765
108	0xbe03829c	-0.12842792
109	0xbded0986	-0.11574082
110	0xbdfdd8d9	-0.12394876
111	0xbdb8dbe6	-0.09026317
112	0xbe03abf9	-0.12858571
113	0xbc86a96e	-0.016438212
114	0x3e4fe344	0.20301539
115	0xbde8d130	-0.11368024
116	0x3dac771e	0.08421157
117	0x3d9a8b75	0.075461306
118	0x3d9d82bd	0.07690952
119	0x3e2b0a2d	0.167031
120	0x3d5b1ade	0.05349242
121	0xbdc03e88	-0.09386927
122	0xbe2b401e	-0.16723678
123	0x3e034389	0.12818731
124	0xbc882dc6	-0.016623389
125	0xbde6c8ca	-0.11268766
126	0xbceb652e	-0.02873477
127	0xbbd54bd0	-0.0065092817
128	0xbc9ae762	-0.01890916
129	0xbe0a765a	-0.1352171
130	0x3e2a4359	0.16627254
131	0x3ddb25dc	0.107005805
132	0x3e41a438	0.189103
133	0xbe915efc	-0.2839278
134	0x3d7424b4	0.059605315
135	0x3d83386e	0.064072475
136	0xbdba3764	-0.09092596
137	0x3da35421	0.07975031
138	0x3da7da02	0.081958786
139	0xbd4a4f82	-0.04939223
140	0xbd99053f	-0.07471704
141	0xbcea474c	-0.02859845
142	0x3b9ce25e	0.0047877273
143	0xbc6d2d40	-0.0144761205
144	0xbd8669cb	-0.06563147
145	0x3e05303d	0.13006683
146	0x3c4d9e14	0.012549896
147	0x3d877416	0.066139385
148	0xbd8f786d	-0.07005391
149	0xbe0cbb45	-0.13743313
150	0x3e388be4	0.18022114
151	0x3dbee211	0.093204625
152	0xbc023fa6	-0.007949745
153	0xbe2cff1c	-0.16894192
154	0x3d9734dc	0.07383129
155	0xbd213047	-0.03935268
156	0x3e2b7914	0.16745406
157	0xbd98c9bf	-0.07460355
158	0x3e066ed2	0.13128212
159	0xbd66aa1d	-0.056314576
160	0xbe65cc21	-0.2244115
161	0xbc4e1bd5	-0.012579878
162	0xbd2f73b7	-0.042834964
163	0x3ce3455a	0.02774303
164	0xbd320438	-0.043461055
165	0x3a615127	0.00085951615
166	0x3e4df167	0.20111619
167	0xbcf5d282	-0.030007605
168	0x3baf0108	0.005340699
169	0x3e15782a	0.1459662
170	0xbdbbdec8	-0.091733515
171	0xbd104dd3	-0.03523047
172	0xbd1eaf6f	-0.038741525
173	0xbc2dc202	-0.010605337
174	0xbcc833da	-0.024438787
175	0x3d3aaee4	0.045576945
176	0xbd0bf934	-0.034173205
177	0x3c46c1a3	0.0121311275
178	0xbcf799ac	-0.030224644
179	0xbd1a5b96	-0.037685
180	0xbdab2064	-0.083557874
181	0xbd5a5628	-0.05330482
182	0xbdb29268	-0.08719331
183	0xbd9e1796	-0.077193424
184	0x3cda3e86	0.026641142
185	0xbd997dbb	-0.07494684
186	0xbc645d58	-0.0139382705
187	0xbd481a47	-0.048853185
188	0x3a23759d	0.0006235482
189	0x3c8ce1ce	0.017197516
190	0xbcd77e20	-0.026305258
191	0xbe226458	-0.1585859
192	0x3d1235e3	0.03569592
193	0x3d34686d	0.0440449
194	0x3d134bc5	0.03596093
195	0x3d5eeb12	0.0544234
196	0x3da1cabf	0.07899999
197	0x3e26d4e0	0.16292143
198	0x3d58635e	0.05282914
199	0xbd235b9f	-0.0398823
200	0x3c8ff0e0	0.017570913
201	0xbbb3db0b	-0.0054887584
202	0xbd955afb	-0.07292744
203	0x3e1c9fea	0.15295377
204	0x3ca5387f	0.020168541
205	0x3d45e225	0.04831137
206	0x3e5f421c	0.21802562
207	0x3c256319	0.0100944275
208	0x3d852bea	0.065025166
209	0xbe1cd27e	-0.15314671
210	0x3d875f2e	0.06609951
211	0x3cb66d24	0.02226884
212	0x3b97cef9	0.0046328274
213	0x3a33d0d7	0.00068594277
214	0x3d811dc6	0.06304507
215	0x3ba2273d	0.004948525
216	0x3d8f8a28	0.07008773
217	0x3df13b43	0.117788814
218	0x3e16e147	0.14734374
219	0x3c2a2a9f	0.010386138
220	0x3c13f254	0.0090299435
221	0xbe25dbd8	-0.16197145
222	0xbdfc6b16	-0.123251125
223	0xbd9afba1	-0.07567526
224	0xbc1374b2	-0.00899999
225	0x3ddfcb04	0.10927394
226	0xbd0f22bb	-0.03494523
227	0x3d8eb76a	0.06968577
228	0x3ca543fa	0.020174015
229	0xbadd2df8	-0.0016874662
230	0x3d4882c2	0.048952825
231	0x3e1a34dc	0.15059227
232	0x3cdd932e	0.02704772
233	0xbda653e4	-0.081214696
234	0xbd0089d4	-0.031381443
235	0x3d10d3cd	0.03535824
236	0xbded7358	-0.11594266
237	0x3d02ecea	0.03196422
238	0xbd28df2c	-0.04122846
239	0xbd388729	-0.045050774
240	0xbd938395	-0.07202832
241	0x3dd7d39f	0.105384104
242	0x3dae61a5	0.08514718
243	0x3e242959	0.16031398
244	0xbbf1f759	-0.0073842225
245	0xbdef2b8f	-0.1167823
246	0x3e39befe	0.18139264
247	0x3cf2a859	0.02962129
248	0xb97c328d	-0.00024051424
249	0xbcbe397f	-0.023220776
250	0x3e19f8c7	0.15036307
251	0x3d34643f	0.044040915
252	0xbd69a09f	-0.057037946
253	0x3e47600e	0.19470236
254	0xbc9aedfd	-0.01891231
255	0xbde5ac07	-0.11214452

network_body._body_endoder.seq_layers.2.bias f4 [128]
0	0xbc1d52d0	-0.009602264
1	0x3c59a246	0.013283318
2	0xbbc18e59	-0.0059068617
3	0x3c857497	0.016290946
4	0x3c571681	0.013127924
5	0x3bc049a3	0.005868153
6	0x3c64e20f	0.013969912
7	0x3bb2597a	0.0054427953
8	0xbbb3b373	-0.0054840385
9	0xbc018336	-0.007904818
10	0x3bc564f1	0.006023996
11	0x3be8418d	0.0070878924
12	0xbb342ed1	-0.0027493725
13	0xb8e6d455	-0.000110068046
14	0xbb7fa190	-0.003900621
15	0xbbb183cf	-0.005417324
16	0xbba64f58	-0.0050753765
17	0x39bbfc6d	0.0003585549
18	0x3b22b38b	0.0024826254
19	0xbaf8ec5b	-0.0018991338
20	0x3c050a3d	0.008120117
21	0xbba8d838	-0.0051527284
22	0x3c48fceb	0.012267332
23	0x3c4e900f	0.012607588
24	0xbbafecda	-0.005368811
25	0xbb94366c	-0.004523089
26	0xbae49a85	-0.001744107
27	0xba28e36b	-0.00064425793
28	0xbb0676f8	-0.0020517688
29	0xbc16f11c	-0.009212758
30	0xbaf74b2f	-0.0018867011
31	0xbb7892cf	-0.0037929302
32	0xbac9ece1	-0.0015405678
33	0x3b45d424	0.003018626
34	0xbaec436b	-0.0018025463
35	0xbc0a791c	-0.008451726
36	0xbac0277c	-0.0014660205
37	0x3bed16f9	0.0072354046
38	0xbbcd9df5	-0.0062749335
39	0xbbeb6c99	-0.0071845767
40	0x3cb351aa	0.021889526
41	0x3ab524f9	0.0013820223
42	0x3a81fa65	0.0009916542
43	0xbb73f705	-0.0037226093
44	0xba2b82b1	-0.0006542607
45	0xbc1e2aa8	-0.009653725
46	0xbc71c8e7	-0.0147573715
47	0x3b225c7a	0.0024774359
48	0xb91128c7	-0.00013843468
49	0x3cb3b802	0.021938328
50	0xbc1365c0	-0.008996427
51	0x3b18c5e3	0.002331131
52	0x3b2402e1	0.002502613
53	0xb9827763	-0.00024884482
54	0xbb86912d	-0.004106662
55	0xbb9b121d	-0.004732384
56	0x3b7f5fba	0.003896697
57	0x3c4388c8	0.011934467
58	0x3bb2dd46	0.0054585068
59	0x3c99ea00	0.018788338
60	0xbbd5a8d7	-0.0065203714
61	0x3a1c67c7	0.0005966392
62	0xbc2ef97b	-0.010679598
63	0x3bc4afeb	0.0060024164
64	0x3b4947a7	0.0030712874
65	0xba046b1e	-0.0005051362
66	0x3c4fc095	0.0126801925
67	0x3b89eeda	0.0042093815
68	0x3bed81f4	0.0072481576
69	0x3a9120ee	0.0011072436
70	0x3b69a4f5	0.00356513
71	0xbbecd7b6	-0.007227863
72	0xbbbc85eb	-0.005753269
73	0xbaad06c5	-0.001320087
74	0x3ba4174a	0.005007659
75	0x3c7b854e	0.0153516065
76	0xbbe08b21	-0.006852523
77	0xbb72d648	-0.003705399
78	0xbc03101f	-0.007999449
79	0xbaa27d8a	-0.0012397033
80	0x39a15a00	0.00030775368
81	0xbc149084	-0.009067658
82	0x3c18b69b	0.00932088
83	0xbc6323ad	-0.013863486
84	0x3a451c80	0.00075192004
85	0xbbc14ca3	-0.0058990284
86	0x3a0e6a52	0.0005432713
87	0xbb41c2f6	-0.0029565669
88	0xbb034aa7	-0.002003351
89	0x3b4b41ac	0.0031014485
90	0xbc5b7d38	-0.013396554
91	0x3c5fefee	0.013668044
92	0x3b6202d0	0.003448654
93	0xbbd4d32e	-0.006494901
94	0x3af49d8f	0.0018662679
95	0xbb5d8603	-0.00338018
96	0x3b0c10bc	0.002137228
97	0x3b06dbc5	0.002057777
98	0xbbb8c56b	-0.0056387684
99	0x39118969	0.00013879467
100	0x3d095765	0.03353061
101	0xbb5e45c3	-0.0033916093
102	0xbc021c92	-0.007941382
103	0xbac78e2e	-0.0015224868
104	0x3b207219	0.002448207
105	0x3b2500ff	0.0025177596
106	0x3b76a0fe	0.003763258
107	0xbb9c63a6	-0.004772621
108	0x3c1ce7df	0.009576767
109	0x3b5328e9	0.003222043
110	0xbbf3bd28	-0.0074383207
111	0x3a945f32	0.0011319874
112	0xbc004c18	-0.007830642
113	0x3c3174bf	0.010831057
114	0xbbbbc545	-0.0057303035
115	0xbbbc0321	-0.0057376777
116	0x3ba4d878	0.005030688
117	0x3b5f5362	0.00340768
118	0xbb8cfcdb	-0.0043026037
119	0x3bac689f	0.0052614952
120	0xbb501e14	-0.003175621
121	0x3c1174af	0.008877917
122	0xbb267ec7	-0.0025405155
123	0xbc3c1dfd	-0.011481759
124	0x3ac40fe2	0.0014958347
125	0xbb884fc2	-0.0041598985
126	0x3bb24023	0.0054397746
127	0x3b334480	0.0027354062

action_model._continuous_distribution.log_sigma f4 [1, 2]
0	0x3ae9bf4a	0.0017833498
1	0xbac42f02	-0.0014967623

action_model._continuous_distribution.mu.weight f4 [2, 128]
0	0x3c9fab4a	0.019490857
1	0xbcff51c1	-0.031166913
2	0xba154c8f	-0.0005695307
3	0xbb9c9b58	-0.0047792606
4	0xbd70f930	-0.058831394
5	0xbb4078e5	-0.0029368934
6	0x3c1d9f71	0.009620533
7	0xbc870be5	-0.016485164
8	0x3ced51b6	0.028969627
9	0xbca668e7	-0.020313693
10	0xbc99c368	-0.018769935
11	0xbcdc45a8	-0.026888683
12	0xbc8e8895	-0.017399112
13	0xba7464a4	-0.0009322858
14	0xbcce413e	-0.025177594
15	0x3c6882fe	0.014191387
16	0x3d1a3be3	0.03765477
17	0xbc64ce19	-0.013965153
18	0xbcf7f190	-0.030266553
19	0xbc761d8a	-0.015021691
20	0x3d2d3b8a	0.04229311
21	0x3d0e0013	0.03466804
22	0xbbcd9887	-0.006274286
23	0x3bee2ac5	0.007268282
24	0xbcb38db0	-0.021918148
25	0x3cb1edec	0.021719895
26	0xbc38441d	-0.011246708
27	0x3c8604df	0.016359745
28	0xbb905e89	-0.0044058007
29	0x3c194f85	0.009357338
30	0x3c7f184f	0.01556976
31	0x3d0bc3ed	0.034122396
32	0x3d3ee7fe	0.046607964
33	0xbcdcc8a2	-0.026951138
34	0x3c479e9a	0.01218381
35	0x3b2dc548	0.0026515294
36	0x3d39a97a	0.04532764
37	0xbc7df40e	-0.015500082
38	0x3c02ff43	0.007995429
39	0x3c112227	0.00885824
40	0xbca22644	-0.019793637
41	0x3cfd94dd	0.030954773
42	0xb9a4a511	-0.00031403502
43	0x3cd7479e	0.026279267
44	0x3c355584	0.011067752
45	0xba16b942	-0.00057496515
46	0xbbc1a31f	-0.005909338
47	0xbca18d43	-0.01972068
48	0x3abdaa9a	0.0014470399
49	0xbd325f50	-0.04354793
50	0x3b572137	0.0032826194
51	0xbca9997d	-0.020703072
52	0xbc71d35f	-0.014759867
53	0x3c724036	0.014785817
54	0x3d2065ab	0.039159458
55	0x3cdfd2e1	0.027322235
56	0xbc352b5c	-0.011057701
57	0xbc91d07c	-0.017799608
58	0x3c3fa082	0.011695983
59	0x3d41d114	0.047318533
60	0x3c532a8e	0.012888564
61	0xbb7dcd6f	-0.0038727184
62	0x3ce228f1	0.027607413
63	0xbcd944ad	-0.026522005
64	0xbc0a464e	-0.0084396135
65	0x3d9ce4ab	0.076608025
66	0xbb6d84e2	-0.0036242534
67	0xbcaa8d42	-0.02081931
68	0xbd11621e	-0.035493962
69	0xbccdaf03	-0.025107866
70	0xbc9a464d	-0.01883235
71	0xbc510cb8	-0.01275938
72	0x3caeae48	0.021323338
73	0x3caaee14	0.020865478
74	0x3b89782d	0.0041952343
75	0x3d0b2738	0.03397295
76	0x3ce56982	0.028004412
77	0xbc468244	-0.012116019
78	0x3b345eca	0.002752232
79	0x3d13a1af	0.036042865
80	0xbc6f704e	-0.014614178
81	0xbcb8b9e2	-0.022549573
82	0xbc0a656f	-0.008447035
83	0xbb197702	-0.0023416881
84	0x3ceaf1f0	0.028679818
85	0x3cb8dc2d	0.022565925
86	0xbc63d590	-0.013905898
87	0x3bc3b088	0.005971972
88	0x3ca16d82	0.019705538
89	0xbb084738	-0.0020794403
90	0x3c58f4cb	0.013241957
91	0x3d0f31de	0.034959666
92	0x3b88aaaa	0.0041707354
93	0xbb2159db	-0.0024620208
94	0x3b4d768d	0.003135118
95	0x3d4e3ea5	0.05035271
96	0xbc53f9a2	-0.012937935
97	0x3b4a866c	0.0030902876
98	0x3c9de146	0.019272458
99	0x3cd8bf13	0.026458299
100	0x3ca16cb9	0.019705163
101	0xbc32f9fa	-0.010923857
102	0x3cbee6f6	0.02330349
103	0xbbe1ff80	-0.006896913
104	0x3c2ace84	0.010425214
105	0x3c200c67	0.009768582
106	0xbcbbc37c	-0.022920363
107	0x3d2f8c8c	0.042858645
108	0x3cf054e4	0.029337354
109	0xbc93d51b	-0.018045953
110	0xbbead057	-0.0071659493
111	0x3c870273	0.01648066
112	0x3c692bf1	0.014231668
113	0x3d49d8e9	0.049279127
114	0xbb175a78	-0.0023094695
115	0x3ce4d5dd	0.02793401
116	0xbb371036	-0.0027933246
117	0xbcb2a375	-0.021806458
118	0xbca93eaa	-0.020659763
119	0xbcd55435	-0.02604113
120	0x3cd3ffea	0.025878865
121	0x3b05f4f5	0.0020440195
122	0xbbbb4dd4	-0.005716065
123	0x3c9a8902	0.018864159
124	0xbc990538	-0.018679246
125	0xba54dfd2	-0.000812051
126	0x3b914a09	0.0044338745
127	0xbc79b760	-0.015241474
128	0x3ba84e01	0.005136252
129	0x3c8c857e	0.017153498
130	0xbb763202	-0.0037566428
131	0x3d5dbd57	0.054135647
132	0xbcd7ecf1	-0.0263581
133	0x3cf52cc7	0.029928578
134	0xbb4fd8b9	-0.003171487
135	0xbc954dbb	-0.018225541
136	0xbcdf1180	-0.027230024
137	0xbc29d151	-0.010364846
138	0x3c829b2f	0.015943138
139	0x3c616b0f	0.013758435
140	0xbd404035	-0.046936233
141	0x3c918fd0	0.01776877
142	0x3c9b2410	0.018938094
143	0xb9f8c90e	-0.00047452044
144	0x3c638f4c	0.013889145
145	0xbbf6db07	-0.0075334343
146	0xbc6b8f3d	-0.014377412
147	0xbc4bcf96	-0.012439629
148	0x3b85526f	0.0040686647
149	0x3b343dfa	0.0027502761
150	0xbd202b41	-0.03910375
151	0x3d01a34e	0.03164988
152	0xbc9cbfee	-0.019134488
153	0x3d061f4a	0.032744683
154	0xbb41835d	-0.0029527762
155	0x3c50bba9	0.012740054
156	0xbc314826	-0.010820424
157	0xbcb679e9	-0.022274928
158	0xbc7aa6e1	-0.015298576
159	0x3d14d4f7	0.03633591
160	0x3b6c0412	0.0036013168
161	0xbb70ed90	-0.0036762692
162	0xbcf00546	-0.02929939
163	0xbc316a96	-0.010828635
164	0x3c568abd	0.013094601
165	0xbbb53bc8	-0.005530808
166	0xbc6df213	-0.014523047
167	0xbc68639d	-0.014183906
168	0x3cdeac7d	0.027181858
169	0xbc8ec0d6	-0.017425936
170	0x3be6fef3	0.0070494353
171	0xbce2b498	-0.027674004
172	0xbc88bf4a	-0.016692776
173	0xbc02f4af	-0.007992907
174	0xbc9c8ca0	-0.019110024
175	0xba2498c1	-0.00062788656
176	0xbc4c6764	-0.012475822
177	0x3d02097e	0.031747334
178	0x3ce9bcda	0.028532434
179	0xbba29509	-0.004961614
180	0x3c5471cd	0.012966585
181	0xbc23426a	-0.009964565
182	0x3abc7191	0.0014377107
183	0x3bd60159	0.0065309224
184	0x3c256d6d	0.01009689
185	0x3d0198ca	0.03163985
186	0x3cf419b1	0.029797407
187	0xbca277cd	-0.019832516
188	0x3bebd1d1	0.007196643
189	0xbcbd1a55	-0.023083845
190	0xbc7aa966	-0.015299177
191	0x3c9795d7	0.018504066
192	0xbb0e53f1	-0.0021717513
193	0xbbde32ac	-0.006780943
194	0x3cc3d91c	0.023907237
195	0xbd0615a5	-0.032735486
196	0xbc9445b3	-0.018099641
197	0xbcb4384c	-0.0219995
198	0xbc12b18d	-0.008953464
199	0xbd02d361	-0.031939868
200	0xbd23946d	-0.03993647
201	0x3a1da03f	0.0006012953
202	0x3c85f273	0.01635096
203	0x3cbc0914	0.022953548
204	0xbc285738	-0.010274701
205	0xbc052507	-0.008126504
206	0xbc9428c1	-0.01808584
207	0xbcceb613	-0.025233304
208	0xbceabaa9	-0.02865346
209	0xbcfad31f	-0.030618249
210	0x3bbda009	0.0057869
211	0xbc3b3a12	-0.011427419
212	0x39bb6ecf	0.00035749978
213	0x3964cb72	0.00021819564
214	0xbcadd1db	-0.021218231
215	0xbcac8c9f	-0.021063147
216	0x3c9c69c6	0.019093405
217	0xbce387ef	-0.02777478
218	0xbb4be71a	-0.003111309
219	0x3c976e32	0.018485162
220	0x3cd220d1	0.025650414
221	0xbc597b7e	-0.013274072
222	0x3d097464	0.033558264
223	0xbc9abb79	-0.018888222
224	0x3b2f3009	0.0026731512
225	0x3cf0dc66	0.02940197
226	0xbce56b2b	-0.028005203
227	0xbb8658e0	-0.00409995
228	0xbd4d3df2	-0.050107904
229	0xbc2c35bc	-0.010510858
230	0x3b368e40	0.0027855784
231	0xbb380ed1	-0.0028085003
232	0xbd0b8f60	-0.03407228
233	0x3c5c3dba	0.013442451
234	0x3a1c3364	0.00059585855
235	0xbb4cc9b4	-0.0031248154
236	0xbcd30a48	-0.025761738
237	0x3bf48a8f	0.0074628065
238	0xbc685f4f	-0.01418288
239	0xbac00dc5	-0.0014652541
240	0xbcae36e4	-0.021266408
241	0x3ccbf527	0.024897171
242	0x3c2ff9b2	0.010740684
243	0xbc8f67a7	-0.01750548
244	0xbcef4f29	-0.029212551
245	0xbba6e827	-0.0050935927
246	0xbb2710f4	-0.0025492283
247	0x3c18ea54	0.009333212
248	0x3c944d15	0.018103162
249	0xbcd333ac	-0.025781475
250	0x3be00158	0.0068360977
251	0x3b8c0ab7	0.0042737382
252	0x3c6aa489	0.014321455
253	0xbcebffa3	-0.02880842
254	0xbd21b3b9	-0.039478038
255	0xbd134aeb	-0.03596012

action_model._continuous_distribution.mu.bias f4 [2]
0	0xbbbd55fc	-0.0057780724
1	0x3b9608b8	0.004578676

action_model._discrete_distribution.branches.0.weight f4 [5, 128]
0	0xbc9a2854	-0.018818058
1	0xbd22d6a9	-0.039755497
2	0x3b1528ec	0.0022759987
3	0x3b371d95	0.0027941216
4	0xbc1600c0	-0.009155452
5	0x3c996742	0.018725995
6	0xbbadbe7d	-0.005302249
7	0x3b61e8fd	0.0034471147
8	0x39f61251	0.00046934423
9	0xbbb4d9c9	-0.005519126
10	0x39fdd135	0.00048411792
11	0xbadf1c95	-0.0017022068
12	0x3a49ad69	0.00076933816
13	0xbc05ed67	-0.008174277
14	0x3caf0dee	0.021368947
15	0xbba69374	-0.0050834958
16	0xbc0223f6	-0.007943144
17	0x3c0e0fd4	0.008670766
18	0x3bba165b	0.0056789345
19	0x3b0fa369	0.0021917468
20	0x3ca58fe8	0.020210221
21	0x3cc8286e	0.02443334
22	0x3c41829d	0.011810926
23	0x3c8234a9	0.015894251
24	0xbc3d8c02	-0.011569025
25	0xbc80ea26	-0.01573665
26	0xbae0ac4c	-0.0017141192
27	0x3a9b1173	0.0011830762
28	0xbc2e2827	-0.01062969
29	0xbc0aa475	-0.008462061
30	0x3ace7d31	0.0015753863
31	0xbb62061a	-0.00344885
32	0xbb13d71c	-0.0022558635
33	0xbbc7a6b2	-0.0060928697
34	0x3ab64390	0.0013905633
35	0xbad37957	-0.0016134185
36	0xbbc51354	-0.006014267
37	0x3af2beb3	0.0018519968
38	0xbb5faa46	-0.003412859
39	0xbc4c4df3	-0.012469756
40	0xbc4bd37c	-0.0124405585
41	0x3c3e4227	0.011612452
42	0x3b8da6c3	0.004322858
43	0x3bae5b4e	0.005320943
44	0xbc0ba345	-0.008522813
45	0xba29e6c3	-0.00064812246
46	0xbc61b7ee	-0.013776762
47	0xbb40af29	-0.0029401279
48	0xbc8926ff	-0.016742228
49	0x398035fb	0.0002445428
50	0xbad635ec	-0.0016342974
51	0x3b9a2125	0.004703658
52	0xbbf731e7	-0.0075437906
53	0x3c24ae9c	0.010051396
54	0x3a13ec7c	0.0005642844
55	0x3b5c912c	0.0033655865
56	0x3bde0247	0.006775174
57	0x3b0480a9	0.002021829
58	0xbc3e5ff8	-0.01161956
59	0xbb165d0b	-0.0022943642
60	0xbba86e7b	-0.0051401234
61	0xbcd5ef57	-0.026115103
62	0xbb88700f	-0.004163749
63	0xbc801205	-0.015633592
64	0xbbb6d32d	-0.0055793733
65	0x3bec5b8a	0.0072130607
66	0x3b80dce0	0.0039325804
67	0xbc1fff98	-0.009765528
68	0xbba88c78	-0.0051436983
69	0xbaa54420	-0.0012608804
70	0xba109d7a	-0.000551663
71	0x3c153b2e	0.009108348
72	0xbc6771dd	-0.014126268
73	0xbbee658a	-0.007275288
74	0x3b3c15f1	0.0028699602
75	0xbca32308	-0.019914165
76	0x3c633b07	0.013869054
77	0x3a27edb2	0.0006405964
78	0xbbb53ad0	-0.0055306926
79	0xbc4d177c	-0.012517806
80	0xbba8d4ab	-0.005152305
81	0x3c7d5129	0.015461245
82	0x3be32874	0.0069323126
83	0xbbbf9010	-0.005846031
84	0xbbf46c55	-0.0074592032
85	0xbc20bf90	-0.009811297
86	0x3bf83248	0.0075743534
87	0xbba2eee7	-0.004972327
88	0xbc3b5e49	-0.011436054
89	0xbaa5bf63	-0.0012645539
90	0x3b892094	0.004184792
91	0x3cdda519	0.027056264
92	0x3aab17d2	0.0013053364
93	0x3ba6848e	0.0050817197
94	0xbc08a1cc	-0.008339357
95	0xbc2a82c7	-0.010407156
96	0x3b0d991d	0.0021606155
97	0x3bb9177f	0.005648553
98	0x3bd56548	0.006512318
99	0x3bfd5614	0.0077312086
100	0x3bcb4631	0.006203436
101	0x3c5a83c2	0.013337078
102	0xbaa712b6	-0.0012746665
103	0x3bab2e36	0.0052240146
104	0xbc1cca8e	-0.009569777
105	0x3ba9e725	0.0051850253
106	0x3c4fecfb	0.012690778
107	0x3c17b84f	0.009260251
108	0xbbe8f16d	-0.0071088583
109	0x3ba85c05	0.0051379227
110	0x3a87889a	0.0010340393
111	0x3bcad246	0.0061896173
112	0xbb519307	-0.0031978504
113	0xbb9212ee	-0.004457823
114	0x3a83cfde	0.0010056456
115	0xbae5d3c4	-0.0017534425
116	0x3b61e18f	0.0034466719
117	0xbcc0d8d2	-0.023540888
118	0x38a23845	7.735243e-05
119	0x3c06acaf	0.008219882
120	0xbb4a8dcf	-0.0030907278
121	0xbc56f4be	-0.0131198745
122	0xbb38baf6	-0.002818761
123	0x3c36bfec	0.011154156
124	0x3b0eda86	0.002179773
125	0x3c9f413f	0.019440291
126	0xbcbbdd1c	-0.022932582
127	0x3cb3dfee	0.021957364
128	0xbb930db9	-0.00448772
129	0xbcb0877e	-0.021548983
130	0x3c3c2d56	0.011485418
131	0xbc31ce37	-0.010852388
132	0x3cb04da4	0.021521397
133	0x3c73dedd	0.014884678
134	0x3c266a63	0.0101572005
135	0xbbf81303	-0.0075706257
136	0xbc76f1ce	-0.015072299
137	0xbc1467c2	-0.009057941
138	0x3c2abc7c	0.010420915
139	0x3bf01142	0.007326276
140	0x3b774a53	0.003773351
141	0xbb00c1e4	-0.0019646818
142	0x3c440bd4	0.011965711
143	0x3ba9176e	0.0051602637
144	0x39cfcc12	0.0003963416
145	0x3a08d2b6	0.00052193867
146	0x3be283ae	0.00691267
147	0xbba3b942	-0.0049964497
148	0x3bcd4a43	0.006264956
149	0xbba034b7	-0.0048890966
150	0xbce2d1bb	-0.027687898
151	0xbcca995d	-0.024731332
152	0x3c09e6ee	0.008416874
153	0xbbaeb45b	-0.0053315586
154	0xbbdcca74	-0.0067380015
155	0x3b3a96f2	0.0028471318
156	0x3cacfabb	0.021115651
157	0xbc6d6486	-0.014489299
158	0x3bd3739c	0.0064529907
159	0xbc5da9f4	-0.0135292895
160	0x3c8c6fd6	0.017143171
161	0xbbe633c1	-0.0070252125
162	0xbc28a13b	-0.010292347
163	0x3a83ed70	0.0010065269
164	0xbb51bea2	-0.0032004495
165	0xbc3cc1ca	-0.011520812
166	0xbc5ee43d	-0.013604221
167	0xbc3a3e9b	-0.011367465
168	0x3bf01dc1	0.0073277657
169	0x3c8a890b	0.01691105
170	0xbb9a7a15	-0.0047142603
171	0xbb3add85	-0.0028513384
172	0x3c2e65eb	0.010644416
173	0xbb11130a	-0.0022136592
174	0xbc1c2a71	-0.009531603
175	0x3c3a60f7	0.011375657
176	0xbc4ace73	-0.012378323
177	0x3c9ef8f8	0.019405827
178	0x3c265fd4	0.010154683
179	0x3c021018	0.007938407
180	0xbbfb7c92	-0.007674762
181	0xbb067187	-0.0020514445
182	0xbacae637	-0.0015479986
183	0xbc29ae50	-0.010356501
184	0xbae8a7d8	-0.0017750217
185	0xbb410e18	-0.0029457863
186	0x3b3e1f1e	0.0029010247
187	0xbd032943	-0.032021772
188	0x3c35fdd6	0.0111078825
189	0x3c0f715c	0.008755054
190	0x3bcbd163	0.006220029
191	0xbba248fc	-0.004952548
192	0xbbc209d8	-0.0059215836
193	0x3cdd96c0	0.027049422
194	0xbc815058	-0.015785381
195	0x3c0c14f5	0.008549918
196	0x3ca378b7	0.019955022
197	0x3b2344c0	0.0024912804
198	0x3c364672	0.011125194
199	0x3ba5a58d	0.0050551356
200	0xba8297e5	-0.0009963481
201	0xbbdb4b7b	-0.0066923476
202	0x3c92690b	0.017872354
203	0xbc4ca0ba	-0.012489492
204	0x3c14b4b5	0.009076287
205	0xbc05c3c6	-0.008164352
206	0xbc0ea1a7	-0.008705533
207	0x3b81c66e	0.0039604222
208	0x3a351f12	0.0006909232
209	0xba87b47d	-0.0010353472
210	0x3cd0aea0	0.025473893
211	0xbb3211cc	-0.0027171252
212	0x3aa9e136	0.0012960795
213	0x3ae2676f	0.0017273257
214	0xbbbd3b50	-0.005774893
215	0xbbf797eb	-0.007555952
216	0xbc86d14d	-0.016457224
217	0xba39d20b	-0.0007088489
218	0xbc3f7f57	-0.011688075
219	0xbcbec2bc	-0.023286216
220	0xbbca7c32	-0.006179356
221	0xbb26da5c	-0.0025459742
222	0xbc7af580	-0.015317321
223	0xbaf24c76	-0.0018485922
224	0xbb6c3c26	-0.0036046593
225	0x3af25bbe	0.0018490476
226	0xbbc13e5d	-0.005897327
227	0xbbff0959	-0.0077830967
228	0xbcec0e1f	-0.028815327
229	0xb99fd9c7	-0.000304891
230	0xbaaa1505	-0.0012976235
231	0xbc358119	-0.011078143
232	0x3aef57bd	0.0018260401
233	0x3c858fab	0.016303858
234	0xbb993549	-0.0046755415
235	0x3bab1f91	0.005222269
236	0xba874072	-0.0010318889
237	0xbc3d24c6	-0.011544412
238	0xbc0d29ae	-0.008615894
239	0xbbaa18d7	-0.0051909494
240	0x3b89a108	0.0042001046
241	0xbb0575bd	-0.0020364367
242	0x3b5fb6ba	0.0034136013
243	0xbb4c35a4	-0.0031159902
244	0xbc739329	-0.014866629
245	0x3b9665d3	0.004589775
246	0xbc1de48d	-0.00963701
247	0xbcb8d7c7	-0.022563828
248	0xbca0aa8d	-0.019612575
249	0xbc3544c1	-0.0110637555
250	0x3a8f4337	0.0010930066
251	0x3b679980	0.0035339296
252	0x3b4c3025	0.0031156626
253	0xbb1a92ff	-0.0023586152
254	0xba36c227	-0.000697168
255	0xbc9e33bf	-0.019311784

action_model._discrete_distribution.branches.0.bias f4 [5]
0	0x3b57a0ff	0.0032902358
1	0xba977d6c	-0.0011557764
2	0xbaae5892	-0.0013301542
3	0x3bb0ea9d	0.005399062
4	0xbbe4602d	-0.006969473
