3DPlayground/results/TestA2/MoveToGoal2/checkpoint.pt (torch, 685739 bytes, 42 tensors)

network_body._body_endoder.seq_layers.0.weight f4 [128, 82]
000000 bc a7 0c 3d 17 da e5 bd 45 1f a4 bd 6f 59 22 3e
       0.03433965 -0.11223238 -0.08013777 0.15854429
000010 d6 96 99 bd 02 96 a5 3c e0 9a 0a bd 83 11 7f 3c
       -0.07499473 0.02021313 -0.033839107 0.01556814
000020 e0 28 6f 3e 84 64 44 bd 73 e5 8b 3d c3 3a 6c be
       0.23355436 -0.04794742 0.06830873 -0.23069291
000030 4e e3 8a be 07 28 d8 3d 99 c8 26 3b 7a 72 8d 3c
       -0.27126545 0.105545096 0.0025449155 0.0172665
000040 65 e1 72 3d 7e db 8d bc 9d bb d4 bd 47 e4 b0 bd
       0.059296984 -0.017316576 -0.10387347 -0.086372904
000050 10 a5 c2 3d 90 44 f8 3c 18 5a 3d 3e a7 27 1d 3d
       0.095041394 0.03030613 0.184914 0.038367894
000060 74 57 54 bd e3 51 5b bd 51 7c 10 3e df 7b 0f 3e
       -0.051841214 -0.05354489 0.14109923 0.14012097
000070 58 ea 21 bd 08 53 93 bc 89 19 17 3e cc 34 89 bd
       -0.03953013 -0.017983928 0.14755835 -0.06699523
000080 8d 49 55 3e 86 d3 f7 3d 3a 6a 95 bd b2 c2 b2 bd
       0.20828839 0.12100892 -0.07295652 -0.087285414
000090 6e 1a b1 bd 48 47 ee bc e5 c5 7e 3c 9a 77 a6 bd
       -0.08647619 -0.029086724 0.015550111 -0.08128281
0000a0 79 43 bf bd 64 d9 66 bd 8c e6 07 3e cc 0f 1b be
       -0.09339041 -0.056359664 0.1327154 -0.15142745
0000b0 f5 a2 40 be ec a1 ef 3d de 29 9a bd 00 57 1d be
       -0.18812163 0.11700806 -0.07527517 -0.15365219
0000c0 42 b6 2e b9 de 38 87 3c 5c e1 33 bd 22 ef 8c bd
       -0.0001666183 0.016506609 -0.04391609 -0.068815485
0000d0 0d b1 b1 3d 86 ec 0f bd 46 d4 19 3e ef 5a fd bd
       0.08676348 -0.035137676 0.15022382 -0.1237086
0000e0 7d f6 d1 3d c2 11 71 bd 96 78 3a 3e 32 47 c4 bd
       0.10252092 -0.058854826 0.18210062 -0.09583892
0000f0 15 b9 7c bb 1b 62 8b 3e ed 74 49 bc 61 00 8c 3c
       -0.0038562466 0.27223286 -0.012295944 0.017090024
000100 78 8c 84 bb 32 48 b6 3d 03 89 2d 3d 43 ce 31 bc
       -0.0040450655 0.08900489 0.042366993 -0.010852399
000110 fa 35 15 be 70 98 a0 bc c1 62 7a 3e 4b 44 6a bd
       -0.14571372 -0.019603938 0.24451734 -0.057194036
000120 87 68 b7 3d bc c4 53 3d ea 94 fd 3d 6b 97 07 3e
       0.08955484 0.051701292 0.12381919 0.13241355
000130 bd 55 a3 bd de 28 23 be 61 88 aa bd b1 58 ad 3b
       -0.07975338 -0.15933558 -0.083267935 0.005290114
000140 05 14 5b 3d 41 7d 88 3d d3 81 81 bd e2 90 f9 bc
       0.05348589 0.06664515 -0.0632359 -0.030464593
000150 7e 9b f7 bc 2f a0 74 3e 2d cf 01 be d9 5f 01 3e
       -0.030225512 0.2388923 -0.12676688 0.12634219
000160 59 70 e6 3d ed 7d c0 3c 0e f4 7d bd e2 26 95 3d
       0.11251897 0.023497546 -0.062000327 0.07282807
000170 36 e3 05 3e 64 12 6c 3d e0 e4 03 bc 2d 3c 69 3e
       0.13074955 0.057634726 -0.0080501735 0.22776861
000180 23 b8 c9 bd 5d 14 29 3d 28 c8 bd bd 41 76 b3 3c
       -0.098495744 0.041279186 -0.092666924 0.021906974
000190 d1 b3 92 3e 51 49 ff 3c ec 76 ba bd d8 f6 33 bd
       0.28652814 0.03116289 -0.09104714 -0.04393658
0001a0 3b 40 32 bc 26 dd 3e 3d ca d2 4a 3d 57 43 e7 bd
       -0.010879572 0.046597622 0.04951743 -0.11292141
0001b0 45 54 ca bd 8a 1d c7 bb 7c 62 8a bd 58 89 3c 3e
       -0.098793544 -0.0060765194 -0.06757066 0.18411767
0001c0 a5 5a bd bd a9 30 c1 3d 0e db e8 3d 7a 43 c2 3d
       -0.09245805 0.09433109 0.11369906 0.094855264
0001d0 17 af ca bd ea fe 40 be 12 3c 0a be 35 8d 56 3e
       -0.09896677 -0.18847242 -0.13499478 0.20952304
0001e0 3d 41 3f bd 6f b2 7c bd 87 5d ea 3d 0c dd 45 bc
       -0.046693075 -0.061693605 0.1144362 -0.012076627
0001f0 94 6b 18 be 0e 65 47 3e 1f ca f3 3d b4 8d 0a 3e
       -0.14884788 0.19472143 0.11903786 0.13530618
000200 4b dd bc bd 44 6a 05 be 50 64 70 3c ed 7f bc 3d
       -0.09221896 -0.13028818 0.014672354 0.092040874
000210 97 2b 1d bd 07 f1 8a be cb ce 57 3d 8a df 4b 3d
       -0.03837165 -0.27137014 0.052687448 0.04977373
000220 1c 9d 0a be 90 9c c5 bb 7d be 3d 3a e5 1c 59 3d
       -0.13536495 -0.0060306266 0.0007238163 0.05300607
000230 2f cd 98 bd dc 85 c8 bd 08 54 24 be a2 71 55 3c
       -0.07461011 -0.09791157 -0.1604768 0.01302758
000240 73 22 f5 3d 0e 10 1b 3c 30 b7 06 be 50 e4 62 bd
       0.11969461 0.009464277 -0.13155818 -0.055393517
000250 46 57 08 be 65 32 a5 3c f9 f4 02 3d 21 63 b4 bd
       -0.13314542 0.020165632 0.031971905 -0.0880797
000260 4f 31 51 bd 44 4c 22 be 2b f7 83 3d 4f e6 9d bb
       -0.051072415 -0.15849406 0.06443628 -0.0048187147
000270 f9 68 36 3d 0c ec 1b 3e b7 58 7f 3d 98 3f 83 3d
       0.044533703 0.15226763 0.062340464 0.06408614
000280 d6 8b ab bb 20 9e 42 3d 6c 8e e7 ba fc 02 90 bd
       -0.0052351756 0.04751408 -0.0017666346 -0.07031819
000290 36 88 c9 3d f4 59 1d 3d 8f a3 26 bd 86 d9 a4 3d
       0.09840433 0.038415864 -0.040683325 0.08049302
0002a0 63 dd 68 3c 28 be 5e 3e 6d e3 9d 3d e5 12 31 be
       0.014212939 0.21752226 0.07709394 -0.17292364
0002b0 54 2a 0e be ed 47 86 3e c7 08 b1 bd 7b c3 2c bc
       -0.13883334 0.2622675 -0.08644252 -0.010544653
0002c0 9d 54 08 bb ca e7 8a 3c f4 42 07 bd 38 d2 31 3d
       -0.0020802387 0.016956229 -0.033022836 0.04341337
0002d0 57 35 20 bd 69 fb a1 be b9 94 5d bd ad 86 51 3d
       -0.03911337 -0.31637123 -0.05409691 0.051153827
0002e0 85 f4 45 3e 8c 38 a1 3d 6c 0c d0 3d 44 7f d6 bd
       0.19331558 0.078721136 0.10158619 -0.10473493
0002f0 3b 01 02 be dc 3a 4e bd f8 b1 0c 3e 26 d1 0f be
       -0.12695782 -0.0503491 0.13739765 -0.14044628
000300 29 22 12 be 05 d0 0b bb e7 43 07 3e 9c fe 5c 3d
       -0.14270844 -0.0021333706 0.13209496 0.053953752
000310 07 56 1c bd 38 55 42 3d 3e 06 95 bd eb d6 d5 ba
       -0.03816798 0.047444552 -0.07276581 -0.0016314661
000320 2d 1b c2 3d 2a d6 2a be 3f 39 46 bd f0 22 51 bd
       0.094778396 -0.1668326 -0.048394438 -0.05105871
000330 10 e7 7b bd 26 59 30 3e ec 39 ba 3d d7 1f 03 3e
       -0.061499655 0.17221507 0.09093079 0.12805115
000340 c6 7a 6d bd be c0 6a bd bd e7 2c 3e 90 74 22 be
       -0.057978414 -0.05731272 0.16885276 -0.15864778
000350 d3 10 91 bd 3a 91 f5 bb 48 76 a7 3d b0 86 90 3d
       -0.07083287 -0.007494119 0.08176857 0.070569396
000360 4d 7d ce bb 84 8c e2 bc cc b0 ea bc 43 46 0b 3e
       -0.006301558 -0.027654894 -0.028648756 0.13601021
000370 35 62 86 be 4b 33 51 3e 0e da 4d 3c 0e 70 01 3e
       -0.262468 0.20429723 0.012564195 0.12640402
000380 37 8f 81 bc a7 69 a0 3d d8 d4 1b 3b d8 fd 25 be
       -0.01581536 0.078326516 0.0023777988 -0.16210115
000390 ce 62 f7 3c f9 62 34 3d 25 b5 b3 3d 5a 35 b0 be
       0.030198481 0.0440397 0.08774785 -0.34415704
0003a0 10 04 b4 3d 15 ef 5b 3c 46 44 81 3d 24 61 cc 3d
       0.08789837 0.013423701 0.0631185 0.099794656
0003b0 58 86 34 be ab 5e 00 3c 6c 4b 3a be 79 d3 d3 3d
       -0.17629373 0.007835071 -0.18192834 0.103430696
0003c0 f2 cc 77 3d de 73 d1 bc d5 ee 25 3e 08 74 e7 3d
       0.060498185 -0.025567945 0.16204388 0.11301428
0003d0 57 e4 d0 bc ac f8 b4 bb c3 6a 9e 3e dd 01 dc 3b
       -0.025499506 -0.005522808 0.30940828 0.0067140893
0003e0 cd df c5 3d f1 cf d7 3d 48 5c b6 3d c6 09 2b bb
       0.09661827 0.105377086 0.0890432 -0.0026098355
0003f0 fb 5c 6e 3e 97 d3 1d bd 1c a2 a9 3d ed 2d c4 3c
       0.23277657 -0.038531866 0.08282873 0.02394768

network_body._body_endoder.seq_layers.0.bias f4 [128]
000000 27 bd ca bb 36 07 11 3c 3f 84 61 bb b4 3a 85 3d
       -0.0061870995 0.008851817 -0.00344111 0.06505337
000010 c3 e5 81 3b 65 46 2e bb eb 78 65 3b e2 63 54 3b
       0.0039641573 -0.0026592251 0.00350147 0.0032408168
000020 90 f9 79 3c a4 49 84 3d 0a 41 0d 3c aa 4b a7 3c
       0.015257254 0.06459358 0.008621464 0.020421822
000030 b7 74 eb ba 33 7d e2 3b 0f 93 ab ba 2d a3 1f bc
       -0.0017963861 0.0069118976 -0.0013090092 -0.009743494
000040 48 f4 9e 3c 12 37 b1 bc 4e 37 ab 3a d9 1a 93 bb
       0.019403592 -0.021632705 0.0013062747 -0.0044892845
000050 20 eb 1c bc 81 38 23 bb 52 3e 1b 3d 69 f1 0e 3c
       -0.009577543 -0.0024905505 0.03790123 0.008724549
000060 41 9e 5d 3c 59 bb f7 ba 19 b0 3c 3c 55 38 0b 3c
       0.0135265 -0.0018900438 0.011516594 0.008497317
000070 8d a5 85 3c 9c 2d 8a 3b c7 c1 7b 3b 14 4e a4 3c
       0.016314292 0.004216863 0.003841506 0.020056762
000080 43 c5 be bb 82 4c c1 bb 68 e9 33 bc 78 5f de bb
       -0.0058218553 -0.005899013 -0.010980941 -0.006786283
000090 bc ba 99 bc a9 bd a9 3b e6 b0 3e 3c f8 75 cd 3c
       -0.0187658 0.00518008 0.011638856 0.025080666
0000a0 3e cf 1b bc 4e 23 d1 3a 60 2d 20 3b 77 b6 00 3c
       -0.00950986 0.0015955956 0.0024441108 0.007856003
0000b0 f3 fb b2 3c 06 c7 c6 3b b6 9e 2c 3c de 20 e6 bb
       0.021848654 0.006066206 0.0105358865 -0.007022961
0000c0 f0 0b b0 b9 3c 9b ec 3c e7 9d 1b 3b 71 75 fc 3b
       -0.0003357823 0.028882615 0.002374524 0.00770443
0000d0 c7 12 da ba b3 d3 d6 3b 91 63 76 bc 87 a7 fb 3b
       -0.0016637676 0.006555998 -0.015038387 0.007679883
0000e0 39 08 a5 bb 09 d4 9b bb 81 d5 8b bc a8 11 4e 3c
       -0.0050363806 -0.004755501 -0.01706958 0.012577452
0000f0 72 39 07 3c dd 61 63 bc 62 74 cb bb ac 5b 40 3c
       0.008253442 -0.013878313 -0.0062089423 0.011740606
000100 3e 00 3a 3c 9e 2d 08 3d 0d 1f 2b 3d 75 f9 65 3c
       0.011352597 0.03324663 0.04177766 0.014036526
000110 11 d2 a5 ba 21 be cf bb ed 5a f7 3b 0b 65 0e 3c
       -0.0012651106 -0.006339804 0.007548681 0.008691083
000120 2e 88 b5 3c 45 04 fa bb b1 94 98 3a 26 7f 98 b9
       0.022159662 -0.0076299035 0.0011640993 -0.00029086432
000130 82 17 e8 39 ee 03 70 3c 93 8d b7 3a 16 5e 3f bb
       0.00044268003 0.014649374 0.0014003984 -0.0029200367
000140 4f 8b 30 3c 97 2e 5e 3c 32 86 8b 3b 6f de 30 3a
       0.010775401 0.013560913 0.0042579407 0.00067470124
000150 58 d8 60 bb af 4b 9e bc ba 87 9e 3b 95 bc 33 3c
       -0.0034308638 -0.019323198 0.004837957 0.010970254
000160 a4 44 1b bc ba 30 6c bb 3a 96 67 bb 32 49 a7 b9
       -0.009476814 -0.0036039785 -0.0035337345 -0.00031907257
000170 79 d4 96 3a a7 62 cd 3b 1c f5 87 3b 73 65 c7 ba
       0.0011507414 0.006267864 0.0041490924 -0.0015212729
000180 1e 69 b1 3b 88 29 33 bc b4 d6 0e 3c 1a 3b 0a 3c
       0.0054141423 -0.010935195 0.008718181 0.0084369425
000190 9d 40 b3 3c 7c 96 17 bc aa 48 b6 bb 2c f8 24 ba
       0.021881396 -0.009252187 -0.0055628615 -0.0006293084
0001a0 dd 2c 67 bb 4d 26 b4 bc 77 bf f7 3b 11 4f 4a 3a
       -0.0035274543 -0.02199092 0.007560666 0.000771747
0001b0 97 7f f9 3b 05 07 b0 bb b2 c1 9d 3a 02 d8 61 3c
       0.007614087 -0.0053719305 0.0012035875 0.01378441
0001c0 d6 60 3d 3d 91 39 fa ba 88 6a d7 bc 8f 78 50 bc
       0.046234928 -0.0019090642 -0.026295915 -0.012724056
0001d0 f8 59 66 3c 2e 3d 84 3b 9b ff 1e 3c 1f f4 99 3c
       0.014059536 0.0040356135 0.009704496 0.018793164
0001e0 a4 f2 6c 3a 7b 5c 94 3b 8e 2a 1d bc 11 60 c1 bc
       0.0009038842 0.004527626 -0.009592665 -0.023605378
0001f0 03 06 2a 3c f5 37 1c bc 55 46 3d 3c 79 93 16 3c
       0.01037741 -0.009534826 0.011552413 0.009190434

network_body._body_endoder.seq_layers.2.weight f4 [128, 128]
000000 d6 60 03 3e e2 2f 9a b9 06 4e 19 3d dc f6 25 3e
       0.12829909 -0.00029408844 0.037427925 0.1620745
000010 97 a5 92 3d 51 2d 4a be 8c 59 7d 3d 3b c9 3b 3d
       0.0716049 -0.1974385 0.061852977 0.045846205
000020 d9 50 df bd 8a af 61 bc 83 dc c2 bd 32 d7 50 3e
       -0.10904092 -0.013774762 -0.095147155 0.2039459
000030 e7 be 67 bd ff 02 e0 bb d6 92 f4 bc 0e 2f 2d bb
       -0.056578543 -0.0068362947 -0.029855173 -0.0026425752
000040 75 c0 a3 bd 9c 08 93 bd e7 03 8d bd 3b ee 9a 3d
       -0.07995693 -0.071793765 -0.0688551 0.0756497
000050 e5 9d 85 bc 24 6e 36 3d 61 7a 12 be 1c e9 93 bd
       -0.016310642 0.044538632 -0.14304496 -0.072221965
000060 36 50 c6 3d ef a6 d7 3c 40 cb 55 be ac 46 81 3d
       0.09683268 0.026324717 -0.20878315 0.06312308
000070 9a aa 19 bd 69 23 08 bd 8c fd e2 3d 32 8e 48 3d
       -0.037516214 -0.033236895 0.110835165 0.048963733
000080 d5 57 00 39 52 82 e4 bd bb fd 66 3c 21 df b4 3d
       0.00012239751 -0.11157669 0.01409858 0.08831621
000090 15 c5 f9 bc 8d ee f4 bc 0a e6 24 3d 00 d3 96 3d
       -0.030489484 -0.029898906 0.040258445 0.07364464
0000a0 c8 39 72 3d 6b 49 95 bd 84 89 42 3d 0b a6 20 3d
       0.059137136 -0.07289394 0.047494426 0.03922085
0000b0 81 42 c2 bd e8 bd cd 3c 77 cd a0 3d 5c 65 80 bc
       -0.09485341 0.025114968 0.07851689 -0.015673332
0000c0 fc 16 6d bc 61 4c 8d 3d 15 7c 84 bd 9b 50 f6 bd
       -0.014470812 0.06899334 -0.06468979 -0.12027093
0000d0 36 57 a2 3d 4f 6b 2a 3d 1e c2 23 3d b0 42 fb bc
       0.079267904 0.041606244 0.039980046 -0.030671448
0000e0 c5 ab 06 be 53 7b 21 bd b1 6f 23 3d f9 3e 02 3e
       -0.13151462 -0.03942425 0.03990144 0.12719335
0000f0 f0 b1 c5 3c d8 41 65 3b d7 5b d8 3c d7 98 92 bb
       0.024132699 0.0034981873 0.02641098 -0.0044737863
000100 fc 2f 68 3d 81 0c 51 3d 73 af a1 bd 58 6b b3 bd
       0.056686386 0.051037315 -0.078947924 -0.087607086
000110 9e 56 b2 bd 4d 9b 47 3e 5b b8 dd bc 12 5b 30 3d
       -0.08707927 0.19492836 -0.027065447 0.0430556
000120 4c 0a 5e 3d fd da cc bd c1 36 38 3d a4 e2 47 bd
       0.05420904 -0.10002706 0.044974092 -0.048800126
000130 6c 83 e5 bd 60 db 64 3d f7 b4 9a 3c ff f3 ae bb
       -0.11206707 0.055873275 0.018885119 -0.005339145
000140 63 0a d5 bc 33 fe fe 3c 82 ab 27 3d e3 5d 26 3e
       -0.02600593 0.031127071 0.040935047 0.16246752
000150 91 a4 28 bd 65 c0 03 3d 82 5e 9a 3c cd 65 07 be
       -0.041172568 0.032165904 0.018843893 -0.13222428
000160 72 8e 36 bd 59 94 f7 3c 30 6b 51 be b8 8d 8f bd
       -0.04456944 0.030222105 -0.20451045 -0.070094526
000170 9a e4 15 3d d5 51 d0 bd f3 e9 1d 3d f5 46 15 3e
       0.036594965 -0.10171858 0.03855319 0.14577849
000180 ae f1 a1 bd 39 b4 3f bd 85 a7 af 3c 17 e9 83 be
       -0.07907425 -0.046802733 0.021442184 -0.2576377
000190 b7 3e 51 3d 4b 0c 1b 3d 67 28 15 3e 01 c0 38 bc
       0.0510852 0.03785352 0.14566194 -0.011276246
0001a0 27 23 e3 3d 64 63 1a bd 1f 30 1e be 62 bd 29 3d
       0.11090689 -0.037692443 -0.15448044 0.041440375
0001b0 60 16 af bd aa da 32 bd fd 93 1a bc f9 5a 98 3d
       -0.085491896 -0.043665566 -0.009434697 0.07439227
0001c0 26 88 71 3c 49 7b 0c bd b9 25 60 3d d2 bc 28 be
       0.014741933 -0.03429726 0.054723475 -0.16478279
0001d0 85 d2 18 3d db f2 49 3b 22 cb 83 3d 61 0f 9e bd
       0.037310142 0.003081492 0.06435229 -0.07717777
0001e0 66 5f 2b bd bf c5 36 3e b1 74 6e 3d 95 22 60 bd
       -0.041839026 0.17848872 0.058216754 -0.05472048
0001f0 8c 01 5d bc b5 b0 fc 3d 70 30 9b bd 67 b1 a2 bc
       -0.013489138 0.12338392 -0.07577598 -0.019859983
000200 f7 5d 20 be 08 59 a9 3d ec ae 15 3e 79 44 78 3d
       -0.15660845 0.082689345 0.14617509 0.060612176
000210 e1 85 88 bd c5 8c 54 3d fc b9 7c 3d e7 10 8f 3d
       -0.066661604 0.05189206 0.061700806 0.06985646
000220 20 49 e8 3d e8 83 e1 bc 69 e6 a3 bc 56 44 de 3d
       0.113420725 -0.027528718 -0.020007329 0.10852878
000230 6b 7c fa 3d 30 d4 13 3e ae 70 99 3d 31 b3 f1 3c
       0.12230762 0.14436412 0.07492195 0.02950439
000240 52 f8 f7 3c 54 f0 20 be 84 f9 ff 3d 25 4f c5 3c
       0.030269776 -0.15716678 0.12498763 0.02408559
000250 7e 52 28 3d db 46 6a bc f8 a7 86 3d 13 76 25 3c
       0.041094296 -0.01429912 0.06575006 0.010098952
000260 71 34 98 bd 7f b2 f3 3c 0a 8d 5d bd 9a bf 96 3d
       -0.074318774 0.0297482 -0.054089583 0.07360764
000270 b2 08 32 bd 26 44 00 3d 8f 49 2c bd 3b be 75 3d
       -0.043465324 0.03131499 -0.04206234 0.05999587
000280 52 19 86 bd 4f e6 f5 bd 71 02 eb bc c2 b1 f5 3d
       -0.06547798 -0.120068185 -0.028687688 0.11996795
000290 4a da 49 3d 28 c9 f4 bc 0f 67 b6 3d f7 1d 28 3e
       0.049280442 -0.029881075 0.089063756 0.1641768
0002a0 d5 ca fc 3c 5e fc d7 3d 6c 9e 9a 3d 6b 2c ab bc
       0.030858437 0.10546182 0.07549748 -0.020895204
0002b0 1f d7 dc bd 01 e4 b0 bd de ef a2 3b 16 6e 84 bc
       -0.107832186 -0.08637238 0.004972442 -0.016165774
0002c0 1c 6a ae 3b d1 e6 a8 3c 2c 52 2d bd 29 ff 4c bd
       0.005322708 0.020617874 -0.042314693 -0.050048027
0002d0 5c 58 70 bb e4 cf 90 bd 38 5a a8 3d 1c a8 e0 3c
       -0.003667376 -0.07070902 0.08220333 0.02742391
0002e0 9a fb 71 bd 06 bb 80 bc a7 a1 8b 3d 2b 81 42 3c
       -0.059077837 -0.01571418 0.06817942 0.011871616
0002f0 ec 26 cf bd 08 b9 75 3e a9 ef 72 3c e9 bf a6 bc
       -0.10114846 0.23996365 0.014827647 -0.020355182
000300 42 53 56 3e a1 31 19 bd a5 00 08 3e b6 56 01 3d
       0.20930198 -0.037400845 0.13281496 0.031576835
000310 84 cf 75 3d 39 9f b6 3d 7d 56 85 3d b3 4f dd bd
       0.060012355 0.08917088 0.06510637 -0.10806217
000320 c3 d7 97 bd f5 16 9c bd a5 52 f8 bd 6e 43 0a bd
       -0.074142 -0.07621566 -0.12125138 -0.033755712
000330 5e 0e 87 3d 4c 31 52 3c 98 b6 c0 bd 0c d8 20 3e
       0.06594537 0.012829136 -0.09409827 0.15707415
000340 4f 5f 2d be 4e a6 13 3d 8f ef ba bd d2 61 06 bd
       -0.16930889 0.036047272 -0.091277234 -0.032808132
000350 f3 2a e3 bd fe 9a 10 bd 30 62 ac bd 2b c4 a2 ba
       -0.11092176 -0.035304062 -0.08417165 -0.0012418082
000360 a2 8a 61 3d b8 bd 40 3d e7 4d 48 be f4 24 0c 3d
       0.05506385 0.04705593 -0.19560967 0.03421493
000370 ba f4 f3 3b aa 22 61 3d 0e ba 98 bc d5 fd 23 be
       0.007444945 0.0549647 -0.018643405 -0.16014798
000380 63 ae ac 3d ab eb 22 be e6 27 fb 3d b1 9d 86 bd
       0.08431699 -0.15910213 0.122634694 -0.06573046
000390 be de aa bd 77 72 a6 3c 30 44 8d 3c e8 1f 0b be
       -0.08343266 0.020318253 0.017244428 -0.1358639
0003a0 c1 dc 14 be 1a c2 6e 3c d6 b6 46 bb 3e d1 11 3d
       -0.14537336 0.014572645 -0.003032138 0.03559994
0003b0 fd 2f 38 3d cc f5 44 bd 52 8e f6 3d 27 be 87 bd
       0.04496764 -0.048085973 0.12038864 -0.066280656
0003c0 df c3 47 be b9 7c 42 3d ca d0 6e be cb 8d a1 3b
       -0.19508313 0.047482226 -0.23321834 0.004930233
0003d0 13 ff e0 bd 8f 73 81 3d 07 c0 96 3d fc 79 c7 3d
       -0.109861515 0.06320869 0.07360845 0.097400635
0003e0 99 81 8e 3d ae 6e 7c 3b 7b 68 01 bd f6 df da 3d
       0.069583125 0.0038518119 -0.03159378 0.106872484
0003f0 8a 98 0d be d6 3b dc bc dd 9f fb bc e1 bb 36 3c
       -0.1382772 -0.026884 -0.030715877 0.011153192

network_body._body_endoder.seq_layers.2.bias f4 [128]
000000 aa b1 6f 3b 1b c4 cc bb 20 e0 5d bc c9 3e 9a 3c
       0.0036574402 -0.0062489635 -0.013542205 0.018828766
000010 37 f0 f5 bb 8a 12 0d bc 10 2d b1 3c d9 bf 02 3c
       -0.0075054425 -0.008610377 0.021627933 0.00798031
000020 e8 ac 0e bc e4 ef c8 ba 90 f6 6c bc 24 55 99 bb
       -0.008708216 -0.0015330282 -0.014463082 -0.004679339
000030 f7 7f 36 3b a8 3a e1 3b 6b 25 2f 3c 7f e5 24 ba
       0.002784727 0.0068734474 0.0106900735 -0.0006290301
000040 94 7b 8d 3c 8c 69 1b 3b 99 a0 3a 3c 87 34 24 bb
       0.01727084 0.0023714034 0.0113908285 -0.0025055723
000050 b8 75 5b 3b 85 d1 c7 3c f8 ff 4c bc 7b 45 cc 3b
       0.0033486914 0.024391899 -0.0125122 0.0062338687
000060 33 72 10 3c a2 ba 82 39 a6 83 51 3b 57 fa af 3c
       0.00881629 0.00024934585 0.0031969338 0.021481676
000070 b7 6d f6 3a 1e fa c4 b9 cb ff 0b 3b 05 02 0c 3c
       0.0018801008 -0.00037570385 0.0021362181 0.008545403
000080 d4 eb e5 ba 6b 76 c2 ba 0a 5a be 3b 52 8e 9c 3a
       -0.0017541596 -0.0014836317 0.0058090733 0.001194427
000090 14 a2 3e bb e7 33 0f 3b f6 56 b9 3b 17 f2 c8 3b
       -0.0029088305 0.0021851005 0.0056561185 0.006132375
0000a0 53 ad b8 3c c3 53 d5 3b 8d f3 8a 3b f8 af 35 3c
       0.022543585 0.0065102293 0.0042404593 0.0110893175
0000b0 0c 73 c8 bb 99 72 43 3c 06 01 c6 3c fd 67 26 3b
       -0.0061172303 0.011929178 0.02417041 0.0025391572
0000c0 41 b2 71 3c 82 c6 05 39 52 68 da 3b 72 4b b6 3c
       0.014751972 0.00012757818 0.006665268 0.022252772
0000d0 39 05 a4 3b a1 47 1d bb 46 6d 91 3b 3c b8 11 bb
       0.0050055054 -0.0023998993 0.0044380752 -0.0022235056
0000e0 67 57 2c 3b 26 78 c4 bb ac c8 f4 3b 28 f9 c0 bb
       0.0026297213 -0.005995768 0.007470211 -0.0058890767
0000f0 cd 7d 2f bb 19 e7 28 3c 99 27 75 bc ba fe 42 bc
       -0.0026777864 0.010309004 -0.014963054 -0.011901552
000100 4f fc f1 ba 33 b4 38 bb d5 70 a7 3a af 02 e2 bb
       -0.0018462035 -0.002818358 0.0012774715 -0.0068972926
000110 13 06 4d bc 2f 48 19 bc 01 fb ed 3b c6 68 1e bb
       -0.012513655 -0.009355589 0.007262588 -0.0024171337
000120 c2 8f 17 bb ef 05 ac 3a 11 e2 ff bb 08 85 a3 3b
       -0.0023126458 0.0013124327 -0.0078089316 0.004990224
000130 a0 70 a8 3b 11 3b 19 3c c0 06 dc b9 9a 4e eb bb
       0.005140379 0.009352461 -0.000419667 -0.007181001
000140 21 7a eb bb 09 6c ca ba a9 73 c7 3b a7 68 52 3c
       -0.0071861898 -0.0015443574 0.006086786 0.012842334
000150 e0 4b 14 bb b0 06 3c 3b 4b 4f bd 3a 7a 77 ec 3b
       -0.0022628233 0.002869051 0.0014443187 0.007216391
000160 ce d5 b7 38 13 ca 24 bc 17 ef 33 bc df 8a b1 3b
       8.765944e-05 -0.010057944 -0.010982296 0.005418166
000170 19 4d 0b bb 19 b6 4f bc 48 43 08 bc 4d ce 71 bb
       -0.002125567 -0.012677693 -0.008316822 -0.0036896646
000180 ed fa cd b8 97 d9 55 bc 09 3a c1 3c 46 2f 2a bc
       -9.8219e-05 -0.013052366 0.023587244 -0.010387247
000190 6a 18 78 ba 75 5b 81 3b 26 c6 fa bb 85 7a 15 bc
       -0.0009464087 0.00394767 -0.0076530157 -0.009123449
0001a0 d6 af 83 39 b9 e5 97 ba 4b c7 23 bb b4 a3 c8 3c
       0.00025117275 -0.0011588848 -0.0024990614 0.024492122
0001b0 7f d2 a4 3a b0 68 fa 3b b2 5d 8f b9 25 27 d5 bb
       0.001257494 0.0076418743 -0.00027344894 -0.0065049105
0001c0 7b 16 ec 3b 95 8a ac ba b3 c3 07 3b c3 53 47 3b
       0.0072048283 -0.0013163859 0.002071601 0.0030414916
0001d0 7a 56 5a bb f3 58 15 bc d7 0d e8 3b cd 20 a9 bb
       -0.0033315704 -0.009115445 0.007081728 -0.005161381
0001e0 74 5f 87 3a 41 53 63 bc b6 e4 80 3c 24 28 6a 3c
       0.001032813 -0.01387483 0.015734058 0.014291797
0001f0 ad 10 af bb 1c 3e 78 3c e1 82 68 3c b4 4c 1a bb
       -0.005342564 0.015151527 0.01419136 -0.0023544254

action_model._continuous_distribution.log_sigma f4 [1, 2]
000000 89 1b 58 3b 36 27 b6 3c
       0.0032975397 0.022235494

action_model._continuous_distribution.mu.weight f4 [2, 128]
000000 91 26 3f bb 3e af 49 3d 6c cd ac 3c 38 7b dd 3c
       -0.0029167274 0.04923939 0.021094047 0.027036294
000010 56 3f b8 bb 0b a8 85 3c be 4a 33 3d 83 ca 68 3b
       -0.0056227846 0.01631548 0.04377245 0.0035521097
000020 8e 0a 8a 3c 06 b5 12 3c 02 58 c6 3c 3a eb 4a bc
       0.016850736 0.008954292 0.024211887 -0.012385184
000030 d5 50 03 bc 4e 28 08 bd f7 24 fe bc bd 67 ec bc
       -0.008014877 -0.033241563 -0.031023486 -0.02885806
000040 81 77 a4 3b 87 5f 31 bc 6b d4 3b bc 1f 82 d3 3b
       0.005019129 -0.010825998 -0.011464219 0.0064547206
000050 18 f6 bf bc ae f9 0d 3d 7e 52 ed 3b a6 a3 8b 3d
       -0.023432776 0.03466194 0.0072425 0.06818323
000060 d3 f7 61 bd 68 3b f1 3c 33 83 f6 bb 98 d4 01 bd
       -0.055167984 0.029447272 -0.0075229644 -0.031696886
000070 78 7d e9 3b e8 1f 5f bd d4 a4 bc bc fe 90 5e 3c
       0.0071255527 -0.054473788 -0.023027815 0.0135843735
000080 fb 63 05 3c 47 04 f3 bc 63 ab 1a bd a4 a4 33 3d
       0.008141513 -0.029665126 -0.037761103 0.043858185
000090 9d 18 10 bc 26 ad 20 bc 1b ad 41 3d a6 9c 8f bc
       -0.008794931 -0.009806907 0.047284227 -0.01753075
0000a0 f5 3e eb bb 00 74 6c 3c b2 3a 27 bb 08 0a 7f bd
       -0.007179136 0.014431953 -0.0025517163 -0.062265426
0000b0 41 b4 fd 39 e3 ce 6c 3c e7 cc 41 3d 6b be fc bc
       0.0004839022 0.0144536225 0.04731455 -0.030852517
0000c0 17 89 e2 bc eb 69 16 3c 1c f3 5b 3c 09 c3 e4 bc
       -0.02765326 0.009180526 0.013424661 -0.027925031
0000d0 c3 99 fa 3c 18 a0 52 3c 59 d5 fe bc 1f b2 be 3b
       0.030590897 0.012855552 -0.031107591 0.0058195735
0000e0 65 bb 2a bd d2 4d c8 ba a2 ca 09 bc 09 4b 77 bc
       -0.04168262 -0.0015281981 -0.008410128 -0.015093573
0000f0 65 84 d7 3c ea 29 22 3c 05 81 7b 3c e0 06 f0 bb
       0.026308248 0.009897688 0.015350585 -0.0073250383
000100 3b 98 ac 3b 2d 42 71 3c 2d 78 38 3c 1c e3 a7 3c
       0.0052671707 0.01472525 0.011259121 0.020494036
000110 55 90 df bc 07 2b 06 bb b8 75 21 bd 8f 6a f0 3c
       -0.027290503 -0.0020472424 -0.039418906 0.029347686
000120 ff 41 04 3d a2 8d c9 3c 59 ee 05 3d 62 45 1c bc
       0.0322895 0.024603669 0.03269801 -0.0095380265
000130 18 06 08 bc 56 e8 45 3c 62 14 71 3b dc 71 ca ba
       -0.008302234 0.012079319 0.003678583 -0.001544531
000140 24 df ff 3b 04 85 bd 3b 76 01 43 bc a1 d9 ac 3c
       0.007808583 0.005783679 -0.011902204 0.021099867
000150 96 c8 29 3d 6e fa 96 bb a2 29 61 bc 1b 0a a5 bc
       0.04145106 -0.0046074903 -0.013742836 -0.02014642
000160 23 86 de 3c 47 7b 53 3b 37 25 77 bb de ff 3f 3c
       0.02716357 0.0032269524 -0.003771139 0.011718718
000170 5e 66 34 3a da 95 2f 3c b5 1a 43 3c 6a e3 0f 3c
       0.0006881709 0.01071688 0.011908223 0.008782247
000180 24 0f 81 bc c1 49 d2 bb 6e 6d 1e 3d 01 5e f5 3c
       -0.01575429 -0.0064174836 0.03867858 0.029952051
000190 4d b4 ec bc 14 c3 06 bc 7b 56 75 3b 13 2d 95 3a
       -0.028894568 -0.008225221 0.003743558 0.0011381231
0001a0 d7 0a 37 bc 9a f9 37 bb fd da a5 3c fe 3f 5f 3c
       -0.011172018 -0.0028072358 0.020246023 0.013626097
0001b0 a5 43 70 3b 3b a4 74 3b 34 59 83 b9 db 7f 1c 3d
       0.0036661413 0.0037329334 -0.0002505273 0.03820787
0001c0 48 5e 65 3d e3 ce 34 bb 02 28 0a 3d e5 b5 ac bc
       0.055998117 -0.0027589134 0.03372956 -0.021082828
0001d0 53 9d 94 3b 3b 23 5b bc 7f dd e0 bc ae 22 1e 3c
       0.004535356 -0.013375099 -0.027449368 0.009651823
0001e0 b3 42 5d 3d da 04 0e 3d b2 3e 4f bd 7d 2f f3 bc
       0.054018687 0.034672596 -0.0505969 -0.02968573
0001f0 81 7c 22 bd bc d2 3c bd 41 8e ee bc 82 f0 6a bb
       -0.039669517 -0.04609941 -0.029120566 -0.003584892
000200 c6 ba 36 bc 0f 10 a9 bc 81 fd d4 3c 0b 2c 43 bd
       -0.011152929 -0.02063754 0.025999786 -0.047649425
000210 31 49 64 bc a9 5d 2d bb e3 c3 4d bd d7 fa 8b bd
       -0.013933466 -0.002645353 -0.05023564 -0.06834953
000220 f8 35 33 bc dd f8 4f bc a4 34 8a bc c7 3b e0 bb
       -0.01093816 -0.012693611 -0.016870804 -0.0068430635
000230 ea 6c d0 bc b1 ef 4d bc 36 20 47 bc f3 4b 11 bc
       -0.02544256 -0.012569354 -0.012153676 -0.008868205
000240 69 72 09 3d 76 4d 80 3c d3 0c 47 3d e1 80 94 bc
       0.033556376 0.015661936 0.048596215 -0.01812786
000250 77 0c 3e ba 78 70 07 3d 50 4b d1 bc 52 03 03 bc
       -0.0007249782 0.033066243 -0.025548607 -0.007996397
000260 2c 4d 13 3d 8b e3 27 ba 6c 28 29 3c ef f5 11 3b
       0.03596227 -0.0006404451 0.010324579 0.0022271832
000270 bd 13 5a 3a d0 af a7 bc 68 ae be 3c 6e 55 23 bd
       0.0008318981 -0.020469576 0.023276523 -0.039876394
000280 59 23 0a bd 8f 55 22 bd 82 a5 9b 3b 1b 41 2d 3c
       -0.033725116 -0.039632376 0.0047499547 0.010574604
000290 5c 95 17 3c ad c5 90 3c 04 99 56 3b 82 36 e1 bc
       0.009251919 0.017672384 0.0032745013 -0.027491812
0002a0 f8 d5 4f 3d 6e ce 7a bb 05 60 0d 3c 55 45 b0 bc
       0.050741166 -0.0038270014 0.00862885 -0.021517435
0002b0 eb c7 18 3c ca 7e cd 3c 6b 91 0c 3c cf 9b 94 bb
       0.009325008 0.025084872 0.008579592 -0.0045351754
0002c0 54 c1 b7 3c 10 da c7 bc ea 5c d5 bc 4b 35 b0 3c
       0.022431053 -0.024395972 -0.026045281 0.021509787
0002d0 fb 76 28 bd 7e 82 6b 3c 5d 49 16 3c 8c 6f bb bc
       -0.041129094 0.0143743735 0.009172765 -0.022880338
0002e0 d1 30 ad 3c 18 eb a5 3c 07 a2 1f bd 88 91 ce 3b
       0.021141442 0.020253703 -0.03897288 0.00630397
0002f0 36 42 1a 3b 71 2a 04 bd a3 0b 80 3c 96 0d 8b bb
       0.0023538 -0.032267038 0.015630549 -0.004243563
000300 15 87 a4 bb c0 2d a2 3a 35 a9 d1 bc 09 9a 89 3c
       -0.005020986 0.0012373254 -0.02559338 0.016797082
000310 d0 26 92 bb c0 db 5d bc 97 c6 53 3b 41 d0 0f bc
       -0.004460193 -0.013541162 0.0032314414 -0.008777679
000320 82 6e 0a bd 69 f1 88 3b 07 64 8b bc 53 7b 02 3d
       -0.033796795 0.004179169 -0.01701547 0.031855892
000330 de 28 08 bd 75 02 1b 3d 85 4f 6d bc 6a a7 07 3b
       -0.0332421 0.03784414 -0.014484291 0.0020699152
000340 e3 b6 52 bc c7 fa 0d bd 27 32 c5 bc 11 d6 50 bd
       -0.012860986 -0.034662988 -0.024071766 -0.0509854
000350 b1 eb 4b bc e3 44 bf 3b 2d ae 39 bd d7 ba aa bc
       -0.01244633 0.0058370694 -0.045332123 -0.020841045
000360 f3 71 3b bd 84 cf 00 bc 7b 3c b4 bb 43 fd cf bc
       -0.045762967 -0.007861976 -0.005500374 -0.02538932
000370 5f 7d 60 bc 29 ef 97 3b e8 cc d1 bb 91 cc 8f 3c
       -0.013701766 0.0046366644 -0.0064026006 0.0175536
000380 30 1a 4e bc c4 38 84 bc f3 c0 81 3d 90 7d a4 bc
       -0.012579486 -0.01614035 0.0633563 -0.020079404
000390 9d 88 f4 bc 9f ca 81 3c de 04 24 bc 73 b2 3b bc
       -0.029850299 0.015843688 -0.010010926 -0.01145612
0003a0 6b fe 36 3c 0e 93 d1 ba 47 eb 93 3c 3e 53 94 bd
       0.011169056 -0.001598926 0.018056525 -0.0724244
0003b0 9d 64 9e bc 4a 92 cc 3c 55 51 1f bd 0b 6a 70 3c
       -0.019335086 0.0249721 -0.038895924 0.01467372
0003c0 38 e2 68 3c 3a b6 05 bc 8e 1c 45 bc 60 66 ce 3c
       0.014214091 -0.008161122 -0.012030734 0.0251953
0003d0 3d d9 c6 3c b4 19 1e ba 35 12 d5 3b f2 74 a5 3c
       0.02427351 -0.0006031052 0.0065024146 0.020197365
0003e0 1d 84 7c 3c 69 42 30 3a 5c d2 95 3b 72 57 bd 3c
       0.015412358 0.0006723763 0.004572196 0.023112986
0003f0 01 82 61 3c c6 83 9c bc 12 d4 f3 3c 57 2d 06 3d
       0.0137639055 -0.019105803 0.029764209 0.032758083

action_model._continuous_distribution.mu.bias f4 [2]
000000 58 71 2c bb d5 34 b2 3a
       -0.0026312675 0.0013596067

action_model._discrete_distribution.branches.0.weight f4 [5, 128]
000000 4c c3 f3 3c 0d 58 e5 bc 97 19 a4 bc 36 67 09 3b
       0.02975621 -0.027996087 -0.020031733 0.002096606
000010 ba d5 00 3b fe 0d 21 bc d4 ad 2d 3c 42 46 96 bc
       0.001965864 -0.009829996 0.010600526 -0.018344048
000020 77 87 1a bc e6 8c 12 bb 60 92 5b bc 60 67 80 bc
       -0.009431711 -0.0022361814 -0.013401598 -0.015674293
000030 a9 e7 7e bb 9f 3b 78 3c c3 d8 9a 3c f9 ef 81 3a
       -0.0038895404 0.0151509335 0.018902188 0.0009913436
000040 5f 21 b8 bc 9b e2 47 3c f1 82 a8 3b e9 6e 2e 3c
       -0.02247685 0.012200023 0.0051425626 0.01064656
000050 7b f9 95 3c 00 f4 f4 3b 28 5f 52 bc fb 35 7a bc
       0.018307438 0.007475376 -0.01284007 -0.015271659
000060 b7 aa d7 3c 9e 99 21 3c 88 e0 e3 3c 2b a1 d1 bc
       0.02632652 0.009863285 0.027817026 -0.025589546
000070 d8 f1 83 3c 4f 9e d1 bc 60 a4 20 bc 48 03 7c bc
       0.016106531 -0.025588183 -0.009804815 -0.015381642
000080 46 cf 32 3c c9 18 fd bc 12 5c 40 3c 3a a6 87 3a
       0.010913676 -0.030895608 0.011740701 0.0010349222
000090 41 d4 23 3c f5 15 14 bb 70 54 7f b8 f0 e2 be 3b
       0.009999336 -0.0022596095 -6.0875376e-05 0.005825393
0000a0 dc 05 92 3c 48 2a 3b bc 69 36 0a 3c a7 fe 72 3c
       0.01782506 -0.011423655 0.008435824 0.014831222
0000b0 7a 2d 07 bb 55 16 f8 bb 00 8a 28 bb be 22 47 3c
       -0.0020626471 -0.0075710216 -0.002571702 0.012154279
0000c0 2c dd f5 3b 6d 6f 89 bc 68 fc c0 bc a0 08 0a bc
       0.0075031724 -0.016776765 -0.023557857 -0.008424908
0000d0 c4 a2 29 bc ab 5f da 3b 2e 67 0f bd 5a 74 5d bc
       -0.010353748 0.0066642365 -0.03501051 -0.01351651
0000e0 bf df 23 3c 94 18 69 bc 16 de 99 3c 27 48 50 bc
       0.010002076 -0.014227051 0.018782657 -0.012712515
0000f0 52 26 bc 3b 5a 6f ad bc 82 5b f3 bc 86 68 7e bc
       0.005741873 -0.02117126 -0.02970672 -0.01552785
000100 4f 8b ad bb 26 c0 cb 39 af 8a 65 bc e3 47 82 bb
       -0.005296148 0.0003886234 -0.0140101155 -0.0039758547
000110 17 f8 8e bc 33 3c 70 ba 61 80 94 bc 70 70 7b bc
       -0.017452283 -0.0009164244 -0.018127622 -0.015346631
000120 ee 37 2b 3b 2d 22 c2 39 4c 78 d0 bc 9a 53 cd bb
       0.0026125866 0.00037028026 -0.025447987 -0.0062660696
000130 49 d1 9e 39 5a 6e ac 3b 0c c4 13 3b 02 46 ba bc
       0.00030292038 0.0052621784 0.0022547273 -0.02273846
000140 fb e9 2e bc 2d e9 05 3b d8 f2 c3 3c a9 6e 4a bc
       -0.0106759025 0.0020433173 0.023919508 -0.012355485
000150 73 93 8f 3c c3 2d 1f 3c 92 f7 01 bc 87 87 c1 bc
       0.017526364 0.0097155 -0.0079325605 -0.023624195
000160 14 b3 e9 3b 21 65 27 bc fa 4f 8a bc e3 6a 26 bd
       0.0071319435 -0.010216982 -0.016883839 -0.04062928
000170 7a b6 41 bc fb 84 44 bb f0 be c0 3b 29 16 7a 3c
       -0.011823291 -0.002998649 0.0058821365 0.015264072
000180 17 bc 05 bc cd 61 c6 3a 89 11 66 3b de fa 09 3c
       -0.00816252 0.0015135348 0.0035105667 0.008421628
000190 0c 8b ce 3b 2e b9 d6 bc ab f4 65 3b 37 10 80 3b
       0.006303197 -0.026211347 0.003508846 0.003908183
0001a0 e6 82 a4 3b 6b c1 77 3c e4 ba 1b bc 8f e0 26 bc
       0.005020487 0.015121798 -0.009505007 -0.010185375
0001b0 ed e7 85 3c c4 c6 bb 3c c6 db 25 bb 5c e2 84 bc
       0.016345942 0.022921927 -0.0025307997 -0.016221218
0001c0 ce db c2 3c 9d 12 68 3c 78 1f 49 bc bd 17 06 3c
       0.023786452 0.014164594 -0.012275569 0.008184371
0001d0 ef 81 9c bc c3 8f 8a 39 33 fc f1 3b 3b 49 85 39
       -0.019104926 0.00026428522 0.007384801 0.00025422298
0001e0 c9 31 fb 3b 7a 2b 0d bc 2a 35 d2 bc 73 7b 06 3d
       0.007665847 -0.008616323 -0.025660116 0.032832574
0001f0 82 4d 00 3c d4 3e 15 bc 2d df b2 bb 0d f8 88 bb
       0.007830979 -0.009109218 -0.0054587335 -0.0041799606
000200 02 60 86 bb 61 7f 98 39 50 0d 60 bb 08 c7 43 bc
       -0.0041008005 0.00029086604 -0.0034187622 -0.011949308
000210 08 ae 1e bc 12 9a 3c bc d6 3b 0f 3b 7c 14 a2 bc
       -0.009685047 -0.011511343 0.0021855733 -0.019785158
000220 62 0c 35 bc 40 43 b1 b9 b3 39 a9 3c 77 bc 20 3c
       -0.011050316 -0.00033810176 0.020657396 0.0098105585
000230 f0 f1 3f 3c 6f 27 24 bc 7b 4c 21 bb 44 d3 87 3c
       0.011715397 -0.010019167 -0.0024612236 0.016580231
000240 98 a1 98 3c 83 6b 92 ba 92 0d b1 3c 5b 8b 17 bb
       0.018631741 -0.0011170957 0.021612916 -0.0023123834
000250 38 3e 0e bc b9 01 51 3c 67 ee 12 bc 8b 8b a2 3b
       -0.008681826 0.012756758 -0.008967972 0.0049604825
000260 05 f1 f4 bb 28 b8 df 3a 8d 27 c7 bc 9f d9 80 3c
       -0.007475021 0.0017068433 -0.024310851 0.01572877
000270 75 fe 11 3c 6a ef a5 3c d4 3a fb bb 7e 1b 34 bc
       0.008910765 0.020255763 -0.007666925 -0.010992883
000280 e3 86 39 3c 69 c6 8f 3c 73 c2 25 bc 4a 62 9e 3b
       0.011323663 0.017550664 -0.010117161 0.0048334943
000290 55 67 84 bc ae 34 bb bb 21 ca 3a bb e0 03 7e bc
       -0.016162554 -0.005713067 -0.0028501826 -0.015503854
0002a0 88 2a e2 ba fb 1e f8 3b b3 33 9e 3b 25 b4 95 3b
       -0.0017255107 0.0075720525 0.0048279404 0.004568594
0002b0 a5 5d 11 bb 7e ff bc bb 62 aa 85 3c 66 55 c3 ba
       -0.002218106 -0.0057677617 0.016316596 -0.001490277
0002c0 b0 73 b1 3b b0 8c 9b 3b ae b9 19 bb df 09 04 3c
       0.0054154024 0.004746996 -0.002345662 0.008058994
0002d0 d3 a0 f7 bb 4f 4e 90 bc 6b 4b 9e ba 1b c1 41 bc
       -0.0075570135 -0.017615465 -0.001207692 -0.011825825
0002e0 53 0f 40 3c aa 75 0b 3c af ed 4f bc 72 fe 66 3c
       0.011722404 0.00851194 -0.0126909455 0.01409875
0002f0 45 9f 0f 3c 22 c3 13 bc 85 57 71 bb 0f b0 69 3c
       0.008766 -0.009018691 -0.0036825847 0.014263167
000300 49 e1 3d 3c 5a 22 8e 3c 7b f8 c1 3c 9d 20 f0 39
       0.011589357 0.017350364 0.023678055 0.00045800666
000310 d9 49 94 3c 42 64 bf 3b 9d f5 97 3b 99 76 0a bb
       0.01810162 0.005840809 0.0046374337 -0.0021127819
000320 11 2f 1a bc 86 b6 0a 3c 76 bf 8d 3b b9 70 14 3c
       -0.009410636 0.008466369 0.0043258024 0.009060078
000330 71 cc 22 bc ce dd d7 3b 9b dd b9 ba cf 88 03 3c
       -0.009936438 0.0065877205 -0.0014180423 0.008028223
000340 78 93 94 3c a6 4a cb 3b e0 a9 9c bc 0f 20 fd bb
       0.018136725 0.006203967 -0.019123971 -0.007724769
000350 fb 81 fa 3b 8e 77 0a ba 32 8e 81 3c 86 12 04 bc
       0.0076448894 -0.0005282097 0.015814874 -0.008061057
000360 91 ec 23 bc 94 fc b8 3c f4 d6 db 3b a9 d2 81 bc
       -0.010005132 0.022581376 0.006708974 -0.01584752
000370 4e a3 0e 3c 75 0c eb bb 6e 3b 2b 3c 43 95 06 bb
       0.008705927 -0.007173116 0.010451181 -0.0020535744
000380 bb 51 1d bc 5e 03 51 bc 40 e2 c6 3b 27 96 12 3c
       -0.009602006 -0.01275715 0.0060694516 0.008946932
000390 96 e7 b2 3b 09 eb 76 3c 24 c7 aa ba 3b dc ef 3b
       0.005459736 0.015070685 -0.0013029319 0.0073199547
0003a0 1b 5c a0 bb 6d ec 9d 3b 02 35 28 3b 00 1e ad 3a
       -0.0048937923 0.004819444 0.002566636 0.0013207793
0003b0 c0 13 df ba 68 f5 9b bb 6d 6b 40 bc ed d4 9a 3b
       -0.0017019436 -0.0047594793 -0.011744362 0.0047250898
0003c0 91 d0 7e bc ee 24 65 3b 2d 26 78 3b 3e 86 ee 3b
       -0.015552656 0.0034964639 0.0037864551 0.0072791865
0003d0 b3 c5 21 3b 2d d5 07 ba da 86 da 3b e6 27 95 ba
       0.0024684488 -0.0005181607 0.0066689076 -0.0011379689
0003e0 a1 ac f4 3b fc 35 19 bb be 96 77 3c 27 30 29 3c
       0.007466868 -0.0023378124 0.015111623 0.010326422
0003f0 a9 31 d1 bb 1e 39 8f 3b bc 72 20 bc 05 92 ef bb
       -0.006384094 0.0043708226 -0.00979298 -0.007311108

action_model._discrete_distribution.branches.0.bias f4 [5]
000000 84 bf 4a 3c 64 48 1a bb c7 ab 86 bb ab 59 05 bc
       0.012374762 -0.0023541683 -0.004109833 -0.008139054
000010 31 8b 13 bb
       -0.0022513384

exp_avg f4 [128, 82]
000000 0a bb 47 37 04 00 00 00 9a 48 de b6 cd 05 a9 33
       1.1904873e-05 6e-45 -6.6245675e-06 7.870731e-08
000010 04 00 00 00 ba 29 d9 b6 3a f6 67 37 48 bc 3d b0
       6e-45 -6.4719616e-06 1.3826002e-05 -6.9025363e-10
000020 9f e4 97 b6 82 cd 17 36 04 00 00 00 06 58 74 b6
       -4.5267657e-06 2.2620375e-06 6e-45 -3.641007e-06
000030 e0 1a 3d 38 04 00 00 80 ce eb 6e b7 34 8f 0a b7
       4.508614e-05 -6e-45 -1.4240808e-05 -8.258783e-06
000040 04 00 00 00 e9 e5 d4 37 05 01 5a 38 04 00 00 80
       6e-45 2.537943e-05 5.19762e-05 -6e-45
000050 d4 1a d6 b7 91 f2 3c b8 04 00 00 80 5b e0 25 38
       -2.552328e-05 -4.50486e-05 -6e-45 3.9548013e-05
000060 65 c3 2d 38 04 00 00 80 73 e0 d9 b7 6a 62 6f b8
       4.142839e-05 -6e-45 -2.5972933e-05 -5.7073696e-05
000070 04 00 00 00 d3 5c 0d 38 af 2f b3 37 04 00 00 00
       6e-45 3.370347e-05 2.1360667e-05 6e-45
000080 e1 32 7e b7 87 a9 a3 b8 04 00 00 00 0d 01 fa 37
       -1.5151426e-05 -7.8040226e-05 6e-45 2.9802812e-05
000090 24 90 1d b7 04 00 00 00 18 37 78 37 0c 8a 55 b8
       -9.39149e-06 6e-45 1.4794779e-05 -5.0911724e-05
0000a0 04 00 00 00 3c 77 8d 37 f9 6d df b6 04 00 00 00
       6e-45 1.6864033e-05 -6.6587204e-06 6e-45
0000b0 e3 83 07 37 9e 35 89 b8 04 00 00 00 49 d5 54 37
       8.077334e-06 -6.542656e-05 6e-45 1.2685844e-05
0000c0 4f 55 dc b7 04 00 00 00 3d 4a 72 37 7b a0 26 b8
       -2.6265769e-05 6e-45 1.4441609e-05 -3.9726943e-05
0000d0 04 00 00 00 4e 5b 10 37 7b a0 26 b8 04 00 00 00
       6e-45 8.604327e-06 -3.9726943e-05 6e-45
0000e0 4e 5b 10 37 88 d7 c8 ba aa a8 23 b8 7e 20 bb 39
       8.604327e-06 -0.0015323022 -3.901931e-05 0.00035691628
0000f0 51 a2 2d bb f5 dd f0 37 60 09 9e 3a da d2 0a 3a
       -0.0026494453 2.8713586e-05 0.0012057237 0.00052957016
000100 85 91 55 39 b8 ec 0c 35 c3 21 0f b9 00 00 00 00
       0.00020367473 5.2498535e-07 -0.0001365012 0.0
000110 00 00 00 00 00 00 00 00 00 00 00 00 00 00 00 00
       0.0 0.0 0.0 0.0
000120 00 00 00 00 00 00 00 00 00 00 00 00 00 00 00 00
       0.0 0.0 0.0 0.0
000130 00 00 00 00 00 00 00 00 00 00 00 00 00 00 00 00
       0.0 0.0 0.0 0.0
000140 00 00 00 00 00 00 00 00 e3 66 d1 b6 04 00 00 00
       0.0 0.0 -6.240663e-06 6e-45
000150 79 45 f2 35 2c cb 01 b7 04 00 00 00 85 e3 14 36
       1.8050624e-06 -7.736304e-06 6e-45 2.2186152e-06
000160 05 8b eb b5 20 7d ac 2e fa a3 92 35 c8 08 15 b7
       -1.7549324e-06 7.843881e-11 1.0925571e-06 -8.883137e-06
000170 04 00 00 00 d5 5c 30 36 27 4b fd b6 04 00 00 00
       6e-45 2.628008e-06 -7.5487364e-06 6e-45
000180 97 e7 3c 36 ef da a0 b6 04 00 00 00 e6 e6 a7 34
       2.8148986e-06 -4.793859e-06 6e-45 3.1274175e-07
000190 6a aa 11 b6 04 00 00 00 b4 2c 2e 36 ae 80 25 b6
       -2.1705878e-06 6e-45 2.595404e-06 -2.4661817e-06
0001a0 04 00 00 00 14 9a 88 b5 c1 31 e8 36 04 00 00 00
       6e-45 -1.0177632e-06 6.919931e-06 6e-45
0001b0 5a 3b 6b b5 38 81 b6 b3 04 00 00 00 bd e5 59 b4
       -8.763069e-07 -8.49854e-08 6e-45 -2.0293278e-07
0001c0 4b 4d de 36 04 00 00 80 af 0f 07 b6 ba 99 46 36
       6.6251137e-06 -6e-45 -2.0125697e-06 2.959378e-06
0001d0 04 00 00 00 9b 9c 13 b6 13 a2 ff 36 04 00 00 00
       6e-45 -2.1995863e-06 7.61846e-06 6e-45
0001e0 a8 c1 b4 b6 cf 2b 8c 36 04 00 00 00 c6 ac 34 b6
       -5.3869626e-06 4.177425e-06 6e-45 -2.6922658e-06
0001f0 2a 4e e7 36 04 00 00 00 9b fb 6b b6 ce 81 94 36
       6.893436e-06 6e-45 -3.5164182e-06 4.425855e-06
000200 04 00 00 00 54 99 87 b5 22 73 90 36 04 00 00 00
       6e-45 -1.0102908e-06 4.3049376e-06 6e-45
000210 1a 9c 17 b6 d5 b1 95 36 04 00 00 00 7c 3b 6e b6
       -2.2591616e-06 4.4612484e-06 6e-45 -3.5499388e-06
000220 d5 b1 95 36 04 00 00 00 7a 3b 6e b6 3f 93 76 38
       4.4612484e-06 6e-45 -3.5499384e-06 5.8788104e-05
000230 07 f8 17 34 b6 d3 7c b8 f9 06 c1 b9 1a 4e 3c b5
       1.4153203e-07 -6.0278653e-05 -0.00036817024 -7.014911e-07
000240 57 89 1f b9 22 d7 6a 38 1f 0c d8 b5 94 16 b8 b2
       -0.00015214585 5.5990306e-05 -1.6096782e-06 -2.1430687e-08
000250 51 54 e8 37 00 00 00 00 00 00 00 00 00 00 00 00
       2.7695818e-05 0.0 0.0 0.0
000260 00 00 00 00 00 00 00 00 00 00 00 00 00 00 00 00
       0.0 0.0 0.0 0.0
000270 00 00 00 00 00 00 00 00 00 00 00 00 00 00 00 00
       0.0 0.0 0.0 0.0
000280 00 00 00 00 00 00 00 00 00 00 00 00 00 00 00 00
       0.0 0.0 0.0 0.0
000290 f5 62 1a 36 04 00 00 80 fc ab 0a b6 d3 02 8b 35
       2.3005389e-06 -6e-45 -2.066371e-06 1.0357129e-06
0002a0 04 00 00 80 f2 73 fb b5 d1 58 fd 36 47 aa 53 2d
       -6e-45 -1.8734702e-06 7.550327e-06 1.20317705e-11
0002b0 b6 f5 5a b6 51 ff 65 36 04 00 00 80 00 e4 f6 b5
       -3.2627554e-06 3.4272273e-06 -6e-45 -1.8394785e-06
0002c0 73 b7 be 36 04 00 00 80 5a a3 8a b6 89 b2 98 b6
       5.6837976e-06 -6e-45 -4.131737e-06 -4.5507372e-06
0002d0 04 00 00 80 ca 2d 82 36 d3 b7 74 36 04 00 00 80
       -6e-45 3.8796325e-06 3.6465833e-06 -6e-45
0002e0 7d a9 a1 b6 c8 56 ad b7 04 00 00 80 6e 87 2d 37
       -4.817905e-06 -2.0663618e-05 -6e-45 1.0343136e-05
0002f0 f8 a4 44 37 04 00 00 80 cc 60 14 36 22 e3 d5 b7
       1.172092e-05 -6e-45 2.2110062e-06 -2.5497346e-05
000300 04 00 00 80 2a 7a 35 37 89 7d b8 36 04 00 00 80
       -6e-45 1.0816884e-05 5.4982415e-06 -6e-45
000310 fe a9 8f 36 cd ed 90 b7 04 00 00 80 ba c4 3b 37
       4.281522e-06 -1.7276872e-05 -6e-45 1.11918725e-05
000320 9c b2 cc 36 04 00 00 80 42 f8 39 37 e4 af 22 b6
       6.1004666e-06 -6e-45 1.1084661e-05 -2.4242263e-06
000330 04 00 00 80 d3 c2 18 37 3d 3e 13 37 04 00 00 80
       -6e-45 9.105267e-06 8.776374e-06 -6e-45
000340 ff 23 08 37 96 49 09 36 04 00 00 80 05 58 13 37
       8.114613e-06 2.0457423e-06 -6e-45 8.782376e-06
000350 5e b6 d5 36 04 00 00 80 5d a3 d1 36 2d 4b 50 37
       6.369125e-06 -6e-45 6.2477034e-06 1.2415269e-05
000360 04 00 00 80 f0 95 d8 36 2d 4b 50 37 04 00 00 80
       -6e-45 6.4547567e-06 1.2415269e-05 -6e-45
000370 f0 95 d8 36 5a b4 a7 37 10 6d 85 b8 bb bf 99 39
       6.4547567e-06 1.9991934e-05 -6.362249e-05 0.00029325284
000380 02 4b dd 38 49 77 32 38 a0 55 fd b8 27 70 37 39
       0.000105520725 4.25496e-05 -0.00012079929 0.0001749402
000390 11 ec 33 38 73 26 36 34 cb 01 ba 36 00 00 00 00
       4.289678e-05 1.6964059e-07 5.5434407e-06 0.0
0003a0 00 00 00 00 00 00 00 00 00 00 00 00 00 00 00 00
       0.0 0.0 0.0 0.0
0003b0 00 00 00 00 00 00 00 00 00 00 00 00 00 00 00 00
       0.0 0.0 0.0 0.0
0003c0 00 00 00 00 00 00 00 00 00 00 00 00 00 00 00 00
       0.0 0.0 0.0 0.0
0003d0 00 00 00 00 00 00 00 00 dd 8c 6d b9 04 00 00 80
       0.0 0.0 -0.00022654557 -6e-45
0003e0 f2 a7 52 b8 6e 37 86 b9 04 00 00 80 4f 08 3a b8
       -5.0224313e-05 -0.0002559977 -6e-45 -4.4353594e-05
0003f0 c2 e6 20 b9 b8 f2 1a 31 ca a7 9f b8 4b 1d a5 b9
       -0.00015344753 2.254792e-09 -7.612964e-05 -0.00031493077

exp_avg_sq f4 [128, 82]
000000 27 2b f2 30 30 78 a9 2b 9d 63 28 31 25 0f f3 30
       1.7620082e-09 1.2041531e-12 2.4503841e-09 1.7684881e-09
000010 21 1b ab 2b d2 16 3c 31 18 b9 22 31 21 58 89 2e
       1.2157811e-12 2.7370572e-09 2.3679316e-09 6.2456935e-11
000020 f0 a2 38 31 36 75 07 31 e1 20 a8 2b f7 b1 85 31
       2.6868143e-09 1.9711712e-09 1.1946244e-12 3.8910417e-09
000030 fd f1 80 31 aa 3c 8d 2c 47 9f 68 31 56 3a 5f 31
       3.752801e-09 4.014196e-12 3.3850982e-09 3.248393e-09
000040 63 f4 a9 2b ec 3c e2 31 b4 ad 9f 31 ae f9 6b 2c
       1.2076003e-12 6.5843917e-09 4.647257e-09 3.3534109e-12
000050 d2 87 a9 31 50 44 a9 31 12 22 15 2b 84 9a fc 31
       4.9339883e-09 4.9263136e-09 5.2982716e-13 7.3517317e-09
000060 b8 6c 94 31 3d a4 3b 2c 0c 17 94 31 d4 f8 f7 31
       4.319727e-09 2.6665469e-12 4.309987e-09 7.2169346e-09
000070 3e 65 1a 2d d3 b0 c7 31 52 a8 80 31 3d 30 3e 2d
       8.776367e-12 5.811765e-09 3.744426e-09 1.0810961e-11
000080 67 07 6f 31 6d 19 08 32 aa 62 87 26 eb 93 20 31
       3.4783285e-09 7.922023e-09 9.39425e-16 2.3367146e-09
000090 8c f9 6c 31 8c 2a 93 2c 8d 49 f5 30 7e 68 04 32
       3.448437e-09 4.182715e-12 1.7847e-09 7.70717e-09
0000a0 27 5d e3 2b 05 64 a7 30 9b 57 71 31 e1 32 93 2c
       1.6155175e-12 1.2179276e-09 3.5119914e-09 4.18364e-12
0000b0 4b 36 98 30 13 61 fc 31 9b 7d e5 2b 61 71 85 30
       1.1074887e-09 7.3452013e-09 1.6306291e-12 9.709248e-10
0000c0 8a 88 92 31 0c 36 96 2c e7 11 86 30 6f 29 bd 31
       4.264682e-09 4.269257e-12 9.754871e-10 5.5053344e-09
0000d0 9b 7d e5 2b 52 4d 89 30 6f 29 bd 31 9b 7d e5 2b
       1.6306291e-12 9.990038e-10 5.5053344e-09 1.6306291e-12
0000e0 53 4d 89 30 fb 1d 71 36 f6 a2 32 35 0c 7c 7a 36
       9.990039e-10 3.592925e-06 6.6547307e-07 3.7325108e-06
0000f0 50 1e 6d 37 4d a2 9f 34 6f 5c 03 38 27 7e 88 35
       1.41333585e-05 2.9734147e-07 3.131892e-05 1.0169505e-06
000100 90 b7 c1 32 d5 41 05 2d 54 9a b0 32 00 00 00 00
       2.2551632e-08 7.574792e-12 2.0559277e-08 0.0
000110 00 00 00 00 00 00 00 00 00 00 00 00 00 00 00 00
       0.0 0.0 0.0 0.0
000120 00 00 00 00 00 00 00 00 00 00 00 00 00 00 00 00
       0.0 0.0 0.0 0.0
000130 00 00 00 00 00 00 00 00 00 00 00 00 00 00 00 00
       0.0 0.0 0.0 0.0
000140 00 00 00 00 00 00 00 00 06 aa 85 2e 0d 6d 6f 28
       0.0 0.0 6.078342e-11 1.3290812e-14
000150 59 c6 56 2e 1b 96 68 2e 19 a7 6f 28 84 99 4a 2e
       4.8834135e-11 5.2884013e-11 1.3303399e-14 4.606583e-11
000160 dd 4e df 2e 5c 3a b9 2b 19 96 5f 2e 05 e1 66 2e
       1.0154875e-10 1.3161239e-12 5.0837643e-11 5.2495803e-11
000170 09 bb 73 28 e0 b9 8d 2e 6a 0f 25 2f ac 5a 87 29
       1.35297665e-14 6.444956e-11 1.5012139e-10 6.0109334e-14
000180 df e5 01 2e 9b 2a 29 2e e8 5b 9f 28 f6 25 df 2e
       2.953537e-11 3.8463992e-11 1.7692404e-14 1.0147609e-10
000190 8c 68 06 2f a7 6d 67 29 09 42 17 2e d6 e5 0a 2e
       1.2224372e-10 5.1387412e-14 3.4392076e-11 3.1581703e-11
0001a0 ac b8 de 28 be 57 25 2f 5a ff d7 2e c8 9b 8b 29
       2.472704e-14 1.5037835e-10 9.8224276e-11 6.199864e-14
0001b0 19 03 42 2e ed d5 ed 2d b4 ba 9e 2d ce 52 2e 2f
       4.4113244e-11 2.7038783e-11 1.8045433e-11 1.5854626e-10
0001c0 30 45 9b 2e c2 c0 a6 2d 12 06 95 2e 79 2a 03 2e
       7.060874e-11 1.8957617e-11 6.776814e-11 2.9823675e-11
0001d0 ff f1 19 20 e4 90 c1 2e f0 c4 75 2e 7b 17 cd 2b
       1.3039674e-19 8.8023616e-11 5.5881466e-11 1.4572643e-12
0001e0 6b 21 60 2e f7 94 25 2e 75 e1 ba 2b f8 58 56 2e
       5.0961384e-11 3.7648964e-11 1.3278672e-12 4.8736987e-11
0001f0 b0 7e 38 2e 7d 17 cd 2b d9 99 32 2e f4 e9 1f 2e
       4.1949277e-11 1.4572645e-12 4.060916e-11 3.6360207e-11
000200 06 b9 c6 2b ea 42 1a 2e 30 e9 18 2e a3 3a cd 2b
       1.41201e-12 3.5074978e-11 3.476791e-11 1.4582401e-12
000210 92 b9 1a 2e fc 1e 04 2e 06 b9 c6 2b 32 70 24 2e
       3.5180366e-11 3.0040845e-11 1.41201e-12 3.7388932e-11
000220 fc 1e 04 2e 06 b9 c6 2b 32 70 24 2e 4c 6e a0 33
       3.0040845e-11 1.41201e-12 3.7388932e-11 7.4706435e-08
000230 09 33 51 32 e3 15 db 33 48 32 9b 33 d0 f5 ba 31
       1.2177005e-08 1.02019634e-07 7.226896e-08 5.441258e-09
000240 0f 08 a2 34 35 f5 11 33 12 e5 35 2f d6 a0 fa 29
       3.0180715e-07 3.3983458e-08 1.6543236e-10 1.1130131e-13
000250 47 a2 ca 2f 00 00 00 00 00 00 00 00 00 00 00 00
       3.685889e-10 0.0 0.0 0.0
000260 00 00 00 00 00 00 00 00 00 00 00 00 00 00 00 00
       0.0 0.0 0.0 0.0
000270 00 00 00 00 00 00 00 00 00 00 00 00 00 00 00 00
       0.0 0.0 0.0 0.0
000280 00 00 00 00 00 00 00 00 00 00 00 00 00 00 00 00
       0.0 0.0 0.0 0.0
000290 df bf ab 2f 85 db c7 2b 38 80 0e 2f 81 fe be 2f
       3.1241051e-10 1.4200729e-12 1.2960377e-10 3.4741635e-10
0002a0 70 50 c8 2b 00 22 1d 2f 4b b5 a4 2f de 7b cc 2b
       1.4233181e-12 1.4291146e-10 2.9960243e-10 1.4529452e-12
0002b0 6d 6e 24 2f 4e 53 e0 2f d1 17 c7 2b 89 6d 2e 2f
       1.4954944e-10 4.0804554e-10 1.4146411e-12 1.5864123e-10
0002c0 92 67 a8 2f e2 8d c5 2b 4b 57 70 2f b8 be 04 30
       3.0632613e-10 1.4037072e-12 2.1858886e-10 4.829235e-10
0002d0 22 28 1d 2c c1 9a 40 2f 7f 7e b4 2f f3 e4 9b 2b
       2.233332e-12 1.7517278e-10 3.283169e-10 1.1076959e-12
0002e0 b4 1f 03 30 d3 ce 36 30 b9 98 e7 2c 90 d1 72 2f
       4.7702575e-10 6.650513e-10 6.5823705e-12 2.2084223e-10
0002f0 55 3c 09 30 9b 93 bc 2c a1 32 3c 30 94 af 45 30
       4.9926047e-10 5.359669e-12 6.846595e-10 7.1917694e-10
000300 23 ea 85 27 29 a0 80 2f 14 a2 03 30 00 52 22 28
       3.7168767e-15 2.3396865e-10 4.788785e-10 9.010587e-15
000310 fc db 26 30 78 9f 13 30 74 e6 38 21 80 66 95 2f
       6.0703065e-10 5.3704907e-10 6.2646627e-19 2.7175773e-10
000320 76 a4 c2 2f c2 2f c6 27 83 a5 dd 2f 6f fe d9 2f
       3.540525e-10 5.500782e-15 4.031727e-10 3.9652856e-10
000330 7f 71 85 27 ff 48 75 2f 70 55 a1 2f 6c 35 c6 27
       3.703797e-15 2.2308554e-10 2.9346436e-10 5.501396e-15
000340 6a 72 88 2f 32 bb a6 2f 2a 7f 87 27 d1 f0 4a 2f
       2.4819552e-10 3.0328234e-10 3.76079e-15 1.8457348e-10
000350 9f 00 99 2f 58 ca c7 27 1a a1 47 2f d6 10 a7 2f
       2.783098e-10 5.5452977e-15 1.815618e-10 3.0389086e-10
000360 2a 7f 87 27 83 e9 67 2f d6 10 a7 2f 2a 7f 87 27
       3.76079e-15 2.1092288e-10 3.0389086e-10 3.76079e-15
000370 83 e9 67 2f 55 6c 31 35 52 94 73 33 ee d0 3c 34
       2.1092288e-10 6.609528e-07 5.6712743e-08 1.7584873e-07
000380 4c 8c 08 36 92 f3 db 32 ff 72 01 36 fa 9d c1 33
       2.0347243e-06 2.5605718e-08 1.9289434e-06 9.0159986e-08
000390 ff 6b e9 30 1a be 7b 2c 33 78 54 30 00 00 00 00
       1.6983676e-09 3.5774773e-12 7.7295964e-10 0.0
0003a0 00 00 00 00 00 00 00 00 00 00 00 00 00 00 00 00
       0.0 0.0 0.0 0.0
0003b0 00 00 00 00 00 00 00 00 00 00 00 00 00 00 00 00
       0.0 0.0 0.0 0.0
0003c0 00 00 00 00 00 00 00 00 00 00 00 00 00 00 00 00
       0.0 0.0 0.0 0.0
0003d0 00 00 00 00 00 00 00 00 64 38 4d 33 c7 42 11 2a
       0.0 0.0 4.778157e-08 1.2901755e-13
0003e0 6a 9b 42 32 56 ae 3b 33 10 3e 10 2a 68 52 59 32
       1.1327623e-08 4.3697888e-08 1.2811301e-13 1.2649799e-08
0003f0 93 92 81 33 49 88 60 30 30 e0 5d 32 9b 76 55 33
       6.033692e-08 8.16844e-10 1.2914867e-08 4.9700798e-08
