3DPlayground/results/Test17/MoveToGoal/checkpoint.pt (torch, 581291 bytes, 42 tensors)

network_body._body_endoder.seq_layers.0.weight f4 [128, 48]
0	0x3e866300	0.26247406
1	0x3b1328b2	0.0022454676
2	0x3e67e2c7	0.22645102
3	0x3e4b7bf6	0.19871506
4	0x3c22b054	0.009929735
5	0x3dd6648f	0.10468399
6	0x3dd0cf26	0.101957604
7	0x3df5638c	0.11981878
8	0xbd97aa38	-0.074055135
9	0xbda644ed	-0.08118615
10	0xbd6a5747	-0.05721214
11	0xbb54e5dd	-0.0032485642
12	0x3dec2edc	0.11532375
13	0x3e80fabe	0.251913
14	0xbdd56e07	-0.10421377
15	0xbdeeefeb	-0.116668545
16	0xbcee4766	-0.02908678
17	0x3d40a999	0.04703674
18	0x3dd3edb2	0.10348071
19	0xbe3a8724	-0.18215615
20	0x3e937d89	0.28806713
21	0x3d46521f	0.04841816
22	0x3da3025e	0.07959436
23	0x3d9a6fe0	0.0754087
24	0xbe2734cb	-0.16328733
25	0xbce6a294	-0.028153695
26	0xbe1fad89	-0.15593542
27	0xbe9d3b88	-0.3070948
28	0x3d3bc583	0.04584266
29	0xbe491d57	-0.19640099
30	0xbe622374	-0.22083837
31	0x3e126d13	0.14299421
32	0x3d84e6b9	0.06489319
33	0xbd4e5eb4	-0.050383285
34	0xbe2c9fc5	-0.16857822
35	0xbe35088f	-0.17679046
36	0xbd528965	-0.05140056
37	0x3e8841fa	0.26612836
38	0xbed993f5	-0.42495695
39	0xbe8174a9	-0.25284317
40	0x3df30da2	0.11867835
41	0x3efdb354	0.4955088
42	0xbc20829d	-0.009796766
43	0x3ceb5903	0.028728968
44	0xbeaaf947	-0.3339331
45	0xbddec11a	-0.10876675
46	0xbec49ff9	-0.384033
47	0x3ce4e8ca	0.027943034
48	0x3e4c13b2	0.19929388
49	0xbda35a91	-0.079762585
50	0x3d26268e	0.040564112
51	0xbdc0bc44	-0.09410909
52	0xbd49ddbd	-0.04928373
53	0x3de53084	0.11190894
54	0x3df28a7a	0.118428186
55	0x3d939f4c	0.07208118
56	0xbe0625fc	-0.13100427
57	0xbdad3134	-0.084566504
58	0x3eac62bc	0.33669078
59	0xbe83f630	-0.25773764
60	0xbdc5d3d1	-0.096595414
61	0x3e0fd729	0.14046921
62	0x3e5032aa	0.20331827
63	0xbdbdc62a	-0.092663124
64	0xbe1c95ad	-0.15291472
65	0x3e07e465	0.1327072
66	0x3dfc3051	0.12313903
67	0xbded1e59	-0.11578054
68	0xbea1b5ee	-0.31584114
69	0x3e240042	0.16015723
70	0x3e48be61	0.19603874
71	0x3de9ab27	0.11409598
72	0xbda77443	-0.08176472
73	0x3b0bd746	0.002133803
74	0xbcbb88c1	-0.022892358
75	0x3d2ab1e3	0.041673552
76	0xbdd27efb	-0.10278126
77	0x3d4a98d6	0.049462162
78	0x3ce44ec3	0.027869588
79	0xbda5464b	-0.08070048
80	0x3d6d0d4f	0.05787402
81	0x3da66d8e	0.08126365
82	0x3df98a19	0.12184543
83	0x3d74b234	0.05974026
84	0x3cad1f91	0.021133216
85	0x3d9b1a37	0.075733595
86	0xbe1d056e	-0.15334103
87	0x3cca505d	0.024696523
88	0x3db9b86a	0.09068377
89	0x3bf801db	0.0075685806
90	0x3da1cd37	0.0790047
91	0xbe0947d2	-0.13406304
92	0xbe38ad13	-0.18034773
93	0x3d81001c	0.06298849
94	0xbd01468a	-0.031561412
95	0xbd15ee72	-0.036604352
96	0xbdd000eb	-0.10156425
97	0xbe1e0e04	-0.15435034
98	0x3e031a6b	0.12803046
99	0x3c9f5847	0.019451274
100	0xbe03f4df	-0.1288638
101	0xbe06896a	-0.13138357
102	0xbdcecc26	-0.10097532
103	0xbbadce38	-0.005304124
104	0x3e324025	0.17407282
105	0x3dc85275	0.097813524
106	0xbd8e564c	-0.069500536
107	0xbe362caa	-0.17790475
108	0xbd8143fe	-0.063117966
109	0xbe7c54bf	-0.24641703
110	0xbdf45d9d	-0.11931918
111	0x3e1d9fdf	0.15393017
112	0x3e1d16a2	0.15340665
113	0x3e1545d5	0.1457742
114	0x3e827378	0.2547872
115	0xbde25e7b	-0.11053177
116	0x3b9a32b3	0.004705751
117	0xbde7acfa	-0.113122895
118	0xbe216681	-0.15761758
119	0x3d43c320	0.047793508
120	0xbc24adfe	-0.010051249
121	0xbd5ac3f2	-0.053409524
122	0xbe25cf54	-0.1619237
123	0x3d86eafc	0.065877885
124	0x3ccf28fd	0.0252881
125	0xbddced00	-0.10787392
126	0x3c1eaa7c	0.009684201
127	0x3e5ab685	0.21358688
128	0x3e18870d	0.14895268
129	0xbc2ca851	-0.010538177
130	0x3cdbeaff	0.026845453
131	0xbca84cbe	-0.020544406
132	0xbdfb0bcb	-0.12258109
133	0x3dc17130	0.09445417
134	0x3d82bdc7	0.063838534
135	0x3d7797dc	0.06044756
136	0xbe2be7b5	-0.16787608
137	0xbdc99295	-0.098424114
138	0xbddabeae	-0.106809005
139	0x3b91e31a	0.0044521214
140	0xbe10435d	-0.14088197
141	0x3d3ec209	0.046571765
142	0x3e148b02	0.14506152
143	0x3d6c3e5d	0.05767666
144	0xbe0af717	-0.1357082
145	0xbdc80b25	-0.09767751
146	0xbe14349c	-0.14473194
147	0x3d83188e	0.06401168
148	0x3d80af11	0.06283391
149	0xbe431618	-0.19051397
150	0xbc7e8012	-0.015533464
151	0xbe12d115	-0.14337571
152	0xbdab0a82	-0.083516136
153	0x3e657a4f	0.22409938
154	0x3b8e12b2	0.0043357247
155	0x3de33d69	0.110956974
156	0xbde893e6	-0.113563344
157	0x3dd6f1f2	0.10495366
158	0x3e2127ec	0.15737885
159	0x3e348a9a	0.17630997
160	0xbde5817b	-0.11206337
161	0x3c87044d	0.016481543
162	0x3d88add6	0.066737816
163	0xbe0fa876	-0.14029106
164	0xbb57b4b4	-0.0032914104
165	0x3df56ca7	0.119836144
166	0xbd356113	-0.04428203
167	0xbcfcf679	-0.030879246
168	0xbe4d8ad7	-0.20072494
169	0xbe3a5d1e	-0.18199584
170	0x3e9cc519	0.30619124
171	0xbdd725e3	-0.10505273
172	0xbca7d3bb	-0.020486703
173	0xbe0b6b05	-0.13615043
174	0xbcd03832	-0.025417421
175	0xbdb865f3	-0.0900382
176	0x3e555d2a	0.2083632
177	0x3d39ec7d	0.04539155
178	0x3e3a38ae	0.18185684
179	0x3ea83c8c	0.32858694
180	0x3e03fe0c	0.1288988
181	0xbdf01361	-0.11722446
182	0x3e31a3b1	0.173476
183	0xbdb82b30	-0.08992612
184	0xbeb13567	-0.34611055
185	0x3cf76616	0.030200046
186	0x3e260b2a	0.16215196
187	0x3b9796dc	0.004626138
188	0xbc78d5cd	-0.015187693
189	0x3d1e48e6	0.03864374
190	0xbdba9a84	-0.09111503
191	0xbe88e9d5	-0.267409
192	0xb9b35ce5	-0.00034210752
193	0xbdc2bf2b	-0.09509119
194	0x3dd24f5a	0.10269041
195	0xbe843451	-0.25821164
196	0xbded3d19	-0.11583919
197	0xbead3b12	-0.3383413
198	0x3eb9ff1e	0.3632745
199	0xbaa65087	-0.0012688794
200	0x3dc2f37e	0.09519099
201	0x3e4c2494	0.19935828
202	0x3e13bfcd	0.14428635
203	0xbc77c14d	-0.01512177
204	0x3e00adc2	0.12566283
205	0x3ddf8d49	0.1091562
206	0xbda38027	-0.079834275
207	0xbd1fe445	-0.039036054
208	0xbe888125	-0.2666103
209	0x3e371b4c	0.17881507
210	0xbdcdb778	-0.100447595
211	0x3d7a86ca	0.0611637
212	0xbe2d068a	-0.16897026
213	0xbe1a418e	-0.1506407
214	0xbcc4946d	-0.023996556
215	0x3dba9aea	0.09111579
216	0x3d98a97e	0.07454203
217	0x3d711d4b	0.058865827
218	0x3d22a3f3	0.039707135
219	0x3e26084d	0.16214104
220	0xbd459f07	-0.048247363
221	0x3bfdc6d5	0.00774465
222	0xbd857043	-0.06515553
223	0x3e750070	0.23925948
224	0x3dc34060	0.09533763
225	0x3e08d55c	0.1336264
226	0xbd9cee77	-0.07662671
227	0x3e4a5cd1	0.19761969
228	0xbc7a3e79	-0.015273684
229	0xbe0de93a	-0.138585
230	0xbe95c4ab	-0.29251608
231	0xbcf0292c	-0.029316507
232	0x3daa78a7	0.08323794
233	0xbac4d699	-0.0015017568
234	0xbe82383a	-0.25433522
235	0x3e4b0524	0.1982618
236	0xbddb86ec	-0.10719094
237	0x3e05760b	0.13033311
238	0xbde4a658	-0.1116454
239	0xbdf97b9a	-0.12181778
240	0xbdaefaf4	-0.08543959
241	0x3e0ea29e	0.13929221
242	0x3a17c8a5	0.0005790091
243	0x3e46d4cd	0.19417115
244	0x3df83694	0.12119785
245	0xbd8ff30d	-0.0702878
246	0x3e5b65a1	0.21425487
247	0x3d7e0047	0.062011983
248	0x3de43639	0.11143155
249	0xbe14f6b6	-0.14547238
250	0xbd1e263e	-0.03861069
251	0xbc448716	-0.011995098
252	0x3e26cfad	0.1629016
253	0xbe6143ba	-0.21998492
254	0x3e8ae867	0.27130434
255	0xbe00bbd0	-0.12571645

network_body._body_endoder.seq_layers.0.bias f4 [128]
0	0xbb451927	-0.0030074806
1	0xba3b5643	-0.0007146338
2	0x3b0970ea	0.0020971843
3	0x3b9da2aa	0.004810651
4	0xbb216816	-0.002462869
5	0xbc0272f3	-0.007961976
6	0x39ac1901	0.00032825026
7	0xbbb01905	-0.0053740763
8	0xbbcfd803	-0.0063428893
9	0xbad66766	-0.001635772
10	0x3b4a01f3	0.0030823916
11	0xbc5d9bfe	-0.013525961
12	0x3b841570	0.004030876
13	0xbc3b1fed	-0.011421186
14	0xbc1eafb9	-0.00968545
15	0xbb9a5d04	-0.0047107954
16	0xbb9515d4	-0.0045497213
17	0xbbff246b	-0.007786324
18	0xbbdd30b1	-0.0067501892
19	0xbc64f69e	-0.013974814
20	0x3b53bffa	0.0032310472
21	0x3ab5168d	0.0013815925
22	0x3c316b2a	0.010828773
23	0x39c63591	0.00037805413
24	0xbbf6bdad	-0.0075299353
25	0x3b8b7099	0.004255366
26	0xbb2077c0	-0.002448544
27	0xbbff4709	-0.0077904505
28	0x3b36129a	0.0027782083
29	0x3ae6bc0c	0.001760365
30	0xbbca2a3a	-0.0061695846
31	0xbab4a004	-0.0013780599
32	0xba936042	-0.0011243897
33	0x3c1c39bd	0.00953525
34	0xbb732e1a	-0.0037106336
35	0xbadb466e	-0.0016729364
36	0x3aa15856	0.0012309651
37	0x39a96382	0.0003230833
38	0x3bc75b92	0.006083914
39	0xbbfe08c5	-0.0077525103
40	0x3bd39607	0.0064570936
41	0xbbc4dc8a	-0.0060077356
42	0xbb5a8b78	-0.003334729
43	0x3be806e4	0.0070808996
44	0x3be7954c	0.007067358
45	0x3c1df1c7	0.009640164
46	0xba7b467b	-0.00095853925
47	0x3bd6a88e	0.006550855
48	0x3ab1f85f	0.0013578049
49	0x3a2be856	0.0006557753
50	0xbbabaeb1	-0.0052393307
51	0xbb8566be	-0.0040710857
52	0xbc2b0b56	-0.010439714
53	0xbc310e4a	-0.010806629
54	0x3ba640c5	0.005073639
55	0xbc04e598	-0.00811138
56	0xbc154320	-0.009110242
57	0xbc1e4890	-0.009660855
58	0x3c8968af	0.01677355
59	0xbb4487cc	-0.0029988168
60	0x3c56aa91	0.01310219
61	0xbc22cbc5	-0.009936278
62	0xb90e6f33	-0.000135836
63	0xbb39ee52	-0.002837081
64	0x3ac3652a	0.0014907469
65	0xbbb7f78e	-0.0056142276
66	0xbb4a9679	-0.0030912443
67	0xbb05274a	-0.0020317608
68	0x3a8f00a5	0.0010910226
69	0x3c90c173	0.017670369
70	0x3b8751ab	0.0041296086
71	0xbc466d14	-0.012110967
72	0x3b1b2da4	0.0023678327
73	0xbc290b44	-0.010317627
74	0x3b775c1a	0.0037744106
75	0x3c3fe512	0.011712329
76	0xbb611100	-0.0034342408
77	0xbb677251	-0.003531594
78	0xbbaa6e54	-0.0052011404
79	0x3a7d041d	0.0009651797
80	0x3b591ae5	0.0033127603
81	0x3c467dd5	0.012114962
82	0x3beca9c8	0.007222388
83	0x3b26fd19	0.0025480448
84	0xbbbb4890	-0.0057154372
85	0x3c40ba71	0.011763201
86	0x3ce61ec1	0.028090836
87	0x3bd7042a	0.0065617757
88	0x3be799fe	0.007067918
89	0xbc485b6b	-0.012228827
90	0x3c2b4bc9	0.01045508
91	0xbbc4b8cb	-0.0060034744
92	0xbbde5213	-0.0067846864
93	0xbb3d6a50	-0.0028902479
94	0xbbba780c	-0.0056905802
95	0x3c24eaec	0.010065775
96	0x3cb71e7a	0.0223534
97	0xbb0f46a6	-0.0021862178
98	0x3c01d3bb	0.007924016
99	0xbb10f19f	-0.0022116674
100	0xbbe4861a	-0.006973994
101	0xbbb50e29	-0.0055253697
102	0xbab76f68	-0.0013994994
103	0x3c21e758	0.009881817
104	0x3b789a14	0.0037933635
105	0xbab4f3fd	-0.0013805624
106	0xb9b06294	-0.00033642782
107	0x3c8571e0	0.016289651
108	0xb90cb1cf	-0.0001341768
109	0xbc61f82b	-0.013792078
110	0xba35d707	-0.00069366436
111	0x3bcb5155	0.006204764
112	0x3b1653b8	0.0022938084
113	0xbbcc25ff	-0.0062301154
114	0xbc153830	-0.009107634
115	0x3c406fc5	0.011745398
116	0x3a8a8286	0.0010567463
117	0x3b6db7dd	0.003627292
118	0xbb99fe18	-0.00469948
119	0x38fa359d	0.00011930915
120	0xbb9172f2	-0.0044387514
121	0xbcc7c591	-0.0243862
122	0xbc173324	-0.0092285015
123	0xbbee6b42	-0.0072759697
124	0x3bad452e	0.005287788
125	0x3c3ca1a9	0.011513152
126	0xbb806140	-0.003917843
127	0x3b12afa5	0.0022382524

network_body._body_endoder.seq_layers.2.weight f4 [128, 128]
0	0xbc997c7a	-0.018736113
1	0x3c5be9cd	0.013422442
2	0xbb072a06	-0.0020624413
3	0x3e475a5c	0.19468063
4	0xbda4f318	-0.08054179
5	0x3d597b67	0.0530962
6	0xbdcdc9e0	-0.1004827
7	0xbd76d248	-0.060259134
8	0x3d9b3a8e	0.07579528
9	0xbdc410b7	-0.095735006
10	0x3d611f13	0.054961275
11	0x3e305fc9	0.17224039
12	0x3c7f2cb3	0.015574622
13	0x3df2155d	0.11820481
14	0x3d65269b	0.05594502
15	0xbbaf744a	-0.005354439
16	0xbc9fb887	-0.01949717
17	0xbc922af6	-0.017842751
18	0x3da27690	0.0793277
19	0x3e02b8c4	0.12765795
20	0x3d6e564e	0.058187775
21	0x3d8b859e	0.06812595
22	0xbc42371e	-0.011853961
23	0x3d8c1c08	0.06841284
24	0x3da73950	0.08165228
25	0x3ca1b7ae	0.019740906
26	0xbdbeb1c0	-0.09311247
27	0x3ce89303	0.028390413
28	0xbc694c5d	-0.014239398
29	0x3e6d9994	0.23203117
30	0xbd2550e0	-0.04036033
31	0xbd8c5e92	-0.06853975
32	0xbe8e5429	-0.27798584
33	0x3d8e5d9d	0.06951449
34	0xbdc7f3f4	-0.09763327
35	0x3d970013	0.07373061
36	0x3ca2d688	0.019877687
37	0x3e27367b	0.16329376
38	0x3c7bb560	0.015363067
39	0x3da2d7ee	0.079513416
40	0x3c1708cb	0.009218405
41	0x3c58b2d9	0.013226234
42	0x3c9ae016	0.01890568
43	0x3d2bf823	0.04198469
44	0xbd99c5b8	-0.07508415
45	0xbdd1a7da	-0.10237093
46	0xbe209b9d	-0.15684362
47	0x3bc30794	0.005951831
48	0xbc1e368e	-0.009656562
49	0xbd84f54c	-0.06492099
50	0x3df85d55	0.12127177
51	0x3cc058e0	0.023479879
52	0xbd0f17c2	-0.034934767
53	0x3d2fde25	0.042936463
54	0x3e15487b	0.1457843
55	0xbd99d099	-0.0751049
56	0xbdbdf53c	-0.0927529
57	0x3d827660	0.063702345
58	0x3d723446	0.059131883
59	0xbd74abd5	-0.059734184
60	0xbdc9ae2c	-0.09847674
61	0x3d5f8809	0.054573093
62	0x3daced31	0.08443678
63	0x3d8b875e	0.068129286
64	0xbd8eccbf	-0.06972646
65	0x3e2ff481	0.17183115
66	0x3cd082e8	0.025453046
67	0xbdfe7765	-0.124251164
68	0x3c190714	0.009340066
69	0xbd9c212b	-0.07623514
70	0x3cddbdf3	0.027068114
71	0x3e3e6534	0.18593293
72	0x3b48704f	0.003058452
73	0xba93c3c6	-0.0011273555
74	0x3d6d1157	0.057877865
75	0xbd834680	-0.06409931
76	0xbd7c68c2	-0.061623342
77	0x3d834210	0.06409085
78	0x3cbb9f34	0.022903062
79	0xbd96de65	-0.07366637
80	0xbd73c8c4	-0.059517637
81	0x3d21670a	0.039404906
82	0xbc4e356d	-0.01258598
83	0xbd9d17c1	-0.07670546
84	0xbcb1c462	-0.021700088
85	0x3d82ce6d	0.06387029
86	0x3ceb3b60	0.028714836
87	0xbd9c55a5	-0.07633523
88	0xbdb24e33	-0.087063216
89	0x3dec7c64	0.11547163
90	0x3c91c26b	0.017792901
91	0xbd9dea39	-0.0771069
92	0xbce21c72	-0.027601454
93	0xbdc2dfa6	-0.09515314
94	0xbda0d9f0	-0.07854068
95	0xbd8bbb94	-0.06822887
96	0xbd2e7e64	-0.042601004
97	0x3cad542c	0.0211583
98	0xbcf02edd	-0.029319221
99	0x3e35f83d	0.17770477
100	0x3d55ecbd	0.052227724
101	0x3d6d14b2	0.057881065
102	0x3c9a5e96	0.01884393
103	0x3df2d9cb	0.11857947
104	0x3cf54658	0.02994077
105	0x3d6f43e1	0.058414344
106	0x3b90ed55	0.0044228234
107	0xbb59be51	-0.003322501
108	0xbd008574	-0.03137727
109	0x3d669550	0.05629474
110	0xbd3bf758	-0.045890182
111	0x3d7bed9f	0.06150591
112	0x3d80cbc7	0.062888674
113	0x3dc21006	0.094757125
114	0x3b81aea4	0.0039575864
115	0x3c835887	0.016033424
116	0x3c9a5d76	0.018843394
117	0x3ce4a5a0	0.027911007
118	0x3c963633	0.018336391
119	0xbd476300	-0.048678398
120	0xbe58ee39	-0.21184625
121	0x3d65d2fb	0.05610941
122	0xbd4d176d	-0.05007117
123	0x3d11ed78	0.03562686
124	0x3d3b0750	0.04566127
125	0x3d0020b1	0.031281177
126	0xbd2d2f0e	-0.042281203
127	0xbe7d7d7b	-0.24754898
128	0x3bf6c6a3	0.0075310036
129	0xbd6c9202	-0.05775643
130	0x3d891024	0.06692532
131	0xbb38ed10	-0.0028217472
132	0x3e3455f1	0.17610909
133	0x3cd5544b	0.02604117
134	0xbd8a9429	-0.067665406
135	0xbd1c1eff	-0.038115498
136	0x3e6ad146	0.22931394
137	0x3c9d7025	0.019218514
138	0xbdd91bbe	-0.106009945
139	0x3c0e46f0	0.008683905
140	0x3d9138dd	0.07090924
141	0x3d3134a4	0.043263093
142	0xbdf975e5	-0.1218069
143	0xbca4b23a	-0.020104516
144	0x3c51aa0e	0.012796892
145	0x3b9495e0	0.004534468
146	0x3d82e6ae	0.06391655
147	0xbd0fe482	-0.03513003
148	0xbca43890	-0.020046502
149	0xbd31ca13	-0.043405604
150	0xbe05d6c1	-0.13070203
151	0x3c94c42a	0.018159945
152	0xbcf078b3	-0.029354429
153	0xbdead9d7	-0.11467331
154	0x3dd6480d	0.10462961
155	0xbda45361	-0.08023716
156	0x3c6751ce	0.014118625
157	0xbdd5a7ae	-0.10432373
158	0x3d0526b4	0.032507613
159	0xbe3d8ed3	-0.18511514
160	0xbe11800e	-0.14209005
161	0xbcbf6a68	-0.023366168
162	0x3d52622e	0.051363163
163	0x3dd65597	0.10465544
164	0x3d288db5	0.041150767
165	0x3df30813	0.118667744
166	0xbe37c8c2	-0.17947677
167	0x3c6a481b	0.014299418
168	0xbcf25a7c	-0.029584162
169	0xbdd8e99a	-0.10591431
170	0x3d9a5951	0.07536567
171	0x3de40bba	0.11135049
172	0x3dacf890	0.08445847
173	0xbbecbf7b	-0.0072249747
174	0xbc8802fe	-0.01660299
175	0xbd9cad63	-0.076502584
176	0x3e018746	0.12649259
177	0xba65a322	-0.00087599654
178	0x3d12015a	0.03564582
179	0xbd8a81e9	-0.0676306
180	0xbac07300	-0.001468271
181	0xbe1949cb	-0.14969556
182	0xbe192746	-0.14956388
183	0xbda0fb01	-0.07860375
184	0xbe74ab53	-0.2389348
185	0xbc76758a	-0.015042672
186	0xbe276630	-0.16347575
187	0x3d9faba3	0.07796409
188	0xbc3f7aa3	-0.011686954
189	0xbd00f56b	-0.03148405
190	0x3d0ab32a	0.03386227
191	0x3cde8441	0.027162673
192	0x3d4e8659	0.050421093
193	0xbcc42b46	-0.023946416
194	0x3c6ac2d0	0.0143286735
195	0xbcda06a7	-0.0266145
196	0x3dd12a13	0.10213103
197	0x3d53c580	0.051702023
198	0xbdafd23f	-0.08585023
199	0xbcef5046	-0.029213082
200	0x3dc9a76b	0.098463856
201	0xbd75395f	-0.059869166
202	0xbd75b1f0	-0.059984148
203	0x3ca52eeb	0.020163974
204	0xbdcedd38	-0.10100788
205	0xbd2489fe	-0.040170662
206	0xbd0967d9	-0.033546302
207	0x3dc7a99f	0.097491495
208	0xbd78751a	-0.06065855
209	0x3c0fac22	0.008769067
210	0xbc733fa4	-0.014846716
211	0x3e0a2acd	0.1349289
212	0x3dfb2249	0.12262399
213	0xbd867f29	-0.065672226
214	0x3de9a161	0.11407734
215	0xbc80686d	-0.015674794
216	0x3ca5be55	0.020232359
217	0x3e04e117	0.1297649
218	0xbddec098	-0.10876578
219	0xbd9aa930	-0.07551801
220	0x3d676427	0.056491997
221	0x3c82827b	0.015931359
222	0xbd77c814	-0.060493544
223	0xbd6f963a	-0.058492877
224	0xbdd4124c	-0.10355052
225	0x3dbe3c54	0.092888504
226	0x3d53b415	0.05168541
227	0x3d620591	0.05518109
228	0x3d325254	0.043535545
229	0xbd8c27e7	-0.06843548
230	0x3dfef1bb	0.1244845
231	0x3dcad96c	0.09904751
232	0xbc03062a	-0.007997075
233	0x3e24e3fd	0.16102596
234	0x3c1923af	0.009346887
235	0xbdcf522a	-0.101230934
236	0x3c499af0	0.012305006
237	0xbba4190f	-0.00500787
238	0x3cde7c45	0.027158866
239	0x3e63ea06	0.22257242
240	0x3d4c12ce	0.04982262
241	0xbd1b808e	-0.037964396
242	0x3e12e5bf	0.14345454
243	0x3da6fd02	0.08153726
244	0xbdf10eac	-0.117703766
245	0x3e24e47f	0.1610279
246	0x3dfaca20	0.122455835
247	0xbd8c5445	-0.06852011
248	0x3d2e5ef2	0.042571016
249	0x3dde771f	0.10862564
250	0xbac88f3c	-0.0015301476
251	0xb84f310d	-4.9398328e-05
252	0x3c925de0	0.017867029
253	0xbdf6ece3	-0.12056901
254	0x3c353b08	0.011061437
255	0xbc3fa1cb	-0.011696289

network_body._body_endoder.seq_layers.2.bias f4 [128]
0	0xbabf1792	-0.0014579168
1	0xbb2eb31f	-0.0026657057
2	0x3c11c86a	0.00889788
3	0xba72d1e1	-0.0009262842
4	0x3c28f2f9	0.010311835
5	0x3ca1626c	0.019700252
6	0x3c02fd0b	0.0079949
7	0xbc1bc20a	-0.009506712
8	0xbb3cdd6a	-0.0028818497
9	0x3bbfc29c	0.0058520567
10	0xbbd156d5	-0.006388525
11	0x3b9fbd15	0.0048748353
12	0x3b02a914	0.0019937204
13	0xbbbe9f3e	-0.005817323
14	0xbbc5796f	-0.006026439
15	0xbb92e086	-0.0044823317
16	0x3b007466	0.001960063
17	0xbba9ff9e	-0.0051879426
18	0xbbc44024	-0.0059890915
19	0x3b85a7b1	0.0040788283
20	0xbc099852	-0.008398132
21	0xbb8db1ec	-0.0043241885
22	0x3b3ce156	0.0028820834
23	0xba27ebef	-0.0006405701
24	0x3a05323c	0.0005081033
25	0x3b0febe1	0.0021960663
26	0xba998a74	-0.0011714236
27	0xba9a9045	-0.0011792263
28	0xba50e709	-0.0007968997
29	0xba39a042	-0.000708107
30	0xbb697165	-0.0035620567
31	0x3a6a3593	0.0008934375
32	0x3c04b6b4	0.0081002
33	0x3c52f73f	0.012876331
34	0x3abd2c8e	0.0014432834
35	0xba53e1b2	-0.00080826425
36	0xbb2962d2	-0.0025846255
37	0xbb852520	-0.0040632635
38	0x3c21f626	0.0098853465
39	0x395e2f95	0.00021189296
40	0x3c4648eb	0.012102346
41	0x3bf86c5a	0.007581276
42	0x3c029f5c	0.007972565
43	0x3ca06e81	0.019583942
44	0xbc2704b3	-0.0101939915
45	0x3b39d16b	0.0028353583
46	0x3b330bc5	0.0027320248
47	0xbb2ccf9c	-0.0026368862
48	0xbadefcf4	-0.0017012642
49	0xbba42e85	-0.0050104284
50	0xbc40db83	-0.011771086
51	0xbb9e069c	-0.0048225652
52	0xbb81a946	-0.0039569465
53	0x3bf9b665	0.00762062
54	0x3c6f0cd5	0.014590462
55	0xba88fbfd	-0.0010451075
56	0xbb377aa4	-0.0027996683
57	0xbb392baf	-0.0028254797
58	0xbaf21ab5	-0.0018471094
59	0xbbbb1bcf	-0.005710102
60	0x3a6cafea	0.0009028899
61	0x3ab22fd0	0.0013594572
62	0x3b57aeee	0.0032910663
63	0xb9e1ad93	-0.00043044667
64	0xbbb7a504	-0.005604388
65	0x3af49620	0.0018660463
66	0x3bb60045	0.0055542313
67	0x3c01c7a4	0.007921133
68	0x394aafc1	0.00019329695
69	0x3c2b169b	0.010442401
70	0x3aad9147	0.0013242149
71	0xbb7b15ac	-0.0038312478
72	0x3abe9716	0.0014540877
73	0x3b212cba	0.002459331
74	0xb95b16e2	-0.00020893992
75	0xbbc53768	-0.006018568
76	0x3bae64ea	0.0053220885
77	0x3b3a9dc7	0.002847539
78	0x3ca9d39a	0.020730782
79	0xbb89b44f	-0.0042024027
80	0xbbfef91c	-0.007781161
81	0x3c8dcb5a	0.01730888
82	0xba37bf2f	-0.00070093846
83	0x3a83ab6b	0.0010045593
84	0xba9d6508	-0.0012008259
85	0x3c217258	0.009853922
86	0xbad620cd	-0.001633668
87	0x3b2af811	0.00260878
88	0x3b914df2	0.0044343406
89	0xbbd35c24	-0.006450193
90	0x3af93c4a	0.001901516
91	0xbb24e0f5	-0.00251585
92	0x3b259302	0.0025264625
93	0xbb8f9615	-0.004381905
94	0x3b39b243	0.0028335012
95	0x3ab18cfa	0.0013546043
96	0xbbd87223	-0.006605403
97	0x3bfe0941	0.007752568
98	0xbb1e20eb	-0.0024128507
99	0xbbb074bc	-0.0053850096
100	0xbb476cb4	-0.0030429782
101	0xbc2068c7	-0.009790606
102	0xbb10f559	-0.0022118895
103	0xbbd7a56c	-0.006580999
104	0x3a6c0df5	0.00090047653
105	0x3b33b30a	0.0027419948
106	0xbc7252d2	-0.014790254
107	0xbbde3efb	-0.00678241
108	0xbba8cf51	-0.005151667
109	0x3c1daaa7	0.009623206
110	0xbb32a4ad	-0.00272588
111	0xbb9adee3	-0.004726277
112	0xbbeb468e	-0.0071800416
113	0x3988297c	0.0002597085
114	0x3b8ab73e	0.00423327
115	0xbb29dc3e	-0.0025918628
116	0xbb9f107b	-0.0048542595
117	0xbb712045	-0.0036792916
118	0x3bc4fcf6	0.0060116006
119	0xb9a46d63	-0.00031362017
120	0xbaf9dfea	-0.0019063924
121	0xbc2b6557	-0.010461173
122	0xbc00c830	-0.007860228
123	0x3c0dea77	0.008661858
124	0xbb8b51a0	-0.004251674
125	0xbb5a946c	-0.0033352626
126	0x398dbb43	0.00027033137
127	0xbbb6866b	-0.005570223

action_model._continuous_distribution.log_sigma f4 [1, 2]
0	0x3b61de51	0.0034464786
1	0x3c5a11af	0.01330988

action_model._continuous_distribution.mu.weight f4 [2, 128]
0	0x3ceb2c99	0.02870779
1	0xbc3b4c5c	-0.01143178
2	0x3d16e44f	0.036838826
3	0xbca60771	-0.02026722
4	0xbd047350	-0.032336533
5	0xbd45c818	-0.048286527
6	0x3cff9dc3	0.031203156
7	0xbc25eb0a	-0.010126838
8	0xbcc1b0c6	-0.023643862
9	0xbcf516cd	-0.029918099
10	0xbc884d69	-0.016638475
11	0x3c135817	0.00899317
12	0xbcb131e5	-0.021630237
13	0x3bba93a8	0.0056938715
14	0x3c821da4	0.015883274
15	0xbbf819fb	-0.0075714565
16	0x3c5c3c0b	0.01344205
17	0x3aebfeb3	0.0018004983
18	0xbcf13db4	-0.029448368
19	0xbcb38d82	-0.021918062
20	0xbbef4b3f	-0.007302671
21	0x3b83b15d	0.004018946
22	0xbca988b6	-0.020695072
23	0x3d1cff5c	0.038329467
24	0x3cc79817	0.024364514
25	0x3d083c4a	0.03326062
26	0x3ca20673	0.019778466
27	0x3c8caa08	0.017170921
28	0x3a936fb7	0.0011248504
29	0xbc7c2444	-0.015389506
30	0x3d35622a	0.04428307
31	0x3ca29296	0.019845288
32	0xbd536c0a	-0.051616706
33	0xbc6301dd	-0.013855425
34	0x3ca67bdf	0.020322738
35	0xbc9c3eae	-0.019072857
36	0x3c03bcb2	0.008040594
37	0x3ce7c07e	0.02829003
38	0x3c3f803d	0.011688289
39	0x3c8b3b61	0.016996088
40	0xbcec94e0	-0.028879583
41	0x3c20c9d1	0.009813742
42	0x3c28eaa9	0.010309854
43	0xbc8e6928	-0.017384127
44	0x3ce8b1a8	0.028405026
45	0xbc003b96	-0.007826706
46	0x3a8e97d4	0.0010878989
47	0x3cf8dfc5	0.03038014
48	0xbcd8ca47	-0.02646364
49	0xbc60c565	-0.0137189375
50	0x3b26a0da	0.0025425465
51	0x3b65fa00	0.0035091639
52	0xbc846d83	-0.0161655
53	0x3c83e2da	0.016099382
54	0xbca6475a	-0.020297695
55	0xbd3f34bd	-0.046681155
56	0xbc190d74	-0.009341586
57	0xbcc21af2	-0.02369449
58	0x3c1b6d54	0.009486515
59	0x3ad88acd	0.0016520858
60	0x3cd223c6	0.025651824
61	0xbc8a6dc5	-0.016898045
62	0x3b8fcbcb	0.0043883077
63	0x3c861390	0.01636675
64	0x3ca2be74	0.019866206
65	0xbc4b8b2f	-0.012423321
66	0xbc095b6a	-0.008383611
67	0xb91f4c04	-0.0001519174
68	0xbb4c22d5	-0.0031148691
69	0xbc49f322	-0.012326034
70	0xbc442af3	-0.0119731305
71	0xbc6c99ee	-0.014440997
72	0xbd3ce0bb	-0.046112757
73	0xbaafe316	-0.0013419117
74	0x3cc66e3b	0.024222484
75	0x3c596898	0.013269566
76	0x3cc9eab2	0.024648044
77	0x3bf31df7	0.0074193436
78	0xbce8fd58	-0.028441116
79	0xbb27c6b1	-0.0025600607
80	0x3c6a6571	0.014306412
81	0xbca68a17	-0.020329518
82	0xbc7a8e83	-0.0152927665
83	0x3c092280	0.008370042
84	0x3ce5d39b	0.028055003
85	0x3d00ed2a	0.031476177
86	0x3cc8483f	0.024448512
87	0x3caac053	0.02084366
88	0x3c95aec4	0.018271811
89	0x3c365280	0.011128068
90	0xbcf4caa9	-0.029881792
91	0xbcbf4b39	-0.023351299
92	0xbc9a836c	-0.018861495
93	0x3b228bc1	0.0024802538
94	0xbd112a58	-0.035440773
95	0xbd42976f	-0.0475077
96	0xbba33804	-0.004981043
97	0x3c9514a4	0.018198319
98	0xbb11aa5e	-0.002222679
99	0x3bf1f3c5	0.007383796
100	0xbc37e2fe	-0.011223553
101	0xbce95dd4	-0.028487124
102	0x3c1ae654	0.009454329
103	0x3c8a5046	0.01688398
104	0x3b1fc14e	0.0024376693
105	0x3c782839	0.015146309
106	0xbc82bec8	-0.015960112
107	0xbc1ef367	-0.009701586
108	0x3c91adef	0.017783133
109	0x3d75ce86	0.06001141
110	0x3c477eb8	0.012176208
111	0x3cd08105	0.025452146
112	0x3c1eb013	0.009685534
113	0x3d0c9160	0.034318328
114	0xbc51d8a1	-0.012807996
115	0x3c87ba71	0.016568394
116	0xbbd8de5c	-0.006618304
117	0x3bc1aefc	0.0059107523
118	0x3cf3c98e	0.029759195
119	0x3cbfc9f5	0.02341173
120	0x3d5eae27	0.054365303
121	0x3c461195	0.012089153
122	0xbb498dc8	-0.0030754674
123	0xbc901e57	-0.017592592
124	0xbc6d480e	-0.014482511
125	0x3b91f962	0.0044547776
126	0xbc17a37e	-0.009255288
127	0x3be1c9b3	0.0068904995
128	0x3cd36800	0.025806427
129	0x3adf2d4d	0.001702705
130	0xbc60d8d3	-0.01372357
131	0xbc32eda1	-0.010920913
132	0xbba31ce5	-0.0049778097
133	0x3d01a20a	0.031648673
134	0xbcfbda3e	-0.030743714
135	0x3bda1c2f	0.006656192
136	0xbc0bd70b	-0.008535157
137	0x3c89968a	0.016795415
138	0xbb893513	-0.004187235
139	0xbd2ccd0c	-0.042187735
140	0x3c980865	0.01855869
141	0xbcd90d82	-0.026495699
142	0xbc895838	-0.016765699
143	0xbd0adba6	-0.03390088
144	0x3d02ee48	0.031965524
145	0xbca8324d	-0.020531798
146	0xbd0152de	-0.03157317
147	0xbca8b0fe	-0.020592209
148	0x3c454044	0.012039248
149	0xbd25cae6	-0.040476702
150	0x3bdfefc1	0.006834001
151	0xbb1b8a32	-0.0023733494
152	0x3ca64ade	0.020299371
153	0xbc844e60	-0.016150653
154	0x3c3b4d2b	0.0114319725
155	0x3bb6a723	0.0055741235
156	0x3c3bcd52	0.011462526
157	0x3a610df5	0.00085851486
158	0xbba26efb	-0.0049570776
159	0x3c361c1b	0.011115099
160	0x3ba2e0ff	0.0049706693
161	0x3c1fca17	0.009752772
162	0xbc70c30f	-0.014694943
163	0x3bcfba29	0.0063393307
164	0xbba2443b	-0.0049519814
165	0xbcf7219c	-0.030167393
166	0xbbd0d859	-0.006373447
167	0x3cdd3850	0.027004391
168	0xbc8c1333	-0.017098999
169	0x3b56c77f	0.0032772718
170	0x3d0d2692	0.03446061
171	0xbd8aa220	-0.06769204
172	0x3b4e4378	0.003147332
173	0xbca2e609	-0.01988508
174	0x3c86377b	0.016383877
175	0xbb6dbefc	-0.0036277166
176	0xbc370c1e	-0.011172323
177	0xbc9a9f2a	-0.018874723
178	0x3c6c2842	0.014413895
179	0xbcc6c514	-0.024263896
180	0xbc54d706	-0.012990719
181	0x3d3e242f	0.046421226
182	0x3cbd0f28	0.023078516
183	0xbc546ffa	-0.01296615
184	0x3b95d24d	0.004572189
185	0xbcc4fadb	-0.024045398
186	0x3c9df1ea	0.019280393
187	0xbc42a78c	-0.011880767
188	0x3ca1bc3c	0.019743077
189	0x3ccc91fe	0.024971958
190	0x3cd0a4fb	0.025469294
191	0x3c4e9c97	0.012610576
192	0xbd145262	-0.03621138
193	0x3c58b4e9	0.013226726
194	0xbd4686e8	-0.0484685
195	0x3c098e03	0.008395675
196	0x3c3f5600	0.011678219
197	0x3b91dd71	0.0044514467
198	0x3c349df1	0.011023984
199	0xbce933bf	-0.028467057
200	0xbd2cbca3	-0.042172085
201	0xbb22c067	-0.002483392
202	0x3c5e84d0	0.01358147
203	0x3c7eb77d	0.015546677
204	0xbc9fe920	-0.019520342
205	0xbcc1a914	-0.023640193
206	0x3d380da4	0.044934884
207	0xbbc83bc5	-0.0061106407
208	0x3be99fd2	0.007129648
209	0x3d1e64eb	0.03867046
210	0xbb2b8705	-0.0026173007
211	0x3cccc9f7	0.024998648
212	0xbc0c5de3	-0.008567306
213	0xbbed38ed	-0.007239452
214	0xbb607e46	-0.0034254952
215	0x3c581500	0.013188601
216	0x3c8a5feb	0.01689144
217	0x3b93dc17	0.0045123207
218	0xbceec07e	-0.029144522
219	0xbc053ebb	-0.008132632
220	0xbc08c9d4	-0.008348901
221	0xbce4eb73	-0.027944302
222	0xbbf2c4dc	-0.0074087214
223	0xbbdd4901	-0.0067530875
224	0xbbb0f7d4	-0.005400637
225	0xbc9f86ff	-0.01947355
226	0x3ba2e104	0.0049706716
227	0xbc17475f	-0.009233325
228	0x3bbe1470	0.005800776
229	0xbcad45bf	-0.021151422
230	0xbc0e8027	-0.008697546
231	0xbc78d47c	-0.015187379
232	0x38927f29	6.985508e-05
233	0x3c2ae76a	0.01043115
234	0xbcb08f3f	-0.02155268
235	0xbb402284	-0.0029317448
236	0xbca05d21	-0.019575657
237	0xbcdaf3c8	-0.026727572
238	0xbc1d3ce0	-0.009597033
239	0xbcdb0c3b	-0.02673923
240	0xbc6fd369	-0.014637806
241	0x3c9d55d6	0.019205969
242	0x3d015e35	0.031583983
243	0xb9410ba8	-0.00018410257
244	0x3b3d1d48	0.0028856564
245	0xbb0a6601	-0.0021117928
246	0xbd043b39	-0.03228304
247	0x3bbe26f0	0.0058029816
248	0x3bb4dcca	0.005519484
249	0xbcf0a662	-0.029376213
250	0x3d0b8647	0.034063604
251	0x3d70ea20	0.05881703
252	0x3b847c19	0.004043114
253	0xbbf5658a	-0.007488911
254	0xbc36a6c7	-0.011148161
255	0x3b0107af	0.0019688418

action_model._continuous_distribution.mu.bias f4 [2]
0	0xba871a8f	-0.0010307598
1	0x3b688bc2	0.0035483693

action_model._discrete_distribution.branches.0.weight f4 [5, 128]
0	0x3ca5b44c	0.020227574
1	0x3c98ddda	0.018660475
2	0xbd0412d5	-0.032244522
3	0x3c274c6c	0.0102110915
4	0xbd120bf0	-0.035655916
5	0xbbe604ff	-0.0070196385
6	0x3a847d12	0.0010108075
7	0xbc9322c4	-0.017960913
8	0x39fab555	0.0004781882
9	0xbc74de0d	-0.014945519
10	0xbc0b1610	-0.008489147
11	0xbba07434	-0.004896665
12	0xbbfd7252	-0.0077345753
13	0xbbfb3eaa	-0.0076673822
14	0x3c6f1293	0.014591831
15	0x3bea727d	0.0071547613
16	0x3ab2c7c5	0.0013639858
17	0x387f28a8	6.08346e-05
18	0x3ce2f152	0.027702961
19	0xbc79c6d5	-0.015245159
20	0xbb8c433e	-0.004280477
21	0x3b8da4c5	0.0043226206
22	0xbc1f5b72	-0.009726392
23	0xbd0b0699	-0.03394184
24	0xbb21653b	-0.0024626988
25	0xbc1cbc1f	-0.009566336
26	0xbcd12728	-0.025531366
27	0x3c88adb5	0.016684392
28	0xbc0d072e	-0.008607669
29	0x3c8e8395	0.017396728
30	0x3c71aab7	0.014750174
31	0x3a1ed72b	0.0006059284
32	0x3c949d4e	0.018141415
33	0xbc935ce5	-0.017988632
34	0x3c84d864	0.016216464
35	0xbbcf6dd3	-0.0063302307
36	0xbb106895	-0.0022034992
37	0x3ba71f11	0.005100139
38	0xbc8d39d4	-0.017239489
39	0x3a96f2d3	0.0011516459
40	0x3c15b0db	0.009136404
41	0xbbe86e14	-0.0070932005
42	0xbb7f6fb2	-0.0038976488
43	0xbb900a44	-0.004395755
44	0xbc44677f	-0.011987566
45	0x3b72e8e3	0.003706508
46	0xb9de98b6	-0.00042456918
47	0x3ad79d2e	0.0016450041
48	0xbbf6454c	-0.007515585
49	0x3bc3a8c6	0.005971047
50	0xbcf98045	-0.030456671
51	0xbb82687d	-0.003979741
52	0xbcb7c46f	-0.022432534
53	0x3bd4afd4	0.006490687
54	0xbba202c3	-0.004944177
55	0xba92f8ed	-0.0011213102
56	0xbaf0e918	-0.0018380014
57	0xbbef7922	-0.0073081413
58	0xbc682e08	-0.014171131
59	0x3bc41179	0.005983528
60	0x3c4b4b1b	0.012408043
61	0xbb981aa8	-0.0046418495
62	0x3b427503	0.0029671795
63	0xbbe3e196	-0.006954382
64	0x3ab18b3c	0.0013545523
65	0xbc0bed84	-0.008540515
66	0x3b0f9851	0.0021910856
67	0xbb67992d	-0.0035339103
68	0xbc8aa290	-0.016923219
69	0x3c1decba	0.00963896
70	0xbb886053	-0.0041618734
71	0xbb4606d5	-0.0030216475
72	0xbc89d9cc	-0.016827486
73	0xbcf26e69	-0.029593663
74	0xbaa55e39	-0.0012616582
75	0x3ba1abfa	0.0049338313
76	0xbc0a5a08	-0.008444317
77	0xbba12bc8	-0.004918549
78	0xbaa573f0	-0.0012623053
79	0xbba9cae4	-0.005181657
80	0x3bde4075	0.006782586
81	0xbbd45c8f	-0.0064807604
82	0xbb1f38d4	-0.0024295347
83	0x3c3a07fd	0.011354444
84	0xbc73d306	-0.014881855
85	0x3afd3f27	0.0019321189
86	0xbc3c5727	-0.011495388
87	0xbc873c24	-0.01650817
88	0x3be3eadc	0.0069554877
89	0xbcde3b02	-0.027127746
90	0xbc456ca9	-0.012049832
91	0xbb4dc94c	-0.00314005
92	0xbc480eba	-0.012210542
93	0x3b306e9d	0.00269214
94	0xbabeb9b2	-0.0014551191
95	0xbbbefa53	-0.005828181
96	0xbc33d639	-0.010976368
97	0x3bdc1ff6	0.006717677
98	0xbc374040	-0.011184752
99	0xbca41740	-0.020030618
100	0xbc3e9f1e	-0.011634616
101	0x3c386747	0.011255092
102	0xbbbc1efc	-0.0057409983
103	0x3bb0f026	0.0053997217
104	0x3a8c7c8b	0.0010718269
105	0xbca91a4c	-0.020642422
106	0xba855346	-0.0010171912
107	0x3bf94f09	0.0076082987
108	0x3c16b417	0.00919821
109	0xbc520e3c	-0.012820777
110	0x3c15524b	0.009113858
111	0x3b8f15b6	0.004366602
112	0xbc44a5dd	-0.0120024355
113	0xbc16068c	-0.009156834
114	0xbc1ee12b	-0.009697239
115	0xbb110e0b	-0.0022133614
116	0xbc511ff8	-0.01276397
117	0x3cc6e61b	0.024279645
118	0xbc3542f0	-0.011063322
119	0x3bebf976	0.007201369
120	0x3c0cb814	0.0085888095
121	0xbca42121	-0.020035328
122	0xbb24eb0d	-0.0025164515
123	0xbc21fae5	-0.009886478
124	0x3c9c9f41	0.019118907
125	0x3cbc051c	0.022951655
126	0xbc80c6e1	-0.015719833
127	0xbb027035	-0.0019903306
128	0xbb0a1ff4	-0.0021076174
129	0x3b14c5e6	0.0022700964
130	0x3c48879e	0.012239365
131	0xbaecf8d5	-0.0018079529
132	0xbc752ab7	-0.014963797
133	0x3ca062e5	0.019578407
134	0x3cc32fd7	0.023826523
135	0x3c37a098	0.011207722
136	0xbba1e751	-0.004940905
137	0x3b5bb907	0.0033527033
138	0xbc1ae991	-0.009455101
139	0x3c6bad85	0.014384632
140	0xbc5a54d0	-0.013325885
141	0x3c3a9153	0.011387187
142	0x3b8af096	0.004240106
143	0xbab2bcf9	-0.001363664
144	0xbb879201	-0.004137278
145	0xbc11d720	-0.008901387
146	0xbba93b80	-0.0051645637
147	0x3b3a7370	0.0028450154
148	0x3b56f4fb	0.0032799828
149	0xbbd85f46	-0.0066031544
150	0xbc30fbc0	-0.010802209
151	0xbcf01860	-0.029308498
152	0xbbb62806	-0.0055589704
153	0x3c3a2857	0.011362157
154	0x3bdbd162	0.00670831
155	0x39864eee	0.0002561728
156	0xba80e44b	-0.0009833662
157	0x3ae1703b	0.0017199585
158	0xbb74e167	-0.0037365796
159	0xbb8b5937	-0.0042525786
160	0x3c0dfa36	0.008665612
161	0x3c0cb651	0.0085883895
162	0x3bc51e14	0.0060155485
163	0x3c0b9d44	0.008521382
164	0xbad9ef6a	-0.0016627137
165	0x3aa4fe0e	0.0012587921
166	0x3c83744e	0.01604667
167	0xbab2b3d8	-0.001363392
168	0x3b84bfd9	0.0040511903
169	0x3ccc9fff	0.024978636
170	0x3a03ae65	0.000502324
171	0x3c8e7543	0.0173899
172	0xbc04d930	-0.008108422
173	0x3ca6a102	0.020340446
174	0xbbb6a49c	-0.005573822
175	0x3c2bc656	0.010484299
176	0xba82bee8	-0.0009975107
177	0xbb3bda74	-0.0028664144
178	0xbc26cd9d	-0.010180858
179	0xbc86a314	-0.016435184
180	0x3b8e6565	0.0043455833
181	0xbc3b5c74	-0.011435617
182	0x3b407d27	0.0029371472
183	0xbc470e08	-0.012149341
184	0x3b9035a1	0.0044009243
185	0xbb858156	-0.004074256
186	0xbc40de15	-0.0117716985
187	0x3c46abd7	0.012125931
188	0xbc5e38d9	-0.013563358
189	0x3c79b0dc	0.0152399205
190	0x3bb9f372	0.005674773
191	0xbb67c237	-0.0035363564
192	0xbcae7023	-0.021293705
193	0x3c5ff12b	0.013668339
194	0xbc1319fe	-0.008978365
195	0x3c85325f	0.01625937
196	0xbc71b6f8	-0.014753096
197	0xbba06b10	-0.0048955753
198	0xbbe5d7c4	-0.0070142467
199	0xbc78c958	-0.015184723
200	0x3c0c3122	0.008556636
201	0x3bd300d4	0.0064393077
202	0xbae58f63	-0.0017514046
203	0x3b941ecd	0.0045202733
204	0x3998049e	0.0002899514
205	0xbb6f703f	-0.003653541
206	0xbc3507c6	-0.011049217
207	0xbc9f4b74	-0.019445159
208	0x3ae9a404	0.001782537
209	0xb9cec9d6	-0.0003944176
210	0x3b8b30fd	0.004247783
211	0x3c4d7e1c	0.012542274
212	0xbbfedc0b	-0.007777696
213	0x3cf99508	0.030466571
214	0x3c862185	0.016373405
215	0xbc298931	-0.01034765
216	0xbc29709f	-0.010341792
217	0x3b0bd340	0.0021335632
218	0x3c6ddc50	0.014517859
219	0x3c23e248	0.01000268
220	0x3a7cbc6d	0.0009641115
221	0x3c0995b8	0.008397512
222	0xbc84eeda	-0.016227175
223	0xbba21248	-0.004946027
224	0xbc5382d9	-0.0129096145
225	0x3c9ff0f6	0.019524079
226	0xbb46a60c	-0.0030311374
227	0x3bb87ed4	0.0056303535
228	0xbc24edc2	-0.0100664515
229	0x3a94b30e	0.0011344866
230	0xbbcf696a	-0.006329705
231	0x3bd66dfb	0.0065438724
232	0xbb7cd2f0	-0.0038577877
233	0x3c133f86	0.008987313
234	0xbb292825	-0.0025811282
235	0x3c39bd6b	0.011336665
236	0xbb1e4ea4	-0.002415576
237	0xbaa10ce9	-0.0012287173
238	0xbb86c5f3	-0.004112953
239	0xbc5ec3f0	-0.01359652
240	0xbb7cb71f	-0.0038561297
241	0x39c22405	0.000370294
242	0xb9a9ddd3	-0.00032399464
243	0xbc805379	-0.015664803
244	0x3c4bda54	0.01244219
245	0xbbd996a4	-0.006640272
246	0xbac1e286	-0.0014792241
247	0xbbdcef28	-0.006742377
248	0xbc2e2801	-0.010629655
249	0xba58b663	-0.0008266924
250	0x3b3de86f	0.0028977653
251	0x3bb3618f	0.0054742764
252	0x3c03dabc	0.008047756
253	0x37d1bb21	2.500188e-05
254	0xbb938537	-0.0045019644
255	0xbc21b773	-0.009870398

action_model._discrete_distribution.branches.0.bias f4 [5]
0	0x3b83e893	0.0040255277
1	0xbafce381	-0.0019293876
2	0x3b1c43c4	0.0023844102
3	0xba4b2b7a	-0.0007750314
4	0xbb4926f6	-0.0030693389

exp_avg f4 [128, 48]
0	0x36aad372	5.0910103e-06
1	0x00000000	0.0
2	0x37ee172c	2.8382601e-05
3	0x37a88390	2.0088424e-05
4	0xb589568b	-1.0232483e-06
5	0x00000000	0.0
6	0x380270e7	3.1099564e-05
7	0x37e69b2f	2.74904e-05
8	0x3662f5ab	3.3819622e-06
9	0x00000000	0.0
10	0xb76f364a	-1.425815e-05
11	0x36084d1a	2.0310458e-06
12	0xb6c5bdaa	-5.8931373e-06
13	0x00000000	0.0
14	0xb50fa43b	-5.351064e-07
15	0x37312ec7	1.0560913e-05
16	0x369114bf	4.323752e-06
17	0x00000000	0.0
18	0xb69079ff	-4.3057366e-06
19	0x36236491	2.434743e-06
20	0x3356f75b	5.0050726e-08
21	0x00000000	0.0
22	0x36376eeb	2.7333688e-06
23	0x36608c39	3.3460221e-06
24	0x3356f75b	5.0050726e-08
25	0x00000000	0.0
26	0x36376eeb	2.7333688e-06
27	0x36608c39	3.3460221e-06
28	0xb9d1f6d3	-0.00040047485
29	0xb8c5d676	-9.4336385e-05
30	0xb98dac88	-0.00027022162
31	0xb98ad3e1	-0.00026479273
32	0x3883c2ce	6.282852e-05
33	0xba146826	-0.0005661271
34	0x3925e900	0.00015822425
35	0x3883c2ce	6.282852e-05
36	0xba177992	-0.0005778308
37	0x39699962	0.00022277751
38	0xb73256b7	-1.0629817e-05
39	0x33b04f19	8.2100264e-08
40	0xb7390a54	-1.1029264e-05
41	0x39699962	0.00022277751
42	0xb73256b7	-1.0629817e-05
43	0x33b04f19	8.2100264e-08
44	0xb7390a54	-1.1029264e-05
45	0x00000000	0.0
46	0x00000000	0.0
47	0x00000000	0.0
48	0xb676dbef	-3.6784875e-06
49	0x00000000	0.0
50	0x36691053	3.4729208e-06
51	0xb733f71d	-1.0726767e-05
52	0x3619fc4b	2.294563e-06
53	0x00000000	0.0
54	0xb706aa4f	-8.0266755e-06
55	0xb74b3473	-1.2111955e-05
56	0xb6ab1a3b	-5.0992508e-06
57	0x00000000	0.0
58	0xb489b753	-2.5651624e-07
59	0xb782bede	-1.5586087e-05
60	0xb600f7d6	-1.9217746e-06
61	0x00000000	0.0
62	0xb73bad21	-1.1186378e-05
63	0xb7a40eca	-1.955721e-05
64	0xb5aa1767	-1.2672798e-06
65	0x00000000	0.0
66	0xb7733668	-1.4496596e-05
67	0xb789fe7d	-1.6450178e-05
68	0xb42d922d	-1.6165059e-07
69	0x00000000	0.0
70	0xb72a9036	-1.0166366e-05
71	0xb79c56e7	-1.8637116e-05
72	0xb42d922d	-1.6165059e-07
73	0x00000000	0.0
74	0xb72a9036	-1.0166366e-05
75	0xb79c56e7	-1.8637116e-05
76	0xb89a65be	-7.362243e-05
77	0x38c42277	9.352428e-05
78	0x38662ed9	5.4879903e-05
79	0xb9a3a2e4	-0.00031211146
80	0xb88385e5	-6.2715066e-05
81	0x39b1bbb3	0.00033899918
82	0xba254a29	-0.0006305301
83	0xb88385e5	-6.2715066e-05
84	0x39bd53ee	0.00036111422
85	0xb8fedac9	-0.00012152416
86	0xb68758b1	-4.0336386e-06
87	0xb2b7c6b9	-2.1394372e-08
88	0x36c55e79	5.8820556e-06
89	0xb8fedac9	-0.00012152416
90	0xb68758b1	-4.0336386e-06
91	0xb2b7c6b9	-2.1394372e-08
92	0x36c55e79	5.8820556e-06
93	0x00000000	0.0
94	0x00000000	0.0
95	0x00000000	0.0
96	0xb7ad9cbb	-2.069619e-05
97	0x00000000	0.0
98	0xb8adea1c	-8.292889e-05
99	0xb7de22f0	-2.6480731e-05
100	0xb88ded1d	-6.76757e-05
101	0x00000000	0.0
102	0xb7c4d660	-2.3464847e-05
103	0xb7b22f49	-2.1241272e-05
104	0xb805cfbe	-3.1903146e-05
105	0x00000000	0.0
106	0x38696de8	5.5653887e-05
107	0x381341ad	3.5108696e-05
108	0x3821af2f	3.8548544e-05
109	0x00000000	0.0
110	0xb72ccd78	-1.0299838e-05
111	0xb7309545	-1.0525172e-05
112	0x37d96f3b	2.5920212e-05
113	0x00000000	0.0
114	0x3803f202	3.145822e-05
115	0xb5ab73c8	-1.277419e-06
116	0x38505895	4.9673563e-05
117	0x00000000	0.0
118	0xb7049758	-7.903051e-06
119	0xb7bc6ba2	-2.2461467e-05
120	0x38505895	4.9673563e-05
121	0x00000000	0.0
122	0xb7049758	-7.903051e-06
123	0xb7bc6ba1	-2.2461465e-05
124	0x3ab4836b	0.0013772076
125	0x38bdf12e	9.0571455e-05
126	0x3a1bd8fd	0.00059451145
127	0x3a9e8bca	0.0012096104
128	0xb87ca314	-6.023336e-05
129	0x39b28111	0.00034046968
130	0x3a8f6148	0.0010939026
131	0xb87ca314	-6.023336e-05
132	0x39b80026	0.00035095325
133	0xb9a03534	-0.00030557218
134	0x379ecc59	1.8930225e-05
135	0xb4610cd6	-2.0959428e-07
136	0x38e865bf	0.00011081574
137	0xb9a03534	-0.00030557218
138	0x379ecc59	1.8930225e-05
139	0xb4610cd6	-2.0959428e-07
140	0x38e865bf	0.00011081574
141	0x00000000	0.0
142	0x00000000	0.0
143	0x00000000	0.0
144	0x35524b95	7.834108e-07
145	0x00000000	0.0
146	0x36a8cf81	5.030947e-06
147	0x3730f3c2	1.0547172e-05
148	0xb75ed405	-1.3281596e-05
149	0x00000000	0.0
150	0x37fa5a9d	2.9844517e-05
151	0x3801573c	3.083724e-05
152	0xb839a9d9	-4.426562e-05
153	0x00000000	0.0
154	0xb6a9827d	-5.0517833e-06
155	0x36b5a9f2	5.4140046e-06
156	0xb54d4ac0	-7.6477227e-07
157	0x00000000	0.0
158	0x36906438	4.3032014e-06
159	0xb81e9549	-3.7809168e-05
160	0xb7a8ab39	-2.0106892e-05
161	0x00000000	0.0
162	0x379f4d42	1.8990253e-05
163	0x3810a06a	3.4481673e-05
164	0x3402f37f	1.2195777e-07
165	0x00000000	0.0
166	0xb8565128	-5.109716e-05
167	0xb7f4c807	-2.9180212e-05
168	0x3402f37f	1.2195777e-07
169	0x00000000	0.0
170	0xb8565128	-5.109716e-05
171	0xb7f4c807	-2.9180212e-05
172	0x3a04bbdc	0.00050633936
173	0xb790b0e6	-1.7248512e-05
174	0x39f5b818	0.00046867202
175	0xba426223	-0.0007415136
176	0x37510107	1.245761e-05
177	0x3921b786	0.00015422524
178	0x3a287d77	0.0006427387
179	0x37510107	1.245761e-05
180	0x379c0143	1.8597237e-05
181	0x3a3dd38f	0.00072413025
182	0xb887d330	-6.4766384e-05
183	0x357cb925	9.4146736e-07
184	0xb58d8a42	-1.0545557e-06
185	0x3a3dd38f	0.00072413025
186	0xb887d330	-6.4766384e-05
187	0x357cb925	9.4146736e-07
188	0xb58d8a42	-1.0545557e-06
189	0x00000000	0.0
190	0x00000000	0.0
191	0x00000000	0.0
192	0x3790e65e	1.727341e-05
193	0x00000000	0.0
194	0x391e3919	0.00015089325
195	0x390019a7	0.00012216587
196	0xb5959445	-1.1144517e-06
197	0x00000000	0.0
198	0x37ef60a7	2.8536027e-05
199	0x38f4366a	0.00011644962
200	0xb815280f	-3.5561676e-05
201	0x00000000	0.0
202	0xb897e9ea	-7.243811e-05
203	0xb8395eed	-4.4195844e-05
204	0xb80342e0	-3.1295116e-05
205	0x00000000	0.0
206	0xb77dc8f9	-1.5126768e-05
207	0xb7be871f	-2.2712686e-05
208	0xb7a14f27	-1.9229554e-05
209	0x00000000	0.0
210	0xb8b64744	-8.6917105e-05
211	0xb86f0fa5	-5.699661e-05
212	0x372e3032	1.03824295e-05
213	0x00000000	0.0
214	0xb8cd1151	-9.778387e-05
215	0xb8c1fb71	-9.249792e-05
216	0x372e3032	1.03824295e-05
217	0x00000000	0.0
218	0xb8cd1151	-9.778387e-05
219	0xb8c1fb71	-9.249792e-05
220	0xb8d9368d	-0.00010357527
221	0xb9324c5b	-0.00017003847
222	0xbafaf66f	-0.0019146929
223	0x3a0d2527	0.0005384259
224	0x38edd1bb	0.00011340106
225	0xbb2aec30	-0.002608072
226	0xba1061c5	-0.0005507733
227	0x38edd1bb	0.00011340106
228	0xbb258218	-0.0025254544
229	0x39bfef03	0.00036608436
230	0xb8b000bd	-8.3924715e-05
231	0x34c03df6	3.580787e-07
232	0x38b1844a	8.4646585e-05
233	0x39bfef03	0.00036608436
234	0xb8b000bd	-8.3924715e-05
235	0x34c03df6	3.580787e-07
236	0x38b1844a	8.4646585e-05
237	0x00000000	0.0
238	0x00000000	0.0
239	0x00000000	0.0
240	0x367d211b	3.7719208e-06
241	0x00000000	0.0
242	0x3753adfc	1.2617089e-05
243	0x3784face	1.5852416e-05
244	0x3687a833	4.0428945e-06
245	0x00000000	0.0
246	0x375cb5b8	1.31553315e-05
247	0x37ce767f	2.4612293e-05
248	0x360c7401	2.0929149e-06
249	0x00000000	0.0
250	0xb600b51e	-1.917891e-06
251	0x373056da	1.0510639e-05
252	0xb73ee71e	-1.1378694e-05
253	0x00000000	0.0
254	0x367561a5	3.6564682e-06
255	0x372d0212	1.0312086e-05

exp_avg_sq f4 [128, 48]
0	0x307875bd	9.038919e-10
1	0x00000000	0.0
2	0x30935d18	1.0722117e-09
3	0x31c3e4ed	5.701273e-09
4	0x308fc8e4	1.0461716e-09
5	0x00000000	0.0
6	0x319750c2	4.4038595e-09
7	0x31ff5a78	7.431762e-09
8	0x3093f0ca	1.0764094e-09
9	0x00000000	0.0
10	0x31e6894b	6.7094894e-09
11	0x322ee30e	1.0179759e-08
12	0x30a12a47	1.1726308e-09
13	0x00000000	0.0
14	0x319f2016	4.631157e-09
15	0x3208261d	7.924908e-09
16	0x30b80a46	1.3390682e-09
17	0x00000000	0.0
18	0x32303b27	1.0257998e-08
19	0x325312a4	1.2286055e-08
20	0x30ad6c48	1.2618182e-09
21	0x00000000	0.0
22	0x31b84128	5.362512e-09
23	0x3223e721	9.540401e-09
24	0x30ad6c48	1.2618182e-09
25	0x00000000	0.0
26	0x31b84128	5.362512e-09
27	0x3223e721	9.540401e-09
28	0x369e0691	4.7095314e-06
29	0x34a4e573	3.0714327e-07
30	0x35294286	6.305421e-07
31	0x372da3bd	1.0349727e-05
32	0x34131185	1.3696815e-07
33	0x371ced71	9.353608e-06
34	0x374c37e6	1.2172362e-05
35	0x34131185	1.3696815e-07
36	0x37058340	7.957977e-06
37	0x356ecd97	8.896108e-07
38	0x3190e28c	4.216707e-09
39	0x2c1fb6ce	2.2696736e-12
40	0x31864461	3.907687e-09
41	0x356ecd97	8.896108e-07
42	0x3190e28c	4.216707e-09
43	0x2c1fb6ce	2.2696736e-12
44	0x31864461	3.907687e-09
45	0x00000000	0.0
46	0x00000000	0.0
47	0x00000000	0.0
48	0x2fcff580	3.782752e-10
49	0x00000000	0.0
50	0x2f59e9f1	1.9819148e-10
51	0x30ebdd3c	1.7161379e-09
52	0x301fe196	5.816444e-10
53	0x00000000	0.0
54	0x311db8d4	2.295157e-09
55	0x3145b569	2.8770393e-09
56	0x2fe7abf6	4.214084e-10
57	0x00000000	0.0
58	0x30963ea8	1.0931744e-09
59	0x311155ea	2.1149114e-09
60	0x2f85c777	2.4334287e-10
61	0x00000000	0.0
62	0x315480d1	3.0923284e-09
63	0x31847565	3.855052e-09
64	0x2f8917fa	2.493719e-10
65	0x00000000	0.0
66	0x311b90dd	2.2637814e-09
67	0x3157712d	3.135095e-09
68	0x2f695376	2.1220878e-10
69	0x00000000	0.0
70	0x310b4b51	2.0269975e-09
71	0x3166d015	3.3587686e-09
72	0x2f695376	2.1220878e-10
73	0x00000000	0.0
74	0x310b4b51	2.0269975e-09
75	0x3166d015	3.3587686e-09
76	0x3560ebb1	8.378948e-07
77	0x33c9fa4b	9.40532e-08
78	0x344c2ae2	1.9014581e-07
79	0x35307b64	6.5744666e-07
80	0x3334a945	4.2063466e-08
81	0x362b1202	2.5491468e-06
82	0x3687c8f6	4.0467085e-06
83	0x3334a945	4.2063466e-08
84	0x363bf3cc	2.800708e-06
85	0x3465bfb5	2.139703e-07
86	0x30e82871	1.6891716e-09
87	0x2be8033d	1.648549e-12
88	0x30a50f5a	1.2009693e-09
89	0x3465bfb5	2.139703e-07
90	0x30e82871	1.6891716e-09
91	0x2be8033d	1.648549e-12
92	0x30a50f5a	1.2009693e-09
93	0x00000000	0.0
94	0x00000000	0.0
95	0x00000000	0.0
96	0x31f17a94	7.0279587e-09
97	0x00000000	0.0
98	0x324834ec	1.1653565e-08
99	0x33116f91	3.3861912e-08
100	0x321d875a	9.169378e-09
101	0x00000000	0.0
102	0x32f60219	2.8639123e-08
103	0x332e094e	4.0520995e-08
104	0x31fd1aa1	7.3662965e-09
105	0x00000000	0.0
106	0x330e2ad7	3.3100914e-08
107	0x33529fbf	4.9039723e-08
108	0x320781c5	7.88754e-09
109	0x00000000	0.0
110	0x32c6f1d0	2.3160197e-08
111	0x33346a3a	4.200613e-08
112	0x3206f1ed	7.854834e-09
113	0x00000000	0.0
114	0x33277792	3.8991466e-08
115	0x335ff461	5.2143495e-08
116	0x3209f5e0	8.030355e-09
117	0x00000000	0.0
118	0x32c2da00	2.2683707e-08
119	0x333770b7	4.271052e-08
120	0x3209f5e0	8.030355e-09
121	0x00000000	0.0
122	0x32c2da00	2.2683707e-08
123	0x333770b7	4.271052e-08
124	0x37998933	1.830291e-05
125	0x35c5fc61	1.4751096e-06
126	0x36909523	4.308896e-06
127	0x384efbc4	4.9348702e-05
128	0x3530947d	6.578119e-07
129	0x38455c22	4.7054265e-05
130	0x3859b360	5.1903888e-05
131	0x3530947d	6.578119e-07
132	0x383a53a5	4.4423756e-05
133	0x363474cd	2.6890077e-06
134	0x32f233c2	2.8196045e-08
135	0x2d61707d	1.2814747e-11
136	0x33073838	3.1483268e-08
137	0x363474cd	2.6890077e-06
138	0x32f233c2	2.8196045e-08
139	0x2d61707d	1.2814747e-11
140	0x33073838	3.1483268e-08
141	0x00000000	0.0
142	0x00000000	0.0
143	0x00000000	0.0
144	0x310edb44	2.0788358e-09
145	0x00000000	0.0
146	0x306cbeba	8.612734e-10
147	0x323cf492	1.0998649e-08
148	0x318f0343	4.1622186e-09
149	0x00000000	0.0
150	0x320d2a6f	8.2169285e-09
151	0x329c8911	1.822312e-08
152	0x3138b409	2.6877862e-09
153	0x00000000	0.0
154	0x326b1f23	1.368588e-08
155	0x32e196db	2.6262049e-08
156	0x315712a2	3.129721e-09
157	0x00000000	0.0
158	0x32725b1d	1.4106971e-08
159	0x32d56da4	2.4846322e-08
160	0x31bcb82b	5.4924576e-09
161	0x00000000	0.0
162	0x3315d5c7	3.4886195e-08
163	0x33258ec3	3.8546897e-08
164	0x312f8976	2.554399e-09
165	0x00000000	0.0
166	0x32c8cced	2.3376254e-08
167	0x33138a86	3.435209e-08
168	0x312f8976	2.554399e-09
169	0x00000000	0.0
170	0x32c8cced	2.3376254e-08
171	0x33138a86	3.435209e-08
172	0x37829eb6	1.5571113e-05
173	0x357733cf	9.209006e-07
174	0x3590189a	1.0735996e-06
175	0x380e997c	3.399838e-05
176	0x34dc8c9f	4.108051e-07
177	0x37b89c00	2.2007152e-05
178	0x3869703a	5.5656048e-05
179	0x34dc8c9f	4.108051e-07
180	0x37989aa7	1.8191828e-05
181	0x360cb8bb	2.0969153e-06
182	0x329a49f0	1.7961582e-08
183	0x2c61fbee	3.2114272e-12
184	0x3242be7b	1.13355965e-08
185	0x360cb8bb	2.0969153e-06
186	0x329a49f0	1.7961582e-08
187	0x2c61fbee	3.2114272e-12
188	0x3242be7b	1.13355965e-08
189	0x00000000	0.0
190	0x00000000	0.0
191	0x00000000	0.0
192	0x31c720df	5.7953993e-09
193	0x00000000	0.0
194	0x32510b10	1.21679165e-08
195	0x32f22d66	2.8193153e-08
196	0x321db196	9.178981e-09
197	0x00000000	0.0
198	0x32b028dd	2.0507679e-08
199	0x330b16a5	3.2384055e-08
200	0x31ac3d79	5.0128475e-09
201	0x00000000	0.0
202	0x3327d6e4	3.907816e-08
203	0x333cf707	4.399683e-08
204	0x3213cdfe	8.603363e-09
205	0x00000000	0.0
206	0x3278ae43	1.4475122e-08
207	0x32f18a82	2.8119079e-08
208	0x31cf398b	6.031035e-09
209	0x00000000	0.0
210	0x330a3305	3.217703e-08
211	0x33331fe0	4.1705675e-08
212	0x31cbf93b	5.936412e-09
213	0x00000000	0.0
214	0x327e9502	1.4818626e-08
215	0x33005df3	2.988777e-08
216	0x31cbf93b	5.936412e-09
217	0x00000000	0.0
218	0x327e9502	1.4818626e-08
219	0x33005df3	2.988777e-08
220	0x3789c1a2	1.642184e-05
221	0x3597bfa8	1.1306156e-06
222	0x3680378e	3.8211647e-06
223	0x386af791	5.602051e-05
224	0x35073aca	5.037697e-07
225	0x381bd62c	3.7154343e-05
226	0x38367abf	4.3506498e-05
227	0x35073aca	5.037697e-07
228	0x381c87a1	3.7319613e-05
229	0x3578ac4b	9.263792e-07
230	0x3314249f	3.4492242e-08
231	0x2d16375b	8.538804e-12
232	0x32cdccaa	2.3958211e-08
233	0x3578ac4b	9.263792e-07
234	0x3314249f	3.4492242e-08
235	0x2d16375b	8.538804e-12
236	0x32cdccaa	2.3958211e-08
237	0x00000000	0.0
238	0x00000000	0.0
239	0x00000000	0.0
240	0x30a0b853	1.169392e-09
241	0x00000000	0.0
242	0x310dfe20	2.0662654e-09
243	0x3220a247	9.350123e-09
244	0x31071385	1.9656181e-09
245	0x00000000	0.0
246	0x320213db	7.5715105e-09
247	0x325723f3	1.2522821e-08
248	0x30d36ef7	1.5383809e-09
249	0x00000000	0.0
250	0x322f9f6f	1.0222592e-08
251	0x3286b915	1.5683819e-08
252	0x31033f17	1.9098871e-09
253	0x00000000	0.0
254	0x320424d0	7.691781e-09
255	0x325dccc9	1.2910456e-08
