3DPlayground/results/Test23/MoveToGoal/checkpoint.pt (torch, 716459 bytes, 42 tensors)

network_body._body_endoder.seq_layers.0.weight f4 [128, 92]
-0.0633244 -0.09260856 0.0125254 -0.0889449 -0.08214915 -0.019006878 0.13818936 -0.05855738
0.02774785 -0.10561398 0.061048158 0.120459504 0.058136493 -0.1956461 -0.042694706 0.025311239
0.09061114 0.031778168 -0.13819002 -0.15757722 0.3421724 -0.003797161 -0.21270855 0.07896156
0.039244987 -0.06033673 -0.19736499 -0.042871516 -0.0825234 -0.07650415 0.06918884 -0.08503972
0.14553817 -0.06187367 -0.05365562 0.0025498872 -0.0119738085 0.098593935 -0.033058338 -6.553149e-05
0.043693755 0.03452909 -0.02140187 0.19661102 0.110783264 0.14274307 -0.028399633 -0.052658662
-0.002093015 -0.07319477 -0.11330822 -0.022856776 -0.14734119 0.137289 0.027995747 0.21011595
-0.08338445 0.3155917 0.20080307 -0.041136168 0.10371138 0.029830614 -0.06441421 0.06861366
-0.019064605 -0.026776716 0.04928045 0.118555665 0.030216113 -0.03119265 -0.09556283 -0.031091413
-0.25851932 0.031688046 -0.066310294 -0.19131012 0.008780524 0.039457593 -0.038847834 -0.0056691887
0.049072348 0.07649603 0.03452287 0.20128107 -0.059722017 0.04312135 0.010411463 0.061837066
-0.0034865274 -0.02029703 -0.036683757 0.08181728 -0.15884292 0.068067014 -0.042104498 0.04605804
0.115945786 -0.0012374794 -0.044859435 0.27708864 -0.05060408 0.01349512 0.050294954 0.011528364
-0.0989567 0.10454737 0.08086935 -0.026463969 -0.09999202 -0.13686454 0.04045604 0.10983561
0.017493032 0.018723903 -0.12083268 -0.08311966 8.189151e-05 0.058459643 -0.10879024 0.11514554
0.11457155 0.024840677 -0.028729051 0.049075514 0.014165541 -0.008817894 -0.0018917599 0.20790961
0.05005412 0.016407728 0.15768172 0.1207006 0.09661825 0.26049897 -0.10720588 0.024684004
0.008050293 0.050761513 -0.02041789 -0.014402944 0.058876045 -0.027809905 -0.008656428 -0.03460449
0.06380499 0.071733356 0.17299733 -0.12046443 -0.0052246843 0.14818148 -0.07542821 -0.14959894
0.1226748 -0.08781713 0.04130917 -0.045485526 -0.061830513 0.039126396 0.009589295 -0.039381254
0.15303385 0.06746565 -0.012860941 -0.15718262 0.025621923 0.13781571 -0.004314494 -0.12831765
0.009663528 0.01238118 -0.024276115 -0.106469154 -0.112617604 0.016457558 0.07977734 -0.085947566
0.074125946 0.044947136 -0.03798556 0.15619679 0.06312767 -0.054775726 -0.012285022 0.0012452081
0.07886513 -0.12674983 -0.0016188002 0.092408925 0.03272123 0.07605805 0.10482939 -0.04775243
0.013107947 0.1771524 -0.09507935 0.047083415 -0.13727663 0.0071771867 0.08513696 -0.033210512
0.015124134 0.13538042 0.09481782 0.12202997 0.10981316 0.052680295 -0.08279932 0.08433047
-0.04566868 -0.0063941535 0.19708362 0.073667414 0.1757229 0.08884081 0.006813393 0.115271464
-0.08501577 -0.010920479 0.1957991 0.020311425 -0.0082807485 -0.008020644 0.04712697 0.0008332807
-0.09766757 -0.18369485 -0.07658666 -0.068820395 0.041486084 -0.12225159 -0.026677305 -0.09026649
0.18553685 -0.017767673 -0.11200992 0.0275633 0.03474071 -0.045452286 -0.0702488 -0.12112274
-0.04599335 -0.04590526 -0.03113795 -0.021181842 -0.18948534 0.13921931 0.20569019 -0.006814313
-0.16237159 -0.11074259 0.24173962 0.13414666 -0.055669665 -0.16844353 0.01955122 -0.03464666
00000000: 39b0 81bd 8fa9 bdbd 5637 4d3c be28 b6bd
00000010: d03d a8bd 50b4 9bbc 8381 0d3e ddd9 6fbd
00000020: 764f e33c 244c d8bd a20d 7a3d 79b3 f63d
00000030: 8820 6e3d 7457 48be a5e0 2ebd 8459 cf3c
00000040: 5592 b93d d329 023d af81 0dbe ec5b 21be
00000050: 3931 af3e cad9 78bb 45d0 59be 99b6 a13d
00000060: 5abf 203d a623 77bd 0c1a 4abe 0b9a 2fbd
00000070: 0702 a9bd 35ae 9cbd e1b2 8d3d 4e29 aebd
00000080: f507 153e 3f6f 7dbd ffc5 5bbd 021c 273b
00000090: cb2d 44bc 9eeb c93d 2e68 07bd f36d 89b8
000000a0: 39f8 323d 606e 0d3d f952 afbc 6654 493e
000000b0: 56e2 e23d 3d2b 123e 59a6 e8bc 9cb0 57bd
000000c0: f72a 09bb 24e7 95bd 240e e8bd 223e bbbc
000000d0: 9ce0 16be 7d95 0c3e 5657 e53c a328 573e
000000e0: 77c5 aabd 3c95 a13e 529f 4d3e 667e 28bd
000000f0: a266 d43d 555f f43c 99eb 83bd 5285 8c3d
00000100: 602d 9cbc d85a dbbc 4cda 493d 50cd f23d
00000110: c887 f73c ba87 ffbc 72b6 c3bd 6bb3 febc
00000120: a55c 84be 53cb 013d b1cd 87bd cde6 43be
00000130: 30dc 0f3c 499e 213d e81e 1fbd 9ac4 b9bb
00000140: 1600 493d f3a9 9c3d da67 0d3d a01c 4e3e
00000150: 139f 74bd 03a0 303d d794 2a3c dd48 7d3d
00000160: 397e 64bb f545 a6bc b541 16bd d18f a73d
00000170: b8a7 22be b866 8b3d c475 2cbd 5ba7 3c3d
00000180: fc74 ed3d eb32 a2ba 87be 37bd 90de 8d3e
00000190: 3946 4fbd a31a 5d3c 1502 4e3d 77e1 3c3c
000001a0: cfa9 cabd ee1c d63d d49e a53d f7ca d8bc
000001b0: 9ec8 ccbd 3826 0cbe 3cb5 253d 7ef1 e03d
000001c0: 8c4d 8f3c df62 993c 2077 f7bd a43a aabd
000001d0: 2bbd ab38 6173 6f3d 6bcd debd 6dd1 eb3d
000001e0: 7da4 ea3d ad7e cb3c 3059 ebbc 6803 493d
000001f0: 9616 683c ee78 10bc eef4 f7ba 42e6 543e
00000200: 8d05 4d3d 8069 863c 5177 213e e031 f73d
00000210: cadf c53d 1f60 853e c28e dbbd 1c36 ca3c
00000220: 60e5 033c 4eeb 4f3d 6b43 a7bc 53fa 6bbc
00000230: 0228 713d 99d1 e3bc b1d3 0dbc 70bd 0dbd
00000240: 31ac 823d f0e8 923d 3626 313e 0eb6 f6bd
00000250: d433 abbb e3bc 173e 1b7a 9abd 7730 19be
00000260: ed3c fb3d 78d9 b3bd ce33 293d 084f 3abd
00000270: fe41 7dbd 0043 203d 6b1c 1d3c 3d4e 21bd
00000280: e8b4 1c3e 6e2b 8a3d b2b6 52bc 7bf4 20be
00000290: 11e5 d13c 901f 0d3e 9960 8dbb b465 03be
000002a0: c653 1e3c 6fda 4a3c b4de c6bc 800c dabd
000002b0: 0fa4 e6bd 00d2 863c 4d62 a33d 4705 b0bd
000002c0: 58cf 973d 7d1a 383d bf96 1bbd 0df2 1f3e
000002d0: 1449 813d 835c 60bd 1e47 49bc 4036 a33a
000002e0: 0b84 a13d b5ca 01be ec2d d4ba e440 bd3d
000002f0: b206 063d 53c4 9b3d cbb0 d63d 0d98 43bd
00000300: b7c2 563c 7067 353e f6b8 c2bd 8ada 403d
00000310: 3f92 0cbe 9b2e eb3b 495c ae3d bf07 08bd
00000320: 37cb 773c 2aa1 0a3e d82f c23d d9ea f93d
00000330: b9e5 e03d 4bc7 573d b192 a9bd 74b5 ac3d
00000340: 150f 3bbd 0c86 d1bb 4ad0 493e f1de 963d
00000350: b4f0 333e 2cf2 b53d e242 df3b 7213 ec3d
00000360: bf1c aebd cfeb 32bc 8f7f 483e 2564 a63c
00000370: faab 07bc 0569 03bc 3608 413d 8570 5a3a
00000380: ef05 c8bd 811a 3cbe 78d9 9cbd b5f1 8cbd
00000390: 50ed 293d 0b5f fabd 5d8a dabc a3dd b8bd
000003a0: 5ffd 3d3e 838d 91bc 7565 e5bd 6ecc e13c
000003b0: 464c 0e3d 2d2c 3abd 9ade 8fbd 330f f8bd
000003c0: 8663 3cbd 2707 3cbd 0415 ffbc 8b85 adbc
000003d0: 7208 42be 828f 0e3e 73a0 523e 9a4a dfbb
000003e0: bd44 26be 03cd e2bd 978a 773e be5d 093e
000003f0: e005 64bd 767c 2cbe e129 a03c a8e9 0dbd

network_body._body_endoder.seq_layers.0.bias f4 [128]
-0.0033518074 0.0017346172 0.0014817868 -0.0052529993 0.0066716336 0.0043895477 -0.001058892 -0.006002753
0.0010888887 -0.000112102905 -0.002022956 -0.009611606 -0.008177699 0.0015110398 -0.00390633 0.02485
-0.00035258642 -0.017120186 0.008076705 -0.0011099121 0.014717948 0.011106439 0.0008168413 0.0023546845
0.01209509 -0.00074637047 0.003995806 -0.006214361 0.0035290918 0.002181243 0.0013950886 -0.002022106
-0.001972816 0.004892119 0.0030430863 -0.014908357 -0.00022834832 0.0059213787 -0.00200484 -0.0026455298
0.006604922 -0.00078499736 0.0020457248 -6.4755613e-07 0.0038905432 0.0020539798 0.007292821 -0.010324778
0.0008320935 0.0014965265 -0.015881639 0.022212123 -0.0013102782 -0.00691158 -0.0022440285 0.00021023795
0.004204439 0.00022177491 0.004231341 -0.002168911 -0.0013186642 -0.011162037 0.0023540605 0.008991934
0.0029397642 0.0006944089 0.00354639 0.0048272605 -0.0020499174 -0.009708365 0.0036882341 -0.0021664826
0.00045407558 0.016979918 -0.0045220037 -0.0006474382 0.008793114 -0.0021572546 -0.00026929614 0.04111409
-0.0014402078 -0.008529558 0.0024114484 -0.0027928418 -0.003068093 0.0052386816 -0.0012785383 0.0031489844
-0.0014920128 -0.0046302034 -0.0055799303 -0.017565772 -0.0018960959 0.01390136 -0.0013823186 -0.008280664
0.031424478 0.008809355 0.003823617 -0.003722642 -0.01197776 0.006893018 0.013836144 -0.0023379838
-0.01104507 0.01030705 -0.0050319303 0.0144649 0.021048833 -0.0060471115 -0.005115004 -0.007799213
0.0034015118 -0.0021328598 0.014544299 -0.009126769 -0.005024807 -0.0037155508 -0.003827976 -0.0054684132
0.0011393176 0.013538853 0.016637126 0.0015193669 0.0011352196 -0.004872755 0.028950522 0.0008424232
00000000: ffa9 5bbb 185c e33a 8438 c23a 5a21 acbb
00000010: b89d da3b 32d6 8f3b 85ca 8aba beb2 c4bb
00000020: 0bb9 8e3a ca18 ebb8 9293 04bb ff79 1dbc
00000030: c1fb 05bc 150e c63a ac00 80bb 3a92 cb3c
00000040: 59db b8b9 a23f 8cbc 2854 043c 787a 91ba
00000050: 8c23 713c c8f7 353c 4b21 563a 0d51 1a3b
00000060: 7c2a 463c 13a8 43ba 40ef 823b d7a1 cbbb
00000070: 5648 673b 2ff3 0e3b 68db b63a 4f85 04bb
00000080: 5c4a 01bb 124e a03b 846e 473b 2e42 74bc
00000090: c970 6fb9 2008 c23b a263 03bb a060 2dbb
000000a0: 1a6e d83b 48c8 4dba 9111 063b b8d3 2db5
000000b0: 7cf8 7e3b 109c 063b 9ef8 ee3b 4229 29bc
000000c0: d920 5a3a 1927 c43a 361a 82bc 33f6 b53c
000000d0: a4bd abba 897a e2bb 8d10 13bb 5273 5c39
000000e0: 64c5 893b 408c 6839 10a7 8a3b 4a24 0ebb
000000f0: 07d7 acba fae0 36bc 9546 1a3b e852 133c
00000100: 0fa9 403b fe08 363a 8d6a 683b ff2d 9e3b
00000110: e857 06bb d60f 1fbc 4db6 713b 8cfb 0dbb
00000120: fe10 ee39 7819 8b3c 512d 94bb d8b8 29ba
00000130: fe10 103c ba60 0dbb 5130 8db9 3f67 283d
00000140: 5bc5 bcba 8fbf 0bbc 6409 1e3b 1c08 37bb
00000150: 0f12 49bb 3fa9 ab3b a094 a7ba 315f 4e3b
00000160: a48f c3ba f6b8 97bb d9d7 b6bb 18e6 8fbc
00000170: 6c86 f8ba 88c2 633c ea2e b5ba 9fab 07bc
00000180: f4b6 003d 1d55 103c a695 7a3b 92f7 73bb
00000190: 5e3e 44bc d3de e13b feb0 623c dc38 19bb
000001a0: 62f6 34bc e7de 283c e4e2 a4bb 30fe 6c3c
000001b0: 9a6e ac3c d926 c6bb c39b a7bb 8a90 ffbb
000001c0: e6eb 5e3b 73c7 0bbb 364b 6e3c 7288 15bc
000001d0: 23a7 a4bb 9980 73bb c8de 7abb 6030 b3bb
000001e0: 2855 953a 11d2 5d3c 954a 883c 7e25 c73a
000001f0: a6cb 943a a2ab 9fbb a529 ed3c 10d6 5c3a

network_body._body_endoder.seq_layers.2.weight f4 [128, 128]
0.25952646 -0.004863832 0.07258568 0.1493889 -0.07898744 0.096099876 0.009800893 -0.011345111
-0.13074556 -0.03025838 0.051852465 0.031932853 0.078032754 -0.12064802 -0.10838367 -0.15963612
-0.005401708 0.15221837 -0.19354409 0.008171036 -0.14162223 -0.09829877 0.13831481 0.06440297
0.027520427 0.03283749 0.0475499 0.014786394 0.077146076 -0.010224494 -0.08876589 -0.033792816
-0.026181957 -0.0880427 0.03808482 0.09209538 -0.12156748 -0.07119517 0.023564262 0.0064761387
0.01684718 0.08910999 0.20205244 0.05927263 0.060084864 -0.04239258 0.01823747 0.059631202
0.080776006 -0.12806539 0.041633666 -0.04603795 -0.036758896 -0.10905241 0.034393445 -0.03836836
0.15422438 0.11754131 0.0074664666 -0.033524297 0.090471655 0.08370798 0.20188572 0.14582437
0.06465153 0.107974105 -0.06633229 0.044488337 0.10422875 0.03485547 0.03298806 -0.037986625
0.08169118 -0.12264671 0.07328161 0.109223865 0.017392542 0.13391025 -0.076570705 -0.11509423
0.14405684 0.11937498 -0.045088276 -0.04650755 0.007600262 -0.047897838 0.14285919 0.082333416
-0.008578419 -0.12783484 0.029034732 -0.0070367167 0.07429584 0.12209436 0.049907748 -0.10994667
-0.0060857697 -0.016902238 0.11582045 -0.08658463 -0.099634826 -0.05363624 -0.049086116 0.07838791
0.007980794 0.039276734 0.032041974 0.013127863 0.006406139 -0.13670911 0.03749831 -0.09985776
-0.13327183 -0.19692543 0.040670525 0.11688812 -0.02835606 0.025273342 0.113037035 0.106966935
-0.027766299 0.07147638 0.08935747 -0.0041603013 0.027375162 0.0044634403 -0.02956076 0.022040375
0.07959975 -0.02106057 -0.06456123 0.14292704 -0.089122556 0.031279974 0.023417447 0.12163568
-0.0648635 0.1427304 -0.035763483 -0.112043045 -0.08092509 -0.011346564 0.07050555 0.017039679
0.14124803 -0.010466153 -0.15118779 0.08007841 0.14767659 0.2182714 0.13145734 0.014170649
-0.06189145 -0.09493467 0.06586969 -0.00835907 0.10414202 0.17802753 0.029383231 -0.07904736
0.1473676 0.03188642 0.17953658 -0.030913616 -0.021807196 0.091468915 0.05117677 0.032430477
-0.017281212 -0.015239424 0.060922444 0.05776041 0.06955631 -0.06364017 -0.032160673 0.030245105
-0.068918206 -0.08549108 0.0037314687 -0.004415022 0.064003676 0.052223302 0.024390426 -0.071221575
-0.06397348 -0.112617515 0.10475795 0.16280712 0.11743919 -0.066343494 0.15649001 -0.0074305967
-0.14704141 0.07313977 0.08635122 -0.045294996 -0.14588526 0.016966915 0.013444737 0.018526528
-0.045601204 -0.071018174 0.104467794 0.112646855 0.023601593 0.0067811254 0.07433964 -0.20401144
-0.069021255 -0.080355346 0.1304072 0.05065127 0.059913747 -0.20003822 0.0400356 0.03853466
0.021032631 -0.03759308 0.062243894 -0.1699613 0.15479879 0.08036987 0.060002424 -0.14282778
0.020882744 0.098574124 -0.018642463 0.15449339 -0.055457942 -0.021093082 0.029122038 0.17085001
0.022156902 0.19929604 0.0073324353 -0.0003540563 0.044457875 0.033367764 0.026691848 -0.041453462
0.069922335 -0.027357675 0.13534711 0.023735957 -0.040141046 -0.15655673 0.05035056 -0.037077665
0.15429802 -0.05545872 0.020965103 -0.06035161 0.2543542 -0.13951257 0.032906156 0.03606
00000000: a7e0 843e c860 9fbb cda7 943d 67f9 183e
00000010: 2bc4 a1bd 03d0 c43d ed93 203c d8e0 39bc
00000020: 2ae2 05be 6ce0 f7bc 4063 543d 06cc 023d
00000030: a3cf 9f3d 4f16 f7bd 42f8 ddbd a777 23be
00000040: d000 b1bb 22df 1b3e 6c30 46be cfdf 053c
00000050: 6b05 11be de50 c9bd 66a2 0d3e b4e5 833d
00000060: 8572 e13c 9b80 063d afc3 423d a242 723c
00000070: c3fe 9d3d a384 27bc e4ca b5bd 566a 0abd
00000080: 8b7b d6bc bb4f b4bd d4fe 1b3d 819c bc3d
00000090: 5ff8 f8bd c6ce 91bd d709 c13c ca35 d43b
000000a0: 1903 8a3c 4c7f b63d d6e6 4e3e dbc7 723d
000000b0: 8c1b 763d d8a3 2dbd bf66 953c d93f 743d
000000c0: e46d a53d 9323 03be 1088 2a3d 4a92 3cbd
000000d0: 7f90 16bd df56 dfbd 24e0 0c3d 2428 1dbd
000000e0: ffec 1d3e 80b9 f03d 43a9 f43b c650 09bd
000000f0: 3449 b93d 176f ab3d 21bb 4e3e fc52 153e
00000100: 0568 843d 8721 dd3d 39d9 87bd 6739 363d
00000110: e275 d53d 9cc4 0e3d 7d1e 073d dd97 1bbd
00000120: b54d a73d 332e fbbd ab14 963d c3b0 df3d
00000130: ce7a 8e3c c51f 093e 1ad1 9cbd 86b6 ebbd
00000140: a383 133e df7a f43d 7cae 38bd b37e 3ebd
00000150: 9e0b f93b 8630 44bd ae49 123e 6c9e a83d
00000160: 7f8c 0cbc 23e7 02be 3fda ed3c 4294 e6bb
00000170: 6b28 983d 9c0c fa3d 116c 4c3d b82b e1bd
00000180: 236b c7bb 9076 8abc 4633 ed3d 4853 b1bd
00000190: 580d ccbd adb1 5bbd 860e 49bd d789 a03d
000001a0: e0c1 023c a4e0 203d 723e 033d 4016 573c
000001b0: 97ea d13b 79fd 0bbe d497 193d 3a82 ccbd
000001c0: 6978 08be d2a6 49be 2396 263d 0a63 ef3d
000001d0: f84a e8bc 0a0a cf3c f67f e73d 7b11 db3d
000001e0: 2676 e3bc 3562 923d 0d01 b73d 2353 88bb
000001f0: e041 e03c 0d42 923b 6829 f2bc 048e b43c
00000200: 3205 a33d 3787 acbc ae38 84bd 775b 123e
00000210: e385 b6bd 6e1f 003d f2d5 bf3c 211c f93d
00000220: 28d7 84bd eb27 123e bb7c 12bd d376 e5bd
00000230: 0ebc a5bd f0e6 39bc 3765 903d cc96 8b3c
00000240: 53a3 103e 3a7a 2bbc f9d0 1abe 2600 a43d
00000250: 8838 173e 8a82 5f3e c19c 063e 032c 683c
00000260: e481 7dbd 1c6d c2bd b0e6 863d 7bf4 08bc
00000270: 6948 d53d d94c 363e 1ab5 f03c 95e3 a1bd
00000280: 88e7 163e 569b 023d 70d8 373e 8d3e fdbc
00000290: 01a5 b2bc 0e54 bb3d bc9e 513d d2d5 043d
000002a0: 5491 8dbc c7ae 79bc d089 793d 2e96 6c3d
000002b0: 8a73 8e3d c755 82bd e9ba 03bd 95c4 f73c
000002c0: fd24 8dbd f315 afbd a88b 743b e4ab 90bb
000002d0: 5c14 833d 1ae8 553d 6ece c73c 9edc 91bd
000002e0: 8704 83bd 03a4 e6bd 568b d63d e9b6 263e
000002f0: f583 f03d 19df 87bd eb3e 203e 5d7c f3bb
00000300: 0692 16be 4eca 953d e9d8 b03d 3f87 39bd
00000310: f262 15be 33fe 8a3c 5047 5c3c f2c4 973c
00000320: 54c8 3abd fa71 91bd 36f3 d53d 65b3 e63d
00000330: 2158 c13c 3434 de3b 623f 983d 60e8 50be
00000340: 045b 8dbd 5891 a4bd 7789 053e b577 4f3d
00000350: 1e68 753d d2d6 4cbe 5ffc 233d 85d6 1d3d
00000360: a04c ac3c 34fb 19bd 74f3 7e3d 560a 2ebe
00000370: 9383 1e3e f598 a43d 1ac5 753d 7241 12be
00000380: 4a12 ab3c 3be1 c93d 14b8 98bc 8433 1e3e
00000390: de27 63bd 66cb acbc 5791 ee3c 4ef3 2e3e
000003a0: 6482 b53c 4314 4c3e ed44 f03b a2a0 b9b9
000003b0: 7619 363d a3ac 083d dda8 da3c 1bcb 29bd
000003c0: 7133 8f3d 341d e0bc 6f98 0a3e e971 c23c
000003d0: f06a 24bd 6850 20be 643c 4e3d c0de 17bd
000003e0: 4d00 1e3e af28 63bd 02bf ab3c 4033 77bd
000003f0: b73a 823e 62dc 0ebe 9bc8 063d a7b3 133d

network_body._body_endoder.seq_layers.2.bias f4 [128]
0.00039585013 -0.00070891855 0.00024884398 -0.0035324642 0.004908701 0.00051245384 0.004161999 0.00033707693
0.00573099 -0.0017824367 -0.00680404 2.8164703e-05 -0.0045856168 0.005862027 0.0017978346 -0.00022840236
0.0023492328 -0.011870302 -0.0010261242 0.005580108 -0.0012397666 -0.00028449204 -0.0059880796 0.007506238
-0.0045333244 0.0065318663 -0.0049427603 -0.0015474246 -0.0058297287 0.0042958893 -0.0051242705 -0.0015154141
-0.0023879402 -0.0014156662 -0.0022603516 0.0036194983 0.0040255114 9.829683e-06 0.0024329124 0.0053641675
-0.0032323194 5.280959e-05 0.0020703957 -0.0034107869 -0.00712478 -0.0034360022 0.0015695832 -0.0007469208
-0.0043623643 -0.0003133056 0.0012684341 -0.0035622949 -0.0035060109 0.010557704 0.0005023203 -0.0075227427
0.0058838804 0.0026378087 -0.0014762178 -0.008674466 -0.0010631431 0.00053042494 0.010957737 -0.007013811
0.005769861 0.0065038963 -0.0012077495 0.012274476 0.011012375 -0.009470586 -0.0012897308 -0.009119127
0.013022583 0.003670161 -0.0046307785 -0.007274451 0.0028963652 -0.0016076937 0.00072148524 0.0052350913
5.9429305e-05 -0.001146966 0.0017942878 -0.00039115656 0.0018674397 0.007562374 0.0011940086 -0.0063392636
0.001123026 0.001078002 0.002955655 1.8497894e-05 -0.016953249 0.0007417163 -0.00078950345 0.0039106286
-0.0056742793 -0.0065925205 0.0012891699 0.0004436566 -0.004573849 -0.014583685 -0.0020065615 -0.002021893
0.006268981 -0.0021921732 0.001426545 -0.0013725458 -0.011752991 0.001450096 0.0010197595 -0.013036881
0.013198915 0.002703744 0.010783246 -0.009627745 -0.0057013575 -4.842996e-05 -0.00028016279 0.0045633176
-0.0012530021 0.0028101644 0.00735305 -0.00064040994 -0.0034634813 -0.0017753403 -0.013663598 0.00027440354
00000000: 1b8a cf39 b8d6 39ba 4677 8239 ea80 67bb
00000010: 2bd9 a03b 3256 063a 6161 883b b3b9 b039
00000020: 07cb bb3b a7a0 e9ba 6df4 debb 3d43 ec37
00000030: f142 96bb 3f16 c03b 52a5 eb3a 4b7f 6fb9
00000040: 96f5 193b a87b 42bc 047f 86ba 57d9 b63b
00000050: aa7f a2ba e027 95b9 a737 c4bb e3f6 f53b
00000060: 488c 94bb 4409 d63b e1f6 a1bb f4d2 caba
00000070: 4f07 bfbb 88c4 8c3b 7fe9 a7bb dca0 c6ba
00000080: fd7e 1cbb e08d b9ba 6822 14bb 1b35 6d3b
00000090: 70e8 833b 2bea 2437 7f71 1f3b e6c5 af3b
000000a0: 52d5 53bb de7f 5d38 7aaf 073b 8287 5fbb
000000b0: fd76 e9bb 8d2e 61bb 79ba cd3a 02cd 43ba
000000c0: 2af2 8ebb 2a43 a4b9 9641 a63a 6475 69bb
000000d0: 1ac5 65bb 38fa 2c3c 25ae 033a 5781 f6bb
000000e0: 91cd c03b 16df 2c3b a67d c1ba 591f 0ebc
000000f0: 2a59 8bba 370c 0b3a 1588 333c 1cd4 e5bb
00000100: 1a11 bd3b a31e d53b 594d 9eba e21a 493c
00000110: 406d 343c 842a 1bbc 2f0c a9ba 6468 15bc
00000120: ac5c 553c 1587 703b c9bd 97bb 855e eebb
00000130: f2d0 3d3b 40b9 d2ba 0e22 3d3a 218b ab3b
00000140: bb43 7938 cb55 96ba 4f2e eb3a 2514 cdb9
00000150: e1c4 f43a cbcd f73b 4880 9c3a 99b9 cfbb
00000160: 8032 933a bf4b 8d3a aab3 413b ed2b 9b37
00000170: 8ae1 8abc bd6f 423a aef6 4eba bb24 803b
00000180: 4eef b9bb 1206 d8bb 5df9 a83a 959a e839
00000190: 3ae0 95bb 69f0 6ebc 8480 03bb bc81 04bb
000001a0: 066c cd3b 90aa 0fbb e8fa ba3a ffe6 b3ba
000001b0: 9e8f 40bc 2611 be3a 73a9 853a a498 55bc
000001c0: 4340 583c 4c31 313b 36ac 303c b0bd 1dbc
000001d0: 74d2 babb 4621 4bb8 d0e2 92b9 e287 953b
000001e0: c63b a4ba bc2a 383b dbf1 f03b 2fe1 27ba
000001f0: 93fb 62bb 89b2 e8ba 49dd 5fbc d2dd 8f39

action_model._continuous_distribution.log_sigma f4 [1, 2]
0.016244369 -0.0004791418
00000000: e912 853c 5335 fbb9

action_model._continuous_distribution.mu.weight f4 [2, 128]
0.0013685725 0.016619615 -0.013634184 0.020139016 0.020285655 0.022705922 0.043427795 0.0013651972
-0.011226666 -0.0077747735 0.045186274 0.030621074 0.0038607363 -0.041021205 0.025616754 -0.012847758
-0.019631078 0.011175531 -0.014606055 -0.011333174 0.006913206 0.024958346 0.0129871825 0.019066764
-0.040888347 -0.012920952 0.05394839 -0.025941484 -0.030958824 -0.04046021 0.009879079 -0.04435662
0.044847727 0.00096626626 0.0030236288 0.0021491055 -0.04158057 -0.013920016 -0.015497424 0.006187023
-0.00825553 -0.0008636089 0.012704452 0.008551088 0.00036111003 -0.021989416 -0.013602223 0.01197606
0.03498835 0.006472129 -0.013930806 0.0088669285 -0.009420181 -0.014307189 0.004308546 -0.022364847
-0.028472297 0.035293136 -0.0064126537 -0.0086761415 -0.007592868 0.003499476 0.0034203888 0.007779787
-0.007184513 0.03688435 -0.012739616 -0.00090699043 0.024441853 0.021502707 0.013288779 -0.011418656
0.014928958 -0.012541911 0.011596332 0.011213492 -0.019662846 0.04045084 0.012382979 0.009465325
-0.00040583112 0.021111183 -0.021293882 0.03489643 0.003293887 -0.0076941634 0.03537087 -0.010445167
0.036790937 -0.020654626 -0.034486365 -0.011364037 0.0007136597 -0.004500273 0.023329377 -0.007830976
0.0039078104 0.00431372 0.015650563 -0.00083971245 0.00027496135 -0.0010096178 0.008568574 0.031680968
-0.0014011868 -0.012761645 -0.0076929685 -0.027560527 -0.029588966 -0.01378321 -0.0120323645 0.015029622
-0.011079743 -0.023854533 0.024085995 0.0022216428 0.00092793116 0.013541262 0.00055076234 -0.04789085
-0.013338593 -0.011148261 0.021944685 0.0057495795 0.014006547 -0.027109854 0.015589928 -0.0020354767
-0.032203086 -0.022655347 -0.037354086 0.028585676 0.024278976 0.010449319 0.0028623207 0.027804166
-0.02375251 0.008063381 0.0046980665 -0.011172566 -0.011810882 0.005435727 -0.006189574 -0.027043378
-0.046690464 0.0021825754 -0.008760091 0.016639052 0.02741248 0.013222434 -0.0024459276 -0.0039956826
-0.010766157 -0.014690484 -0.017575013 -0.002769192 -0.0060024513 -0.0044914936 -0.0060368 0.023321848
0.0026068862 0.0011750208 -0.03074617 -0.022338102 0.037957195 -0.0007835492 0.03242848 0.009881537
-0.031458575 -0.020006988 -0.011579923 -0.0050149364 -0.00052343233 0.023117473 -0.028542245 0.010433026
-0.0062630256 5.587899e-05 0.02102144 -0.033483405 -0.006342486 -0.010292403 0.027830029 -0.009079605
-0.021352716 -0.03021688 -0.021540822 -0.004073398 -0.020334432 0.013291425 0.0051905164 0.0014076899
-0.008403023 0.0076075876 -0.00070979993 0.024398299 0.026817853 0.036562894 -0.023351086 -0.008930088
-0.016665153 0.04266316 0.02596722 0.0019650757 0.036117077 0.014695043 0.033134952 0.015068113
-0.0078052725 0.017493105 0.01170841 0.029526917 -0.016090497 1.0097923e-05 0.011753057 0.0029852209
0.041877624 0.011471601 0.01993692 0.015977079 0.027524892 -0.019530775 -0.0021742687 0.00804403
0.005702651 0.0037531266 0.014034648 0.01708915 -0.0042851805 0.0028593543 -0.014395661 0.0057173297
0.004905369 0.002222122 0.03644481 0.00638537 0.0010305579 0.027799241 -0.0030692325 0.012356846
-0.0040814304 -0.017423626 0.033324 -0.006988701 -0.02044109 -0.019840352 0.023843583 0.020029647
-0.03061284 -0.02003663 -0.0322861 0.029283358 -0.0029867075 -0.014260206 -0.00056766055 -0.028890038
00000000: ac61 b33a dc25 883c ea61 5fbc 94fa a43c
00000010: 1a2e a63c c501 ba3c 58e1 313d 6bf0 b23a
00000020: 0df0 37bc 87c3 febb 3e15 393d 0cd9 fa3c
00000030: 6804 7d3b da05 28bd 3ada d13c 677f 52bc
00000040: 5bd1 a0bc 9319 373c 3c4e 6fbc c7ae 39bc
00000050: 2d88 e23b 7275 cc3c 31c8 543c e731 9c3c
00000060: 8a7a 27bd 67b2 53bc fdf8 5c3d 3c83 d4bc
00000070: 5c9d fdbc 9bb9 25bd dcdb 213c 4aaf 35bd
00000080: 40b2 373d 084d 7d3a 1328 463b 02d8 0c3b
00000090: 6350 2abd c710 64bc e8e8 7dbc 83bc ca3b
000000a0: 3442 07bc d063 62ba 5526 503c dd19 0c3c
000000b0: 5e53 bd39 2623 b4bc dcdb 5ebc 3d37 443c
000000c0: f24f 0f3d 2714 d43b 093e 64bc 9846 113c
000000d0: 1a57 1abc b368 6abc b42e 8d3b 7c36 b7bc
000000e0: bc3e e9bc 898f 103d 3d21 d2bb 6026 0ebc
000000f0: 98cd f8bb 7757 653b 9a28 603b 95ed fe3b
00000100: 106c ebbb 0b14 173d d3b9 50bc 19c3 6dba
00000110: 483a c83c 7226 b03c 2eb9 593c 5115 3bbc
00000120: 9798 743c 967c 4dbc 8bfe 3d3c cbb8 373c
00000130: fa13 a1bc c8af 253d fae1 4a3c 7314 1b3c
00000140: bbc5 d4b9 5cf1 ac3c 8270 aebc 8fef 0e3d
00000150: 41de 573b 521f fcbb 0ce1 103d 3522 2bbc
00000160: 18b2 163d e433 a9bc 9341 0dbd 3a30 3abc
00000170: e414 3b3a 0777 93bb 401d bf3c 7e4d 00bc
00000180: 170d 803b 1b5a 8d3b 9c35 803c 2620 5cba
00000190: b028 9039 2755 84ba 3463 0c3c e7c3 013d
000001a0: 07a8 b7ba 3816 51bc 4c15 fcbb 9dc6 e1bc
000001b0: 8f64 f2bc f9d2 61bc 6523 45bc ce3e 763c
000001c0: cf87 35bc 956a c3bc fe4f c53c fb98 113b
000001d0: 6840 733a 2bdc 5d3c 0961 103a 3229 44bd
000001e0: 1d8a 5abc 32a7 36bc 57c5 b33c f866 bc3b
000001f0: b77b 653c 7c15 debc e66c 7f3c a265 05bb
00000200: 62e7 03bd b597 b9bc 9900 19bd 822c ea3c
00000210: b4e4 c63c 9f33 2b3c c695 3b3b 90c5 e33c
00000220: a094 c2bc 451c 043c 3df2 993b 230d 37bc
00000230: 6e82 41bc 2f1e b23b e9d1 cabb 138a ddbc
00000240: 803e 3fbd 8a09 0f3b 7c86 0fbc 9f4e 883c
00000250: 2390 e03c e8a2 583c db4b 20bb 37ee 82bb
00000260: 8964 30bc 5bb0 70bc 79f9 8fbc 557b 35bb
00000270: 36b0 c4bb 612d 93bb 59d0 c5bb 760d bf3c
00000280: 4bd8 2a3b 2803 9a3a 64df fbbc 65fe b6bc
00000290: 0179 1b3d 1967 4dba bad3 043d 2ce6 213c
000002a0: b5da 00bd b2e5 a3bc b8b9 3dbc 5654 a4bb
000002b0: f336 09ba db60 bd3c 6dd1 e9bc 48ef 2a3c
000002c0: 113a cdbb 9c5f 6a38 2835 ac3c e525 09bd
000002d0: a1d4 cfbb 78a1 28bc cdfb e33c a0c2 14bc
000002e0: e4eb aebc 6489 f7bc 6176 b0bc 247a 85bb
000002f0: 6594 a6bc 47c4 593c 3515 aa3b 3c82 b83a
00000300: d5ac 09bc 1249 f93b de11 3aba f1de c73c
00000310: 1db1 db3c f9c2 153d c74a bfbc 814f 12bc
00000320: 5c85 88bc 91bf 2e3d 35b9 d43c 80c8 003b
00000330: 80ef 133d 7ac3 703c 84b8 073d 3fe0 763c
00000340: 5fc3 ffbb b34d 8f3c a2d4 3f3c 6fe2 f13c
00000350: 38d0 83bc 406a 2937 e58f 403c b2a3 433b
00000360: df87 2b3d 62f3 3b3c c052 a33c 5de2 823c
00000370: e27b e13c 01ff 9fbc 2d7e 0ebb 1bcb 033c
00000380: 4edd ba3b 04f7 753b 95f1 653c 8cfe 8b3c
00000390: b36a 8cbb 0164 3b3b c7db 6bbc 7058 bb3b
000003a0: 38bd a03b 05a1 113b 2747 153d 5e3c d13b
000003b0: c913 873a 3cbb e33c 2d25 49bb 5e74 4a3c
000003c0: 85bd 85bb febb 8ebc bf7e 083d 7901 e5bb
000003d0: 1374 a7bc 3c88 a2bc 9e53 c33c 3715 a43c
000003e0: c7c7 fabc dc23 a4bc 6e3e 04bd a7e3 ef3c
000003f0: a3bc 43bb a4a3 69bc 0ecf 14ba cdaa ecbc

action_model._continuous_distribution.mu.bias f4 [2]
-0.00034882652 0.0007956856
00000000: b4e2 b6b9 8f95 503a

action_model._discrete_distribution.branches.0.weight f4 [5, 128]
0.0017091656 -0.012208356 -0.009038379 -0.007349815 0.007186759 0.0072913575 -0.00575928 0.007184782
-0.0031685866 -0.0018590274 -0.009563364 0.02300093 -0.019899275 0.022821805 0.003699624 0.011502962
-0.002494986 -0.0057574743 -0.005616823 0.018331224 0.019949064 0.014535489 -0.011513936 -0.0136979725
0.00348243 -0.01228558 -0.0007195526 -0.004472613 0.003098384 -0.00081202335 0.0053949105 -0.00424228
-0.008549591 -0.0017984029 -0.014799309 0.0068303533 -0.013331321 -0.0027884743 0.008090214 0.022753397
-0.01339946 0.013486261 -0.00056708284 -0.0011463678 0.008537181 -0.001183274 0.0023071847 -0.0058714924
0.005677311 0.011337837 0.009444315 -0.012001568 0.0014416559 -0.023063878 -0.0114051225 0.007966618
0.010274742 -0.0014949143 0.0122594 -0.0044393423 -0.0038505772 0.015591766 -0.026918681 -0.02343984
0.0155359395 -0.0067218402 -0.0053646066 0.012937855 -0.011399202 -0.006152098 -0.0030585069 0.0044114618
-0.012205612 0.012381968 -0.016414167 -0.00076529355 -0.020834947 -0.0012135715 -0.015872149 7.923112e-05
-0.0057265316 -0.022728523 0.018245254 0.013511897 -0.0054655806 -0.018620787 0.007424246 -0.012050145
-0.013693455 -0.010189188 0.0008450206 -0.002229945 0.009898278 -0.011272987 -0.012159998 0.0047811833
-0.00036035213 0.0016202576 -0.001510664 -0.015837966 0.022117475 0.008719789 -0.0008440415 -0.014406872
0.0066063595 0.005947452 -0.0049999426 0.012548701 0.010229768 0.014869132 0.016374126 -0.012220144
-0.015628116 -0.027154705 0.035000745 -0.010796934 -0.006626272 0.00883299 0.003959067 0.0064118793
-0.0044518607 -0.0059958133 1.7363302e-05 0.0009555953 0.0064417343 -0.011512456 0.013885931 -0.012830061
0.0059878663 0.0066790204 0.012242476 0.021304922 -0.021824853 0.0023998995 0.015101465 -0.000592424
0.0060810163 -0.018519241 0.009283731 0.018536523 0.0038463608 -0.0093943495 0.024586419 0.014536865
0.0075627165 -0.005348104 -0.01161863 0.028203435 -0.002939537 0.0067015616 0.0010848562 -0.023863439
-0.009932595 0.0277777 -0.0068738144 0.0010422261 -0.017976254 0.026250925 0.008625248 0.0018261471
-0.002820587 -0.0041009136 -0.005989115 -0.013975516 -0.009284638 0.015510437 -0.0011266004 -0.019875675
-0.0026282354 0.007984109 -0.025137158 0.00863719 -0.0073427707 0.012287395 -0.019742355 0.017197784
0.004366713 0.013762861 0.00028497397 -0.021884663 0.00817196 -0.001203491 -0.004087099 -0.019399628
-0.0016104867 -0.030205008 -0.0060789636 -0.0034499443 -0.020132976 -0.017551402 -0.022576418 -0.002909491
-0.008942868 -0.008732686 -0.024039475 0.006312008 -0.014756147 -0.011368281 0.008379618 -0.013782621
-0.009009791 0.019113248 -0.0073828707 0.0015443993 0.0054126917 -0.009168309 -0.022759704 0.0016975913
-0.009899317 -0.020501548 0.0033326014 0.00786436 0.018836603 0.008924276 0.014307821 -0.003100925
0.0058848066 -0.0047426266 0.0091325445 0.013589212 -0.0066906624 -0.008087888 -0.004218108 0.0060010604
-0.0040373257 -0.009859865 -0.021406703 -0.030011637 -0.01059544 -0.0044602947 -0.004617415 -0.0011396329
0.033440888 0.004742339 0.021792276 0.0037734208 -0.016854635 0.0080369115 0.0026242738 0.007582671
0.012927589 0.0007808372 -0.020267809 -0.011605342 0.0058639254 -0.0062987558 0.0035934863 0.01989538
0.005951276 0.012508702 0.006575818 0.023728814 0.008403428 -0.002712129 0.004185733 0.0027487818
00000000: 1506 e03a 8e05 48bc b615 14bc b8d6 f0bb
00000010: e77e eb3b 57ec ee3b 58b8 bcbb 526e eb3b
00000020: 10a8 4fbb 9caa f3ba a8af 1cbc 726c bc3c
00000030: ce03 a3bc cbf4 ba3c 6475 723b eb76 3c3c
00000040: eb82 23bb 32a9 bcbb 540d b8bb 5d2b 963c
00000050: 386c a33c 4226 6e3c f3a4 3cbc 766d 60bc
00000060: 7b39 643b 7549 49bc 5ca0 3cba ff8e 92bb
00000070: 420e 4b3b f7dd 54ba cac7 b03b d302 8bbb
00000080: 9513 0cbc 63b8 ebba cd78 72bc 28d1 df3b
00000090: 9d6b 5abc d6be 36bb d18c 043c 5565 ba3c
000000a0: 6989 5bbc 7af5 5c3c 49a8 14ba b841 96ba
000000b0: 88df 0b3c 1618 9bba 2334 173b a665 c0bb
000000c0: bd08 ba3b 56c2 393c 54bc 1a3c 3aa2 44bc
000000d0: f2f5 bc3a 75f0 bcbc 8ddc 3abc 6b86 023c
000000e0: 6457 283c 00f1 c3ba a7db 483c e777 91bb
000000f0: f759 7cbb 9b74 7f3c 9184 dcbc e804 c0bc
00000100: 748a 7e3c e242 dcbb 95c9 afbb 4cf9 533c
00000110: b8c3 3abc 8a97 c9bb 3b71 48bb 068e 903b
00000120: 0cfa 47bc bddd 4a3c 0177 86bc fb9d 48ba
00000130: 0dae aabc b410 9fba 4f06 82bc e228 a638
00000140: a1a5 bbbb 2b31 babc 1277 953c 0161 5d3c
00000150: 9d18 b3bb 9f8a 98bc 1747 f33b f96d 45bc
00000160: 835a 60bc 8df0 26bc 5f84 5d3a 4524 12bb
00000170: 632c 223c 56b2 38bc ba3a 47bc 79ab 9c3b
00000180: a5ed bcb9 d35e d43a 7901 c6ba 9fbe 81bc
00000190: b52f b53c 72dd 0e3c ab42 5dba cd0a 6cbc
000001a0: 297a d83b d8e2 c23b 8fd6 a3bb 1199 4d3c
000001b0: c29a 273c a99d 733c 0823 863c 0037 48bc
000001c0: 8906 80bc 8b73 debc f15c 0f3d a0e5 30bc
000001d0: 3321 d9bb 3fb8 103c 10bb 813b be1a d23b
000001e0: eae0 91bb 8778 c4bb 68a7 9137 ea80 7a3a
000001f0: 2f15 d33b be9e 3cbc d181 633c 2d35 52bc
00000200: dd35 c43b afdb da3b ab94 483c a987 ae3c
00000210: 09ca b2bc a247 1d3b 236c 773c e74c 1bba
00000220: 4343 c73b aab5 97bc ca1a 183c e8d9 973c
00000230: 3a13 7c3b c2ea 19bc 7569 c93c 082c 6e3c
00000240: aad0 f73b 263f afbb 115c 3ebc e40a e73c
00000250: 3fa5 40bb c698 db3b bc31 8e3a 427d c3bc
00000260: 53bc 22bc 0f8e e33c bc3d e1bb 4e9b 883a
00000270: f042 93bc 2e0c d73c ea50 0d3c 545b ef3a
00000280: 99d9 38bb f560 86bb 5740 c4bb 90f9 64bc
00000290: 981e 18bc 7d1f 7e3c 70aa 93ba 50d2 a2bc
000002a0: 793e 2cbb c8cf 023c 71ec cdbc 0083 0d3c
000002b0: a09b f0bb 1251 493c b8ba a1bc 5ee2 8c3c
000002c0: a516 8f3b 9f7d 613c 8f68 9539 7747 b3bc
000002d0: afe3 053c 75be 9dba 12ed 85bb f8eb 9ebc
000002e0: f716 d3ba 7e70 f7bc 0b32 c7bb 7618 62bb
000002f0: e9ed a4bc f5c7 8fbc 2ef2 b8bc 29ad 3ebb
00000300: 1b85 12bc 8a13 0fbc 6fee c4bc f6d4 ce3b
00000310: c4c3 71bc 0742 3abc aa4a 093c 81d0 61bc
00000320: cd9d 13bc 6393 9c3c 02ec f1bb 716d ca3a
00000330: f35c b13b ad36 16bc 8f72 babc b681 de3a
00000340: bf30 22bc ddf2 a7bc c667 5a3b 84d9 003c
00000350: 384f 9a3c 2037 123c 5a6b 6a3c e338 4bbb
00000360: 56d5 c03b 0968 9bbb aba0 153c 49a5 5e3c
00000370: 583d dbbb 1083 04bc 0e38 8abb 8ba4 c43b
00000380: 8b4b 84bb 458b 21bc 1c5d afbc f7da f5bc
00000390: 7f98 2dbc aa27 92bb af4d 97bb bc5f 95ba
000003a0: 50f9 083d 9f65 9b3b b785 b23c 7f4b 773b
000003b0: bb12 8abc 40ad 033c 02fc 2b3b 0e78 f83b
000003c0: 3dce 533c 19b1 4c3a ad08 a6bc 5524 3ebc
000003d0: 2c26 c03b cb65 cebb b280 6b3b a3fb a23c
000003e0: ec02 c33b 4df1 4c3c f679 d73b ee62 c23c
000003f0: 88ae 093c f9bd 31bb 7928 893b e824 343b

action_model._discrete_distribution.branches.0.bias f4 [5]
-0.00049133116 0.0057819188 -0.0038030283 0.0041714343 -0.0070828726
00000000: adcc 00ba 4076 bd3b 3a3c 79bb 87b0 883b
00000010: 7117 e8bb

exp_avg f4 [128, 92]
8.716842e-06 0.0 2.817208e-06 7.6409924e-05 6.947117e-07 0.0 0.00014738501 0.00015043574
6.0185835e-06 0.0 7.1445196e-05 0.00010176132 -2.4638375e-06 0.0 8.1637365e-05 0.00015776386
6.306253e-06 0.0 4.396743e-05 0.00014779333 -1.1407579e-05 0.0 7.0972496e-06 9.531153e-05
-1.1407579e-05 0.0 7.0972496e-06 9.531153e-05 -5.8512043e-05 -0.0007125235 -0.0011640253 0.0018803765
0.0004757603 -0.00395255 0.0012683118 0.0004757603 -0.0040193675 0.0014044318 3.425706e-05 2.9848485e-07
-9.180877e-05 0.0006979081 2.586373e-07 5.6844364e-08 -4.7653557e-06 0.0 0.0 0.0
0.0 0.0 0.0 0.0 0.0 0.0 0.0 0.0
0.0 0.0 0.0 0.0 0.0 0.0 0.0 0.0
0.0 0.0 0.0 0.0 0.0 0.0 0.0 0.0
0.0 0.0 0.0 0.0 0.0 0.0 0.0 0.0
0.0 0.0 0.0 0.0 0.0 0.0 0.0 0.0
0.0 0.0 0.0 0.0 -9.329938e-06 0.0 -1.891785e-05 -1.5338306e-05
-8.1087535e-08 0.0 -1.1319703e-05 -9.580789e-07 -1.8751369e-05 0.0 -1.3982594e-05 1.015544e-06
1.4378137e-05 0.0 -8.175786e-06 5.935769e-06 -1.5653219e-05 0.0 2.4906849e-05 2.881093e-05
7.405821e-06 0.0 4.756053e-06 8.986739e-06 7.405821e-06 0.0 4.756053e-06 8.986739e-06
-7.0655797e-06 -4.1652635e-05 0.00016222616 0.00027203272 2.853551e-05 -0.00014995501 -9.499665e-07 2.853551e-05
-0.00046951053 7.930407e-05 -3.3745837e-05 4.279666e-08 4.0918138e-05 -0.00026006403 -6.416042e-07 -1.646103e-07
2.3113505e-05 0.0 0.0 0.0 0.0 0.0 0.0 0.0
0.0 0.0 0.0 0.0 0.0 0.0 0.0 0.0
0.0 0.0 0.0 0.0 0.0 0.0 0.0 0.0
0.0 0.0 0.0 0.0 0.0 0.0 0.0 0.0
0.0 0.0 0.0 0.0 0.0 0.0 0.0 0.0
0.0 0.0 0.0 0.0 0.0 0.0 0.0 0.0
1.2554504e-05 0.0 2.6986376e-05 0.000118469834 1.9773139e-05 0.0 0.00014632216 0.0001775165
-1.652498e-05 0.0 0.00012010914 0.00017482496 3.5692596e-05 0.0 2.674141e-05 0.000161703
-2.6506614e-05 0.0 3.450995e-05 0.00021988808 9.07976e-06 0.0 -3.6364297e-06 0.00010714513
9.07976e-06 0.0 -3.6364297e-06 0.00010714513 0.00031397174 -0.0010031756 -0.0020157525 0.0039231414
0.00066955015 -0.0056111556 0.004856441 0.00066955015 -0.005503205 0.001354711 -7.83153e-05 -5.3207214e-07
1.9211075e-06 0.0005720606 -6.1030405e-06 -1.4941439e-06 4.5473837e-05 0.0 0.0 0.0
0.0 0.0 0.0 0.0 0.0 0.0 0.0 0.0
0.0 0.0 0.0 0.0 0.0 0.0 0.0 0.0
0.0 0.0 0.0 0.0 0.0 0.0 0.0 0.0
00000000: 8d3e 1237 0000 0000 440f 3d36 443e a038
00000010: 397c 3a35 0000 0000 5d8b 1a39 49be 1d39
00000020: 3df3 c936 0000 0000 d9d4 9538 b168 d538
00000030: 6858 25b6 0000 0000 ba34 ab38 6a6d 2539
00000040: 4d9a d336 0000 0000 ab69 3838 f8f8 1a39
00000050: 2e63 3fb7 0000 0000 e924 ee36 fde1 c738
00000060: 2e63 3fb7 0000 0000 e924 ee36 fde1 c738
00000070: d46a 75b8 a5c8 3aba 3592 98ba f776 f63a
00000080: 776f f939 6484 81bb 7b3d a63a 776f f939
00000090: e6b4 83bb e914 b83a 3daf 0f38 723f a034
000000a0: 7589 c0b8 d2f3 363a d7da 8a34 0a25 7433
000000b0: 18e6 9fb6 0000 0000 0000 0000 0000 0000
000000c0: 0000 0000 0000 0000 0000 0000 0000 0000
000000d0: 0000 0000 0000 0000 0000 0000 0000 0000
000000e0: 0000 0000 0000 0000 0000 0000 0000 0000
000000f0: 0000 0000 0000 0000 0000 0000 0000 0000
00000100: 0000 0000 0000 0000 0000 0000 0000 0000
00000110: 0000 0000 0000 0000 0000 0000 0000 0000
00000120: 0000 0000 0000 0000 0000 0000 0000 0000
00000130: 0000 0000 0000 0000 0000 0000 0000 0000
00000140: 0000 0000 0000 0000 0000 0000 0000 0000
00000150: 0000 0000 0000 0000 0000 0000 0000 0000
00000160: 0000 0000 0000 0000 0000 0000 0000 0000
00000170: c787 1cb7 0000 0000 c6b1 9eb7 c3aa 80b7
00000180: 5822 aeb3 0000 0000 c1e9 3db7 5797 80b5
00000190: 424c 9db7 0000 0000 c996 6ab7 d34d 8835
000001a0: a139 7137 0000 0000 bc2a 09b7 de2b c736
000001b0: 084f 83b7 0000 0000 0def d037 00af f137
000001c0: 857f f836 0000 0000 2f96 9f36 c0c5 1637
000001d0: 857f f836 0000 0000 2f96 9f36 c0c5 1637
000001e0: de14 edb6 2db4 2eb8 411b 2a39 9d9f 8e39
000001f0: 8b5f ef37 3e3d 1db9 3301 7fb5 8b5f ef37
00000200: a328 f6b9 0c50 a638 518a 0db8 6dcf 3733
00000210: 849f 2b38 3459 88b9 b43a 2cb5 bcbf 30b4
00000220: e0e3 c137 0000 0000 0000 0000 0000 0000
00000230: 0000 0000 0000 0000 0000 0000 0000 0000
00000240: 0000 0000 0000 0000 0000 0000 0000 0000
00000250: 0000 0000 0000 0000 0000 0000 0000 0000
00000260: 0000 0000 0000 0000 0000 0000 0000 0000
00000270: 0000 0000 0000 0000 0000 0000 0000 0000
00000280: 0000 0000 0000 0000 0000 0000 0000 0000
00000290: 0000 0000 0000 0000 0000 0000 0000 0000
000002a0: 0000 0000 0000 0000 0000 0000 0000 0000
000002b0: 0000 0000 0000 0000 0000 0000 0000 0000
000002c0: 0000 0000 0000 0000 0000 0000 0000 0000
000002d0: 0000 0000 0000 0000 0000 0000 0000 0000
000002e0: 2fa1 5237 0000 0000 cd60 e237 0273 f838
000002f0: 7ede a537 0000 0000 0e6e 1939 b923 3a39
00000300: 209f 8ab7 0000 0000 1be3 fb38 3851 3739
00000310: a2b4 1538 0000 0000 be52 e037 d28e 2939
00000320: 855a deb7 0000 0000 c7be 1038 c291 6639
00000330: 4655 1837 0000 0000 6309 74b6 1bb3 e038
00000340: 4655 1837 0000 0000 6309 74b6 1bb3 e038
00000350: 939c a439 fd7c 83ba b71a 04bb b28d 803b
00000360: c084 2f3a c9dd b7bb c822 9f3b c084 2f3a
00000370: 3b54 b4bb 8f90 b13a 353d a4b8 b8d3 0eb5
00000380: 60ec 0036 56f6 153a b8c8 ccb6 658a c8b5
00000390: 29bb 3e38 0000 0000 0000 0000 0000 0000
000003a0: 0000 0000 0000 0000 0000 0000 0000 0000
000003b0: 0000 0000 0000 0000 0000 0000 0000 0000
000003c0: 0000 0000 0000 0000 0000 0000 0000 0000
000003d0: 0000 0000 0000 0000 0000 0000 0000 0000
000003e0: 0000 0000 0000 0000 0000 0000 0000 0000
000003f0: 0000 0000 0000 0000 0000 0000 0000 0000

exp_avg_sq f4 [128, 92]
3.3851366e-09 0.0 9.468801e-09 2.5021741e-08 2.291726e-09 0.0 3.185311e-08 3.3263717e-08
6.448193e-09 0.0 1.2427059e-08 2.3218282e-08 5.2708837e-09 0.0 1.01351985e-08 2.2282213e-08
5.3474207e-09 0.0 3.2650669e-09 1.6943297e-08 3.6992396e-09 0.0 2.6717255e-09 1.0717692e-08
3.6992396e-09 0.0 2.6717255e-09 1.0717692e-08 2.6122752e-06 7.492183e-07 4.211695e-06 7.1636673e-06
3.3431016e-07 3.1142237e-05 9.68039e-06 3.3431016e-07 2.7271242e-05 1.7769993e-06 1.3417667e-08 1.822905e-11
1.1262899e-08 1.7230622e-06 3.0558606e-10 4.5362286e-12 2.0927199e-10 0.0 0.0 0.0
0.0 0.0 0.0 0.0 0.0 0.0 0.0 0.0
0.0 0.0 0.0 0.0 0.0 0.0 0.0 0.0
0.0 0.0 0.0 0.0 0.0 0.0 0.0 0.0
0.0 0.0 0.0 0.0 0.0 0.0 0.0 0.0
0.0 0.0 0.0 0.0 0.0 0.0 0.0 0.0
0.0 0.0 0.0 0.0 8.205491e-10 0.0 4.200226e-09 8.6865715e-09
5.977408e-10 0.0 9.528738e-09 1.0701083e-08 1.7803534e-09 0.0 5.2133555e-09 8.145214e-09
9.424143e-10 0.0 3.1584058e-09 6.9593855e-09 2.3247766e-09 0.0 1.573499e-09 4.9774544e-09
1.5796738e-09 0.0 7.7127904e-10 3.20284e-09 1.5796738e-09 0.0 7.7127904e-10 3.20284e-09
1.2733391e-06 2.3562863e-07 1.4316644e-06 4.813582e-06 1.05318335e-07 9.809714e-06 7.94044e-06 1.05318335e-07
8.224866e-06 4.8608433e-07 4.570281e-09 1.5379167e-11 3.5266514e-09 7.70908e-07 8.698277e-11 8.368596e-13
8.166358e-11 0.0 0.0 0.0 0.0 0.0 0.0 0.0
0.0 0.0 0.0 0.0 0.0 0.0 0.0 0.0
0.0 0.0 0.0 0.0 0.0 0.0 0.0 0.0
0.0 0.0 0.0 0.0 0.0 0.0 0.0 0.0
0.0 0.0 0.0 0.0 0.0 0.0 0.0 0.0
0.0 0.0 0.0 0.0 0.0 0.0 0.0 0.0
2.7532243e-09 0.0 2.420482e-08 5.352747e-08 2.4578355e-09 0.0 6.14926e-08 6.873685e-08
9.062205e-09 0.0 3.4641403e-08 4.8466283e-08 4.14378e-09 0.0 2.4347596e-08 4.593318e-08
8.1086595e-09 0.0 8.122028e-09 3.5268542e-08 4.546504e-09 0.0 7.54636e-09 2.3882174e-08
4.546504e-09 0.0 7.54636e-09 2.3882174e-08 6.523491e-06 1.5076506e-06 8.886067e-06 4.4713386e-05
6.727318e-07 5.6557215e-05 2.9811454e-05 6.727318e-07 5.7146623e-05 4.881599e-06 1.9457907e-08 2.764282e-11
1.4259866e-08 2.554374e-06 7.4084533e-10 6.736831e-12 7.119251e-10 0.0 0.0 0.0
0.0 0.0 0.0 0.0 0.0 0.0 0.0 0.0
0.0 0.0 0.0 0.0 0.0 0.0 0.0 0.0
0.0 0.0 0.0 0.0 0.0 0.0 0.0 0.0
00000000: f49f 6831 0000 0000 3aac 2232 64ef d632
00000010: 787c 1d31 0000 0000 ddce 0833 d8dd 0e33
00000020: e88e dd31 0000 0000 c97e 5532 8b71 c732
00000030: 2f1b b531 0000 0000 131f 2e32 1b67 bf32
00000040: 69bc b731 0000 0000 aa5f 6031 b48a 9132
00000050: b635 7e31 0000 0000 7e99 3731 e820 3832
00000060: b635 7e31 0000 0000 7e99 3731 e820 3832
00000070: 8c4e 2f36 e41d 4935 2f52 8d36 6f5f f036
00000080: 3d7b b334 b99e 0238 f568 2237 3d7b b334
00000090: 8cc4 e437 3b81 ee35 8683 6632 2c58 a02d
000000a0: c17e 4132 f743 e735 6aff a72f b79a 9f2c
000000b0: d418 662f 0000 0000 0000 0000 0000 0000
000000c0: 0000 0000 0000 0000 0000 0000 0000 0000
000000d0: 0000 0000 0000 0000 0000 0000 0000 0000
000000e0: 0000 0000 0000 0000 0000 0000 0000 0000
000000f0: 0000 0000 0000 0000 0000 0000 0000 0000
00000100: 0000 0000 0000 0000 0000 0000 0000 0000
00000110: 0000 0000 0000 0000 0000 0000 0000 0000
00000120: 0000 0000 0000 0000 0000 0000 0000 0000
00000130: 0000 0000 0000 0000 0000 0000 0000 0000
00000140: 0000 0000 0000 0000 0000 0000 0000 0000
00000150: 0000 0000 0000 0000 0000 0000 0000 0000
00000160: 0000 0000 0000 0000 0000 0000 0000 0000
00000170: 028d 6130 0000 0000 9451 9031 f23b 1532
00000180: 454e 2430 0000 0000 d5b3 2332 dcd7 3732
00000190: 9eb0 f430 0000 0000 2921 b331 08ef 0b32
000001a0: 4186 8130 0000 0000 430b 5931 671f ef31
000001b0: e7c1 1f31 0000 0000 9342 d830 2706 ab31
000001c0: d51b d930 0000 0000 f001 5430 f518 5c31
000001d0: d51b d930 0000 0000 f001 5430 f518 5c31
000001e0: 99e7 aa35 1b01 7d34 9d27 c035 5b84 a136
000001f0: 5e2b e233 6794 2437 ee37 0537 5e2b e233
00000200: 88fd 0937 767b 0235 9e08 9d31 ce46 872d
00000210: 8259 7231 65f0 4e35 f246 bf2e 178e 6b2b
00000220: 8294 b32e 0000 0000 0000 0000 0000 0000
00000230: 0000 0000 0000 0000 0000 0000 0000 0000
00000240: 0000 0000 0000 0000 0000 0000 0000 0000
00000250: 0000 0000 0000 0000 0000 0000 0000 0000
00000260: 0000 0000 0000 0000 0000 0000 0000 0000
00000270: 0000 0000 0000 0000 0000 0000 0000 0000
00000280: 0000 0000 0000 0000 0000 0000 0000 0000
00000290: 0000 0000 0000 0000 0000 0000 0000 0000
000002a0: 0000 0000 0000 0000 0000 0000 0000 0000
000002b0: 0000 0000 0000 0000 0000 0000 0000 0000
000002c0: 0000 0000 0000 0000 0000 0000 0000 0000
000002d0: 0000 0000 0000 0000 0000 0000 0000 0000
000002e0: 3c33 3d31 0000 0000 f6ea cf32 13e6 6533
000002f0: b3e6 2831 0000 0000 ea0d 8433 7c9c 9333
00000300: 00b0 1b32 0000 0000 a0c8 1433 3e29 5033
00000310: 1361 8e31 0000 0000 ee24 d132 1148 4533
00000320: 434e 0b32 0000 0000 0f89 0b32 2c7a 1733
00000330: 7937 9c31 0000 0000 3ea5 0132 7525 cd32
00000340: 7937 9c31 0000 0000 3ea5 0132 7525 cd32
00000350: 5ce4 da36 7b5a ca35 5e15 1537 a28a 3b38
00000360: c795 3435 d937 6d38 9c13 fa37 c795 3435
00000370: b8b0 6f38 9ecc a336 6424 a732 1926 f32d
00000380: 8efb 7432 d06b 2b36 5ba4 4b30 fb07 ed2c
00000390: 46b1 4330 0000 0000 0000 0000 0000 0000
000003a0: 0000 0000 0000 0000 0000 0000 0000 0000
000003b0: 0000 0000 0000 0000 0000 0000 0000 0000
000003c0: 0000 0000 0000 0000 0000 0000 0000 0000
000003d0: 0000 0000 0000 0000 0000 0000 0000 0000
000003e0: 0000 0000 0000 0000 0000 0000 0000 0000
000003f0: 0000 0000 0000 0000 0000 0000 0000 0000

exp_avg f4 [128]
0.0001634915 9.80602e-06 0.00023008593 -5.5505116e-05 -2.6371008e-05 2.456743e-05 -9.68841e-05 -5.001834e-07
0.00017799607 0.00010646019 -3.191475e-05 4.3893924e-06 -8.228043e-05 -5.3014668e-05 -3.4069185e-06 -0.00055177254
-5.389457e-05 -7.1363644e-07 -3.6181248e-06 4.1737592e-05 -9.285362e-06 -0.00022048608 -9.575069e-07 -1.6814509e-05
0.00016972785 3.0083585e-05 -0.00012269797 -1.1810423e-06 -8.120979e-06 -3.4775871e-06 2.3142788e-05 0.00010066567
-9.51656e-06 9.310904e-06 -3.7376947e-07 8.4400716e-07 -0.00015963068 5.5032037e-06 -1.4356576e-05 1.6214302e-05
1.3450088e-05 8.741771e-05 9.914206e-05 -5.518585e-06 2.0966672e-05 1.8900948e-05 -0.00011452561 -0.00013525426
1.8380184e-05 -0.0002458054 1.0346669e-06 -0.00013817566 -1.2408906e-06 -9.655639e-05 -2.5744283e-05 8.565323e-05
-2.3895906e-05 -0.00023594596 -5.6439596e-05 -4.182043e-06 -0.000157455 -4.3965456e-06 -1.4016807e-05 -9.4943965e-07
-4.7263627e-05 0.0002427486 -3.6621823e-05 0.00028106777 0.00012314673 -3.0798782e-07 -3.9978877e-06 4.591301e-05
-2.3106897e-07 0.0003208491 0.00017107456 0.00014888315 6.436507e-05 2.6877767e-06 3.5033052e-05 -0.00035018838
1.0089688e-06 0.000101480095 5.9616465e-05 -7.0896326e-06 0.00024421196 -3.2959034e-07 2.432255e-05 -6.7561894e-05
-6.125378e-05 2.3420183e-07 1.1805683e-09 5.6646405e-07 -1.4158398e-06 -0.0001808728 -3.3348929e-06 -0.00011653784
-4.2386568e-05 -0.00019469149 -3.371571e-05 0.00018764846 -2.2071364e-07 -9.558965e-06 -1.874411e-05 0.0002864868
2.2232423e-06 3.6029874e-06 -1.2465596e-05 -4.2972692e-06 -9.596254e-05 -0.00010083578 0.00014094985 -2.7679823e-06
1.1972107e-06 -0.00027738043 -4.141077e-06 -3.0508641e-05 3.225486e-05 4.622314e-05 -1.3322342e-05 -7.782964e-05
-0.0004335706 -0.00010605882 -0.00012020153 3.0666746e-05 0.00015341854 0.000104861436 -0.00021022731 -6.663075e-05
00000000: ea6e 2b39 8984 2437 3943 7139 2ace 68b8
00000010: 4f37 ddb7 2716 ce37 412e cbb8 5744 06b5
00000020: 75a4 3a39 6143 df38 34dc 05b8 9848 9336
00000030: f88d acb8 115c 5eb8 6aa2 64b6 d4a4 10ba
00000040: db0c 62b8 b990 3fb5 e9ce 72b6 660f 2f38
00000050: 53c8 1bb7 4832 67b9 b083 80b5 e20c 8db7
00000060: f9f8 3139 025c fc37 7ca8 00b9 4e84 9eb5
00000070: 573f 08b7 7e60 69b6 c222 c237 781c d338
00000080: 50a9 1fb7 0736 1c37 7caa c8b4 bb8f 6235
00000090: 8962 27b9 29a8 b836 06dd 70b7 f303 8837
000000a0: b0a7 6137 0754 b738 7dea cf38 492c b9b6
000000b0: 96e1 af37 7a8d 9e37 782d f0b8 0ad3 0db9
000000c0: 252f 9a37 71df 80b9 e2de 8a35 3fe3 10b9
000000d0: ad8c a6b5 517e cab8 6df5 d7b7 baa0 b338
000000e0: 1174 c8b7 4368 77b9 8eb9 6cb8 7a53 8cb6
000000f0: 811a 25b9 0a86 93b6 ba29 6bb7 ffdc 7eb5
00000100: ef3c 46b8 558a 7e39 629a 19b8 475c 9339
00000110: f320 0139 8659 a5b4 9825 86b6 b892 4038
00000120: c11b 78b4 a337 a839 7a62 3339 841d 1c39
00000130: bcfb 8638 a75f 3436 74f0 1238 7d99 b7b9
00000140: e76b 8735 b6d1 d438 b10c 7a38 7be3 edb6
00000150: 9309 8039 8df2 b0b4 4708 cc37 04b0 8db8
00000160: 5f75 80b8 e978 7b34 8e41 a230 1d0f 1835
00000170: e307 beb5 aca8 3db9 06cd 5fb6 c765 f4b8
00000180: 3bc8 31b8 1926 4cb9 f869 0db8 80c3 4439
00000190: 4efd 6cb4 715f 20b7 ab3c 9db7 9b33 9639
000001a0: 0333 1536 daca 7136 5423 51b7 4331 90b6
000001b0: 7f3f c9b8 cc77 d3b8 f0cb 1339 93c1 39b6
000001c0: d9af a035 5f6d 91b9 95f3 8ab6 cfec ffb7
000001d0: 6449 0738 b8df 4138 0683 5fb7 7838 a3b8
000001e0: dc50 e3b9 e56b deb8 b414 fcb8 2ba0 0038
000001f0: fade 2039 0ee9 db38 7770 5cb9 1dbc 8bb8

exp_avg_sq f4 [128]
3.9478742e-08 1.2437057e-08 7.944303e-08 2.8111849e-08 7.002327e-09 4.665077e-10 1.5987439e-08 7.599664e-12
5.540906e-08 8.3380726e-08 2.9986655e-08 8.077094e-11 9.2738786e-09 5.620191e-08 5.007565e-11 1.761467e-07
4.3361652e-08 7.346691e-12 4.884567e-10 2.1886873e-08 8.881483e-10 6.066458e-08 6.1579034e-11 4.4581414e-10
4.8885884e-08 1.2109774e-08 6.302817e-08 6.5216214e-11 2.8943042e-08 4.703863e-11 3.2664313e-09 1.8321094e-08
2.0021804e-09 5.819847e-10 4.6260263e-11 5.949388e-11 5.3574354e-08 5.879363e-09 1.3695641e-08 1.1172729e-08
1.4453928e-10 2.6158379e-08 1.557316e-08 5.681069e-09 2.376213e-08 6.6209997e-09 2.9713933e-08 3.972517e-08
9.363523e-09 7.331486e-08 1.052836e-09 2.869834e-08 4.99389e-09 2.350279e-08 6.432959e-09 8.83744e-09
4.8324917e-08 6.463503e-08 7.218856e-09 1.9645674e-09 2.5071152e-08 4.191888e-09 1.5320613e-09 1.6892289e-12
5.1688172e-08 5.809171e-08 2.5043082e-08 1.0669166e-07 3.941262e-08 6.9364904e-12 2.6298244e-09 2.6150904e-08
1.4578779e-13 1.3614473e-07 7.738354e-08 1.0535869e-07 5.5494162e-08 1.8369471e-08 1.5311635e-08 1.5598368e-07
8.010768e-10 5.0168055e-08 1.2922265e-08 4.085523e-10 9.4611636e-08 2.4720965e-11 4.360046e-09 7.4492834e-09
5.973384e-08 3.0425968e-12 2.3605487e-14 7.0769984e-10 7.583956e-11 4.423657e-08 1.801973e-09 3.925183e-08
2.1042203e-08 7.618898e-08 5.3122037e-08 5.401108e-08 2.6309408e-09 2.7523186e-09 1.505173e-08 1.4181056e-07
3.6220755e-09 1.2264662e-08 4.5959005e-09 1.9131797e-11 3.5728867e-08 1.9660357e-08 2.5164995e-08 3.1291605e-10
1.6921724e-10 8.006954e-08 4.0734127e-10 4.691138e-09 5.0003996e-09 1.7907972e-08 2.1972314e-10 1.6079317e-08
1.3212696e-07 5.941345e-08 1.0691587e-08 1.529704e-08 4.5223807e-08 1.5827782e-08 4.089867e-08 8.980188e-09
00000000: 568f 2933 c1aa 5532 459a aa33 9c7a f132
00000010: 1f99 f031 903b 0030 c054 8932 d8b1 052d
00000020: e8fa 6d33 0a0f b333 adca 0033 ff9d b12e
00000030: f352 1f32 a762 7133 2b3c 5c2e d622 3d34
00000040: a43c 3a33 8e3e 012d 1644 0630 be01 bc32
00000050: e121 7430 b546 8233 ea69 872e c316 f52f
00000060: 99f6 5133 590b 5032 1a5a 8733 7769 8f2e
00000070: 6c9e f832 cae0 4e2e ab77 6031 8360 9d32
00000080: bb96 0931 88f9 1f30 6d74 4b2e 14d4 822e
00000090: a019 6633 6d03 ca31 114a 6b32 2ff2 3f32
000000a0: 31ec 1e2f e2b2 e032 bec5 8532 3633 c331
000000b0: 7a1d cc32 ee7e e331 a13d ff32 499e 2a33
000000c0: 36dd 2032 4571 9d33 60b3 9030 5184 f632
000000d0: b996 ab31 2fe3 c932 e808 dd31 79d3 1732
000000e0: cf8d 4f33 7ccd 8a33 bb09 f831 0901 0731
000000f0: 0c5c d732 3d08 9031 9d90 d230 e3bc ed2b
00000100: bfff 5d33 8380 7933 521e d732 5c1e e533
00000110: a246 2933 5a0e f42c 5cb8 3431 72a2 e032
00000120: 7824 242a 2e2f 1234 0d2e a633 8d41 e233
00000130: 7a58 6e33 e5ca 9d32 a486 8332 787c 2734
00000140: c532 5c30 5c78 5733 b900 5e32 a09a e02f
00000150: 4c2d cb33 aa72 d92d 5fcf 9531 97f4 ff31
00000160: 0747 8033 8d1a 562c 8c9e d428 f387 4230
00000170: e0c5 a62e a0fe 3d33 4aa9 f730 d895 2833
00000180: 4bc0 b432 569d a333 4c28 6433 cff9 6733
00000190: 00cc 3431 4d23 3d31 1b4b 8132 9744 1834
000001a0: 3ae8 7831 8eb4 5232 f8e9 9d31 fa48 a82d
000001b0: 4e74 1933 95e1 a832 692a d832 0507 ac2f
000001c0: 6b0e 3a2f b2f2 ab33 30f0 df2f b02f a131
000001d0: fbcf ab31 0cd4 9932 9196 712f cb1e 8a32
000001e0: c8de 0d34 c72d 7f33 19ae 3732 8c66 8332
000001f0: 1a3c 4233 a9f5 8732 90a8 2f33 4947 1a32
