3DPlayground/results/Test21/MoveToGoal/MoveToGoal-369833.pt (torch, 581774 bytes, 42 tensors)

network_body._body_endoder.seq_layers.0.weight f4 [128, 48]
-0.1782468 0.16685678 0.16138142 0.0025056354 -0.07280251 0.09740828 0.010488164 -0.2461388
0.09058525 0.02500558 -0.10100566 0.0705351 -0.09611454 -0.1281612 -0.24267407 0.036827065
-0.15597078 -0.067755155 0.2018096 0.17460449 0.119394414 0.15080275 0.41775423 -0.20325282
0.028587818 -0.06033412 0.15138476 -0.011138177 0.06305955 0.0026498295 0.052383486 -0.08757114
0.035187155 -0.06627672 -0.06924028 0.1479546 0.055377193 -0.15269358 0.4222704 -0.3114181
-0.04117869 -0.15596208 -0.10657763 -0.1509409 0.101162255 0.26049352 -0.054899916 -0.09914006
0.21048568 -0.31898275 -0.09050963 -0.08640712 0.051462147 -0.18572012 0.15602742 0.10406922
0.17576079 0.038474787 0.1991172 0.13697934 0.009932574 0.027059415 0.07518511 0.10276137
0.17693628 -0.074924126 -0.12914963 0.1097265 0.027392168 -0.08429274 -0.027405586 -0.22908613
0.0076782983 0.018438518 -0.04253267 -0.11877856 0.2025804 -0.101683296 -0.08341834 0.09046456
-0.09714267 0.24113257 0.12917043 0.27626067 -0.24303593 0.13544764 0.01092999 -0.23188174
0.059596647 -0.15017371 -0.1369959 -0.043348707 0.01141753 0.09808829 0.122594014 -0.021601176
0.009379211 -0.18941702 0.124372914 0.106046684 -0.1363275 -0.050232146 0.0019132568 0.12580857
-0.04133363 0.08049774 0.0069646393 -0.017038994 -0.117314026 0.32545733 0.098379955 0.027497754
0.24825914 0.17621006 0.009423994 0.08323026 0.11985218 0.11934181 0.048484206 -0.14422731
-0.07194284 -0.069779284 -0.025389321 -0.16070691 0.12601578 0.2767088 0.012111714 -0.1651213
0.1614544 0.00299807 -0.09510902 -0.0041816253 -0.13474606 0.13155013 0.25793183 0.342747
0.087042294 0.14602564 -0.10592839 -0.17380984 -0.16990638 0.13588396 -0.10672952 -0.20441474
0.18997778 -0.07563746 0.08677493 -0.07837662 0.095388845 -0.09542249 -0.26822537 0.03442927
-0.121042974 -0.352358 -0.14067698 -0.04671478 0.14088415 -0.101599805 -0.08594907 -0.16775177
0.08734994 -0.04267268 0.0118196085 -0.077285275 0.11530969 -0.32917696 -0.18550476 -0.0659015
-0.031831514 -0.09141567 0.09152234 -0.027665535 -0.14872989 0.12651889 -0.15857211 0.07031576
-0.011899899 0.17175089 0.059027147 0.24748543 0.011505174 0.10976436 -0.043458033 -0.09646608
-0.15032043 -0.24194245 0.043476555 -0.117776714 -0.11369579 0.04826559 -0.18590915 -0.34498587
0.02254747 -0.090068385 0.11511091 -0.017256418 0.11797355 -0.027578779 0.038372975 0.06179475
-0.18561119 -0.07491609 0.15800345 0.18733583 0.065606065 -0.20763136 0.2213379 0.039526418
0.14436169 -0.11743415 -0.08720981 0.22399859 0.29140848 -0.032124285 0.15215024 0.112486295
0.14479563 0.13972193 -0.0027538992 0.032297574 0.25057894 0.09224797 0.108768046 -0.21947442
0.19370115 0.24351723 0.11872737 -0.19225773 -0.43884388 -0.20534182 0.1114581 -0.20975883
-0.05068878 0.07815434 -0.09174467 0.1684601 0.108630165 0.14576432 -0.21272153 0.07647622
-0.041553423 0.047744118 0.064649545 -0.11262418 -0.029336857 -0.05335243 -0.28304297 -0.11253961
-0.076876216 0.108850114 -0.14458206 0.009767787 -0.17000604 0.26684093 -0.1832176 -0.27829072
00000000: 5486 36be 81dc 2a3e 2c41 253e 9635 243b
00000010: 7b19 95bd fe7d c73d 8cd6 2b3c cf0b 7cbe
00000020: c284 b93d 81d8 cc3c 0edc cebd b574 903d
00000030: b3d7 c4bd b13c 03be 8d7f 78be fad7 163d
00000040: ceb6 1fbe 37c3 8abd 2da7 4e3e 85cb 323e
00000050: 0f85 f43d 096c 1a3e e2e3 d53e 8221 50be
00000060: 0031 ea3c e920 77bd 9b04 1b3e e67c 36bc
00000070: 5e25 813d c3a8 2d3b 1190 563d 7f58 b3bd
00000080: 6820 103d 17bc 87bd d9cd 8dbd 6981 173e
00000090: 32d3 623d b55b 1cbe d333 d83e 3172 9fbe
000000a0: fcaa 28bd 86b4 1fbe 5f45 dabd 4090 1abe
000000b0: 282e cf3d 685f 853e bcde 60bd f209 cbbd
000000c0: 8f89 573e b551 a3be 1d5d b9bd 37f6 b0bd
000000d0: f9c9 523d 6a2d 3ebe a7c5 1f3e 3e22 d53d
000000e0: a3fa 333e bd97 1d3d 61e5 4b3e 5044 0c3e
000000f0: 3cbc 223c b5ab dd3c a7fa 993d 8e74 d23d
00000100: c92e 353e d271 99bd cd3f 04be 4ab8 e03d
00000110: 8a65 e03c aca1 acbd ae81 e0bc 8e95 6abe
00000120: 3c9a fb3b 600c 973c bd36 2ebd 2c42 f3bd
00000130: 3d71 4f3e 553f d0bd 3cd7 aabd 7c45 b93d
00000140: bcf2 c6bd 75eb 763e 4145 043e 0a72 8d3e
00000150: 69de 78be c9b2 0a3e b313 333c 6872 6dbe
00000160: 9d1b 743d 23c7 19be a748 0cbe 6a8e 31bd
00000170: 9710 3b3c 83e2 c83d 9212 fb3d f3f4 b0bc
00000180: 43ab 193c 89f6 41be 3ab7 fe3d 012f d93d
00000190: 7099 0bbe 39c0 4dbd 3fc6 fa3a f6d3 003e
000001a0: 744d 29bd 00dc a43d a137 e43b 5c95 8bbc
000001b0: 5642 f0bd 58a2 a63e 6e7b c93d f842 e13c
000001c0: a537 7e3e 6970 343e 1967 1a3c a074 aa3d
000001d0: 0f75 f53d 7b69 f43d 6097 463d 53b0 13be
000001e0: c556 93bd 71e8 8ebd 44fd cfbc 5a90 24be
000001f0: 480a 013e c7ac 8d3e 3670 463c 8f15 29be
00000200: 4d54 253e 457b 443b 85c8 c2bd 0406 89bb
00000210: dffa 09be 14b5 063e a40f 843e 897c af3e
00000220: 3b43 b23d bf87 153e fcf0 d8bd 35fb 31be
00000230: f0fb 2dbe 2a25 0b3e 0295 dabd 1952 51be
00000240: 8989 423e d0e7 9abd 0eb7 b13d ec83 a0bd
00000250: 3a5b c33d de6c c3bd d654 89be b505 0d3d
00000260: 61e5 f7bd 4568 b4be a00d 10be ff57 3fbd
00000270: ef43 103e 8f13 d0bd 1106 b0bd 1fc7 2bbe
00000280: 86e4 b23d 8cc9 2ebd 08a7 413c be47 9ebd
00000290: 7d27 ec3d e289 a8be f6f4 3dbe 5ef7 86bd
000002a0: c361 02bd 2438 bbbd 1170 bb3d d5a2 e2bc
000002b0: a64c 18be 2b8e 013e ba60 22be b601 903d
000002c0: cbf7 42bc 77df 2f3e 73c6 713d d26c 7d3e
000002d0: 3380 3c3c 23cc e03d 0d01 32bd 0290 c5bd
000002e0: 99ed 19be c3bf 77be 7914 323d eb34 f1bd
000002f0: 57d9 e8bd 24b2 453d f85e 3ebe fda1 b0be
00000300: 79b5 b83c c675 b8bd 45bf eb3d 555d 8dbc
00000310: 1e9c f13d e4ec e1bc fb2c 1d3d 7e1c 7d3d
00000320: dc10 3ebe 9b6d 99bd a8cb 213e f7d4 3f3e
00000330: 795c 863d 519d 54be 67a6 623e 74e6 213d
00000340: 8dd3 133e 5181 f0bd 0f9b b2bd e35f 653e
00000350: 7e33 953e c194 03bd 46cd 1b3e 375f e63d
00000360: 4e45 143e 4413 0f3e c37a 34bb 764a 043d
00000370: e24b 803e 81ec bc3d c8c1 de3d e7bd 60be
00000380: 9859 463e 955c 793e 5627 f33d 36df 44be
00000390: 25b0 e0be 2045 52be 2544 e43d 05cb 56be
000003a0: 0a9f 4fbd 620f a03d a1e4 bbbd ce80 2c3e
000003b0: 7e79 de3d 3e43 153e acd3 59be 909f 9c3d
000003c0: ec33 2abd 568f 433d fb66 843d 82a7 e6bd
000003d0: d953 f0bc 1488 5abd 02eb 90be 2b7b e6bd
000003e0: 4771 9dbd cfec de3d 520d 14be 1109 203c
000003f0: 1016 2ebe 609f 883e 659d 3bbe 1f7c 8ebe

network_body._body_endoder.seq_layers.0.bias f4 [128]
-0.008555047 0.0071308296 0.01588091 0.013235864 0.0045055076 0.00078746385 0.003193723 0.00601873
0.012632598 -0.010347256 -0.00060487975 -0.00016650128 -0.0027591896 0.0042858673 0.012478601 -0.0072484557
-0.012912433 -0.007571018 0.006942232 -0.0067468164 -0.011991136 0.0067239655 0.008983149 0.0036114566
-0.003733943 0.018399041 -0.0005329887 -0.0037711472 0.003343265 -0.0074500693 -0.004503753 -0.008007022
0.0050158324 -0.011251596 0.0132263275 -0.001891336 -0.0003479487 0.0048219566 0.00835398 0.0024146729
-0.0038696972 -0.010293002 0.012380304 -0.019498121 0.004145495 0.00063420826 -0.0046354705 0.0066072913
-0.0004465369 -0.0011156659 -0.008279654 0.012307931 0.0012089777 -0.003854619 0.00019729885 -0.002822808
-0.008222349 0.0014779452 0.027364444 0.016652597 -0.0010377526 -0.0067630853 -0.0017090408 4.7951922e-05
0.00342615 -0.015700927 -0.00042883595 -0.0121656405 -0.011068088 -0.00041734873 0.001098216 -0.0055201007
0.0048219603 -0.008846438 -8.7738474e-05 -0.0035093995 0.008470574 -0.0049955025 0.009503886 -0.0073238583
-0.0012374264 -0.009168106 -0.0037116758 -0.002199677 -0.0028255624 0.0036367946 0.0072007286 -0.00067466596
-0.0018940333 0.02491424 -0.015552276 -0.011120628 0.008031813 0.003143587 -0.0025512676 -0.0039141895
-0.005569166 -0.003487515 -0.0015998544 0.004196206 -0.0008899609 0.006859543 0.0048102834 0.0062854206
0.0043504997 0.00034124881 -0.0064841406 0.012250897 -0.0015363158 0.011858848 -0.007744007 0.0007595574
-0.0047639976 -0.00393525 -8.206634e-05 -0.00491849 -0.0042764666 0.001076028 0.0051953346 -0.014178453
0.0028649576 0.0046438556 0.007041706 0.0013136682 0.005612768 0.0035298492 -0.00026293762 -0.008222407
00000000: 782a 0cbc bca9 e93b af18 823c 3ddb 583c
00000010: f0a2 933b ce6d 4e3a c84d 513b c438 c53b
00000020: f5f8 4e3c 8a87 29bc cb90 1eba d996 2eb9
00000030: 85d3 34bb 7670 8c3b 0c73 4c3c 7484 edbb
00000040: ab8e 53bc 4d16 f8bb aa7b e33b 6614 ddbb
00000050: 7876 44bc b654 dc3b 0f2e 133c 30ae 6c3b
00000060: 2bb5 74bb 96b9 963c 44b8 0bba 5a25 77bb
00000070: ae1a 5b3b b61f f4bb 3894 93bb e22f 03bc
00000080: da5b a43b 9d58 38bc 3db3 583c b5e6 f7ba
00000090: e26c b6b9 8101 9e3b 22df 083c 7d3f 1e3b
000000a0: bf9a 7dbb fba3 28bc c2d6 4a3c 86ba 9fbc
000000b0: efd6 873b ff40 263a 25e5 97bb fa81 d83b
000000c0: 2b1d eab9 893b 92ba 63a7 07bc 34a7 493c
000000d0: 8f76 9e3a c79d 7cbb 02e2 4e39 dcfe 38bb
000000e0: 08b7 06bc 9db7 c13a 662b e03c 076b 883c
000000f0: 3305 88ba df9c ddbb e501 e0ba fc1f 4938
00000100: 4289 603b 3b9f 80bc 63d5 e0b9 6552 47bc
00000110: ed56 35bc 99cf dab9 04f2 8f3a f6e1 b4bb
00000120: 8901 9e3b a6f0 10bc 3c00 b8b8 f4fd 65bb
00000130: 2ac8 0a3c 50b1 a3bb 30b6 1b3c fafc efbb
00000140: 2431 a2ba d335 16bc 963f 73bb 7528 10bb
00000150: 122d 39bb 4a57 6e3b 17f4 eb3b 11dc 30ba
00000160: 3641 f8ba f318 cc3c f9ce 7ebc 4b33 36bc
00000170: de97 033c a304 4e3b 2b33 27bb 9a42 80bb
00000180: 8d7d b6bb cb8e 64bb 35b2 d1ba 5480 893b
00000190: 444c 69ba 04c6 e03b 959f 9d3b eef5 cd3b
000001a0: a38e 8e3b a4e9 b239 ea78 d4bb fcb7 483c
000001b0: 345e c9ba 9d4b 423c 70c1 fdbb 091d 473a
000001c0: 4f1b 9cbb 45f3 80bb 081b acb8 492b a1bb
000001d0: 9a21 8cbb 8209 8d3a a03d aa3b be4c 68bc
000001e0: 03c2 3b3b 7c2b 983b 1cbe e63b 642f ac3a
000001f0: 50eb b73b 0b55 673b e4da 89b9 46b7 06bc

network_body._body_endoder.seq_layers.2.weight f4 [128, 128]
-0.035410687 -0.008364885 0.22307764 -0.15507078 -0.04505741 0.06852624 0.07974208 0.033030596
0.05795396 0.0732525 0.0076535484 0.048003294 0.0050845346 -0.047079 0.01930146 0.011815072
0.04727411 -0.040604983 -0.011127694 -0.08243505 -0.035654485 0.101321556 0.012857043 -0.16472614
-0.08985409 -0.25665984 0.0043874253 0.038286086 0.02952291 0.0916623 0.061145764 0.03267
-0.017892193 0.11029341 0.15042132 0.030679557 0.01756713 0.052384872 -0.045418832 -0.017572561
0.0008723786 0.06288613 0.00058595726 -0.07684041 -0.025917161 0.03081332 0.03129405 0.014782834
0.02817967 0.10204927 0.048452914 0.05306312 0.13465002 0.037425075 -0.21740991 0.067813404
0.047019448 0.016931584 0.10214122 -0.090819106 0.17982145 0.15105538 0.07915488 -0.06612102
-0.0062346654 0.025936449 -0.1866582 -0.006241206 0.0573402 0.0027099533 0.03537114 0.029444993
-0.035790827 0.07879217 0.10371413 0.009781071 -0.08519322 -0.035924133 -0.023555463 -0.037702646
0.17187779 0.018116703 0.13777031 -0.007580809 0.073959544 0.027722446 0.037166514 0.010374615
0.027530516 -0.026214913 0.10450467 0.11966857 -0.20876294 0.032562107 0.03797114 -0.043732584
0.14809975 -0.027056476 -0.0728143 -0.012370112 -0.007337989 0.081939235 0.023697674 -0.042434074
-0.029986607 -0.010121838 -0.14660895 0.05811776 -0.14174987 0.029444288 0.024456274 0.06504708
0.13779433 0.20313497 0.08262147 -0.08125575 0.06596308 -0.066954516 -0.05288356 0.09188454
-0.09172796 0.079256825 -0.27284312 0.027892044 -0.0124117285 -0.07729308 0.06668563 -0.043834023
-0.1069224 0.12827156 0.05684219 -0.1883384 0.025808075 -0.07364716 0.04713533 -0.050957397
0.026898915 -0.08909618 -0.037802633 0.04926341 0.010659049 0.036346376 0.041967586 0.11132301
0.056336652 0.08995977 0.015877187 -0.018445188 0.057042096 0.099371836 -0.07056157 -0.0636846
0.06199086 0.027852051 -0.15241043 -0.0037875383 -0.030915905 -0.080219604 0.028603185 0.021593511
-0.07909204 0.068202846 0.008545343 -0.08877938 -0.14999437 0.007344714 -0.013885776 0.088009685
0.045345515 -0.1249306 -0.0051742666 -0.099099256 0.015721852 -0.037917316 -0.0010633097 0.027866388
-0.019741343 -0.0012128813 -0.00030320405 0.0229276 0.025341937 0.20359033 -0.04043195 0.23529084
-0.15531048 -0.08645497 0.19925529 -0.021760013 -0.107521035 -0.0069073914 -0.109281935 -0.08461215
0.041075543 0.04808046 0.20950256 -0.2161351 0.10153678 0.00076043117 -0.017401787 0.012063857
0.05150522 0.077628724 0.028348193 0.23084848 -0.05622771 -0.014119713 0.036045033 0.03105502
-0.066597685 -0.026503287 0.043803204 -0.066499166 -0.0010926864 -0.00088973675 -0.024050111 0.22886766
0.00053076405 -0.12393702 -0.008808859 0.074715 -0.08405379 -0.034771085 -0.10922498 -0.07008976
-0.06557137 -0.12838618 -0.022866016 -0.08973494 0.06123204 -0.03705233 -0.10578045 0.0934342
-0.051023167 0.021349559 0.08395283 0.10328078 -0.048163548 0.04815788 0.08533485 -0.0051681786
0.02784129 0.031827703 -0.054023862 0.062213976 -0.11649178 -0.04533632 -0.06990022 0.04940371
-0.0108524775 -0.15048772 -0.049318958 0.15579401 -0.099608295 0.047987152 -0.013106123 0.092717186
00000000: cc0a 11bd df0c 09bc 776e 643e e0ca 1ebe
00000010: 1e8e 38bd 7c57 8c3d d14f a33d 174b 073d
00000020: 2261 6d3d 6805 963d 9eca fa3b 1a9f 443d
00000030: 2b9c a63b e9d5 40bd 181e 9e3c 0194 413c
00000040: 7fa2 413d 6951 26bd ee50 36bc b5d3 a8bd
00000050: 700a 12bd ad81 cf3d 59a6 523c f8ad 28be
00000060: 6c05 b8bd eb68 83be 64c4 8f3b dfd1 1c3d
00000070: 08da f13c 72b9 bb3d fb73 7a3d fad0 053d
00000080: a692 92bc 83e1 e13d 0c08 1a3e b253 fb3c
00000090: f1e8 8f3c 8591 563d 1909 3abd 55f4 8fbc
000000a0: 56b0 643a 71ca 803d ed9a 193a 815e 9dbd
000000b0: 3a50 d4bc 376c fc3c 312e 003d b333 723c
000000c0: 0dd9 e63c 35ff d03d 9076 463d b758 593d
000000d0: b2e1 093e 094b 193d b4a0 5ebe c1e1 8a3d
000000e0: 7797 403d 1bb4 8a3c 6a2f d13d 5eff b9bd
000000f0: 1d23 383e 43ae 1a3e f41b a23d 756a 87bd
00000100: 2a4c ccbb ad78 d43c 5423 3fbe 0883 ccbb
00000110: 8fdd 6a3d 7999 313b 54e1 103d a036 f13c
00000120: 6799 12bd ca5d a13d 1368 d43d c940 203c
00000130: c879 aebd 2f25 13bd 63f7 c0bc 176e 1abd
00000140: bb00 303e 7b69 943c a913 0d3e 6f68 f8bb
00000150: 1a78 973d 2f1a e33c ea3b 183d 4afa 293c
00000160: ad87 e13c a8c0 d6bc 8b06 d63d cc14 f53d
00000170: f4c5 55be d85f 053d a087 1b3d f020 33bd
00000180: 76a7 173e 8ba5 ddbc aa1f 95bd 03ac 4abc
00000190: 8373 f0bb c2cf a73d a021 c23c 5acf 2dbd
000001a0: 79a6 f5bc 11d6 25bc a820 16be e30c 6e3d
000001b0: e126 11be 2635 f13c 8658 c83c 6737 853d
000001c0: f519 0d3e 9d02 503e 7235 a93d 6a69 a6bd
000001d0: a717 873d 731f 89bd 6f9c 58bd f62d bc3d
000001e0: dedb bbbd 6751 a23d 18b2 8bbe db7d e43c
000001f0: 905a 4bbc d64b 9ebd 7a92 883d 4e8b 33bd
00000200: 22fa dabd 9f59 033e 5bd3 683d c8db 40be
00000210: 756b d33c 52d4 96bd fa10 413d b4b8 50bd
00000220: 1d5b dc3c 0f78 b6bd efd6 1abd 6ec8 493d
00000230: 4ba3 2e3c f0df 143d 34e6 2b3d 51fd e33d
00000240: 43c1 663d d43c b83d e010 823c 5d1a 97bc
00000250: f9a4 693d 7683 cb3d 9682 90bd 126d 82bd
00000260: 21ea 7d3d fc29 e43c 7b11 1cbe 5938 78bb
00000270: 5a43 fdbc 2d4a a4bd 3a51 ea3c e0e4 b03c
00000280: 02fb a1bd efad 8b3d c401 0c3c f7d1 b5bd
00000290: 2098 19be edab f03b 2a81 63bc 6c3e b43d
000002a0: 38bc 393d 9ddb ffbd e58c a9bb 8df4 cabd
000002b0: 1dcb 803c 304f 1bbd c15e 8bba 0d48 e43c
000002c0: 99b8 a1bc 8bf9 9eba 5cf7 9eb9 aad2 bb3c
000002d0: e599 cf3c fc79 503e f99b 25bd 15f0 703e
000002e0: b609 1fbe 4e0f b1bd 9409 4c3e 0e42 b2bc
000002f0: fd33 dcbd 6657 e2bb 35cf dfbd 2349 adbd
00000300: d43e 283d 04f0 443d d787 563e 8552 5dbe
00000310: 84f2 cf3d ac57 473a 318e 8ebc 7ca7 453c
00000320: 23f7 523d cffb 9e3d 783a e83c 8b63 6c3e
00000330: 074f 66bd 5e56 67bc f5a3 133d 1967 fe3c
00000340: 5e64 88bd 6c1d d9bc fd6a 333d b730 88bd
00000350: 7938 8fba 393d 69ba bd04 c5bc 495c 6a3e
00000360: f922 0b3a b1d2 fdbd 0853 10bc 2e04 993d
00000370: 6524 acbd 206c 0ebd 59b1 dfbd 388b 8fbd
00000380: 484a 86bd ab77 03be 8351 bbbc f4c6 b7bd
00000390: 73ce 7a3d 2fc4 17bd 6ca3 d8bd 6e5a bf3d
000003a0: abfd 50bd 45e5 ae3c 76ef ab3d e084 d33d
000003b0: 2447 45bd 3241 453d 0ac4 ae3d d359 a9bb
000003c0: 6b13 e43c c45d 023d 2048 5dbd 15d4 7e3d
000003d0: 3e93 eebd 94b2 39bd d927 8fbd 8b5b 4a3d
000003e0: 97ce 31bc 7419 1abe ad02 4abd 7788 1f3e
000003f0: 6fff cbbd 2d8e 443d 10bb 56bc 82e2 bd3d

network_body._body_endoder.seq_layers.2.bias f4 [128]
-0.003941249 0.0024886418 -0.0010064724 0.004633815 0.00045093257 -0.0009552164 0.0041573797 -0.0038704057
-0.0062945564 0.017143205 -0.005189806 0.0038668027 -0.0072644907 -0.0042917337 0.011505901 -0.007444971
-0.0022000126 0.01368557 -0.0020656202 -0.0040832544 0.00023402639 -0.0017450537 0.0074384534 -0.004829445
0.013801897 -0.0021843698 -0.0056166914 0.0047341967 0.008206781 -0.0035843817 -0.00086988136 -0.010853112
-0.0087936735 -0.01089943 -0.0072278245 0.002611991 0.0044785766 -0.000115601746 0.010008575 0.0029981278
0.0021610712 -0.0077204457 -0.0068640695 -0.0046590017 -0.0023546568 -0.0029666515 -0.0020023454 -0.0014503546
-0.00464515 0.0071240617 -0.00236799 0.0027426665 0.0040200735 -0.003949568 -0.005019648 0.0018478474
-0.009430417 -0.0024148428 -0.008198189 -0.0018087953 -0.005822046 0.003470137 -0.002299485 -8.362948e-05
0.006845014 0.00012240185 -0.0030878254 -0.006278803 -0.0030230284 -0.00079819147 -0.0035161742 -0.0020123138
-0.0058251256 0.0015849429 0.0045352695 -0.0066081746 -0.0013202655 -0.005069366 0.018582797 -0.004822151
-0.0039012372 -0.0023345256 0.0023486782 -0.0010155 -0.011575169 -0.00045476688 0.00925311 0.0023650515
-0.0067882095 -0.0022292286 -0.0012711093 -0.00011249177 -0.0022283006 -0.002248362 -0.0030922876 0.0073211743
0.0066390987 0.022070646 -0.006194258 0.0027728388 -0.0048774527 -0.0026581252 0.017161068 -0.0008285601
0.0069657504 -0.0053998004 0.013015079 9.9751414e-05 0.0022627166 -0.0058764108 -0.0058723004 -0.008994386
0.007627116 -0.0071769506 -0.0035465118 -0.009029258 -0.004208292 -0.0029677849 0.01215977 0.0025412706
0.0051988293 0.010449268 -0.0004675716 0.0075530717 0.0023567635 0.009541099 -0.0086665815 -0.0010826434
00000000: 9825 81bb 7b18 233b 9ceb 83ba 42d7 973b
00000010: 256b ec39 7d67 7aba a13a 883b a2a6 7dbb
00000020: 9142 cebb e86f 8c3c 400f aabb 2f6a 7d3b
00000030: f70a eebb aca1 8cbb 3f83 3c3c f1f4 f3bb
00000040: 162e 10bb 7139 603c 5b5f 07bb d2cc 85bb
00000050: fb64 7539 49ba e4ba 45be f33b 5240 9ebb
00000060: 5a21 623c a527 0fbb 390c b8bb 5221 9b3b
00000070: bc75 063c f2e7 6abb c008 64ba 40d1 31bc
00000080: 5713 10bc 8693 32bc 63d7 ecbb f02d 2b3b
00000090: 06c1 923b 376f f2b8 02fb 233c 3d7c 443b
000000a0: c2a0 0d3b cbfb fcbb fdeb e0bb 8aaa 98bb
000000b0: 9650 1abb 276c 42bb c839 03bb d319 beba
000000c0: 5836 98bb f670 e93b 4830 1bbb 4fbe 333b
000000d0: d2ba 833b 616b 81bb dc7b a4bb 7833 f23a
000000e0: 0982 1abc 5742 1ebb b251 06bc 1915 edba
000000f0: ddc6 bebb 3d6b 633b f5b2 16bb 3c62 afb8
00000100: 244c e03b ff58 0039 1d5d 4abb 6bbe cdbb
00000110: 001e 46bb b93d 51ba 9d6f 66bb 06e1 03bb
00000120: b2e0 bebb dcbd cf3a 999c 943b 6389 d8bb
00000130: c20c adba ed1c a6bb f33a 983c 2203 9ebb
00000140: e6ab 7fbb d7fe 18bb 48ec 193b 871a 85ba
00000150: c7a5 3dbc c76d eeb9 5b9a 173c fbfe 1a3b
00000160: a16f debb 4018 12bb 5a9b a6ba 8fe9 ebb8
00000170: ae08 12bb 4159 13bb faa7 4abb 76e6 ef3b
00000180: cc8c d93b 80cd b43c 34f9 cabb 84b8 353b
00000190: 0ad3 9fbb f133 2ebb 5e95 8c3c ba33 59ba
000001a0: f340 e43b cff0 b0bb 333d 553c a231 d138
000001b0: 164a 143b e88e c0bb 6d6c c0bb 305d 13bc
000001c0: e3ec f93b a02c ebbb 986c 68bb 74ef 13bc
000001d0: b6e5 89bb 2b7f 42bb c639 473c 728b 263b
000001e0: f15a aa3b 6833 2b3c 6624 f5b9 c27f f73b
000001f0: ee73 1a3b 4552 1c3c 47fe 0dbc 7ce7 8dba

action_model._continuous_distribution.log_sigma f4 [1, 2]
0.0065639806 0.0022774136
00000000: a916 d73b a940 153b

action_model._continuous_distribution.mu.weight f4 [2, 128]
-0.00825122 -0.014792404 0.028281061 -0.027674459 -0.0058438904 0.02488977 0.013950356 -0.007035624
-0.017635293 0.040192615 -0.026492586 -0.026943399 -0.008948958 -0.013510041 -0.03936776 0.0023332462
0.012235029 0.02254637 0.0051366873 -0.017976256 -0.01675387 0.023180982 -0.027905181 -0.014674366
0.012099683 -0.02565145 -0.0089807995 -0.0107101975 -0.02324395 -0.019070297 -0.017021703 0.0223342
0.00015291086 0.021504596 0.0135528045 -0.02123923 -0.013455112 -0.014121029 -0.035825904 0.03015171
0.024019498 0.020000521 -0.00093518477 -0.0054794042 -0.0051563303 0.0028543714 0.00033661173 -0.038035665
-0.005938664 -0.015184086 0.026678376 0.038632184 0.021031007 0.018842626 0.045415595 -0.027876396
-0.002621215 0.0012097993 -0.0016542957 0.0021897007 0.00093377125 0.017450916 0.011790054 -0.0053337347
-0.0048314966 -0.0096058175 -0.004932175 0.0022748199 -0.010633001 0.030527163 0.006683281 -0.018683499
0.011560988 0.005833378 0.008403154 -0.044935036 -0.009089095 -0.00061510375 -0.04603814 0.009599391
-0.006793203 0.016189465 0.008453251 0.0045449296 0.034791898 -0.014094514 0.010988986 -0.017246507
0.00048451906 0.014049414 0.02119342 -0.0020136295 0.016442703 -0.0047874334 -0.0158282 -0.016733285
0.0048993407 0.004834448 -0.025707403 0.018214751 0.025738398 0.019254003 0.015306764 0.010632962
-0.048547212 -0.00052318926 0.041582845 -0.015682949 0.019662708 0.013562312 0.0066080196 -0.0056307386
0.0031500354 -0.0054840143 -0.0063266233 0.015004911 0.0010342574 -0.015322677 -0.037082702 0.0028790613
-0.029942991 -0.0044702585 0.031013137 -0.05230314 -0.019341258 0.03300118 -0.008059478 0.028553225
0.007658067 -0.023504924 0.010785796 -0.035727743 0.008543295 -0.012158424 -0.028543586 -0.009401619
-0.008551284 -0.019997792 -0.015957873 -0.013345517 0.0038064923 0.006003569 -0.0013725875 0.008007722
0.009632836 -0.025226207 -0.0053503625 -0.012912024 -0.011638422 0.0074926554 0.004737482 0.014148423
0.027341532 -0.026692964 -0.023022266 -0.01837341 -0.0041753547 0.030359078 -0.0018287848 -0.024290288
0.0038627726 0.01497824 -0.0017804892 0.036742274 -0.027322259 0.021174844 -0.0010364181 0.009094956
-0.010398608 0.0048647583 0.009280364 -0.01478659 -0.009126591 0.011271784 -0.015024923 -0.0054092114
0.011408989 0.027879251 -0.0055589443 -0.03448139 0.0069542048 0.009886208 0.020133827 0.0051827244
0.0022786732 -0.019108897 -0.0036272837 -0.016139204 0.013916737 -0.019737832 0.00080198265 -0.012549524
-0.023094239 -0.008744549 0.026126342 -0.0010113796 0.006118035 -0.0010299033 0.010935464 -0.009942928
-0.008500346 0.042326707 0.008483414 0.017315453 -0.013114436 -0.006265494 0.0048975027 0.0019159989
0.009560315 0.0024450836 0.0035406272 0.036297794 -0.012354709 -0.01053533 -0.042322885 -0.009665046
0.008131263 0.016109288 -0.008389043 0.016896239 0.0062333033 0.03367903 0.008150333 0.009447091
-0.044195555 0.031815823 -0.0029575091 0.030275779 -0.01195104 0.008228278 0.0075363144 -0.022761518
0.011298732 -0.008621315 0.018533532 -0.008054126 -0.020760106 0.030472925 -0.007472714 0.002402729
-0.031991355 -0.016839456 0.0001715408 -0.0009200645 -0.013057125 -0.0074903485 0.023301624 -0.033114597
0.021731813 -0.039533816 -0.007144501 -0.021180091 -0.028817918 0.03936426 -0.00040456562 0.0045766067
00000000: 2030 07bc d75b 72bc afad e73c 8cb5 e2bc
00000010: 1b7e bfbb a2e5 cb3c 0990 643c 178b e6bb
00000020: e477 90bc 03a1 243d fb06 d9bc 67b8 dcbc
00000030: a69e 12bc 3859 5dbc 1740 21bd 60e9 183b
00000040: 6e75 483c 2ab3 b83c a851 a83b f142 93bc
00000050: 693f 89bc 0be6 bd3c 6899 e4bc c16c 70bc
00000060: c03d 463c fd22 d2bc 3424 13bc d379 2fbc
00000070: 196a bebc 5039 9cbc 1971 8bbc 36f6 b63c
00000080: b256 2039 682a b03c 950c 5e3c e5fd adbc
00000090: d572 5cbc e35b 67bc 2fbe 12bd b800 f73c
000000a0: 8ac4 c43c 22d8 a33c 3027 75ba 938c b3bb
000000b0: 6ff6 a8bb 6810 3b3b 437b b039 49cb 1bbd
000000c0: 2099 c2bb acc6 78bc 9c8c da3c c83c 1e3d
000000d0: 3849 ac3c da5b 9a3c b405 3a3d 0a5d e4bc
000000e0: b1c8 2bbb 2192 9e3a f4d4 d8ba 1581 0f3b
000000f0: 54c8 743a 39f5 8e3c 122b 413c 9cc6 aebb
00000100: 8851 9ebb b861 1dbc 159e a1bb 2515 153b
00000110: 0a36 2ebc 1a14 fa3c 6dff da3b 230e 99bc
00000120: 4c6a 3d3c ec25 bf3b 62ad 093c cd0d 38bd
00000130: 6dea 14bc ea3e 21ba 7d92 3cbd c446 1d3c
00000140: 8499 debb c59f 843c 817f 0a3c a2ed 943b
00000150: f381 0e3d adec 66bc 260b 343c 8c48 8dbc
00000160: 0c07 fe39 832f 663c d39d ad3c 19f7 03bb
00000170: d9b2 863c e7df 9cbb 24aa 81bc 3e14 89bc
00000180: a68a a03b 4a6a 9e3b 5598 d2bc 1a37 953c
00000190: 55d9 d23c 92ba 9d3c 39c9 7a3c e035 2e3c
000001a0: 71d9 46bd a326 09ba c652 2a3d 8779 80bc
000001b0: b013 a13c 7634 5e3c 1688 d83b 0f82 b8bb
000001c0: d370 4e3b 3fb3 b3bb 904f cfbb 29d7 753c
000001d0: eb8f 873a f70b 7bbc 08e4 17bd a2ae 3c3b
000001e0: 014b f5bc 3f7b 92bb 430f fe3c d13b 56bd
000001f0: 8f71 9ebc 3f2c 073d e70b 04bc 74e8 e93c
00000200: 86f0 fa3b 668d c0bc e8b6 303c 4157 12bd
00000210: 2df9 0b3c 2034 47bc 3dd4 e9bc 4009 1abc
00000220: af1a 0cbc 69d2 a3bc 16ba 82bc 28a7 5abc
00000230: 5876 793b 96b9 c43b 65e8 b3ba d232 033c
00000240: 0bd3 1d3c 31a7 cebc 1852 afbb f48c 53bc
00000250: 14af 3ebc f384 f53b e13c 9b3b cace 673c
00000260: 59fb df3c 34ab dabc 3199 bcbc d583 96bc
00000270: 6ad1 88bb 9ab3 f83c d6b3 efba 6dfc c6bc
00000280: 9226 7d3b 4b67 753c 4e5f e9ba 117f 163d
00000290: eed2 dfbc de76 ad3c 6cd8 87ba 0303 153c
000002a0: ec5e 2abc 8d68 9f3b ab0c 183c 7443 72bc
000002b0: b287 15bc 4aad 383c 182b 76bc c13f b1bb
000002c0: c5ec 3a3c 0763 e43c ce27 b6bb 5c3c 0dbd
000002d0: 19e0 e33b c3f9 213c b2ef a43c d8d3 a93b
000002e0: cb55 153b 438a 9cbc b9b7 6dbb 5d36 84bc
000002f0: 0703 643c 3cb1 a1bc 253c 523a 859c 4dbc
00000300: 2130 bdbc 4c45 0fbc e906 d63c 4590 84ba
00000310: cc79 c83b d2fd 86ba a92a 333c aae7 22bc
00000320: 0945 0bbc c55e 2d3d 04fe 0a3c 23d9 8d3c
00000330: eedd 56bc c64e cdbb 3b7b a03b 4122 fb3a
00000340: dea2 1c3c b23d 203b de09 683b ffac 143d
00000350: 686b 4abc 609c 2cbc c35a 2dbd 245a 1ebc
00000360: fd38 053c a0f7 833c 3272 09bc fb69 8a3c
00000370: bd40 cc3b 06f3 093d f988 053c f9c7 1a3c
00000380: 6606 35bd 4f51 023d c5d2 41bb e904 f83c
00000390: 4bce 43bc e6cf 063c 30f3 f63b 5d76 babc
000003a0: 511e 393c 6a40 0dbc a2d3 973c 74f5 03bc
000003b0: 1911 aabc 5ba2 f93c abdd f4bb 1a77 1d3b
000003c0: 5e09 03bd e6f2 89bc a2df 3339 7c30 71ba
000003d0: 8ded 55bc 9971 f5bb 0ce3 be3c 2ca3 07bd
000003e0: ea06 b23c 36ee 21bd 6b1c eabb df81 adbc
000003f0: 8e13 ecbc 6b3c 213d e11b d4b9 5cf7 953b

action_model._continuous_distribution.mu.bias f4 [2]
0.00047005303 -0.0004071358
00000000: 7371 f639 d874 d5b9

action_model._discrete_distribution.branches.0.weight f4 [5, 128]
-0.01788345 0.017303247 -0.0121227 0.0026957009 -0.0017437788 -0.0023308592 0.0009377313 0.0001994517
0.0036875934 -0.0056134383 -0.014945609 -0.006155183 -0.002596147 -0.0072049554 0.0006300988 0.0069567887
0.0008710081 -0.004724274 0.005667411 0.0070914645 -0.0037062108 0.00083116425 0.0016505285 0.0005734894
0.02121795 0.006525392 -0.0037941071 -0.00045703026 0.018904129 -0.00010078685 0.0075930334 -0.011178761
0.017400986 0.011032231 0.0016704305 -0.011604485 0.00686914 0.013659781 0.002020089 -0.019037366
0.0043402743 -0.0067639505 0.0051068272 0.00927225 -0.0121001825 -0.010180632 0.009481981 0.0045532756
-0.009318011 -0.013570023 -0.0192519 0.0059776064 0.012122411 -0.0020295042 -0.010318182 0.0025477
-0.005297408 0.0065166024 -0.0009960308 -0.004074134 0.010609265 0.004629133 -0.0062357523 -0.009662506
0.013292659 -0.0111746825 -0.0011636107 -0.008884686 -0.014265309 0.0066338135 -0.013568193 -0.011088106
-0.009439664 -0.0035162286 -0.00020248372 0.001418038 -0.0026085824 0.0023962886 -0.017721744 -0.00283376
-0.008289755 -0.0087358095 -0.0059817005 0.0062206117 -0.0103322305 -0.0021334605 -0.0026095598 0.0036378654
-0.0011264518 -0.0042231693 -0.0021870558 -0.014816583 -0.011696878 -0.004896903 -0.012964596 -0.0043998878
-0.009278446 -0.010850527 -0.012125216 0.025178868 0.004380779 -0.00047064002 0.003927301 -0.0017888761
0.0016481116 0.007290492 0.020401955 0.0074937874 0.0058317115 -0.00013637774 0.0035982756 -0.010050313
-0.004180512 0.0112563595 0.0019459821 0.0071076145 0.0026275322 -0.007679697 -0.012156744 -0.0025367592
-0.0125720715 -0.0030900147 0.015886078 -0.017081272 0.0008942906 0.011851352 0.019725569 -0.006587179
0.005392554 0.0033376252 -0.008114554 0.011454129 0.022868322 -0.041078016 -0.0029016852 -0.00011493764
0.016778387 0.01842956 0.003499747 -0.004531095 0.00333923 0.013095001 -0.020348655 -0.0027896652
-0.007782969 0.020793734 -0.009151216 -0.020808028 -0.011925381 0.005359029 -0.018061368 -0.0051100734
0.018457776 0.012419965 0.010262307 -0.00059971126 -0.008434848 0.0018296777 -0.0029746387 -0.016210144
0.0057329102 -0.011178057 0.005921655 -0.005735507 -0.01237573 0.0024115571 0.021076813 0.020418629
0.004052662 0.014530331 -0.0073947804 0.014274206 0.0097552985 0.014446391 -0.010855363 0.0021880788
-0.00084872736 0.0015377166 0.023647688 -0.016721815 0.018383378 -0.0026504786 0.0037550589 0.0076541174
-0.0068956395 -0.006262749 -0.0020005107 0.011809616 -0.009523422 -0.0058837305 0.021115536 -0.00946834
-0.017459685 0.00035504616 -0.0044929096 0.013949625 0.0015863627 0.0036791076 -0.007992509 -0.004109063
0.008178445 0.009756535 0.0024298902 0.008350073 0.0034524726 -0.0042270776 -0.01939278 -0.01576235
-0.012394912 0.0055186762 -0.03052791 -0.0035232059 -0.006713097 -0.030137602 0.005828129 -0.0027349624
-0.0041371933 0.007135711 0.011310288 0.02809775 0.0011292734 0.0073893555 0.012229605 0.02736164
0.006918254 0.020866614 0.011357835 0.0066911946 -0.009240767 0.01686278 0.012831485 -0.0010296103
0.001966916 0.009316963 -0.008965224 -0.013219238 -0.0051431577 0.005671532 0.0061174915 -0.0072493437
0.015443739 0.009212226 -0.00028555474 -0.01029028 0.011607871 0.001689435 -0.001784083 0.018882299
-0.011423579 0.00066790695 -0.00045482884 -0.01825457 -0.0044395276 0.0007891252 -0.015211374 0.004920154
00000000: 5080 92bc 8abf 8d3c 4a9e 46bc 5baa 303b
00000010: 828f e4ba 54c1 18bb 15d2 753a e823 5139
00000020: 8dab 713b eff0 b7bb 6dde 74bc 6bb1 c9bb
00000030: 1e24 2abb 8c17 ecbb 372d 253a c6f5 e33b
00000040: 5d54 643a 15ce 9abb b0b5 b93b 845f e83b
00000050: e6e3 72bb 7de2 593a 8c56 d83a 3956 163a
00000060: 44d1 ad3c f5d2 d53b 8ea6 78bb 909d efb9
00000070: d5dc 9a3c 875d d3b8 fbce f83b 1f27 37bc
00000080: 838c 8e3c 88c0 343c 59f2 da3a bd20 3ebc
00000090: 8616 e13b 46cd 5f3c 7863 043b 40f4 9bbc
000000a0: dc38 8e3b 21a4 ddbb 2c57 a73b a3ea 173c
000000b0: d83f 46bc aacc 26bc 505a 1b3c a533 953b
000000c0: 92aa 18bc cd54 5ebc 29b6 9dbc ccdf c33b
000000d0: 149d 463c 6e01 05bb 980d 29bc 50f7 263b
000000e0: e195 adbb 3989 d53b 3f8d 82ba 5080 85bb
000000f0: 7cd2 2d3c fbaf 973b 4855 ccbb 7d4f 1ebc
00000100: 74c9 593c 0416 37bc 4c84 98ba 1391 11bc
00000110: 0bb9 69bc 7660 d93b 204d 5ebc e3aa 35bc
00000120: d2a8 1abc 8770 66bb cf51 54b9 76dd b93a
00000130: c0f4 2abb 0d0b 1d3b 312d 91bc 9bb6 39bb
00000140: c1d1 07bc a420 0fbc 2402 c4bb 46d6 cb3b
00000150: 8448 29bc 87d1 0bbb 2605 2bbb 4169 6e3b
00000160: 73a5 93ba 8362 8abb b554 0fbb 41c1 72bc
00000170: 43a4 3fbc 3376 a0bb 7569 54bc ef2c 90bb
00000180: a004 18bc 69c6 31bc d8a8 46bc ea43 ce3c
00000190: a38c 8f3b 3cc0 f6b9 97b0 803b b978 eaba
000001a0: 7305 d83a 14e5 ee3b 0022 a73c 728e f53b
000001b0: f117 bf3b 9f00 0fb9 0cd1 6b3b 11aa 24bc
000001c0: adfc 88bb 986c 383c 5310 ff3a fee6 e83b
000001d0: ad32 2c3b f8a5 fbbb 142d 47bc c23f 26bb
000001e0: 17fb 4dbc d881 4abb 8523 823c 06ee 8bbc
000001f0: d46e 6a3a 2c2c 423c 8497 a13c 43d9 d7bb
00000200: 06b4 b03b 0fbc 5a3b e8f2 04bc 19aa 3b3c
00000210: 5956 bb3c 6c41 28bd 332a 3ebb ad0a f1b8
00000220: d472 893c 97f9 963c 035c 653b 9479 94bb
00000230: fcd6 5a3b 6a8c 563c 39b2 a6bc d1d2 36bb
00000240: 4708 ffbb 9f57 aa3c fbee 15bc 9975 aabc
00000250: ac62 43bc cb9a af3b 6ff5 93bc 6772 a7bb
00000260: c334 973c 1c7d 4b3c 3c23 283c f135 1dba
00000270: 5132 0abc ccd1 ef3a 28f2 42bb 23cb 84bc
00000280: 23db bb3b 2b24 37bc 710a c23b ebf0 bbbb
00000290: 93c3 4abc 370b 1e3b 48a9 ac3c f844 a73c
000002a0: 31cc 843b a010 6e3c ea4f f2bb 5cde 693c
000002b0: b0d4 1f3c 8eb0 6c3c b1da 31bc df65 0f3b
000002c0: 217d 5eba 358d c93a ccb8 c13c 30fc 88bc
000002d0: bd98 963c a7b3 2dbb 6f17 763b 64cf fa3b
000002e0: d1f4 e1bb bf37 cdbb 001b 03bb 1f7d 413c
000002f0: 2108 1cbc 4fcc c0bb 7dfa ac3c 1921 1bbc
00000300: 9d07 8fbc 7d25 ba39 4239 93bb f88c 643c
00000310: 80ed cf3a 2f1d 713b 03f3 02bc 52a5 86bb
00000320: e2fe 053c e0d9 1f3c cb3e 1f3b bfce 083c
00000330: e142 623b 4c83 8abb 9bdd 9ebc 0b20 81bc
00000340: 0714 4bbc 03d6 b43b ab15 fabc 96e5 66bb
00000350: 8af9 dbbb 22e3 f6bc e4f9 be3b 0e3d 33bb
00000360: 4b91 87bb afd2 e93b c94e 393c 412d e63c
00000370: 2104 943a 6822 f23b ae5e 483c 8525 e03c
00000380: 85b2 e23b 76f0 aa3c 3616 3a3c cf41 db3b
00000390: 9666 17bc d023 8a3c 263b 523c fdf3 86ba
000003a0: 60e7 003b 2da6 183c e0e2 12bc 8195 58bc
000003b0: ef87 a8bb 42d8 b93b 3d75 c83b e78b edbb
000003c0: bc07 7d3c e0ee 163c 82b6 95b9 9098 28bc
000003d0: f12e 3e3c 0870 dd3a e4d7 e9ba 0daf 9a3c
000003e0: f729 3bbc 7a16 2f3a 1876 eeb9 9c8a 95bc
000003f0: 7579 91bb 4cdd 4e3a 2039 79bc 3e39 a13b

action_model._discrete_distribution.branches.0.bias f4 [5]
-0.002200615 0.0034905358 0.0049874755 -0.0014505681 -0.0041814283
00000000: 3138 10bb 79c1 643b fa6d a33b fd20 beba
00000010: 5d04 89bb

exp_avg f4 [128, 48]
-9.872697e-07 0.0 1.7542592e-06 3.0469319e-06 -6.143984e-09 0.0 3.6319914e-06 3.003931e-06
-9.4980265e-07 0.0 3.3709216e-06 3.744755e-06 4.988047e-07 0.0 1.8727044e-06 2.2135664e-06
7.685309e-07 0.0 1.6904538e-07 1.3217999e-06 6.138555e-07 0.0 5.803192e-07 8.4729373e-07
6.138555e-07 0.0 5.8040234e-07 8.473244e-07 5.159575e-06 -1.3931048e-05 -2.9624302e-05 3.906599e-05
9.2863365e-06 -0.000100566256 4.841543e-05 9.2863365e-06 -9.6590964e-05 2.0193607e-05 -4.6704707e-07 -8.968658e-09
4.118082e-06 7.272563e-06 1.18822776e-07 -3.8485735e-09 3.7569993e-07 0.0 0.0 0.0
-3.3149686e-06 0.0 -1.3084709e-05 -2.8862796e-05 1.1042756e-05 0.0 -4.8571015e-05 -3.681448e-05
4.373097e-06 0.0 -5.1141393e-05 -3.7633836e-05 -7.807282e-06 0.0 -1.823019e-05 -2.4138279e-05
-2.4181638e-05 0.0 5.5111964e-06 -3.0883057e-06 -1.6094105e-05 0.0 -1.783794e-05 -6.1404808e-06
-1.6094105e-05 0.0 -1.783972e-05 -6.1411374e-06 -9.849981e-05 0.00015864935 0.00026891433 -0.00043194302
-0.000105645144 0.0010825678 0.00015705539 -0.000105645144 0.0011779679 -6.158925e-05 -1.3693594e-05 1.08588864e-07
-4.3527205e-05 -0.00024851816 -5.0768476e-06 1.628458e-07 -9.059212e-06 0.0 0.0 0.0
1.1324529e-05 0.0 -1.7885699e-05 -4.064941e-05 1.1032254e-06 0.0 -4.7351015e-05 -4.5439436e-05
9.43018e-07 0.0 -5.1003084e-05 -6.9455426e-05 1.0022821e-06 0.0 -3.2142765e-05 -3.178184e-05
-2.7054835e-05 0.0 3.162391e-06 -3.04707e-05 -1.1885557e-05 0.0 -6.4815536e-06 -1.7108538e-05
-1.1885557e-05 0.0 -6.4816536e-06 -1.7108574e-05 -0.0002830867 0.00021087955 0.00033174307 -0.000607199
-0.00014123107 0.00124303 -0.0004165376 -0.00014123107 0.00133536 -0.00033489236 -2.3664881e-05 9.104015e-08
-2.810815e-05 -0.00039749744 2.1942803e-06 2.0224196e-08 -1.115418e-05 0.0 0.0 0.0
2.9913554e-06 0.0 7.4205705e-06 1.1114366e-05 4.763897e-08 0.0 1.39860185e-05 1.44164505e-05
-3.6589786e-06 0.0 7.2035036e-06 8.973e-06 1.3082005e-06 0.0 2.9225027e-06 1.2413772e-05
-1.136995e-07 0.0 3.9330967e-06 6.600575e-06 -1.2035672e-06 0.0 1.566447e-07 2.708393e-06
-1.2035672e-06 0.0 1.5580063e-07 2.7080816e-06 -1.4047649e-05 -4.974421e-05 -0.00010397078 0.00015320262
3.3470234e-05 -0.0001751677 0.00014333267 3.3470234e-05 -0.00025423203 0.000113494774 -7.5237784e-07 3.3759637e-08
8.071747e-08 8.207596e-06 1.2331313e-07 -8.864988e-09 5.753542e-07 0.0 0.0 0.0
-2.8931963e-06 0.0 -1.35677965e-05 -1.3057348e-05 -3.21182e-06 0.0 -1.8516483e-05 -2.154257e-05
3.067669e-06 0.0 -1.9294408e-05 -2.2349837e-05 -4.2446895e-06 0.0 -1.7017005e-06 -1.3302299e-05
1.4285656e-05 0.0 -1.3844893e-05 -2.4657538e-05 5.547759e-06 0.0 8.784022e-06 -2.8770992e-06
5.547759e-06 0.0 8.784713e-06 -2.8768418e-06 0.0001841292 4.5033255e-05 0.00016031046 1.8038616e-05
-2.8815904e-05 0.00017240657 -0.00013284925 -2.8815904e-05 1.2086708e-05 -0.00020704191 2.664777e-07 -4.6552526e-09
8.435925e-06 -1.6675416e-05 1.0540138e-05 -2.3207232e-07 2.368667e-06 0.0 0.0 0.0
-1.7110184e-05 0.0 -1.630022e-05 -1.1746846e-05 -1.1005893e-05 0.0 -6.9069124e-06 -1.3039915e-05
8.495704e-06 0.0 9.493153e-06 1.1563196e-05 -4.210678e-05 0.0 9.93376e-06 -1.8971839e-07
00000000: 5482 84b5 0000 0000 e373 eb35 e479 4c36
00000010: 0e1b d3b1 0000 0000 23bd 7336 2497 4936
00000020: f1f5 7eb5 0000 0000 fe37 6236 674e 7b36
00000030: 99e5 0535 0000 0000 a259 fb35 c88c 1436
00000040: 0b4d 4e35 0000 0000 d782 3534 b368 b135
00000050: d4c7 2435 0000 0000 3bc7 1b35 9571 6335
00000060: d4c7 2435 0000 0000 f2cc 1b35 b073 6335
00000070: 6920 ad36 65b9 69b7 b481 f8b7 cada 2338
00000080: 83cc 1b37 19e7 d2b8 ac11 4b38 83cc 1b37
00000090: e190 cab8 7165 a937 76be fab4 9314 1ab2
000000a0: 0e2e 8a36 d706 f436 832b ff33 693c 84b1
000000b0: ceb3 c934 0000 0000 0000 0000 0000 0000
000000c0: ba76 5eb6 0000 0000 6686 5bb7 621e f2b7
000000d0: 4744 3937 0000 0000 bbb8 4bb8 3f69 1ab8
000000e0: 9ebc 9236 0000 0000 a780 56b8 06d9 1db8
000000f0: 05fc 02b7 0000 0000 09ed 98b7 8f7c cab7
00000100: acd9 cab7 0000 0000 d1ec b836 b040 4fb6
00000110: d401 87b7 0000 0000 afa2 95b7 540a ceb6
00000120: d401 87b7 0000 0000 82a6 95b7 f80f ceb6
00000130: af91 ceb8 1c5b 2639 12fd 8c39 6976 e2b9
00000140: ce8d ddb8 f3e4 8d3a 3caf 2439 ce8d ddb8
00000150: 0b66 9a3a 7a29 81b8 8abd 65b7 5c31 e933
00000160: fb90 36b8 8b4b 82b9 ca59 aab6 b6da 2e34
00000170: 05fd 17b7 0000 0000 0000 0000 0000 0000
00000180: 7bfe 3d37 0000 0000 3f09 96b7 f97e 2ab8
00000190: 8912 9435 0000 0000 c49a 46b8 3996 3eb8
000001a0: b423 7d35 0000 0000 25ec 55b8 99a8 91b8
000001b0: 2786 8635 0000 0000 08d1 06b8 7e4d 05b8
000001c0: d1f3 e2b7 0000 0000 7739 5436 549b ffb7
000001d0: 1468 47b7 0000 0000 1f7c d9b6 4e84 8fb7
000001e0: 1468 47b7 0000 0000 fb7c d9b6 6284 8fb7
000001f0: 416b 94b9 8c1f 5d39 cded ad39 6f2c 1fba
00000200: 6d17 14b9 2aed a23a bb62 dab9 6d17 14b9
00000210: 3f07 af3a 7e94 afb9 f283 c6b7 da81 c333
00000220: cbc9 ebb7 3467 d0b9 7341 1336 7ab9 ad32
00000230: d722 3bb7 0000 0000 0000 0000 0000 0000
00000240: 18bf 4836 0000 0000 37fe f836 d777 3a37
00000250: 9a9b 4c33 0000 0000 7ea5 6a37 2fde 7137
00000260: c68c 75b6 0000 0000 a0b5 f136 be8a 1637
00000270: 6d95 af35 0000 0000 3720 4436 bf44 5037
00000280: f62a f4b3 0000 0000 0bf9 8336 827a dd36
00000290: 418a a1b5 0000 0000 2b32 2834 d6c1 3536
000002a0: 418a a1b5 0000 0000 274a 2734 7dbc 3536
000002b0: 31ae 6bb7 70a4 50b8 e30a dab8 04a5 2039
000002c0: 6462 0c38 39ad 37b9 924b 1639 6462 0c38
000002d0: 724a 85b9 0b04 ee38 03f7 49b5 1dff 1033
000002e0: e656 ad33 5bb3 0937 0e68 0434 a14c 18b2
000002f0: 0a72 1a35 0000 0000 0000 0000 0000 0000
00000300: bc28 42b6 0000 0000 3ea1 63b7 e210 5bb7
00000310: a68a 57b6 0000 0000 d853 9bb7 51b6 b4b7
00000320: 27de 4d36 0000 0000 6dda a1b7 e97b bbb7
00000330: 9b6d 8eb6 0000 0000 fc65 e4b5 f02c 5fb7
00000340: 6dac 6f37 0000 0000 5d47 68b7 a9d7 ceb7
00000350: e326 ba36 0000 0000 165f 1337 3014 41b6
00000360: e326 ba36 0000 0000 0e62 1337 c40f 41b6
00000370: ce12 4139 17e2 3c38 0319 2839 a251 9737
00000380: afb9 f1b7 09c8 3439 734d 0bb9 afb9 f1b7
00000390: 04c8 4a37 6419 59b9 6b10 8f34 09f4 9fb1
000003a0: 0688 0d37 2fe2 8bb7 8cd5 3037 8e2f 79b4
000003b0: 64f5 1e36 0000 0000 0000 0000 0000 0000
000003c0: d787 8fb7 0000 0000 75bc 88b7 5214 45b7
000003d0: f3a5 38b7 0000 0000 edc1 e7b6 02c6 5ab7
000003e0: c588 0e37 0000 0000 c844 1f37 8cff 4137
000003f0: d09b 30b8 0000 0000 2da9 2637 65b5 4bb4

exp_avg_sq f4 [128, 48]
9.663492e-12 0.0 1.860823e-11 1.2748821e-10 1.10254314e-11 0.0 1.4975372e-10 2.6690447e-10
2.2451577e-11 0.0 7.801445e-11 2.3264844e-10 1.557024e-11 0.0 2.766315e-10 3.2438974e-10
1.8027763e-11 0.0 2.4517713e-10 3.155711e-10 2.1025954e-11 0.0 3.3413733e-10 3.7918818e-10
2.1025954e-11 0.0 3.3413725e-10 3.7918804e-10 1.8833566e-07 1.0056769e-08 1.2097938e-08 4.901399e-08
4.486301e-09 3.8633587e-07 2.1312339e-07 4.486301e-09 2.3085018e-07 2.2901036e-08 8.701737e-11 2.7174897e-14
4.7098887e-11 9.697866e-09 1.1412806e-11 1.9155206e-14 7.196383e-12 0.0 0.0 0.0
9.0932956e-10 0.0 2.665225e-09 8.500782e-09 1.0400648e-09 0.0 6.126254e-09 9.837265e-09
1.11967e-09 0.0 7.989016e-09 1.0795757e-08 1.4656909e-09 0.0 4.4467097e-09 7.823298e-09
8.085038e-10 0.0 6.2758954e-09 9.6437285e-09 9.143313e-10 0.0 2.6190887e-09 6.673961e-09
9.143313e-10 0.0 2.6191396e-09 6.673963e-09 3.1093477e-06 2.990479e-07 9.5057067e-07 7.382556e-06
1.3363211e-07 9.683452e-06 9.420681e-06 1.3363211e-07 1.1878014e-05 8.790671e-07 3.9295696e-09 8.54194e-12
2.9084473e-09 4.5113256e-07 4.9552956e-10 2.2243214e-12 3.0311034e-10 0.0 0.0 0.0
1.6648919e-09 0.0 3.6872772e-09 1.1205027e-08 3.8937345e-10 0.0 1.2356288e-08 1.7025354e-08
2.121936e-09 0.0 6.8342674e-09 1.0802014e-08 1.3906389e-09 0.0 9.243765e-09 1.4618875e-08
1.924759e-09 0.0 3.5654626e-09 8.081621e-09 1.0915095e-09 0.0 4.4303388e-09 9.657035e-09
1.0915095e-09 0.0 4.4303348e-09 9.657033e-09 4.001479e-06 4.1207633e-07 1.3245995e-06 3.109239e-06
1.8373028e-07 1.3435001e-05 5.545544e-06 1.8373028e-07 1.7546085e-05 1.246595e-06 5.5302256e-09 4.7383764e-12
4.3252886e-09 6.567306e-07 6.114232e-10 2.8710525e-13 2.3091683e-10 0.0 0.0 0.0
2.5738778e-10 0.0 1.1469219e-09 2.1724398e-09 7.509204e-11 0.0 1.3362571e-09 1.760618e-09
1.2468521e-11 0.0 2.315674e-09 2.556823e-09 4.1080535e-11 0.0 3.0947175e-10 9.711965e-10
1.1603998e-11 0.0 4.7319704e-10 1.4846204e-09 1.7425072e-11 0.0 1.0684209e-10 8.1125373e-10
1.7425072e-11 0.0 1.06838385e-10 8.1126367e-10 5.4755924e-07 5.7422753e-08 3.4569055e-07 2.893832e-06
2.5657531e-08 8.457977e-07 1.9082988e-06 2.5657531e-08 2.5775619e-06 2.7407907e-07 1.05323764e-10 7.588219e-14
1.0582445e-10 6.5023817e-09 2.275053e-11 9.3803187e-14 1.3306798e-11 0.0 0.0 0.0
9.2468705e-10 0.0 1.3524409e-09 4.7882893e-09 7.7200796e-10 0.0 2.7352087e-09 5.282403e-09
9.41344e-10 0.0 4.868757e-09 6.4057977e-09 9.118623e-10 0.0 2.0030493e-09 4.02192e-09
5.63271e-10 0.0 4.1880504e-09 6.1649454e-09 3.261384e-10 0.0 1.8857256e-09 4.5234367e-09
3.261384e-10 0.0 1.8857431e-09 4.5234874e-09 2.8634092e-06 1.8134097e-07 5.3290705e-07 5.953482e-06
8.100024e-08 5.1342536e-06 6.5625104e-06 8.100024e-08 7.1237414e-06 4.7274375e-07 2.6044051e-09 2.6923446e-12
1.7680488e-09 3.615804e-07 2.6769736e-10 6.4960087e-13 1.6130323e-10 0.0 0.0 0.0
1.7527573e-09 0.0 6.467014e-10 5.248375e-09 1.9734971e-09 0.0 5.572022e-09 9.486095e-09
1.8805688e-09 0.0 4.450649e-09 8.967093e-09 3.081572e-09 0.0 6.048867e-09 8.610665e-09
00000000: 8000 2a2d 0000 0000 02ae a32d be2c 0c2f
00000010: 21f6 412d 0000 0000 eda7 242f 77bb 922f
00000020: 757c c52d 0000 0000 3b8e ab2e b7cc 7f2f
00000030: 10f5 882d 0000 0000 6c14 982f cc55 b22f
00000040: ea92 9e2d 0000 0000 9dc9 862f af7c ad2f
00000050: 3df2 b82d 0000 0000 a6b1 b72f fe75 d02f
00000060: 3df2 b82d 0000 0000 a3b1 b72f f975 d02f
00000070: 5039 4a34 23c6 2c32 4bd7 4f32 7483 5233
00000080: ec25 9a31 9969 cf34 e9d6 6434 ec25 9a31
00000090: 9ddf 7734 e9b7 c432 6d5a bf2e 0cc5 f428
000000a0: a224 4f2e aa9b 2632 b5c6 482d e688 ac28
000000b0: 4133 fd2c 0000 0000 0000 0000 0000 0000
000000c0: 61f4 7930 0000 0000 2227 3731 d60a 1232
000000d0: 07f2 8e30 0000 0000 1a7f d231 c000 2932
000000e0: e3e2 9930 0000 0000 1040 0932 3e78 3932
000000f0: 6a71 c930 0000 0000 acc9 9831 3a67 0632
00000100: 663d 5e30 0000 0000 5ca3 d731 91ad 2532
00000110: 5854 7b30 0000 0000 7ffb 3331 c850 e531
00000120: 5854 7b30 0000 0000 64fc 3331 cd50 e531
00000130: 30aa 5036 d58c a034 b82a 7f35 acb7 f736
00000140: 847c 0f34 1c76 2237 840d 1e37 847c 0f34
00000150: af47 4737 08f9 6b35 dc04 8731 7a45 162d
00000160: f2dd 4731 3033 f234 cb35 0830 d085 1c2c
00000170: fda2 a62f 0000 0000 0000 0000 0000 0000
00000180: 2dd2 e430 0000 0000 4463 7d31 3b80 4032
00000190: 710f d62f 0000 0000 8847 5432 263f 9232
000001a0: 7ed1 1131 0000 0000 dad2 ea31 c393 3932
000001b0: c220 bf30 0000 0000 82ce 1e32 7e26 7b32
000001c0: b844 0431 0000 0000 4804 7531 58d7 0a32
000001d0: 1404 9630 0000 0000 ac39 9831 17e8 2532
000001e0: 1404 9630 0000 0000 a339 9831 15e8 2532
000001f0: 7144 8636 573b dd34 e4c8 b135 52a8 5036
00000200: 6547 4534 e466 6137 dc13 ba36 6547 4534
00000210: ee2f 9337 ae50 a735 6104 be31 80b7 a62c
00000220: a49d 9431 2f4a 3035 1511 2830 3aa0 a12a
00000230: 4fe5 7d2f 0000 0000 0000 0000 0000 0000
00000240: 1c80 8d2f 0000 0000 baa1 9d30 f749 1531
00000250: 0f21 a52e 0000 0000 5ea7 b730 3dfa f130
00000260: 3a59 5b2d 0000 0000 c521 1f31 1bb4 2f31
00000270: 92ac 342e 0000 0000 4722 aa2f f07a 8530
00000280: c323 4c2d 0000 0000 4812 0230 700b cc30
00000290: c645 992d 0000 0000 c0f2 ea2e e8fe 5e30
000002a0: c645 992d 0000 0000 aaf0 ea2e 9bff 5e30
000002b0: fcfb 1235 fca0 7633 5997 b934 a833 4236
000002c0: 8265 dc32 c60a 6335 5310 0036 8265 dc32
000002d0: 2dfa 2c36 2425 9334 029c e72e 1bdf aa29
000002e0: dfb5 e82e 8e6b df31 a41d c82d db39 d329
000002f0: 7e18 6a2d 0000 0000 0000 0000 0000 0000
00000300: 112d 7e30 0000 0000 c9e0 b930 3d86 a431
00000310: 3b35 5430 0000 0000 4df6 3b31 8280 b531
00000320: 9960 8130 0000 0000 0a4a a731 fe19 dc31
00000330: 9ba6 7a30 0000 0000 04a6 0931 2f31 8a31
00000340: acd4 1a30 0000 0000 7be6 8f31 6fd3 d331
00000350: e64b b32f 0000 0000 0996 0131 926c 9b31
00000360: e64b b32f 0000 0000 5896 0131 046d 9b31
00000370: ff28 4036 a0b6 4234 180d 0f35 05c4 c736
00000380: 5af2 ad33 e746 ac36 8933 dc36 5af2 ad33
00000390: 7908 ef36 68cd fd34 2ef9 3231 f874 3d2c
000003a0: b0ff f230 3b1f c234 0e2b 932f add8 362b
000003b0: d35a 312f 0000 0000 0000 0000 0000 0000
000003c0: aae5 f030 0000 0000 91c3 3130 3255 b431
000003d0: 219e 0731 0000 0000 0674 bf31 49f8 2232
000003e0: 513b 0131 0000 0000 53ec 9831 b10d 1a32
000003f0: 97c3 5331 0000 0000 66d6 cf31 1bee 1332

exp_avg f4 [128]
3.1911811e-06 -3.630417e-05 -4.853302e-05 1.1501796e-05 -9.902375e-06 -1.7073866e-05 -2.4459427e-05 1.6503391e-07
-1.942975e-07 -1.5905312e-06 -1.45737695e-05 -3.1214528e-05 -2.877112e-05 4.978859e-06 6.222506e-06 -2.3177724e-06
-7.5546204e-06 -3.0812043e-05 -1.3434598e-05 -1.166172e-05 8.766926e-06 3.5952962e-05 -1.2845137e-05 7.06895e-07
4.283688e-05 -6.3970185e-07 8.248219e-06 4.9736796e-06 3.3957572e-06 8.080832e-06 -3.216553e-06 1.3217048e-05
6.8679736e-07 -2.3839997e-05 -2.4293387e-09 9.7246775e-06 3.315391e-05 -8.333088e-06 9.975427e-06 -1.3299887e-05
-1.5513659e-05 -1.6317212e-05 -1.2566104e-05 -4.300615e-05 -3.8692637e-05 -1.4472242e-05 6.39521e-06 1.3053431e-05
1.3594825e-05 -5.436294e-06 8.643799e-06 -7.901655e-06 3.750412e-05 -3.2007007e-05 9.053262e-06 -3.0655158e-06
-8.05463e-07 1.1153189e-05 1.3046047e-05 -1.1566042e-05 -1.5861253e-05 7.865232e-06 -1.1198377e-05 -8.488077e-06
5.5388557e-07 6.3456855e-06 4.2244537e-06 -8.47106e-06 1.2059408e-10 -2.6901603e-06 3.2855954e-05 4.6717372e-07
4.8164966e-06 -6.213959e-07 -9.175798e-10 2.3244196e-05 -1.3115059e-05 2.4188835e-06 -8.844907e-06 1.7707347e-05
-1.5684462e-05 7.874035e-06 1.6098531e-05 -5.273776e-06 -3.965816e-05 1.9894305e-05 5.195812e-06 -8.303532e-06
-1.0105857e-07 -1.6017184e-05 2.7506145e-05 3.4759603e-07 1.0948727e-05 -7.626956e-06 -4.968121e-06 2.9842202e-05
-1.5589604e-09 5.57848e-05 -6.4192263e-06 -1.2345278e-05 -5.2491328e-06 -1.5115689e-05 1.4100761e-05 -1.4102541e-05
-7.728876e-06 -1.4008301e-05 -1.410241e-06 -3.7053613e-07 -4.9931923e-06 3.5080408e-05 1.5396992e-05 2.4104615e-06
7.48506e-07 2.7811077e-06 1.4307711e-05 3.4962327e-06 -2.5396077e-06 -3.316782e-05 -2.2213012e-06 -2.560626e-07
2.1758131e-05 -2.4791983e-05 2.2612347e-05 1.2819244e-07 -7.3589625e-08 -1.0467713e-06 3.3347915e-05 -1.2517005e-05
00000000: 1328 5636 4e45 18b8 ef8f 4bb8 d6f7 4037
00000010: 6022 26b7 d939 8fb7 382e cdb7 2d34 3134
00000020: 17a0 50b4 3c7a d5b5 dd81 74b7 58ec 02b8
00000030: 8259 f1b7 1310 a736 ebca d036 078b 1bb6
00000040: b27d fdb6 2e3c 01b8 2965 61b7 b5a6 43b7
00000050: a915 1337 33cc 1638 7181 57b7 74c1 3d35
00000060: c0ab 3338 fab7 2bb5 d561 0a37 95e3 a636
00000070: aae2 6336 e992 0737 f6db 57b6 cabe 5d37
00000080: 5b5c 3835 01fc c7b7 61f1 26b1 2c27 2337
00000090: bd0e 0b38 57ce 0bb7 225c 2737 9422 5fb7
000000a0: 5423 82b7 f2e0 88b7 01d3 52b7 8061 34b8
000000b0: e749 22b8 cecd 72b7 7096 d636 0f00 5b37
000000c0: 5415 6437 6969 b6b6 d604 1137 5a91 04b7
000000d0: be4d 1d38 433f 06b8 77e3 1737 29b9 4db6
000000e0: ff36 58b5 951e 3b37 58e0 5a37 c60b 42b7
000000f0: c80d 85b7 eaf4 0337 aae0 3bb7 0368 0eb7
00000100: baae 1435 06ed d436 c8bf 8d36 ed1e 0eb7
00000110: 3798 042f 9a88 34b6 d0ce 0938 decf fa34
00000120: 649d a136 00ce 26b5 f038 7cb0 88fc c237
00000130: c008 5cb7 1a54 2236 9664 14b7 3d8a 9437
00000140: 2092 83b7 b91a 0437 550b 8737 64f5 b0b6
00000150: a056 26b8 b2e2 a637 af57 ae36 664f 0bb7
00000160: 8905 d9b3 a45c 86b7 ffbc e637 3c9d ba34
00000170: 6db0 3737 0eeb ffb6 d6b3 a6b6 a455 fa37
00000180: 0b43 d6b0 79fa 6938 bc64 d7b6 911e 4fb7
00000190: b521 b0b6 6499 7db7 4f92 6c37 f499 6cb7
000001a0: 45ab 01b7 3205 6bb7 8347 bdb5 19ee c6b4
000001b0: 328b a7b6 4d23 1338 ca28 8137 6ac3 2136
000001c0: f1ec 4835 11a3 3a36 270b 7037 d2a0 6a36
000001d0: 216e 2ab6 ad1d 0bb8 aa11 15b6 fa78 89b4
000001e0: 3b85 b637 61f8 cfb7 a5af bd37 45a5 0934
000001f0: 5308 9eb3 ca7e 8cb5 0ddf 0b38 2100 52b7
