3DPlayground/results/Test30/MoveToGoal/checkpoint.pt (torch, 863915 bytes, 42 tensors)

network_body._body_endoder.seq_layers.0.weight f4 [128, 140]
000000 52 cd 94 3c 8a f1 a6 bd 82 cf db 3d a6 d2 d2 bc
       0.01816431 -0.08151539 0.10732938 -0.02573521
000010 7a b0 2b 3d 29 1a 3b ba 79 05 99 3d 9f 2a 0d be
       0.041916348 -0.0007137382 0.07471747 -0.1378579
000020 80 9f 54 be f6 71 1d bd 7a 20 50 bd db 38 65 bc
       -0.2076397 -0.03843876 -0.050812222 -0.013990606
000030 f2 41 38 bb 6e c7 38 3d b5 48 d9 3d 9c b5 bb bc
       -0.0028115478 0.045112066 0.10609571 -0.022913747
000040 ac 56 23 bc cd 7b ab 3d 9c e9 65 3d 59 b8 37 bd
       -0.009969395 0.083732225 0.05613099 -0.044853542
000050 44 d7 44 3d 70 41 ee bd 44 78 05 be 36 06 f8 bc
       0.048056856 -0.11633575 -0.13034159 -0.0302764
000060 8d fb f1 ba 2b 3c f5 bc be 1c 2b bb ca c9 28 3d
       -0.0018461809 -0.029935917 -0.002610966 0.041208066
000070 7d c5 8c bc c0 59 af 3c a7 95 32 bb e3 58 7e 3c
       -0.017184014 0.0214051 -0.0027249844 0.015524122
000080 51 63 25 be 37 63 12 3e 67 d5 d6 3c b7 6a df 3d
       -0.16151167 0.1429566 0.026224805 0.10909026
000090 61 c5 74 bd f1 d3 d5 3c 28 21 0b bc 53 b6 24 3c
       -0.059758548 0.026102038 -0.008491792 0.010053235
0000a0 00 ef 8b bd c0 bb 46 3c a5 5a 33 3c 51 0f 0b be
       -0.06832695 0.012129724 0.010946904 -0.13580061
0000b0 d1 6f cc 3d f3 35 8f 3c f6 7a 76 bd dc d5 26 3d
       0.09982265 0.01748178 -0.06017586 0.040731296
0000c0 a2 22 32 bb 08 1f a8 ba 33 fb cc 3c 97 d0 51 bd
       -0.0027181287 -0.0012826631 0.025022125 -0.051224317
0000d0 0d f9 84 3d ca c1 08 3e 46 ab ea 3c 56 98 ff 3b
       0.06492815 0.13355175 0.028646123 0.0078001423
0000e0 88 3a 55 bd f2 85 00 be 9e 55 2a be 0d cd f1 3b
       -0.052057773 -0.12551096 -0.16634223 0.0073791803
0000f0 62 8f b7 bd f1 30 d2 bc f6 b4 a5 bd 46 9e b4 3c
       -0.08962895 -0.025658103 -0.08091156 0.022048127
000100 e4 c9 50 3d 5e 28 ad 3c 90 20 81 3d 33 00 ee bc
       0.050973788 0.021137413 0.06305039 -0.02905283
000110 76 e0 96 bd d9 bb 15 bd 47 fd 3f bd 08 1b e6 bd
       -0.07367031 -0.0365561 -0.046872403 -0.112356246
000120 bf 01 fd 3d 46 16 a5 3d 3e 81 58 3d 15 da 92 3d
       0.12353849 0.08060889 0.05285763 0.07170502
000130 f1 f6 e2 bd 7a 41 bc 3d 83 1d 4b 3d 1f 1c 9e 3b
       -0.110822566 0.09192176 0.04958869 0.0048251296
000140 7b d2 38 bd c7 5b 03 3e c3 2b 5c 3d f1 ea e6 bc
       -0.045122605 0.12827979 0.053752672 -0.0281882
000150 d7 57 08 3e f9 be 20 3d 96 9d 64 3e cf 75 20 bd
       0.13314758 0.039244626 0.2232574 -0.03917485
000160 c5 41 82 3d 86 0c 35 bd bb 40 c2 3d 60 eb 13 bd
       0.06360201 -0.044201396 0.094850026 -0.036113143
000170 dd 29 a4 3d 67 20 b7 3c 2e d1 d9 3c 34 9f 08 3d
       0.08015797 0.022354318 0.026589002 0.033354953
000180 67 1f 14 3d 0d 0f f2 bb c9 92 89 bc 24 cf c0 39
       0.03616276 -0.007387048 -0.016793625 0.00036775426
000190 c4 d8 2d bd 91 e5 89 3d 28 e3 86 3d 61 07 0e bc
       -0.042443052 0.067332394 0.06586295 -0.008668751
0001a0 d7 52 17 3e e8 65 8c bc bb 49 23 bd d0 c4 23 be
       0.14777695 -0.017138436 -0.039865237 -0.15993047
0001b0 83 2b 99 3d 35 f6 f6 3d f6 da 9b bd 47 27 4d 3d
       0.07479002 0.12058679 -0.07610123 0.050086286
0001c0 a7 4e 6f 3d 46 f0 d4 bd 30 cc 6c be e9 e9 05 3e
       0.058424618 -0.10397391 -0.23124766 0.13077511
0001d0 82 4b 51 3d 88 9e 00 3e 88 06 df 3d 93 56 83 bd
       0.0510974 0.12560475 0.108899176 -0.06412997
0001e0 41 3f 31 3c be 57 89 3a 7a 5e a2 3d 2e c8 93 3c
       0.010818304 0.001047842 0.07928176 0.018039789
0001f0 0c 75 99 3d f7 6a 7c 3d 6b 1b b9 ba c7 53 b6 3c
       0.07493028 0.061625447 -0.0014122551 0.022256745
000200 c5 78 12 be ac 08 e1 3c 70 2b 07 be 37 7e 6e bc
       -0.14303882 0.027469955 -0.13200164 -0.014556459
000210 e3 21 78 3d e1 aa fc 3c 5e 6c 17 3c 5b bd 8e 3d
       0.060579192 0.0308432 0.009242145 0.069697104
000220 40 37 10 be 8e d8 46 bd 03 32 eb bd 02 67 0a bd
       -0.14083576 -0.048546366 -0.11484148 -0.033789642
000230 a2 b4 9b bd 4b 71 c9 3d a0 b9 94 bd 35 bd 15 3d
       -0.07602812 0.09836062 -0.07261968 0.036557395
000240 0c 70 a5 bc ae ec fa bc 7e cb 4b be 03 d7 9c bd
       -0.02019503 -0.030630436 -0.19901845 -0.07658198
000250 8d ec 90 bc d9 10 67 3d 6f 54 74 be 7e 25 20 3e
       -0.017690921 0.05641255 -0.23860334 0.15639302
000260 e0 3f ad 3c 12 55 98 bd b2 80 0e be 9d bf 94 3d
       0.021148622 -0.07438101 -0.13916281 0.0726311
000270 a4 c1 c8 bd 36 0f 70 3d 3c e3 61 be f3 ab 39 3c
       -0.09802559 0.058608256 -0.2205934 0.0113325
000280 43 1a c0 bd 9f bf 49 bd 26 8d 08 be 9f 5f 40 bd
       -0.09380009 -0.04925501 -0.13335094 -0.04696619
000290 05 8b b8 3c d2 97 6a bd 0e 1e ed bb a7 83 9f 3c
       0.022527227 -0.057273693 -0.007236249 0.019471956
0002a0 79 63 dc 3d 14 4a 71 bc ef ee 9f bd d3 d4 a0 bd
       0.107611604 -0.014727134 -0.07809245 -0.07853093
0002b0 a7 99 a1 bc 87 eb 1e be bd 63 ae 3b c7 ef a3 bd
       -0.019726587 -0.15519534 0.0053219483 -0.08004718
0002c0 c8 99 7b 3c 53 93 9d bd ad e7 ff 3c 63 cf 4d 3c
       0.0153564885 -0.076941155 0.031238401 0.012561652
0002d0 5d af ab 3b f3 49 46 bc a3 ae 31 3d 43 fe eb 3c
       0.005239411 -0.012102592 0.043379437 0.028807765
0002e0 27 3d 4b be b3 34 34 3c 7d 3b 20 3e 28 8d 6e 3c
       -0.19847547 0.010998893 0.15647693 0.014560021
0002f0 df 25 95 3d 85 82 16 be df 42 18 bd 54 7d 80 bd
       0.07282614 -0.14698227 -0.03717315 -0.062739044
000300 84 72 bf 3d 89 ef 9d bd 3e 47 0c be 1b 0f 44 bd
       0.09348014 -0.07711703 -0.13699052 -0.04786597
000310 3b 1d e1 bd 4a 75 40 3e 5d 5a 9e bd 74 cd 73 bd
       -0.109919034 0.18794742 -0.07732079 -0.059522107
000320 72 f8 48 3d fd f4 f7 3d e9 cd 98 3d 00 18 8a bd
       0.04906506 0.12107275 0.07461149 -0.06742859
000330 cc fb 91 3d d0 c2 ad 3d f1 04 01 3e e9 fc 01 3d
       0.071281046 0.08484423 0.12599541 0.031735335
000340 77 22 6e 3c 03 ee 50 3d 61 2c 8d 3c 5e 71 0a 3e
       0.014534584 0.051008236 0.017233076 0.13519809
000350 b7 ca 22 3c 4e 3f fa bc f9 50 ad bc 3c c8 93 bd
       0.009936026 -0.030547764 -0.021156775 -0.07215926
000360 2a 46 13 be 75 98 04 3c b0 bc fe 3c f1 dc 07 3e
       -0.14382234 0.008092989 0.031095833 0.13267876
000370 df f5 2e be 10 49 08 3d b7 34 66 bd a8 82 82 3c
       -0.1708598 0.033272803 -0.056202617 0.015931442
000380 6d b3 f1 b9 f0 0c 7a 3d 1e 5f de bd bf 4e 22 be
       -0.00046100785 0.061047494 -0.10857986 -0.15850352
000390 54 82 f4 3d c7 36 f7 bd b8 f0 32 bd 31 0a d3 bd
       0.119389206 -0.12070995 -0.0436866 -0.10304678
0003a0 49 42 4d 3d 0a c2 70 3d 78 98 c6 3d 9e 6a 56 bd
       0.050112043 0.0587788 0.0969705 -0.05234777
0003b0 f3 04 c4 bc 0e 8a 03 3e a3 7d 48 3d 9e cb e1 bc
       -0.023928141 0.12845632 0.04894794 -0.027562913
0003c0 af 80 d0 3b 0c 0d 0a 3e 1c 10 3e 3e 95 e6 1c bb
       0.0063629965 0.1348154 0.18560833 -0.0023941149
0003d0 3c 9f 95 bb ed c1 69 bd e4 4a ef 3c ec 72 8b bd
       -0.0045661014 -0.057069708 0.029210515 -0.06809029
0003e0 7f 78 09 3d a6 1e 14 be da 37 92 3d 67 3b c0 3d
       0.03356218 -0.14464816 0.07139559 0.0938633
0003f0 34 3c 0a 3e 31 e5 e7 3d a6 72 bb 3b b7 85 e5 bd
       0.13499528 0.11323012 0.0057204543 -0.11207145

network_body._body_endoder.seq_layers.0.bias f4 [128]
000000 d2 7f 39 3b 2a 7b 8f 3b f1 0f b1 ba 8e 6d 7a 3a
       0.0028304947 0.004378696 -0.0013508779 0.0009553068
000010 ef c1 82 bb ca 10 e7 bb 7a 4b e1 bb b0 92 d0 3b
       -0.003990404 -0.007051562 -0.0068754526 0.0063651428
000020 47 90 5a 3b b3 68 ac bb 9f 42 ce 3b 9d f1 bb 3b
       0.0033350156 -0.0052615046 0.006294563 0.0057355897
000030 41 82 12 b9 b4 08 a0 3b d5 69 b9 bb e9 13 54 bb
       -0.00013972168 0.00488385 -0.005658368 -0.00323605
000040 32 5b 57 3b d9 aa b9 bb 1b ca 42 3b d3 fd 5f bb
       0.0032860753 -0.0056661186 0.0029722515 -0.003417839
000050 d2 21 e1 b9 27 8d 45 bb e1 68 2e 3b ef a2 97 bb
       -0.00042940542 -0.0030143948 0.0026612806 -0.0046275775
000060 b3 58 bd bb c7 92 26 bc 5c 36 89 ba 16 40 e2 3a
       -0.005778396 -0.01016683 -0.0010468471 0.0017261531
000070 06 1a a3 3a 11 18 4c bb 43 b8 d8 bb 50 44 85 bb
       0.0012443669 -0.0031142274 -0.0066137626 -0.0040669814
000080 75 87 05 bb 36 3f cf ba 52 bc fa bb be 0f 43 ba
       -0.0020374928 -0.0015811685 -0.007651844 -0.00074410054
000090 21 b6 e4 ba 9d c5 43 3b 5a d9 d4 3a ea 59 a6 ba
       -0.0017449298 0.0029872425 0.0016239092 -0.0012691591
0000a0 fd 01 76 3a 5a 9a 77 ba e7 51 c1 3a f0 8f a1 3b
       0.00093844516 -0.00094453024 0.001474914 0.0049304888
0000b0 91 89 e9 ba 16 83 75 3b 8d c5 68 bb e8 e3 9e 3a
       -0.0017817487 0.0037462167 -0.003551814 0.0012122365
0000c0 8f 61 06 3a c9 76 64 3a fe 30 b7 ba 50 7d 18 3b
       0.00051262317 0.000871521 -0.0013976393 0.0023268051
0000d0 99 8a 48 3a 6a 33 0a 3c f0 7e 09 bb cd 49 57 ba
       0.0007650047 0.00843511 -0.0020980202 -0.00082125963
0000e0 ef d2 1f 3b 7c 0a 7a 3a 91 f6 da 3b e5 48 c0 bb
       0.00243872 0.00095383055 0.006682225 -0.0058680647
0000f0 ff 7e 69 ba 16 23 fb bb e5 10 bc 39 94 c3 49 bb
       -0.00089071685 -0.0076640947 0.00035870742 -0.003078674
000100 9e 9a ff ba 8b af 50 3b ad c9 47 3b b4 f8 cd ba
       -0.0019501036 0.0031842913 0.0030485198 -0.0015714378
000110 4e 83 87 3b bc ed c1 3b 2b 4d 99 3b fc cf f2 3b
       0.004135526 0.0059182327 0.0046783886 0.0074100476
000120 d3 6d 9e 3b dd 9a 97 bb 95 ec 1f 3c be 8f 19 3a
       0.0048348694 -0.0046266154 0.009760995 0.0005857906
000130 65 68 fa ba ca 4f 12 3b 40 0d a8 39 c9 03 8c bb
       -0.0019104598 0.002232539 0.0003205333 -0.004272912
000140 98 8f a3 bb 72 3e c3 3b 89 8a a7 ba cd 36 e9 bb
       -0.004991483 0.005958372 -0.0012782376 -0.0071171285
000150 a4 5e 4f ba 77 f4 4d 3b 63 88 f3 bb d2 7b 7b bb
       -0.0007910526 0.003142623 -0.00743203 -0.0038373363
000160 97 83 8f bb 67 45 3c 3b 61 e0 8e bb 4c 14 09 3a
       -0.0043797004 0.002872789 -0.004360244 0.000522916
000170 36 1c 7b bb f3 06 b2 3a ec 2d 21 bb 95 5b 7a 3b
       -0.0038316376 0.0013582393 -0.0024594022 0.003820156
000180 b7 6f df 3a e3 a0 10 3b b1 2a c4 bb 39 bb 9e bb
       0.0017046843 0.0022068552 -0.0059865345 -0.004844096
000190 66 f0 d0 3b 81 03 cc 3b 1f e9 74 bb 3c f7 ec ba
       0.006376314 0.0062260036 -0.0037370396 -0.0018079053
0001a0 87 cc 86 b9 57 85 aa b9 79 44 74 3a 93 5a 6e 3a
       -0.00025710856 -0.00032524273 0.00093180645 0.0009092476
0001b0 5c 06 fd 3b 09 cf cd bb 8d 5d aa 3b 62 d5 a5 3a
       0.0077217054 -0.006280784 0.0051991404 0.0012652094
0001c0 6a 7f 4f 3b f3 a0 71 bb 2a c7 9c 3a 4e fd 20 bc
       0.0031661638 -0.0036869615 0.0011961211 -0.009826018
0001d0 7e 4d 17 3b 25 97 56 3b e1 43 55 bb 96 81 23 3b
       0.002308696 0.0032743898 -0.003254168 0.0024949065
0001e0 32 57 eb b9 81 2e 52 ba 70 d2 92 3b b1 ad 6b bb
       -0.00044887658 -0.0008017794 0.0044806525 -0.0035961682
0001f0 1b 26 1c bb 77 86 68 3b 6a d2 73 bb ef 1f b0 3b
       -0.0023826424 0.0035480538 -0.0037204274 0.0053749005

network_body._body_endoder.seq_layers.2.weight f4 [128, 128]
000000 c2 63 93 bd 6e fe b4 3d 90 f1 f8 bd 91 20 46 bd
       -0.07196762 0.08837591 -0.121554494 -0.0483709
000010 88 31 2b be c7 63 d9 3c 06 6e f5 3d 19 1f 98 3d
       -0.16718113 0.026536835 0.11983876 0.074278064
000020 28 50 d8 3c a3 87 fb bd 36 28 33 bd be 7d e4 3d
       0.026405409 -0.1228173 -0.04373952 0.11156796
000030 ec 2c d9 bc 79 bf 77 3d df 00 4a bd ea b8 3d bd
       -0.026510678 0.060485337 -0.049317237 -0.046318926
000040 1e 3c 1a bc b3 5e 7b bc 2e b9 88 3c b7 1d 87 be
       -0.009413747 -0.015342402 0.016689863 -0.26389858
000050 2a 16 ba 3b 50 84 f3 bc 08 43 2f 3d 35 a1 53 3c
       0.0056789117 -0.029726177 0.042788535 0.012916853
000060 a0 41 59 bd b8 c7 d8 3d 0a 0e 20 3d e7 57 10 bb
       -0.0530411 0.10584968 0.03907589 -0.002202505
000070 20 19 ee 3c 32 67 25 3e c6 42 8c 3d de 1e 0f be
       0.029064715 0.16152647 0.068486735 -0.13976619
000080 dc 5e 55 3e a5 b1 00 be 63 8c 2f be c8 42 ae bd
       0.20836967 -0.12567766 -0.17143397 -0.08508831
000090 40 b2 34 be 81 7a 16 3b a5 0c 8e bd 4c c8 8c 3d
       -0.17646122 0.0022961202 -0.069360055 0.06874141
0000a0 60 3f 2e 3e 34 01 8b bd ce 16 8e 3d f5 90 d3 bd
       0.17016363 -0.06787339 0.069379434 -0.10330383
0000b0 55 ce bd bc 7a c5 80 bd 0c 52 97 3d 04 9b 33 be
       -0.023169676 -0.06287666 0.07388696 -0.17539603
0000c0 23 3b c4 bd b0 00 e7 bc 78 59 f3 bd 3f 54 fd 3d
       -0.09581592 -0.02819857 -0.11882299 0.12369584
0000d0 53 d7 28 be ea 66 fc bd cc 18 52 bc 29 8d 8b 3d
       -0.1648839 -0.12324317 -0.012823295 0.068140335
0000e0 da cc b8 3d 92 ed 81 bd df 0a c7 bd 0e b4 98 3c
       0.09023447 -0.06344141 -0.0971887 0.018640544
0000f0 15 a3 0b bc 19 e4 d7 bd dd 55 23 3d 48 ca 4c 3a
       -0.0085227685 -0.10541553 0.039876807 0.00078121247
000100 dc 4a bf 3c c0 8c eb 3d 4e 3c 3d bd 7c 32 00 be
       0.023351125 0.11501455 -0.04620009 -0.12519258
000110 c8 3f b9 bd d8 e1 b0 3c 44 29 a4 3d 50 4d 95 bd
       -0.090453684 0.021592066 0.08015683 -0.07290137
000120 d5 1c 18 3c 9c b9 8f 3c ae 02 d9 bd c5 83 90 3c
       0.009284218 0.01754456 -0.10596214 0.017640958
000130 98 90 29 be 5c 9e 65 3d 43 d6 8d bc d4 4a 10 be
       -0.16559064 0.056059226 -0.017314082 -0.14091045
000140 8f 21 f5 3d 0d b8 47 be d0 58 ef 3b 27 be 63 3c
       0.119692914 -0.19503804 0.0073042884 0.013900316
000150 7d 19 5c bd e8 6f 93 3d 56 98 9d 3b 6b 6e b0 bc
       -0.053735245 0.07199079 0.0048094196 -0.021537026
000160 be 7b ac 3d 41 2f 9a bd fb 6e 05 be f2 e0 20 be
       0.084220394 -0.07528544 -0.13030617 -0.1571081
000170 5a f0 21 bc 4d df 38 3d 43 74 ab 3c 80 ca 62 bd
       -0.009883964 0.04513483 0.020929461 -0.0553689
000180 90 b6 8f bd 96 8b 8f bc e7 bf 92 bc 35 26 50 3c
       -0.07017243 -0.017522614 -0.017913772 0.012704422
000190 d9 e5 48 bd 9b 6e c3 bc 03 15 be bd 78 24 c9 3d
       -0.049047325 -0.023856452 -0.092813514 0.09821409
0001a0 a5 cd 9a 3d d4 6a 4f 3d 46 03 1f 3d 75 ff f0 3d
       0.07558755 0.05063899 0.03882148 0.117674746
0001b0 fd 07 0c be a5 f0 a3 bc 5b 19 fb 3d 7b 6a 14 3e
       -0.13674922 -0.02001221 0.122606955 0.14493744
0001c0 68 6b 85 3d ab d7 e6 3d 77 47 17 bd f3 8c f0 bb
       0.06514627 0.11271604 -0.03693339 -0.007341021
0001d0 17 3c 5d bc 21 8a a3 bd bc 20 e1 bd 8c 14 d7 bc
       -0.013503096 -0.079853304 -0.10992572 -0.026254915
0001e0 e7 45 2c 3c c1 e1 31 be 9d ca 36 bc f5 44 25 be
       0.010514713 -0.17371275 -0.011156705 -0.16139586
0001f0 55 4f e7 3d a6 b4 22 3d ed 00 d9 bc 9a c8 34 be
       0.11294428 0.03972306 -0.0264897 -0.17654648
000200 52 c5 95 3d dd ba d3 3d 8e 4d 89 be 5c 90 94 3c
       0.073130265 0.10338376 -0.26816982 0.018135242
000210 b5 20 62 bd 04 29 a7 3d 13 b8 e3 39 84 90 b8 bd
       -0.055206973 0.0816212 0.0004343396 -0.09011939
000220 d5 21 19 3e 4b 42 c1 bd e8 2e 68 bc ec 2d f4 3c
       0.14954312 -0.094364725 -0.01417134 0.029807054
000230 73 0b 2d bd cb b7 a0 3d 66 8a 86 bd 58 f3 0e 3d
       -0.042247247 0.07847556 -0.06569366 0.03490004
000240 9b f8 97 bd c7 70 89 bd ad 8c b9 3c 25 26 84 bc
       -0.074204646 -0.06710964 0.022650087 -0.01613147
000250 c7 d8 00 be 7a 76 fd 3b 9d 4a 83 3b fd fd f3 39
       -0.12582694 0.007735071 0.0040066973 0.00046537808
000260 27 d1 d9 3d 44 82 c2 3d 41 f4 f5 bd 1c b5 00 3c
       0.10635596 0.094975024 -0.12009478 0.00785568
000270 b9 66 11 be 73 ce d6 3c 59 82 14 be 8d 4e 31 bb
       -0.14199342 0.02622149 -0.14502849 -0.0027054877
000280 38 8a ff b9 36 34 50 3d 93 9d 1b bd 40 0e 7e 3b
       -0.0004874037 0.050831042 -0.03799207 0.0038765818
000290 b2 70 1d bd c1 5a 5f 3d 15 83 f9 3d 32 df 9f 3c
       -0.038437553 0.05452991 0.12183205 0.019515608
0002a0 91 04 1e 3e 3a 4c 0f 3e cf 2c 8d 3c 3f f2 03 bc
       0.1543143 0.13993922 0.01723328 -0.008053361
0002b0 a1 24 43 3d f5 83 56 3c 12 99 d1 3d 67 fc fc 3d
       0.047642354 0.013092984 0.10234274 0.123528294
0002c0 83 5a a4 3d cd 5b 3e bd a8 af 14 bc 47 fa d8 3b
       0.08025076 -0.046474267 -0.009075083 0.0066216323
0002d0 a7 31 4c bc 58 e1 b3 bd 5f 93 b4 3d 5a c6 09 bd
       -0.01246301 -0.08783215 0.08817171 -0.03363643
0002e0 fd ef 5b bd 58 ac 3e 3e 8f 8d fb bd bc cd 6f bd
       -0.053695668 0.18620431 -0.122828595 -0.058545813
0002f0 67 a5 58 3d d8 91 99 bc ba 31 85 3d f4 b1 3e 3e
       0.052892115 -0.018746302 0.06503625 0.18622571
000300 1d 70 91 3d a8 32 bc 3d 38 86 f6 3b 2e f6 f8 bd
       0.07101462 0.091893494 0.0075233243 -0.1215633
000310 ec 2b 3d bd ca b6 22 bd 81 fe 08 3e ee 71 fb bc
       -0.046184465 -0.039725102 0.13378336 -0.030693974
000320 c0 58 14 bc 1e 2f 92 3c 80 b2 22 bd d3 df bc bd
       -0.009054363 0.017844733 -0.039721012 -0.092223786
000330 55 45 02 3e 52 46 a5 3d 4a f6 7e 3c a2 1c be 3d
       0.1272176 0.08070053 0.01556165 0.09282805
000340 4e 52 62 bd 7d 53 13 3d 45 51 0f 3e 2d d3 51 bc
       -0.055254273 0.035968293 0.13995846 -0.012806696
000350 6c 92 d0 3d ef 7e 0e be 2e 25 72 bd 14 49 a7 39
       0.10184178 -0.13915609 -0.05911749 0.0003190717
000360 47 cd af 3d 76 46 c0 bd d4 61 14 bd a7 94 8b 3d
       0.085840754 -0.09388439 -0.03622611 0.068154626
000370 af 06 92 3d d3 bf dc 3b 8d bd 40 be 2f 1b 67 bd
       0.07130181 0.0067367344 -0.18822308 -0.05642241
000380 b3 f8 c2 bd a7 db ac bc fe 2b 22 3d 50 d1 e0 3c
       -0.09520092 -0.021100832 0.039592735 0.027443558
000390 be 0e 1a 3d 33 ac fe 3b f6 db 2f 3b e9 85 b8 bb
       0.037611715 0.0077719926 0.0026833988 -0.0056311977
0003a0 29 35 0f 3e ef 20 89 bd cf ec 0e be 37 32 41 3d
       0.13985123 -0.06695735 -0.13957523 0.04716703
0003b0 62 c9 bc 3d 9c 25 b2 3a b9 20 03 bd 95 70 2d 3e
       0.09218098 0.0013591531 -0.03201363 0.16937478
0003c0 87 b3 14 bd 66 c2 06 be a2 5d b4 bd 36 b1 e8 bc
       -0.036304023 -0.13160095 -0.088069215 -0.028404813
0003d0 ca b2 69 bd a4 d5 35 3e e7 cd a4 bd 77 7a 0e 3d
       -0.057055272 0.17757279 -0.08047085 0.03478476
0003e0 3d d8 05 3d b7 ad cf 3d 68 0d a2 3d 89 a5 5d bd
       0.032676924 0.10140555 0.07912713 -0.054112945
0003f0 94 0b 8c bd 13 2d 2b bd ef 11 05 be 8b bd 81 3b
       -0.06838146 -0.041791033 -0.12995122 0.003959363

network_body._body_endoder.seq_layers.2.bias f4 [128]
000000 c7 4b 01 ba 78 1f 50 3b 8c 87 a3 bb 3f 09 b8 3b
       -0.0004932251 0.0031757038 -0.0049905237 0.0056163366
000010 e3 25 cb ba d7 77 03 3b 61 ae aa ba db 86 fb ba
       -0.0015498962 0.0020060444 -0.001302194 -0.001918997
000020 ac 08 99 bb 16 fc 58 bb 54 23 65 bb 28 6f e2 3b
       -0.004670223 -0.003310924 -0.0034963684 0.0069102235
000030 61 e3 9b ba c0 8e 57 3b 1a 2b 16 bb 4b da d8 ba
       -0.0011893326 0.0032891482 -0.0022913874 -0.0016544549
000040 c1 57 ad 3a cd e8 07 3c d3 95 ab ba 67 99 8c 3a
       0.0013225005 0.00829525 -0.0013090916 0.001072687
000050 c5 f0 18 bb 5f 8c 0e 3c 90 ca 56 bb fd a3 08 ba
       -0.002333687 0.008700459 -0.0032774545 -0.00052124244
000060 ba d9 d5 3b 74 9c 9f ba 15 ae d9 3b 4c 41 34 3b
       0.006526199 -0.0012177364 0.0066430666 0.002750474
000070 93 c7 f9 3a b4 22 88 3b 3a 01 79 ba 32 92 19 bb
       0.001905667 0.0041545276 -0.0009498779 -0.0023433086
000080 cf b9 d8 ba d6 82 4c bb 27 df 1b bb 40 fb 7d 3a
       -0.0016534867 -0.0031205914 -0.0023784132 0.0009688623
000090 bc a5 28 bb 9a 27 94 b9 e0 40 98 bb 8f c1 4b 3a
       -0.002573355 -0.00028258265 -0.0046464056 0.0007772678
0000a0 30 88 c3 3b 29 bd 7c bb 5a 56 a1 3a da bf 51 bb
       0.0059671625 -0.0038564897 0.001230906 -0.0032005222
0000b0 e0 de 4f bb 5c 4e a0 3a e9 0c cd ba f8 a2 d9 38
       -0.0031718537 0.0012230384 -0.0015644106 0.000103777216
0000c0 e7 a1 4e bb 9a f7 ba bb 55 0e 20 ba 0b 90 5a bb
       -0.0031529607 -0.005705786 -0.0006105651 -0.0033350016
0000d0 55 84 c0 ba 24 a3 bd bb 5c 32 ef ba ab 20 4c bb
       -0.0014687876 -0.00578727 -0.0018249261 -0.0031147401
0000e0 20 d9 ae 3a b7 56 aa 3a 32 97 4c bb 8d 98 8f 3a
       0.0013339855 0.0012995814 -0.003121805 0.0010955498
0000f0 44 b2 21 3b 5a f9 60 b9 6f 2d 36 bb 59 8a 68 3b
       0.0024672905 -0.00021455195 -0.0027798077 0.0035482852
000100 bf 4f 8a 3b dd c5 4d bb d1 4c 9c 3a 4c ef 60 bb
       0.0042209323 -0.0031398453 0.0011924749 -0.003432232
000110 22 a2 ad 3b 68 92 48 3a 1f de fb 3b cf 95 e2 3b
       0.0052988688 0.0007651211 0.007686391 0.006914831
000120 e8 c4 0e 3b 66 e8 fc b9 c9 cd 05 3a 70 b1 c8 bb
       0.0021784846 -0.00048238336 0.0005104212 -0.006124668
000130 f6 1e e1 bb 97 20 9b bb 41 78 af 3a cd 63 d1 ba
       -0.006870146 -0.0047341096 0.0013387279 -0.0015975178
000140 c8 fe 50 3b d8 ef 7c ba a8 62 5e 3a e6 13 02 3b
       0.0031890143 -0.00096487766 0.0008483329 0.0019848286
000150 c1 6b b7 b8 17 4c 51 ba 26 2d 02 3c 31 16 aa 3a
       -8.746191e-05 -0.00079840556 0.007945335 0.0012976584
000160 cf d4 a7 3b 3a 95 01 bb ae 89 fc 3a 68 15 5e bb
       0.0051218043 -0.0019772784 0.0019267106 -0.003388727
000170 2c f5 0c 3b 4e 01 c4 3b 5f bf 34 3b 4f 47 ac 38
       0.0021508439 0.005981601 0.0027579886 8.2148814e-05
000180 4d f3 31 bb 65 e6 8b 3a cd 52 85 3b 90 5c ea 3a
       -0.0027153075 0.0010673521 0.0040687085 0.0017880369
000190 68 cc 02 bb 51 2a 3b bb d9 44 83 bb 8b b5 0c bb
       -0.0019958261 -0.0028559158 -0.00400601 -0.0021470513
0001a0 21 ac b1 bb 78 51 78 bb 24 e3 9c 3a 3d a1 b7 ba
       -0.0054221307 -0.0037890356 0.0011969549 -0.0014009845
0001b0 8a f2 e5 ba 25 7a 3a 3c d6 47 d6 3a 73 10 71 bb
       -0.0017543596 0.011381661 0.0016348313 -0.0036783486
0001c0 cb 77 f7 ba 2b dc 62 bb 71 cd 7d 3b 59 9a fc 3a
       -0.0018880306 -0.0034616094 0.003872719 0.0019272073
0001d0 72 10 29 bb 27 7a 63 3b c4 e1 9e bb e3 64 7b 3b
       -0.0025797156 0.003471026 -0.0048486907 0.0038359694
0001e0 ea 69 ed 3a 1f 10 7c ba f8 0b d8 bb 9e 58 3a bb
       0.001811323 -0.00096154393 -0.0065932237 -0.0028434168
0001f0 10 87 aa ba 4c d9 20 bb d9 ed 3d bb 01 ce 5e bb
       -0.0013010222 -0.0024543582 -0.002898088 -0.00339973

action_model._continuous_distribution.log_sigma f4 [1, 2]
000000 18 66 17 3c 02 59 61 3a
       0.00924065 0.0008596332

action_model._continuous_distribution.mu.weight f4 [2, 128]
000000 5c 1f 6a bc 27 18 4a 3d a9 ef 0b bc 1e a3 eb 3c
       -0.014289703 0.04933944 -0.008541026 0.028764304
000010 d7 f6 7d bc f1 b2 a4 3c f1 6c 93 bc 13 6a 45 bc
       -0.015500746 0.020104857 -0.017996283 -0.012049216
000020 15 14 56 bc 0a 1d bb bb ea 9e 21 3c 34 bf bd bc
       -0.013066311 -0.005710249 0.009864548 -0.023162462
000030 de 79 1f 3c 18 5b f3 bb d6 c6 69 3c 00 03 bc bb
       0.009733645 -0.0074266307 0.014268598 -0.0057376623
000040 92 bb 94 3c 74 41 2a 3c a9 d3 94 bb 60 c9 8d 3c
       0.018155847 0.010391582 -0.0045418334 0.017307937
000050 6d 46 d5 3c 85 db 4a 3d 57 25 a2 bc 4e 55 0a 3c
       0.026034558 0.049525756 -0.019793196 0.00844319
000060 09 a1 04 bc 51 0f 51 bc ae a1 11 3b 80 14 dc 3c
       -0.008095034 -0.012759999 0.0022221613 0.026865244
000070 ed 12 94 3c f1 50 56 bc 9c de 85 3c 8a 20 a0 3c
       0.01807543 -0.013080821 0.0163415 0.019546766
000080 2d 00 aa 3a ae 4a e3 bb 17 d9 cb ba 18 4b 9f bc
       0.0012970023 -0.0069363927 -0.0015552369 -0.019444987
000090 7e 77 10 ba eb 42 ae 3c 32 0c da bc 3a 24 b6 3b
       -0.000551097 0.021272143 -0.026617143 0.0055585178
0000a0 1d 77 d0 bc 74 b1 ed bc ab b5 07 bc 31 2a 5e 3c
       -0.025447423 -0.02901528 -0.008283059 0.013559864
0000b0 8c 90 be bb 04 2e 22 3c 9d 08 12 bc f2 82 f3 3b
       -0.005815571 0.009898666 -0.008913186 0.0074313814
0000c0 01 31 52 bb db 9d 95 bc a0 77 1b bc f0 be 6a 3b
       -0.0032072666 -0.018263748 -0.00948897 0.0035819374
0000d0 06 72 5e 3c 9e e5 0a 3c 69 25 af 3b 3b b6 91 bc
       0.01357699 0.008477597 0.005345036 -0.01778709
0000e0 93 f1 a5 bc 30 5c 86 3b e1 f6 8d bb bd a3 e6 39
       -0.020256793 0.004100345 -0.004332409 0.00043991013
0000f0 fd c1 0c 3d 39 12 85 3b d2 70 3a bc 1a d2 eb 3b
       0.03436469 0.00406101 -0.0113794375 0.007196677
000100 dd e0 fc bc 77 43 82 3c 45 bc 2b 3b 1a 34 01 bd
       -0.030868942 0.01590131 0.0026204747 -0.03154383
000110 80 3f f9 bc da c9 69 3c 03 2e d1 3c 6c 93 8e 3c
       -0.030425787 0.014269317 0.025534635 0.01740428
000120 2d 22 8f 3c 02 61 3d bc 09 52 1e 3c ac f8 35 3b
       0.017472351 -0.011558773 0.009663113 0.0027766628
000130 b9 cb d7 bc fd 64 ff bc f2 82 37 3b c7 74 1d 3c
       -0.02634226 -0.031176085 0.0028001633 0.009610361
000140 bf e8 2d 3d 41 73 b7 bb 7c a5 ac 39 4b 4a 5b 3c
       0.042458292 -0.005598456 0.00032929692 0.013384412
000150 89 09 9e bc 95 0b 1f 3c 25 80 97 3c 00 5d d7 3a
       -0.019291656 0.009707351 0.018493721 0.0016430914
000160 f7 49 d5 bc a2 eb c2 3c d9 16 02 3b 21 1d 16 bb
       -0.026036246 0.023794 0.0019850044 -0.0022905546
000170 2a 24 19 bd b2 0b d2 3c d5 9a 8b bc 76 a5 c6 bb
       -0.037388004 0.025640342 -0.017041603 -0.006062205
000180 f4 10 02 3c 2d 55 31 3c 32 8a 45 bc 98 51 aa 3b
       0.007938612 0.01082353 -0.012056874 0.005197715
000190 0d da e6 3b e7 49 e7 3a 78 0e df bc b8 bd e1 bb
       0.0070450366 0.0017645926 -0.027228579 -0.0068890713
0001a0 eb d1 9b b8 de de 4e ba 4b d4 f5 ba 8c 8e 3f 3c
       -7.430076e-05 -0.0007891486 -0.0018755285 0.011691701
0001b0 88 e8 aa bb b9 e9 a0 bc eb a6 01 bc 17 84 13 bc
       -0.005215708 -0.019642698 -0.0079133315 -0.009003661
0001c0 aa 0c ab bc 75 93 da 3b 46 60 aa bc a8 80 20 bd
       -0.020880062 0.0066704103 -0.02079786 -0.039185196
0001d0 99 59 d1 bb 41 e0 4b bc 1f 13 c4 bb 0d db 27 3c
       -0.0063888547 -0.012443603 -0.0059837247 0.010245097
0001e0 cb 93 24 3d ba 64 85 bc 8d 64 a8 3c 7a 69 17 bc
       0.04018001 -0.016283382 0.020555759 -0.009241456
0001f0 32 ef ba 3b 4a e6 bb bc 02 78 41 bc 29 b6 c2 3a
       0.005704784 -0.022936959 -0.011808397 0.0014855313
000200 fc e8 98 3c 7f 82 ad bc 82 e1 89 3c 3b 3e 87 3b
       0.018665783 -0.02118039 0.016831163 0.0041272915
000210 8c 2b 83 bc 70 9b 1e 3c 27 7b 31 3c 61 d4 03 3c
       -0.016011976 0.009680614 0.010832584 0.008046241
000220 ba 49 3a 3d 32 36 c1 3c 3c c9 58 3b 0a 79 fa bc
       0.045480467 0.023585413 0.003307893 -0.030575294
000230 2c f7 df 3c b8 01 61 bc b4 d6 36 3c fc 17 1f 3c
       0.02733954 -0.01373332 0.011159588 0.009710308
000240 44 27 08 3c 65 49 17 3c 90 b9 f1 3c 3d 75 0a ba
       0.008310143 0.009233807 0.029507428 -0.0005281752
000250 12 b2 90 3c 66 9c 25 bd 59 08 8b 3c 85 ef 88 bc
       0.017663036 -0.040432356 0.016971754 -0.016715774
000260 3e 4c 8b 3c 81 3d 9e 3c 02 2d 8a 3b 15 38 4c 3c
       0.017004129 0.019316437 0.004216791 0.012464543
000270 f8 77 b4 bc 6b f7 b3 bc 0d 08 37 3c 00 c8 84 3c
       -0.022029862 -0.021968564 0.011171353 0.016208649
000280 44 e4 f3 ba e8 61 c5 3c 9f aa 97 bc 3e 71 b4 3c
       -0.0018607457 0.024094537 -0.018513976 0.022026654
000290 3d 64 87 3c 63 53 f2 3c 85 6f d1 bb 19 14 3a 3c
       0.01652729 0.029580778 -0.006391468 0.011357331
0002a0 13 8a f7 bc 60 9f a3 3b 10 96 ea bc 30 8f 66 3c
       -0.030217206 0.004993364 -0.028636009 0.0140722245
0002b0 e7 d4 b4 bb 91 cf 47 bc 5d 0b bc 3c bc 23 01 bc
       -0.005518544 -0.012195484 0.022954637 -0.007882055
0002c0 97 f6 37 3a c9 b9 8a 3a 84 45 a8 3b ba 94 8e bc
       0.0007017641 0.0010583933 0.00513524 -0.017404903
0002d0 2a 7f 69 3c 82 aa 65 bb 3a 7a 8f bc 16 be e5 3b
       0.01425151 -0.0035044258 -0.017514337 0.0070111854
0002e0 e1 1a a1 bc 3a 0c 51 bc f4 40 41 bb 4a 7a a6 3c
       -0.019666137 -0.012759263 -0.0029488178 0.020321984
0002f0 fb 30 62 39 af 57 1c bc 1a 66 37 3d 65 48 be bb
       0.00021571286 -0.00954239 0.044775106 -0.00580697
000300 d5 40 2a bc 80 44 96 3c 94 56 76 bc f3 92 9e 3c
       -0.010391434 0.01834321 -0.01503529 0.01935718
000310 dd 33 97 bc 54 34 11 bc b9 df 1d bb 5f e1 02 bd
       -0.018457348 -0.008862574 -0.0024089648 -0.031953212
000320 ad c2 ac bc aa eb 6a bc 83 46 e2 3b 47 a3 2e 3b
       -0.021088922 -0.014338413 0.0069053783 0.0026647614
000330 50 ec f3 3c 51 57 95 bb 4d 45 eb bc 34 a8 5f bc
       0.029775769 -0.004557528 -0.028719569 -0.013650943
000340 04 a1 78 bc f7 f9 4f 3a b7 52 78 bc ec ea 64 3b
       -0.015175108 0.0007933671 -0.0151564395 0.0034930063
000350 72 7e f0 3c 84 14 2f 3b 40 56 96 bc 9b cf 15 bc
       0.029357169 0.002671511 -0.018351674 -0.009143735
000360 03 7d a6 39 b4 b5 01 3c a8 0b 8e 3b 97 c8 c0 3b
       0.00031755128 0.007916857 0.0043348856 0.005883287
000370 60 33 dd 3c 9b c8 2b bc 18 e9 0b bc 50 ae cd bb
       0.027002037 -0.01048484 -0.008539461 -0.006276883
000380 13 02 c8 3c 36 d2 8b bc 1b b7 84 3b 75 da 1a bc
       0.024415052 -0.01706801 0.004050148 -0.009451498
000390 f5 6e 36 3d 74 36 94 3c 6b 08 56 3c 74 8a a9 bb
       0.04453941 0.018092372 0.01306353 -0.0051739756
0003a0 49 48 89 3c 31 b3 c7 3c 0a 5b e4 bc ec 73 5c 3d
       0.016758101 0.024377437 -0.027875442 0.05382149
0003b0 cb 3e eb 3b 9e a4 73 bb a1 7e 7a 3c 80 95 8b bb
       0.0071791164 -0.0037176977 0.01528898 -0.004259765
0003c0 b8 b2 19 bc b1 c5 78 3a b0 b8 05 3c 97 50 42 3c
       -0.009380989 0.00094899075 0.008161709 0.011860034
0003d0 b0 0e 53 bb a8 de 19 3d 3f 09 49 3c 6c ba 26 bd
       -0.00322048 0.037565857 0.012270271 -0.04070513
0003e0 d9 c1 c6 bc cd 91 b6 bb c0 1c 45 bc 13 94 b7 38
       -0.024262356 -0.00557158 -0.01203078 8.753701e-05
0003f0 fa 1f da bb b1 d0 44 bc f5 51 f1 3c 0b f6 6d 3c
       -0.006656644 -0.0120126465 0.029458025 0.014523993

action_model._continuous_distribution.mu.bias f4 [2]
000000 77 f7 ce 3a 38 2a 22 bb
       0.0015790303 -0.0024744403

action_model._discrete_distribution.branches.0.weight f4 [5, 128]
000000 f9 d0 0b bc a1 cf de bb 65 e6 1d bb 25 e2 bf bb
       -0.00853371 -0.0067996536 -0.0024093625 -0.005855816
000010 1d 5b 43 3b 29 6a 3c ba d3 ae da 3b 16 82 a6 3b
       0.0029808946 -0.000718745 0.0066736727 0.0050814254
000020 bb b6 87 bb c1 d1 67 3c e0 74 55 ba 89 ed 43 bc
       -0.004141656 0.01414913 -0.0008142721 -0.011958488
000030 85 57 3f 3c ee 43 a6 bb 91 be 0e bc 06 67 0d 3c
       0.011678581 -0.005074016 -0.008712427 0.00863052
000040 93 2b cd 39 b5 c6 e3 bb 76 94 30 bc c0 c7 73 3c
       0.00039133112 -0.006951178 -0.010777583 0.014879167
000050 ab c2 16 ba 78 66 0c bc 8d 38 64 b9 c6 51 ba bb
       -0.00057510537 -0.008569352 -0.00021764841 -0.0056860177
000060 b0 c2 d4 bb 06 4d 9a bc 4e 4c a1 bb 3d 36 10 3a
       -0.006492935 -0.018835556 -0.0049224263 0.0005501246
000070 86 54 7b 3c 15 5d 59 3b 4f ec 2f 3c ef cf 9a 3a
       0.015339976 0.0033167053 0.010737493 0.0011811237
000080 40 0d 13 ba 02 df 80 bb e1 42 15 bc 0f e9 33 bb
       -0.00056095794 -0.0039328346 -0.009110183 -0.0027452146
000090 9c 38 7c bb 7d 37 7e bb 28 27 6b bb 92 e7 03 3c
       -0.003848589 -0.0038790398 -0.0035881493 0.008050816
0000a0 be 7f f1 3b d4 fa da 38 03 de 6c bc af 9e 47 3a
       0.0073699644 0.000104417704 -0.014457229 0.0007614893
0000b0 c0 bc 0e bc 9b 04 99 3c a6 32 de 3b d6 23 a4 bb
       -0.008711994 0.018678954 0.00678094 -0.005009155
0000c0 94 d1 5a bc ab aa e2 3b ed 54 7c bc 39 e7 4a bb
       -0.013355631 0.006917318 -0.015401107 -0.0030960573
0000d0 fb ee 17 3c 76 0c 84 3c 31 f2 bc ba ed 50 99 bc
       0.009273286 0.016119223 -0.001441544 -0.018715346
0000e0 b3 54 ec ba 31 4c 0c 3c 9c 49 a4 bc 07 53 37 3c
       -0.0018030613 0.008563087 -0.020054631 0.011189229
0000f0 52 f4 21 3c ea ec fb 3b 3f c9 e1 38 d2 fa 9e 3b
       0.009884911 0.0076881545 0.00010766321 0.0048516775
000100 d5 67 2b bc ff 9f 85 3c c4 bd 1c 3c 48 24 80 3b
       -0.010461767 0.016311644 0.009566728 0.003910575
000110 13 9d 8f bb 43 f3 bf bb 4e f9 b0 bb c9 81 2f 3b
       -0.0043827384 -0.0058578565 -0.005400813 0.002678024
000120 d5 40 b7 ba 2c ae d3 3b 75 48 e7 3c cd 84 14 bc
       -0.0013981113 0.006459972 0.028232792 -0.009064865
000130 eb 10 75 3b de 76 4e bc a4 48 79 bc 63 3a 99 ba
       0.0037394117 -0.012601582 -0.015215073 -0.0011690374
000140 e5 df 3d bc c1 fd 40 3c 97 6e b8 ba e8 08 1a 3c
       -0.011589025 0.01177925 -0.0014071044 0.0094015375
000150 5a 9d b9 bb cf 14 3a bb 7f 6b aa bb b8 60 32 3b
       -0.0056645097 -0.002839375 -0.005200803 0.0027218293
000160 1e ca 47 ba af 7b 1a 3c 6c e1 7b 3b 40 2a 47 3a
       -0.00076213654 0.0094289025 0.0038433922 0.00075975433
000170 b6 cd 03 3c d7 8f c7 3b 27 01 4e b9 10 c6 a9 bb
       0.008044651 0.006090145 -0.0001964612 -0.0051810816
000180 60 8e 0a 3c 40 87 8b bb ae e9 46 bc 64 0d d1 bc
       0.008456796 -0.0042580664 -0.0121406745 -0.02551908
000190 52 25 b0 bb e7 16 94 3c 20 4e 5a bb 38 5f b0 bb
       -0.0053755427 0.018077327 -0.0033310726 -0.0053824447
0001a0 8b c4 94 bc 2d c5 22 3b ba cb 88 3b bb 9a 88 bb
       -0.018160125 0.0024836764 0.0041746767 -0.004168836
0001b0 bb 37 b2 bc 10 a1 83 bb e0 e5 b7 3c a9 3a c4 3a
       -0.02175509 -0.004017003 0.02244848 0.0014971095
0001c0 6c cd 36 bc 66 f4 99 3b 3a ac df bc 41 2e 8a bc
       -0.011157375 0.004698324 -0.027303804 -0.016867759
0001d0 e7 3b e3 3b 4f c5 b8 3b 41 0f 11 bc 82 ee 3d 3c
       0.006934631 0.0056387554 -0.0088537345 0.011592509
0001e0 66 5d 59 3a c3 07 34 bc 7f d1 a5 bc 73 6d c6 bb
       0.00082918105 -0.010988179 -0.020241497 -0.006055528
0001f0 de 36 47 bb b0 d5 4f 3c 5d 1c c2 b8 fe 6d 8c 3c
       -0.0030397694 0.012685224 -9.255924e-05 0.017142292
000200 25 93 30 bb a4 76 21 bb a7 a8 fa 3b 66 ee 0b bc
       -0.0026943174 -0.0024637366 0.0076494995 -0.008540725
000210 ad 56 78 3c 88 31 b0 3b 5e 19 9c 3c 82 c7 3a bc
       0.015157384 0.0053769983 0.019055065 -0.011400105
000220 c1 59 25 bc 88 34 9b bc ae b0 96 bc b6 28 76 3b
       -0.0100922 -0.018945947 -0.018394794 0.0037560887
000230 fb b7 e1 3b 58 60 b8 b9 ad e1 16 bc 0a ee 0c 3c
       0.0068883873 -0.00035166997 -0.009209079 0.008601675
000240 b3 7e 69 bb 7b 29 26 bc 32 e0 bb 3a 1c bb 05 3c
       -0.0035628497 -0.010141726 0.0014333783 0.008162286
000250 3e 65 55 3c 5c 0d 9d bb 46 87 06 39 2b 6a b0 3b
       0.013024626 -0.0047928523 0.00012829629 0.00538375
000260 36 04 86 3c 1b c2 42 3c 9f f3 de 3c d0 de 71 bc
       0.01635943 0.011887099 0.027215777 -0.014762595
000270 08 dd 04 3b b5 ff a8 bc 31 24 02 3b 71 5a bb 3b
       0.0020273346 -0.020629743 0.0019857998 0.0057175686
000280 dd 19 1c 3c a2 6e 5a bb b0 05 8c 3b 18 aa 91 bc
       0.009527651 -0.0033330102 0.004273139 -0.017781302
000290 76 61 a1 3c e4 f6 44 bb ad 05 53 bc c1 71 2d 3c
       0.019699793 -0.0030054385 -0.012879771 0.010586203
0002a0 77 70 d3 bc 69 dd f9 bb ae 13 f7 bb 67 e6 a6 bb
       -0.025810463 -0.007625271 -0.007540188 -0.005093384
0002b0 68 75 e3 3b 1d 07 21 3c 76 0e a1 3a ad 2a 07 3c
       0.006941486 0.009828356 0.0012287635 0.008249921
0002c0 6e b1 50 bc a3 90 ae 3b c7 fd 2c 3c fc d4 29 39
       -0.012737615 0.0053273006 0.010558552 0.00016196439
0002d0 35 a4 b4 ba 7c bf 45 3c 21 b5 e2 3b 8c 3d 00 bc
       -0.0013781848 0.012069579 0.006918565 -0.007827174
0002e0 a2 6d 8a bc 64 54 93 3b 12 df 86 3c c6 2a 3d 3c
       -0.01689798 0.004496144 0.01646379 0.0115458425
0002f0 43 d3 28 bc e8 5d 0a 3c 71 29 e6 bb 96 7b 44 bc
       -0.010304275 0.008445241 -0.007023983 -0.011992356
000300 6b ab 83 3b 1b 66 ae 3c d4 d8 b0 3b 19 95 1f 3c
       0.0040182373 0.021288922 0.0053969417 0.0097401375
000310 a5 20 60 bc 3a 03 12 bc d1 b1 76 3c f0 fe 53 3c
       -0.013679658 -0.008911902 0.015057043 0.0129392
000320 45 46 bf bb 43 55 3d 3c 69 56 d1 3b 6f 3e c5 3b
       -0.005837234 0.0115559725 0.0063884747 0.0060194056
000330 63 3c 38 bb 4f d0 74 3b 91 4f a4 3b 2a b3 4a 3c
       -0.0028112165 0.0037355607 0.005014368 0.012371818
000340 fe 88 b5 3a 83 43 30 3b 84 54 3a bc 31 3e 0d 3b
       0.0013850031 0.002689571 -0.011372689 0.0021551962
000350 a4 91 b7 3c ec 18 19 3b c5 a3 8d 3c 59 13 ee 3b
       0.022408314 0.0023360802 0.017290005 0.00726549
000360 87 13 bc 39 87 fa 62 ba 42 62 8e bb e7 60 64 bc
       0.00035872703 -0.00086585473 -0.0043452093 -0.013939119
000370 b8 89 3c 3c b3 83 a0 bc dc 0a 23 bc 1b 51 ee 3c
       0.011507444 -0.01959405 -0.00995132 0.029091408
000380 bf b5 3c bb 40 54 73 bc 0e 4d 6a bb 3d 2f 04 bc
       -0.0028794853 -0.01485163 -0.0035751495 -0.008067903
000390 b9 69 97 bc 09 31 72 bb 12 03 b6 bb e3 fc 97 bb
       -0.01848303 -0.0036955497 -0.005554565 -0.0046383007
0003a0 99 4f 73 bb fd ad 41 3b c9 57 bd bb 70 b7 0e bc
       -0.0037126301 0.0029553168 -0.005778287 -0.008710727
0003b0 57 e5 f8 3b bb a6 b9 3a 85 ce e4 3b 31 8d 13 3c
       0.007595699 0.001416407 0.006982627 0.009005831
0003c0 67 f9 b3 3b 4c 95 b1 3b 7c 0b fa bb 00 96 a3 bb
       0.0054923776 0.005419409 -0.0076307636 -0.0049922466
0003d0 dc ee bd 3b b4 1e 76 bb c3 fe ad 3b b2 9a 5b bc
       0.0057962965 -0.0037554922 0.005309911 -0.013403581
0003e0 1f 24 26 3c 38 e6 06 3c 5b 94 28 bb 1a 5b a4 3c
       0.010140448 0.008233599 -0.0025723192 0.020062972
0003f0 5f 9c b5 b9 64 5e 71 bc 22 17 05 3c d6 2f 89 bc
       -0.00034639516 -0.014731977 0.008123191 -0.016746443

action_model._discrete_distribution.branches.0.bias f4 [5]
000000 29 7c 1f 3b ab 9e 4b bb 27 bf e9 3a 07 8a 1f 3b
       0.002433548 -0.0031069915 0.0017833457 0.0024343745
000010 ed 51 1a bb
       -0.0023547367

exp_avg f4 [128, 140]
000000 01 46 53 34 00 00 00 00 a3 ad 6d 2d ac 0a 88 33
       1.9676374e-07 0.0 1.3510445e-11 6.334935e-08
000010 5d 76 13 34 00 00 00 00 6f b0 83 2d c9 fa 9d 33
       1.3733502e-07 0.0 1.4971328e-11 7.3565e-08
000020 31 46 4b 34 00 00 00 00 28 aa 6d 2d fe 89 93 33
       1.8931384e-07 0.0 1.35096725e-11 6.8703216e-08
000030 81 ad b6 33 00 00 00 00 1c 03 84 2d d9 0b ed 33
       8.5065956e-08 0.0 1.5008043e-11 1.10383276e-07
000040 92 4f d7 33 00 00 00 00 92 aa 6d 2d 76 c5 c3 33
       1.00261914e-07 0.0 1.35097645e-11 9.116313e-08
000050 fe 50 da 30 00 00 00 00 1b f6 83 2d d2 96 3e 34
       1.5884607e-09 0.0 1.5002269e-11 1.7749997e-07
000060 12 07 68 33 00 00 00 00 73 b0 6d 2d 8b 50 c7 33
       5.402314e-08 0.0 1.351107e-11 9.28131e-08
000070 3e 6d ea 33 00 00 00 00 b5 10 2d 2d f1 c5 12 34
       1.0916345e-07 0.0 9.837621e-12 1.366932e-07
000080 fc ad b2 31 00 00 00 00 1e 94 f1 aa 25 ae de 33
       5.2002616e-09 0.0 -4.2912977e-13 1.0369357e-07
000090 70 ac 11 34 00 00 00 00 84 2a ce 31 d5 5b 00 34
       1.356691e-07 0.0 6.0002225e-09 1.1954337e-07
0000a0 69 ab 3d 32 00 00 00 00 30 23 ce 31 cd 96 c7 33
       1.1040222e-08 0.0 5.9993894e-09 9.29409e-08
0000b0 76 75 c9 33 00 00 00 00 f7 dc 59 2b f7 db 70 33
       9.381158e-08 0.0 7.7400537e-13 5.607941e-08
0000c0 b7 37 9d 32 00 00 00 00 cc 09 84 a9 71 13 ad 33
       1.8302542e-08 0.0 -5.863677e-14 8.0594766e-08
0000d0 7e e0 62 33 00 00 00 00 f7 dc 59 2b 33 f0 24 33
       5.28239e-08 0.0 7.7400537e-13 3.8402685e-08
0000e0 05 94 9c 31 00 00 00 00 cc 09 84 a9 e4 cc 85 33
       4.5570254e-09 0.0 -5.863677e-14 6.2305645e-08
0000f0 e6 20 be 33 00 00 00 00 13 cb 63 2b 80 7e 07 33
       8.853549e-08 0.0 8.092842e-13 3.1547188e-08
000100 ae b0 e6 b0 00 00 00 00 cc 09 84 a9 6a d4 68 33
       -1.6784918e-09 0.0 -5.863677e-14 5.42099e-08
000110 cf 90 86 33 00 00 00 00 c6 76 54 ab c3 4a 35 33
       6.266202e-08 0.0 -7.548236e-13 4.2210342e-08
000120 cf 90 86 33 00 00 00 00 c6 76 54 ab c3 4a 35 33
       6.266202e-08 0.0 -7.548236e-13 4.2210342e-08
000130 a8 cb 74 b5 2c c7 e0 b5 e0 a7 88 b6 b2 52 23 36
       -9.119344e-07 -1.6747267e-06 -4.072659e-06 2.4337028e-06
000140 f1 6c 96 35 3a 4b 2e b7 c6 cb 4f 37 f1 6c 96 35
       1.1207577e-06 -1.0388723e-05 1.2385606e-05 1.1207577e-06
000150 2e a2 ce b6 75 88 f7 35 2f 0d ac b2 85 0a 1d 33
       -6.1581586e-06 1.8442648e-06 -2.002943e-08 3.656398e-08
000160 74 bc 6e b4 f2 df 19 36 e3 68 0a b4 f7 29 73 31
       -2.2234036e-07 2.292913e-06 -1.2890409e-07 3.5385008e-09
000170 f9 10 83 b2 00 00 00 00 00 00 00 00 00 00 00 00
       -1.5258125e-08 0.0 0.0 0.0
000180 00 00 00 00 00 00 00 00 00 00 00 00 00 00 00 00
       0.0 0.0 0.0 0.0
000190 00 00 00 00 00 00 00 00 00 00 00 00 00 00 00 00
       0.0 0.0 0.0 0.0
0001a0 00 00 00 00 00 00 00 00 00 00 00 00 00 00 00 00
       0.0 0.0 0.0 0.0
0001b0 00 00 00 00 00 00 00 00 00 00 00 00 00 00 00 00
       0.0 0.0 0.0 0.0
0001c0 00 00 00 00 00 00 00 00 00 00 00 00 00 00 00 00
       0.0 0.0 0.0 0.0
0001d0 00 00 00 00 00 00 00 00 00 00 00 00 00 00 00 00
       0.0 0.0 0.0 0.0
0001e0 00 00 00 00 00 00 00 00 00 00 00 00 00 00 00 00
       0.0 0.0 0.0 0.0
0001f0 00 00 00 00 00 00 00 00 00 00 00 00 00 00 00 00
       0.0 0.0 0.0 0.0
000200 00 00 00 00 00 00 00 00 00 00 00 00 00 00 00 00
       0.0 0.0 0.0 0.0
000210 00 00 00 00 00 00 00 00 00 00 00 00 00 00 00 00
       0.0 0.0 0.0 0.0
000220 00 00 00 00 00 00 00 00 00 00 00 00 00 00 00 00
       0.0 0.0 0.0 0.0
000230 0d c2 79 36 00 00 00 00 eb be 25 af a7 8b 81 35
       3.7216844e-06 0.0 -1.507449e-10 9.651893e-07
000240 76 73 c2 36 00 00 00 00 8d 71 66 2f c2 7f 87 35
       5.795092e-06 0.0 2.095872e-10 1.0095466e-06
000250 86 86 4f 36 00 00 00 00 fb b6 25 af de 30 94 35
       3.0923707e-06 0.0 -1.507167e-10 1.1041082e-06
000260 8b 9f 9e 36 00 00 00 00 e0 90 66 2f ca 89 2a 34
       4.72734e-06 0.0 2.0969848e-10 1.5882611e-07
000270 80 d5 16 36 00 00 00 00 6f c6 25 af 3a 50 91 35
       2.2476015e-06 0.0 -1.507716e-10 1.0826691e-06
000280 32 ba 47 36 00 00 00 00 95 92 66 2f 92 66 91 35
       2.976169e-06 0.0 2.0970455e-10 1.0833194e-06
000290 c2 1e 89 36 00 00 00 00 34 d7 25 af 10 6e 94 b4
       4.086499e-06 0.0 -1.5083118e-10 -2.764723e-07
0002a0 3c fd 84 37 00 00 00 00 84 1b 5c 2d 5d 17 5c b5
       1.5853548e-05 0.0 1.2511662e-11 -8.1990385e-07
0002b0 ea a5 f7 35 00 00 00 00 e2 28 7b b0 99 30 65 36
       1.8451221e-06 0.0 -9.1371366e-10 3.4151947e-06
0002c0 a6 ba 0a 37 00 00 00 00 e6 ac 88 35 37 ce c3 35
       8.2688985e-06 0.0 1.018311e-06 1.4588649e-06
0002d0 56 c3 0c 36 00 00 00 00 38 a1 88 35 52 69 8f 36
       2.0975326e-06 0.0 1.017971e-06 4.273993e-06
0002e0 17 c8 5e 37 00 00 00 00 ac a8 c8 2f 04 4e 92 b4
       1.3278818e-05 0.0 3.6499637e-10 -2.7251383e-07
0002f0 6b c0 90 b6 00 00 00 00 1f 2d dd 2d ed a3 c2 36
       -4.313935e-06 0.0 2.5144829e-11 5.800734e-06
000300 5a 82 22 37 00 00 00 00 ac a8 c8 2f a2 27 7e 34
       9.686302e-06 0.0 3.6499637e-10 2.3670012e-07
000310 cb 80 a0 b5 00 00 00 00 1f 2d dd 2d 46 fa b7 36
       -1.1958413e-06 0.0 2.5144829e-11 5.4829607e-06
000320 cc 01 30 37 00 00 00 00 56 9f c1 2f 01 d0 04 35
       1.0490836e-05 0.0 3.521971e-10 4.947652e-07
000330 ba f9 95 b6 00 00 00 00 1f 2d dd 2d e4 15 8b 36
       -4.469618e-06 0.0 2.5144829e-11 4.145071e-06
000340 f8 55 c8 b5 00 00 00 00 89 41 32 2e 72 62 7a 36
       -1.4926181e-06 0.0 4.053072e-11 3.7310206e-06
000350 f8 55 c8 b5 00 00 00 00 89 41 32 2e 72 62 7a 36
       -1.4926181e-06 0.0 4.053072e-11 3.7310206e-06
000360 f8 d8 34 38 c5 0f 65 b8 1b 9b 9e b7 a9 d6 03 3a
       4.3117412e-05 -5.461254e-05 -1.8907294e-05 0.000502924
000370 3f 14 19 38 fe d8 df b9 d0 ae c4 39 3f 14 19 38
       3.64969e-05 -0.00042695546 0.0003751428 3.64969e-05
000380 b2 01 1e b9 a3 6f 00 b6 5a 66 a5 b7 9e c9 c8 34
       -0.00015068686 -1.9138467e-06 -1.9717194e-05 3.73996e-07
000390 cf 97 8a b7 41 89 af 37 0e 94 19 b7 15 76 1d b5
       -1.6521573e-05 2.092554e-05 -9.153982e-06 -5.865889e-07
0003a0 ec 0e c0 b5 00 00 00 00 00 00 00 00 00 00 00 00
       -1.4309458e-06 0.0 0.0 0.0
0003b0 00 00 00 00 00 00 00 00 00 00 00 00 00 00 00 00
       0.0 0.0 0.0 0.0
0003c0 00 00 00 00 00 00 00 00 00 00 00 00 00 00 00 00
       0.0 0.0 0.0 0.0
0003d0 00 00 00 00 00 00 00 00 00 00 00 00 00 00 00 00
       0.0 0.0 0.0 0.0
0003e0 00 00 00 00 00 00 00 00 00 00 00 00 00 00 00 00
       0.0 0.0 0.0 0.0
0003f0 00 00 00 00 00 00 00 00 00 00 00 00 00 00 00 00
       0.0 0.0 0.0 0.0

exp_avg_sq f4 [128, 140]
000000 eb 23 fe 28 00 00 00 00 40 c0 a9 28 d0 1f b7 29
       2.8215242e-14 0.0 1.8846144e-14 8.132351e-14
000010 3e f9 d6 28 00 00 00 00 5f a3 a9 28 54 e0 c1 29
       2.3866864e-14 0.0 1.883362e-14 8.6098365e-14
000020 43 1b 11 28 00 00 00 00 71 c4 cf 2a 43 e2 e1 2a
       8.055028e-15 0.0 3.6906895e-13 4.012503e-13
000030 42 2b 14 29 00 00 00 00 4d 91 a3 28 09 df 05 2a
       3.2900122e-14 0.0 1.815965e-14 1.1890154e-13
000040 12 34 61 28 00 00 00 00 60 ab c6 2a 92 fb e2 2a
       1.25013e-14 0.0 3.529078e-13 4.0320227e-13
000050 a0 7c 89 29 00 00 00 00 8d 9f a1 28 6e 79 7f 2a
       6.105641e-14 0.0 1.7943785e-14 2.2690679e-13
000060 24 c8 5f 29 00 00 00 00 47 bf be 2a cd ef d0 2a
       4.968954e-14 0.0 3.3883505e-13 3.7114617e-13
000070 10 fa 61 2b 00 00 00 00 41 12 cc 28 08 4c c7 2b
       8.028309e-13 0.0 2.2656466e-14 1.4160903e-12
000080 68 41 d6 28 00 00 00 00 af 60 c7 2a 46 5d de 2a
       2.3787138e-14 0.0 3.541659e-13 3.9499843e-13
000090 a7 24 4c 2a 00 00 00 00 03 57 2c 24 ba ac 43 2c
       1.8131556e-13 0.0 3.7370257e-17 2.780705e-12
0000a0 3d 61 aa 28 00 00 00 00 4d 79 b9 2a 09 84 d8 2a
       1.8915962e-14 0.0 3.294677e-13 3.8460926e-13
0000b0 dd 98 37 2a 00 00 00 00 aa a6 d0 22 cd 35 d0 2b
       1.63067e-13 0.0 5.6554975e-18 1.4794222e-12
0000c0 bf 2e 44 28 00 00 00 00 bd 74 b9 2a 2c 83 da 2a
       1.0890322e-14 0.0 3.2943605e-13 3.8815598e-13
0000d0 b3 37 ff 29 00 00 00 00 aa a6 d0 22 80 8d 36 2b
       1.1333937e-13 0.0 5.6554975e-18 6.485576e-13
0000e0 04 7c 33 28 00 00 00 00 bd 74 b9 2a ab 31 d9 2a
       9.963388e-15 0.0 3.2943605e-13 3.8581407e-13
0000f0 18 50 85 29 00 00 00 00 12 cc f3 23 f2 14 13 2b
       5.9202805e-14 0.0 2.643254e-17 5.225396e-13
000100 6c 76 40 28 00 00 00 00 bd 74 b9 2a 40 2b ed 2a
       1.068382e-14 0.0 3.2943605e-13 4.2129668e-13
000110 21 ce 22 29 00 00 00 00 32 4f 2d 21 81 5a d8 2a
       3.6150014e-14 0.0 5.8719494e-19 3.8432107e-13
000120 21 ce 22 29 00 00 00 00 32 4f 2d 21 81 5a d8 2a
       3.6150014e-14 0.0 5.8719494e-19 3.8432107e-13
000130 ce 05 1b 31 f4 5b c2 2e 06 6c aa 2e 85 74 b5 31
       2.2558768e-09 8.838433e-11 7.749894e-11 5.28104e-09
000140 1e e3 2c 2e dc 55 64 30 b8 43 05 32 1e e3 2c 2e
       3.9309993e-11 8.306793e-10 7.757016e-09 3.9309993e-11
000150 c5 6f b5 30 ea 9b fb 2f 3c 17 a1 29 c0 b9 53 27
       1.320125e-09 4.5767418e-10 7.153867e-14 2.9382828e-15
000160 4b 8d 45 29 0d bf f2 2f 63 b5 17 2a 57 02 5c 26
       4.386534e-14 4.4155293e-10 1.3474425e-13 7.6331004e-16
000170 02 3e aa 29 00 00 00 00 00 00 00 00 00 00 00 00
       7.560273e-14 0.0 0.0 0.0
000180 00 00 00 00 00 00 00 00 00 00 00 00 00 00 00 00
       0.0 0.0 0.0 0.0
000190 00 00 00 00 00 00 00 00 00 00 00 00 00 00 00 00
       0.0 0.0 0.0 0.0
0001a0 00 00 00 00 00 00 00 00 00 00 00 00 00 00 00 00
       0.0 0.0 0.0 0.0
0001b0 00 00 00 00 00 00 00 00 00 00 00 00 00 00 00 00
       0.0 0.0 0.0 0.0
0001c0 00 00 00 00 00 00 00 00 00 00 00 00 00 00 00 00
       0.0 0.0 0.0 0.0
0001d0 00 00 00 00 00 00 00 00 00 00 00 00 00 00 00 00
       0.0 0.0 0.0 0.0
0001e0 00 00 00 00 00 00 00 00 00 00 00 00 00 00 00 00
       0.0 0.0 0.0 0.0
0001f0 00 00 00 00 00 00 00 00 00 00 00 00 00 00 00 00
       0.0 0.0 0.0 0.0
000200 00 00 00 00 00 00 00 00 00 00 00 00 00 00 00 00
       0.0 0.0 0.0 0.0
000210 00 00 00 00 00 00 00 00 00 00 00 00 00 00 00 00
       0.0 0.0 0.0 0.0
000220 00 00 00 00 00 00 00 00 00 00 00 00 00 00 00 00
       0.0 0.0 0.0 0.0
000230 ca 04 36 2f 00 00 00 00 1a 69 50 2e dd f6 b9 2e
       1.6554505e-10 0.0 4.7387073e-11 8.456678e-11
000240 b9 1b 7c 2f 00 00 00 00 af 9e 50 2e c8 1f ce 2e
       2.2929116e-10 0.0 4.7434664e-11 9.373441e-11
000250 bf 38 10 2f 00 00 00 00 08 d6 a0 2e ef 80 06 2f
       1.3116884e-10 0.0 7.313977e-11 1.2233035e-10
000260 ac d8 74 2f 00 00 00 00 b2 69 3d 2e 4b c7 05 2f
       2.2268648e-10 0.0 4.30675e-11 1.2167083e-10
000270 ef 61 1c 2f 00 00 00 00 1b 25 85 2e 71 15 03 2f
       1.422291e-10 0.0 6.054731e-11 1.1921998e-10
000280 89 44 ba 2f 00 00 00 00 2d b0 5c 2e a5 39 68 2f
       3.38819e-10 0.0 5.0178684e-11 2.1120757e-10
000290 59 a7 05 2f 00 00 00 00 bb 97 a4 2e 56 db 25 2f
       1.2155733e-10 0.0 7.484809e-11 1.5084586e-10
0002a0 09 6c e5 2f 00 00 00 00 ce 5e 16 2f fd 74 0b 30
       4.173162e-10 0.0 1.3676102e-10 5.0734156e-10
0002b0 f6 9d ea 2d 00 00 00 00 32 fa 26 2f 57 f2 98 2f
       2.6672869e-11 0.0 1.5186499e-10 2.7820832e-10
0002c0 2f 39 23 30 00 00 00 00 78 bc 01 2b 81 0e 57 30
       5.938032e-10 0.0 4.609156e-13 7.8237156e-10
0002d0 ed 83 92 2e 00 00 00 00 91 1c 40 2e 0d 8e 96 2f
       6.662746e-11 0.0 4.3681118e-11 2.7385774e-10
0002e0 53 9b 18 30 00 00 00 00 33 db b7 28 ef 61 33 30
       5.5518007e-10 0.0 2.0412144e-14 6.525899e-10
0002f0 11 9e 7a 2f 00 00 00 00 9a 2c 3e 2e a1 5a a9 2f
       2.2793524e-10 0.0 4.3240612e-11 3.0805317e-10
000300 5e 79 c7 2f 00 00 00 00 33 db b7 28 e0 89 f0 2f
       3.6284126e-10 0.0 2.0412144e-14 4.3753712e-10
000310 d8 df 24 2e 00 00 00 00 9a 2c 3e 2e 00 c5 ad 2f
       3.7488096e-11 0.0 4.3240612e-11 3.1608494e-10
000320 94 e5 93 2f 00 00 00 00 32 19 f0 29 a7 3d c9 2f
       2.690227e-10 0.0 1.0662512e-13 3.6605494e-10
000330 2f 6d c9 2e 00 00 00 00 9a 2c 3e 2e 73 5d ab 2f
       9.159817e-11 0.0 4.3240612e-11 3.1171118e-10
000340 ea f0 c5 2e 00 00 00 00 54 04 03 2a 7c 28 b2 2f
       9.001318e-11 0.0 1.1636639e-13 3.2406777e-10
000350 ea f0 c5 2e 00 00 00 00 54 04 03 2a 7c 28 b2 2f
       9.001318e-11 0.0 1.1636639e-13 3.2406777e-10
000360 77 f3 23 35 be 02 6c 33 ca ee 14 34 04 28 45 36
       6.107652e-07 5.4950526e-08 1.3870445e-07 2.937858e-06
000370 d1 74 d4 32 62 ae d1 35 49 c4 2f 35 d1 74 d4 32
       2.473317e-08 1.5622466e-06 6.547821e-07 2.473317e-08
000380 1e 06 de 35 83 1b 67 34 f5 0f 18 30 01 82 ae 2d
       1.6542069e-06 2.152356e-07 5.5319954e-10 1.9839243e-11
000390 6b b5 a5 2f d9 0b 63 34 17 8a 0b 30 2a 52 2b 2c
       3.014223e-10 2.1145333e-07 5.0764143e-10 2.4346172e-12
0003a0 e1 b5 b8 2f 00 00 00 00 00 00 00 00 00 00 00 00
       3.3598638e-10 0.0 0.0 0.0
0003b0 00 00 00 00 00 00 00 00 00 00 00 00 00 00 00 00
       0.0 0.0 0.0 0.0
0003c0 00 00 00 00 00 00 00 00 00 00 00 00 00 00 00 00
       0.0 0.0 0.0 0.0
0003d0 00 00 00 00 00 00 00 00 00 00 00 00 00 00 00 00
       0.0 0.0 0.0 0.0
0003e0 00 00 00 00 00 00 00 00 00 00 00 00 00 00 00 00
       0.0 0.0 0.0 0.0
0003f0 00 00 00 00 00 00 00 00 00 00 00 00 00 00 00 00
       0.0 0.0 0.0 0.0
