3DPlayground/results/Test25/MoveToGoal.onnx (onnx, 124357 bytes, 9 tensors)

network_body._body_endoder.seq_layers.0.weight f4 [128, 92]
000000 7d 1a 27 3d 3e 52 9b bd 6f e6 84 3d 7b 72 6a 3c
       0.040796746 -0.07584046 0.06489264 0.014309521
000010 1a 6f 24 be 14 8d a0 bb 9f 90 f3 bd 7e 8f 9a bd
       -0.16058007 -0.0048996303 -0.11892819 -0.075469
000020 d7 db 01 be e8 88 3d 3e 64 4e ee 3b f5 dd eb 3c
       -0.12681518 0.18509257 0.0072725285 0.02879236
000030 3b 70 a6 bc 6d f8 f0 3d 69 5a 3e 3d dd 31 62 3c
       -0.020317188 0.117661335 0.04647294 0.013805834
000040 3e 1c 19 3d 01 21 94 3d 58 62 86 3d 13 c1 cf bd
       0.03738045 0.072328575 0.06561726 -0.10144248
000050 da db b5 bd 55 8e f2 bc 81 ef cc 3d f2 d1 2e bb
       -0.08879824 -0.029608885 0.10006619 -0.002667543
000060 4d 7a fa 3c 33 31 8b 3d e0 a0 df 3c f8 47 d6 3d
       0.030575896 0.067964934 0.02729839 0.10462946
000070 d3 9c 2d bd 35 28 5e 3c 42 5b 06 3e fa 26 96 3d
       -0.042385887 0.013559391 0.1312075 0.07331653
000080 ab ba c4 3d 09 01 b1 bd 90 3f 71 3d 7c 91 48 3e
       0.096059166 -0.086427756 0.05889851 0.19586748
000090 7c a6 b7 3d 46 9f dc bd 75 fb ad 3d 11 6b b5 bc
       0.08967301 -0.107725665 0.08495227 -0.02214578
0000a0 25 2c 8b bd f5 3f 0a be 00 e3 41 3e 06 4a 8a bd
       -0.06795529 -0.1350096 0.1893425 -0.067524
0000b0 fe ae 00 3e c3 e0 ae bc 65 9d 12 3d 89 9a 36 be
       0.12566754 -0.02134741 0.035794634 -0.17832388
0000c0 64 ee a5 bd 98 eb e8 bd 40 87 2c 3e 1f a7 15 bd
       -0.0810211 -0.11373061 0.16848469 -0.036536332
0000d0 61 23 b1 3e 75 b8 fc ba 35 ce 35 bc 8b d2 11 bd
       0.34597304 -0.0019281047 -0.011096527 -0.03560118
0000e0 10 6a 9f 3d 1c ab 5c bd 16 35 81 3d b2 19 49 3e
       0.07783902 -0.05387412 0.063089535 0.19638708
0000f0 7a ff c3 bd 36 86 66 3d 49 2a c0 bd 5f bc 82 3d
       -0.09570213 0.056280337 -0.09383065 0.06383585
000100 aa 74 fb bd 2d 7c ac 3d ea 48 81 3b f1 fe bb bd
       -0.12278111 0.08422122 0.0039454596 -0.091794856
000110 43 8a cd 3d f1 2d a8 bd 93 a9 1a bb d2 9b 8f bc
       0.10036137 -0.08211888 -0.002359961 -0.017530356
000120 b0 47 69 bd 86 9b b2 3d 2d 2e 30 3d fa ad 48 be
       -0.056953132 0.0872107 0.043012787 -0.19597617
000130 bf 97 8b 3d 2b c4 dc bc b6 2d 14 be 28 55 2e be
       0.06816053 -0.026949009 -0.14470562 -0.17024672
000140 ef 5d 83 bc fa 7c ca 3d f0 31 73 bd 99 98 12 3e
       -0.016036002 0.09887119 -0.059373796 0.14316024
000150 1e 32 27 bd dd 9f 90 3d 64 66 0a 3e a4 7d de bd
       -0.04081928 0.070617415 0.13515621 -0.10863808
000160 29 5f 9b 3d f2 95 83 bd 3a bb bb bd f0 74 dd bc
       0.0758651 -0.06425084 -0.0916657 -0.0270333
000170 c3 ab ac bd 7e 12 f3 bc 1c 56 57 3c 6d e9 ec bc
       -0.084311984 -0.029671904 0.013143089 -0.0289199
000180 d3 6f ac bd 82 1a 04 be b7 ac 88 3d 98 13 c7 3d
       -0.08419766 -0.12900737 0.06673568 0.09720534
000190 3c 7c 89 3d 50 36 4f be b9 c6 27 3e 0f f2 8d bd
       0.06713149 -0.20235562 0.163844 -0.06930935
0001a0 47 9f c3 3d 31 c2 31 bd e5 25 80 3d 55 52 8b 3d
       0.09551864 -0.043398086 0.06257228 0.06802813
0001b0 dc c1 a6 bd c6 84 89 3b 78 44 36 be 3b 1c 7c 3d
       -0.081424445 0.004196736 -0.17799556 0.06155036
0001c0 c9 34 8f 3e ce 1a f1 bd aa f6 c7 3d ce 6c a5 bd
       0.2796996 -0.11772691 0.09763844 -0.080773935
0001d0 1f c2 b9 3d e5 c7 5a 3e fc f0 66 3e e8 ee b6 bc
       0.09070229 0.21365316 0.22552866 -0.022330716
0001e0 80 f9 35 bd 51 b9 d1 bd ba ab 74 3d ad c9 f9 bd
       -0.044427395 -0.102404244 0.059734084 -0.1219667
0001f0 64 5b f6 bd f0 3c 1d be bc e3 99 bd 83 18 70 3e
       -0.1202915 -0.15355277 -0.0751414 0.2344685
000200 8a 59 a5 3d ca 75 86 3e 71 83 21 bc 27 63 06 3e
       0.08073719 0.2626174 -0.009857998 0.13123761
000210 06 01 8f 3c fd c1 3a 3d 66 f2 87 bc 1e 93 6d bd
       0.017456543 0.045595158 -0.016595077 -0.05800163
000220 3f 8f a7 bd 37 07 77 3c 41 88 eb 3d 94 e0 93 3d
       -0.08181619 0.015077404 0.11500598 0.07220569
000230 b5 30 b4 bd f0 79 97 3d d7 b4 93 3c ad a6 37 bd
       -0.08798353 0.073963046 0.018030567 -0.04483669
000240 db 6f df bc 58 0d 2d be e8 46 c1 3b 86 03 f4 bc
       -0.027275017 -0.16899621 0.0058983453 -0.029786836
000250 71 ea e8 3b 25 16 90 3d ff 12 37 3e d6 b1 21 3c
       0.0071080257 0.07035474 0.1787834 0.00986906
000260 35 be 6b bc 6d 18 01 be 95 27 bd 3d a5 92 80 3e
       -0.014388611 -0.12606974 0.09236065 0.2511188
000270 ad 96 69 bb 67 6e 03 bd c4 af f4 3d f7 16 f8 bd
       -0.0035642788 -0.03208771 0.11947587 -0.12113755
000280 75 4d ba 3d b0 27 bf 3c 2a 88 29 3e 7a 5f f4 bd
       0.09096805 0.023334354 0.16555849 -0.11932273
000290 c0 56 81 3c 28 85 c9 bc da b0 bb bc 39 58 fb bc
       0.015788436 -0.024599627 -0.022911478 -0.030681716
0002a0 22 68 6e 3d 82 1e d4 bc 23 0b 63 bc b4 64 78 bd
       0.058204778 -0.025893454 -0.013857636 -0.060642913
0002b0 1a 24 8e 3d cd 15 b9 bd bf 71 8b 3d 46 c5 e8 bc
       0.069404796 -0.09037361 0.06808805 -0.02841438
0002c0 e7 03 b8 3c e3 42 4b be d2 cf c2 bd e1 e1 05 3e
       0.022462798 -0.19849734 -0.09512295 0.13074447
0002d0 8e 80 b8 bd a0 49 1c be 3d a3 38 3b df 1f 0d 3e
       -0.09008895 -0.1526246 0.002817347 0.13781689
0002e0 17 45 17 3e c5 97 04 bc c3 c1 72 3d cb 61 b7 bc
       0.1477245 -0.008092825 0.059266817 -0.022385499
0002f0 20 4f f6 bd 6c d7 16 bc e1 f1 66 bc a7 51 13 3e
       -0.12026811 -0.009206634 -0.014095754 0.14386617
000300 0b 6c d8 bc 35 df 99 bd b4 74 05 bd 71 f6 06 3e
       -0.026418706 -0.075132765 -0.032582 0.13179947
000310 cd 9d 34 3d a8 b8 01 bd 85 cb c9 3d 79 ac 80 bd
       0.044095803 -0.031670243 0.098532714 -0.062828965
000320 e0 77 04 be 0f b6 1f be 0c 27 a5 bc c5 81 eb 3c
       -0.12936354 -0.15596794 -0.02016022 0.028748402
000330 84 0d b0 3c b4 de 2f bd f6 0b fa 3b 56 8c bc bd
       0.02149082 -0.042936996 0.0076308204 -0.092064545
000340 2b 55 14 3e 79 d8 1e 3a c6 39 9d 3b 8f 82 a2 bd
       0.14485614 0.00060594786 0.004798147 -0.07935058
000350 d1 e8 ac bd 4a 34 06 3d 0b 88 cc bd 9a 01 17 3d
       -0.08442844 0.03276471 -0.09986886 0.03686676
000360 65 2e c5 bc 57 ac d2 bd c7 40 2b be 7e 78 31 be
       -0.024069974 -0.102867775 -0.1672393 -0.1733112
000370 0d 8a 90 3c 26 8f a1 bd b8 bb dc 3d fe de 31 3c
       0.017643953 -0.078886315 0.10777992 0.010856388
000380 8f 36 8d 3c 13 bb d3 3d 44 ff 02 3e de af 45 bd
       0.01723793 0.10338416 0.12792689 -0.048263423
000390 cc a0 d5 3b bf e5 d8 3d 25 40 1d be e5 5a 6c 3b
       0.0065194126 0.105906956 -0.153565 0.003606492
0003a0 e2 b2 16 3e a6 db d9 bc 3e 71 03 3c e2 49 40 bd
       0.14716676 -0.026593994 0.0080226045 -0.04694546
0003b0 17 81 b4 3b e5 15 fc 3d d9 c9 a1 3d e1 44 ef 3b
       0.005508553 0.123088636 0.078998275 0.007301912
0003c0 aa d7 45 3d 73 43 e3 3c 06 ca 3c be 16 5a b2 bd
       0.048301376 0.027742123 -0.18436441 -0.08708589
0003d0 0d 59 c5 bd fe b7 01 be d4 3e 0d be d9 8d 4f 3d
       -0.09636126 -0.12667844 -0.13793498 0.050672386
0003e0 59 1f 9a 3d 41 fd 3d be e6 29 93 3c ca f5 51 3c
       0.0752551 -0.1855364 0.017964315 0.012814948
0003f0 63 ff dc bd 8c 62 9c 3d e1 1d b5 bd eb 69 f3 3d
       -0.10790899 0.07635984 -0.088435896 0.118854366

network_body._body_endoder.seq_layers.0.bias f4 [128]
000000 14 70 16 ba 5e 50 e5 3a f9 27 0d bc 70 8f 63 bb
       -0.0005738747 0.0017495265 -0.008615487 -0.0034722947
000010 d3 43 22 bb 62 a7 6a 3c e8 55 e7 ba 74 b8 53 bc
       -0.0024759665 0.014322134 -0.0017649503 -0.012922395
000020 88 a2 8e 3a 90 e0 4d bb 62 da 3e bc 09 38 9c bb
       0.0010882178 -0.0031414367 -0.011648746 -0.004767422
000030 91 cf 2a 3d 00 b8 35 bb f2 f9 21 3c f7 e5 ab bb
       0.041701857 -0.002772808 0.009886252 -0.00524592
000040 fa 63 e8 3b fe ef 81 ba d8 05 f0 3b d6 6a 19 bc
       0.0070919963 -0.0009913442 0.0073249154 -0.009363851
000050 78 a1 34 3c 49 a1 34 bb eb 2c ac 3b f4 1e 9a 3b
       0.011024825 -0.0027561954 0.005254378 0.004703397
000060 cd 1f 35 bb fb 94 b6 3b 34 4b 91 3b 1a f8 d1 bb
       -0.0027637363 0.005571959 0.0044340137 -0.00640775
000070 8a eb f9 3a f9 e7 b9 3c 35 c3 94 3a 3e 74 3b bb
       0.0019067388 0.022693621 0.001134968 -0.0028603221
000080 1f 6d 6f 3a 3c e1 26 3c 75 2e eb 3b 28 c2 81 bb
       0.0009133387 0.010185536 0.007177169 -0.003959913
000090 8a 4e ba 3b 0e d4 f1 3a 53 15 1a bc 34 aa 9e 3c
       0.005685632 0.0018450038 -0.009404498 0.019368269
0000a0 a0 2e c6 3c 6b 77 96 bb f4 90 7a 3c 5a 77 a4 bb
       0.024192154 -0.0045918724 0.015293349 -0.0050191106
0000b0 2f 37 0f 3b dc 5e ca 39 c7 60 dc b6 4c dc d1 3a
       0.002185296 0.00038599118 -6.5677773e-06 0.0016011088
0000c0 c3 4b 85 bb f9 1f 84 3a 16 34 33 bb 67 98 b3 bb
       -0.0040678694 0.0010080329 -0.0027344278 -0.0054808143
0000d0 2f af 94 bb 11 e4 b6 3b 84 d2 2d bc 8b bb 57 3c
       -0.004537485 0.005581387 -0.010609273 0.013167272
0000e0 ec 35 eb 3a ba 83 ee ba dc 65 d2 3a fb d0 8f bb
       0.0017945147 -0.0018197217 0.0016052085 -0.004388926
0000f0 94 5a d5 3b 9c 5d 4d bb 58 e9 74 3a ed 39 bc 3c
       0.006511042 -0.0031336313 0.0009342632 0.02297684
000100 58 3b 3b bc 6f 3d b8 bb a7 ac f1 bb 35 78 14 bb
       -0.011427723 -0.005622558 -0.007375318 -0.0022654657
000110 36 fa 43 bc 10 65 4b 3c 15 ff f6 39 71 c0 ae bb
       -0.01196151 0.012414232 0.00047110827 -0.0053329994
000120 1b 2d e4 b7 86 eb 18 3b ce 62 87 bc 1e c8 d9 3b
       -2.7200722e-05 0.0023333742 -0.016526606 0.0066461703
000130 d5 43 cb 3b 54 6a 69 3b d1 d6 10 3c 5a 7a a5 3c
       0.0062031546 0.0035616355 0.008840279 0.020199943
000140 75 a0 3a 3c b0 ee 00 bb 10 6e 80 3b 2e e9 00 3b
       0.011390795 -0.001967352 0.0039193705 0.0019670236
000150 bf 79 1a bb 8a 80 41 3b 85 02 d3 3a b6 29 de 3c
       -0.0023571101 0.0029526078 0.0016098773 0.027119499
000160 8f ec 3e bb d2 be 2c ba 8b 40 28 3c 94 40 f3 bb
       -0.00291327 -0.0006589714 0.0102692945 -0.00742347
000170 87 73 c3 ba e2 ce a2 bb 52 98 8f 3b 63 a0 94 3a
       -0.0014911749 -0.00496851 0.0043821717 0.0011339303
000180 78 11 1c bc 85 0a 54 3b 32 63 42 ba f1 a4 e9 3b
       -0.009525649 0.0032354903 -0.0007415294 0.0071302583
000190 5e 1f f5 ba 23 d9 7d b9 79 2b 93 3b 81 74 c9 3b
       -0.0018701365 -0.0002420885 0.0044912663 0.0061479216
0001a0 2a f9 68 ba 5d ea 9e bb c1 4b ed bb 25 48 98 3c
       -0.0008887226 -0.0048497156 -0.0072416966 0.018589089
0001b0 7f a9 21 3c 44 5f 55 3a 17 50 90 3b 85 ab 8d ba
       0.009867071 0.0008139501 0.0044040787 -0.0010808563
0001c0 b2 a7 f1 3c 4f 20 b2 bc 4b f0 6c bb 4f 46 a9 bb
       0.029498909 -0.021743922 -0.0036153968 -0.005165852
0001d0 47 f3 f9 bb 09 95 1b bc 97 b6 65 bc 00 a5 a3 bb
       -0.007627878 -0.009495982 -0.014020584 -0.0049940348
0001e0 2b 61 11 bc 01 ca a4 bb 30 d4 27 3c e5 37 10 bb
       -0.008873264 -0.0050289636 0.010243461 -0.0022005972
0001f0 8b 55 81 3b cf cc f7 3c 58 47 c7 3a 22 53 89 bb
       0.003946965 0.030249028 0.0015203757 -0.0041908184

network_body._body_endoder.seq_layers.2.weight f4 [128, 128]
000000 bb 68 db 3d 1d bc ee bd 8b b7 01 3d ab bd c4 3d
       0.10713335 -0.116569735 0.03166918 0.09606489
000010 11 37 9a bb 57 10 47 3e 71 1b ac bc 19 1a 6e 3d
       -0.0047062715 0.19439827 -0.021009179 0.058130357
000020 20 99 14 3e d9 18 11 bd f0 5c 01 bd 92 49 38 bd
       0.14511538 -0.035424087 -0.031582773 -0.044992037
000030 b5 1e ba bd a0 51 c1 bc 83 0e 01 bd 98 f3 9f 3d
       -0.09087888 -0.023598492 -0.03150798 0.07810134
000040 fe f1 2f bc 07 1b 25 3e 1f 25 1a bd e2 b8 f4 3c
       -0.010738848 0.16123591 -0.037633058 0.029873315
000050 6b 94 50 3e 56 c4 02 bc 38 30 2d bd a9 fe 80 bc
       0.20369117 -0.00798138 -0.042282313 -0.015746431
000060 7a 8b a3 bc 30 55 bb 3c f3 bc dd ba 10 8e 40 3e
       -0.019963969 0.022867769 -0.0016917273 0.18804193
000070 4e 1f 87 3d ed 9b 0a 3e e3 fe a2 3d 1a 0d c6 bc
       0.06597768 0.13536043 0.07958772 -0.02417617
000080 18 ea 83 bd a0 c6 9e bd d8 10 ff bc 74 ee 87 bc
       -0.06441134 -0.077527285 -0.031135961 -0.016593195
000090 3c 8f 3e 3c 1d c2 17 bd 86 1c 10 bc a7 a4 84 bd
       0.011630829 -0.037050355 -0.008795863 -0.064767174
0000a0 e1 d4 5a be f9 09 c6 bc 51 9d 4e bd 6e 74 41 3d
       -0.2137027 -0.024174677 -0.050442997 0.047230177
0000b0 77 6c 4a bd 8d 44 0a 3d cc 5b fe 3d 4b 31 52 3e
       -0.049419846 0.03375678 0.124198526 0.20526616
0000c0 71 99 8a bd 8b a9 92 3d a0 67 dd bd 44 2d 28 bc
       -0.06767548 0.07161244 -0.108107805 -0.010264698
0000d0 7e 7d 42 bd 35 7d 60 bd 85 a1 b9 3c 0c 10 4c 3d
       -0.04748296 -0.054806907 0.022660026 0.04981999
0000e0 ff 50 10 be 3a 0f c9 bd 50 5a bf 3c 1c 83 86 bd
       -0.14093398 -0.09817357 0.023358494 -0.06567976
0000f0 ff 2e 0e bd c7 35 23 3e e5 a1 81 bc c4 cb b7 bd
       -0.034712788 0.15938483 -0.015824268 -0.08974412
000100 17 35 4d be 48 be 9f bd 19 06 a7 bc fe c6 c1 bd
       -0.20039783 -0.07799965 -0.02038865 -0.09461783
000110 c7 3a 60 bd 23 48 66 3e 3a b2 58 3d 18 d3 ac bd
       -0.054743554 0.22488455 0.052904345 -0.084387004
000120 2f 96 c1 bd d8 fa de 3c be 7f 1c be 5f 52 d2 bd
       -0.09452473 0.027219221 -0.15283105 -0.10269617
000130 d8 df a7 bd e2 62 89 bd b3 8f 3f bc 53 0b 20 be
       -0.08196992 -0.067083135 -0.011691975 -0.1562932
000140 c3 79 76 3c 5e d3 c1 3d 9e 6d 0b 3e 8e d2 a8 3c
       0.015043679 0.09464143 0.13616034 0.020608213
000150 ec 1a 38 3e 2d 55 c8 3d 2f a0 aa 3c 13 0c 4b 3c
       0.1797902 0.09781871 0.020828335 0.012393015
000160 29 7e d3 3d 7b 64 7d bc ec 4a 04 be f9 11 9b bd
       0.103267975 -0.015465851 -0.12919205 -0.075717874
000170 e4 19 32 bd c6 7f fc 3c 3c f6 e6 bd f0 a7 06 3d
       -0.043481722 0.030822646 -0.11277434 0.032875
000180 04 4d 82 3d 2a 5c de 3d a8 19 e7 3c 12 1c be bd
       0.06362346 0.10857423 0.028210476 -0.09282698
000190 dd 6c 27 bd 93 2d 4c bc f8 2e cd bd 03 87 35 be
       -0.040875304 -0.012462038 -0.10018724 -0.17727284
0001a0 aa 04 1c 3e 07 12 d5 3c e1 c4 1c 3d 49 5d 6f 3d
       0.15236154 0.026009573 0.038273696 0.058438573
0001b0 79 db 77 3d 2f c2 a8 3d a0 74 a1 3d 46 8d 07 3d
       0.06051204 0.082401626 0.078835726 0.033093713
0001c0 34 fd 97 bb 77 8e 33 bd 2f cb 9e 3d ca 24 3c 3d
       -0.0046383385 -0.043837037 0.07753598 0.045933522
0001d0 05 9e 2e bd 7b 62 9c bd 7a 06 02 bd 50 40 99 bb
       -0.042631168 -0.07635971 -0.031744458 -0.004676856
0001e0 e8 7d f1 bc 8a 6b 8f bd d6 56 1e 3c f0 e5 50 bd
       -0.029478982 -0.07002933 0.009664258 -0.051000535
0001f0 7b 27 89 3c 86 87 0b be 6e af 68 3c 79 e3 5f bd
       0.016742459 -0.13625917 0.014201982 -0.054660294
000200 55 9c e9 bd a5 f8 0c be 69 c1 d5 3b 66 e8 8f 3d
       -0.11406771 -0.13766725 0.0065233004 0.07026748
000210 63 5f cc 3d b2 15 18 bd 92 72 05 3d 28 64 b9 bd
       0.09979131 -0.037130065 0.032579966 -0.090523064
000220 30 87 35 3d df 48 de bd 22 33 2e 3d 1d 97 42 3d
       0.044318378 -0.10853743 0.042529233 0.047507394
000230 52 ac d6 bd 03 85 40 bd 0b bf 96 3d ba 33 71 3c
       -0.10482086 -0.04700185 0.07360657 0.014721805
000240 6d 94 5f 3d 6d 4f 2b 3e 09 07 f7 3c b8 42 de bb
       0.05458491 0.16729517 0.030154722 -0.006782856
000250 5a 61 29 3d fb a6 14 3d ae 05 73 3d 12 72 3e bc
       0.041352607 0.036292057 0.05933159 -0.011623876
000260 60 4f 5a 3d ac d1 ca bc 4a 5b 39 be 62 52 84 3d
       0.053298354 -0.024758182 -0.1810123 0.06461026
000270 4d 2d 02 bc 58 9d 9b 3d 3f 1e 83 3c d7 c3 b4 3d
       -0.007945371 0.0759837 0.016005633 0.08826416
000280 a4 a8 e7 3d 9c 40 94 3d 0d 10 31 3e 1b 0b c8 3d
       0.113114625 0.07238886 0.17291279 0.09767743
000290 b1 ae fb 3d 83 b2 97 bd 8b c9 c0 bc e5 95 71 bd
       0.12289179 -0.07407095 -0.023533603 -0.05898084
0002a0 2a 01 4c 3d f3 4e 19 3e 4c e0 24 be 79 eb 79 3d
       0.049805798 0.14971523 -0.16101187 0.06101558
0002b0 52 41 9f 3c c0 31 19 3e 13 e8 b1 3a 3a 52 65 bd
       0.019440327 0.14960384 0.0013573192 -0.05598662
0002c0 96 3c 78 3d 2b 72 91 3c 77 a9 66 3c c0 56 21 3e
       0.060604654 0.017754635 0.0140784895 0.15755749
0002d0 db 17 22 be ab 85 41 3d 97 a3 2a 3e b5 42 c4 3d
       -0.15829413 0.047246616 0.16663967 0.09583036
0002e0 5b 8b 54 3c 18 8e ac 3b 25 96 57 3b f3 9f b9 bd
       0.012972678 0.0052659623 0.003289589 -0.09063711
0002f0 af 32 4d bd 85 e2 d8 bd 20 8b 1c bd 03 51 9e bd
       -0.050097164 -0.1059008 -0.038218617 -0.077302955
000300 44 ca 3b 3d 66 ff 03 3d b7 55 c1 3b b7 61 b2 bc
       0.045847192 0.03222599 0.0059001106 -0.02177511
000310 fa f7 19 be d3 aa 9c bd 08 00 83 3d c4 0d 94 3c
       -0.15036002 -0.0764977 0.0639649 0.01807297
000320 60 c8 7e 3d 8d 35 fd bd 7e 55 82 bb bc 4e 9f bd
       0.06220281 -0.123637296 -0.0039774766 -0.07778689
000330 b6 65 df bd ba ab 1e bd ff a3 9f 3d 6f 5a d4 3d
       -0.10908072 -0.03873799 0.07794952 0.10368811
000340 47 21 98 3c c1 e7 50 3d bb 3d 60 3d 63 dc 9c 3d
       0.018570555 0.051002268 0.05474637 0.07659223
000350 45 e5 a5 bb 16 31 7c 3d 6d 55 32 bd 98 8d cd bc
       -0.0050627314 0.06157025 -0.0435385 -0.025091931
000360 60 44 75 bd 1b 36 10 bd 0b 93 e5 bd d9 bf ad bc
       -0.05987966 -0.03520785 -0.11209687 -0.021209644
000370 78 01 b3 3d 8c df 84 bd 93 3a 66 be c0 0e db 3d
       0.087405145 -0.06487951 -0.22483282 0.10696173
000380 fa c3 33 3d 5a 36 3d bd 8f ae e1 3d 67 73 1f 3e
       0.04388807 -0.04619441 0.110196225 0.15571366
000390 14 cd 6b bd 77 f4 df 3d af ff 52 bd 61 64 9a bd
       -0.057568625 0.109353 -0.05151337 -0.07538677
0003a0 5e 46 4f 3d b4 72 3a 3c 14 db 8f 3d 85 de 8d bd
       0.050604217 0.011379886 0.07024208 -0.06927208
0003b0 75 47 d5 bb 43 27 74 3d 2e 29 e2 3d 06 d9 27 bd
       -0.0065087625 0.059607755 0.11043011 -0.040978454
0003c0 bb 0e d0 bd 5c b1 3f 3c 32 07 c0 3c 57 41 1b bd
       -0.101590596 0.011700001 0.023440931 -0.03790411
0003d0 e6 91 26 3e 22 e5 5c bd cd c7 0a bd 95 af 11 ba
       0.16266593 -0.053929456 -0.03388195 -0.0005557475
0003e0 45 c6 f2 3d dc 78 b8 bd 35 05 c3 bd d5 8f 3c bc
       0.11854223 -0.09007427 -0.095224775 -0.011508902
0003f0 2e 27 0a 3d 5e 5e 2f 3b b9 0c fe bc 22 bb 15 be
       0.03372877 0.0026759128 -0.031011926 -0.14622167

network_body._body_endoder.seq_layers.2.bias f4 [128]
000000 1e da d5 3b 57 47 dd bb dd 14 08 3c e2 aa 23 bb
       0.0065262457 -0.006752889 0.008305755 -0.002497368
000010 56 e6 24 3b 15 79 85 bb 50 d5 29 bc e7 47 e9 3b
       0.0025161705 -0.004073272 -0.010365799 0.007119167
000020 d8 ab d7 bb c6 f3 a1 38 bb 68 ca ba 87 d3 e1 3b
       -0.0065817647 7.7224846e-05 -0.0015442589 0.006891671
000030 f3 62 c6 3b c4 86 00 3c 11 df a8 3b ab d4 d9 3a
       0.006054276 0.007844631 0.0051535447 0.0016619166
000040 08 ca a9 3b 53 09 92 39 b8 11 a3 ba 40 fb 01 bb
       0.0051815547 0.00027854237 -0.0012441194 -0.0019833595
000050 b4 f5 26 ba 0b f6 f0 ba d0 e8 34 ba de 38 b1 bb
       -0.000636901 -0.0018383873 -0.0006901147 -0.0054083904
000060 bf 5c 1e bb f9 b7 c5 ba 9a 30 1b bb 20 f3 ff 3b
       -0.0024164168 -0.0015084735 -0.0023680092 0.007810965
000070 b3 17 a7 bb 0f 74 26 bb 28 fe 41 bb 68 0c b8 bb
       -0.0050992607 -0.0025398766 -0.0029600952 -0.0056167133
000080 16 5d a1 bb b4 c6 2a 3c d5 07 90 3c 08 05 6f 3b
       -0.004924427 0.010423351 0.01758186 0.0036471505
000090 5b cd 67 ba e6 e2 1b 3c a5 7c 16 bb 42 62 1f b8
       -0.0008842551 0.009514546 -0.0022962478 -3.8000064e-05
0000a0 2e 4c 35 bb 5f 2b 64 3b b0 72 89 bb 5d 74 ee ba
       -0.0027663815 0.003481589 -0.00419458 -0.0018192638
0000b0 2d 1e d0 ba e2 36 13 ba ac fb cf bb 21 89 f5 3a
       -0.0015878134 -0.0005615783 -0.0063471403 0.0018732884
0000c0 9b ec 88 3b 72 bd c9 ba 2c af 9e 3b d6 0e 49 ba
       0.004178596 -0.0015391542 0.0048426595 -0.0007669752
0000d0 0a 44 d6 bb b5 16 5b ba d0 8a 9e bb cc c9 cd 3b
       -0.0065388726 -0.00083575706 -0.004838325 0.0062801596
0000e0 d5 e1 74 ba 50 e7 cf ba 0e a4 97 3b 4a 02 52 38
       -0.0009341513 -0.0015861783 0.004627711 5.0070033e-05
0000f0 3c c8 93 bb f6 d1 50 3a db ac 59 bb df 63 36 3c
       -0.004509954 0.0007965857 -0.0033214602 0.01113221
000100 f5 24 48 ba 82 da 20 3b 7e 89 07 3c d5 48 ed 3a
       -0.00076349016 0.0024544303 0.008272527 0.0018103371
000110 9c 9d bb bb 76 d3 ed ba d3 dd 66 3b cf aa d7 ba
       -0.0057255756 -0.0018144685 0.0035227432 -0.0016454103
000120 1a df 1c 3a e4 7d ea 3b 7f 09 87 ba a6 96 b3 bb
       0.00059841725 0.0071561206 -0.0010302513 -0.005480605
000130 6f 1b 48 3b 19 86 06 bb f8 b1 4a 3a 11 60 83 3b
       0.003053393 -0.0020526706 0.0007732208 0.0040092547
000140 68 c9 91 bb 68 3a dd 3c 25 7d e1 ba 5b b8 06 bc
       -0.0044490583 0.02700539 -0.0017203434 -0.008222665
000150 e7 23 85 3a 40 cd e3 3b 5a d5 46 ba ea 5a 91 bb
       0.0010157794 0.006951958 -0.00075848924 -0.0044358866
000160 9f e4 1d 3c 55 c2 f6 39 ce 76 ba 3b bb 5d 99 3c
       0.009637027 0.00047065565 0.005690432 0.018721452
000170 1a 37 09 ba dd ac ad 39 cc dc 98 3b 07 9b b5 39
       -0.0005234346 0.00033125925 0.004664993 0.00034638515
000180 66 86 fc bb 66 8a 81 3c 69 85 10 bb 08 97 75 3b
       -0.007706451 0.015813064 -0.0022052175 0.0037474055
000190 e3 72 ca bb 5d 8a 40 3c 62 f1 79 3b 91 34 6f 3b
       -0.0061782463 0.011751738 0.003813826 0.0036499838
0001a0 18 3f 03 3c c1 3f 55 3c 0a 27 8a bb ca 48 80 3b
       0.008010648 0.013015688 -0.0042160796 0.003914927
0001b0 2d c7 ab bb 01 cd 0b bb 5b 7e 0d bc 47 26 8e ba
       -0.0052422495 -0.0021331909 -0.0086360825 -0.0010845148
0001c0 8b ad 75 3c 38 62 a4 3a 88 1e df bb 63 24 8c bb
       0.014994989 0.0012541478 -0.0068090595 -0.0042767986
0001d0 88 ca 2a bb 26 ed 24 3c e6 84 12 bb b7 6a 1d 3b
       -0.002606066 0.010066306 -0.0022357046 0.0024019906
0001e0 82 63 88 3a 99 33 b0 bb cb 41 84 bb f5 7c 84 bb
       0.0010405632 -0.0053772447 -0.0040361634 -0.0040432164
0001f0 54 fe 3a 3a 2c e3 92 bb 3d 99 87 bb 8c 33 d7 ba
       0.0007133235 -0.0044826474 -0.0041381405 -0.001641856

action_model._continuous_distribution.log_sigma f4 [1, 2]
000000 25 e0 78 3c 64 c6 0c 3c
       0.015190159 0.008592222

action_model._continuous_distribution.mu.weight f4 [2, 128]
000000 6f ad ef 3c bf cb af bb 90 8d d3 bc d0 99 05 ba
       0.029257504 -0.0053648646 -0.025824338 -0.0005096467
000010 9a 05 a1 bc e5 c7 9f bc dd c6 98 3c be ed a1 bc
       -0.019655991 -0.019504497 0.018649513 -0.019766685
000020 74 5b 10 bd 7e c5 1b 3d f8 cf e4 bc 43 90 fe 3c
       -0.035243466 0.03803014 -0.027931198 0.031074649
000030 92 de d8 ba 36 22 55 bc 60 84 7c 3c 06 dc e5 3b
       -0.0016545823 -0.013008645 0.01541242 0.007014754
000040 0a 7e ac bc 13 2d a9 3c 19 6f 52 3c 21 fd d7 bc
       -0.021056194 0.020651376 0.012843871 -0.026365818
000050 5e 6d 02 bc c7 a5 24 3b e0 94 2f bb c2 ac db bc
       -0.0079606455 0.0025123225 -0.0026791617 -0.026815776
000060 cb 62 b6 bc 75 94 af 3c 0f 7f ac 3c d6 84 ee ba
       -0.022263905 0.021433095 0.02105668 -0.0018197547
000070 17 c5 4a b8 13 54 58 3c 6b d2 4f 3c 32 3a eb bc
       -4.8344107e-05 0.013203639 0.012684445 -0.028714273
000080 ac 34 09 3c 45 cd 48 bc 60 7c 44 3c 28 d1 dc bc
       0.008374374 -0.012255971 0.011992544 -0.026955202
000090 af 99 08 3d 1f 9f 45 bb ed 14 1f 3d 7e 41 6e 3b
       0.03334969 -0.0030154658 0.038838316 0.0036354954
0000a0 5f c7 05 3b 69 a4 b3 bc 81 1a 50 3d 05 7d e6 3c
       0.0020413024 -0.021928983 0.050806526 0.028135786
0000b0 a7 1f 11 3c 93 eb 7c bc 69 26 8b bb 98 b7 8f 3c
       0.008857644 -0.015437025 -0.004246522 0.017543599
0000c0 56 e8 87 bb cd 9b 0b 3d 1a 49 e8 bb 42 25 8d 3a
       -0.0041475696 0.03408413 -0.0070887925 0.001076855
0000d0 78 d1 91 bb ec 07 0c 3c 2b 59 f5 ba 05 a9 08 bd
       -0.0044500194 0.008546811 -0.0018718591 -0.033364315
0000e0 85 eb f1 3b 4e 54 f0 3b 75 c1 42 bc 89 e7 9b 3c
       0.0073828124 0.0073342687 -0.011886944 0.019031303
0000f0 08 59 1a 3c 02 c4 cf 3b d8 f7 d8 bb 97 9a 4d bc
       0.009420641 0.0063405046 -0.006621342 -0.012549064
000100 e5 e2 a5 3c b1 4c 9b 3c af 2d 89 bc d7 3a 66 bd
       0.020249793 0.018957468 -0.016745416 -0.056208458
000110 0f ba 46 3c db 81 71 bc f1 5b b3 3c fe 6a 50 bb
       0.012129321 -0.014740433 0.021894427 -0.0031802054
000120 bd c1 66 bc 27 e6 00 bc 30 e2 b4 bc f4 8b de 3a
       -0.014084277 -0.007867373 -0.02208051 0.0016978965
000130 c7 ba 4f bc a9 a1 41 3b 6c d4 45 bc 79 a1 1f 3d
       -0.0126788085 0.002954582 -0.012074571 0.03897235
000140 48 eb 3d bc 58 a0 12 bd de 16 48 3b fb 94 9b bc
       -0.01159174 -0.035797447 0.0030531208 -0.018991938
000150 74 38 d2 ba d9 a0 bb 3c fc d6 d5 3a 25 e3 1a 3b
       -0.0016038553 0.022903847 0.0016314681 0.0023633924
000160 03 da de bb 31 dd 46 3c 43 13 47 bc 76 bc 45 bd
       -0.0068008914 0.012137697 -0.012150588 -0.048275433
000170 b6 fc c1 bc ad 1f bf 3c f4 b7 21 bc a5 ae 23 3c
       -0.023680072 0.023330534 -0.009870518 0.009990369
000180 a4 95 b7 3c 7b 56 d5 3b 65 3e 9f 3c 97 9d 0a bd
       0.022410221 0.0065105534 0.019438932 -0.033841696
000190 e3 c1 39 bc ec ed b6 bc 5b e0 00 3c 6e 58 1f bd
       -0.01133773 -0.022330247 0.0078659905 -0.038902692
0001a0 09 70 c6 bc 1f f5 4a bc a4 75 83 3c 71 02 f8 3b
       -0.024223344 -0.012387543 0.016047306 0.0075686504
0001b0 38 21 cb bc 39 85 43 3c 81 39 3b 3c 40 55 ce 3a
       -0.024796113 0.011933618 0.011427284 0.0015741959
0001c0 b6 e7 8d bd 66 47 5b bc 51 80 14 bc 1c 86 84 3c
       -0.06928961 -0.013383722 -0.009063796 0.01617723
0001d0 e5 df 7f bc 4b 9a cd 3c d1 96 e5 bb e8 82 a0 bc
       -0.015617345 0.025097987 -0.007006504 -0.019593671
0001e0 38 5d eb 3b 14 d7 7c 3b 49 e8 4f bc ab 66 c3 bc
       0.0071827434 0.0038580345 -0.012689658 -0.023852667
0001f0 5a c5 9a 3c e9 a7 6d bc aa 9a e2 3c d6 c4 e0 3c
       0.018892933 -0.014505365 0.02766164 0.027437609
000200 80 1f fe 3c 81 55 09 bb a6 9b c5 bc 0f 3f b6 3b
       0.03102088 -0.0020955505 -0.02412207 0.0055617164
000210 63 ad 32 bd a3 c4 00 3b 3f 3d 9a bc 04 78 68 3c
       -0.043622386 0.0019648455 -0.018828033 0.01418877
000220 ad dd 50 b7 27 a3 15 3c 40 70 a0 bc 24 83 84 3c
       -1.2449379e-05 0.009133137 -0.019584775 0.016175814
000230 32 d1 b7 3c 62 12 68 3b 0a d0 84 3c b5 34 47 bc
       0.02243862 0.0035411348 0.016212482 -0.012158562
000240 48 72 b9 3b 68 4d f7 39 0e db 3f 3c 24 b6 ee bc
       0.0056593753 0.00047169183 0.011709942 -0.029139586
000250 6a c8 0f bc b2 b5 96 bc e1 60 05 3c c0 c9 05 bc
       -0.00877581 -0.018397186 0.0081407735 -0.008165777
000260 b6 4a 0f 3b 17 69 9e bc e5 5f 9c bc 4d 6b 1d 3d
       0.00218646 -0.01933722 -0.019088695 0.038432408
000270 0f f0 16 bc 0f 17 5d 3b b9 9e 59 bc a7 b5 dc bb
       -0.009212508 0.0033735668 -0.013282471 -0.006735522
000280 3d 56 d4 3a d5 eb 68 bc cb d1 80 bb ec 2c b4 bc
       0.0016200017 -0.014216383 -0.0039312593 -0.021994077
000290 d3 8e e2 bc c7 c9 5c 3a c5 54 03 3d 0f db 8c bc
       -0.027655995 0.0008422401 0.032063264 -0.017194299
0002a0 d2 03 3e 38 91 d4 ea 3b 22 e7 ef bb d1 f7 e7 bb
       4.5303088e-05 0.007166453 -0.0073212544 -0.0070791026
0002b0 da 4f 21 bd ca 30 aa bb a8 b5 4a 3c 2a fd 80 3c
       -0.039382793 -0.0051938044 0.012372412 0.015745718
0002c0 b9 c6 34 bc 2a e9 2a bc 79 98 2f 3b 52 49 28 3c
       -0.011033707 -0.010431567 0.0026793762 0.010271387
0002d0 e6 22 d1 3c 52 81 bb bc 52 54 3d 3c 2c e2 71 3c
       0.025529336 -0.022888813 0.011555748 0.014763396
0002e0 6f 14 88 3c 49 ba 09 bd 67 99 87 3b f3 35 82 3c
       0.016611306 -0.03362492 0.00413816 0.015894866
0002f0 87 5b a8 bc 98 02 1b bc a4 2d 37 3c 63 c9 2a bd
       -0.020551456 -0.009461068 0.011180315 -0.041695964
000300 d9 c7 f9 39 4a d1 8a 3b 68 f8 48 3c 97 43 e9 3c
       0.0004764188 0.004236375 0.012266256 0.028474612
000310 ef 46 22 bc 69 1f 01 3c 23 1f ef 3a cc 93 8f 3c
       -0.009904607 0.007881024 0.0018243532 0.01752653
000320 65 78 06 3c 08 83 c4 3b ad 62 44 bc 4b 41 87 3c
       0.008207415 0.0059970655 -0.011986417 0.016510626
000330 56 72 c5 bc d1 42 d8 38 67 86 63 3c 91 20 63 bc
       -0.024102371 0.00010312128 0.0138870245 -0.013862745
000340 fb 48 8b bc 25 3b a6 3c 24 36 ce bc 6e be c2 bc
       -0.017002573 0.020291874 -0.0251723 -0.023772445
000350 ed a9 dd bc 81 fa 08 3d b7 90 8b bc 0f 81 66 3c
       -0.027058566 0.033442024 -0.017036779 0.014068856
000360 b7 fd d2 3c b2 c0 ce bc 85 26 18 3d 14 c6 e4 3c
       0.025755746 -0.025238369 0.03714611 0.027926482
000370 75 86 97 3c 58 69 c0 3c 90 31 bc 3c 6c 1a dc bc
       0.018496731 0.023487732 0.022972852 -0.026868068
000380 9d aa c4 3a 22 f1 3f bd 0e 46 9c bc 04 7d 88 3b
       0.001500446 -0.04686082 -0.019076373 0.0041652936
000390 ef 7b 37 3c a9 33 4d 3c 8c fa c8 3c ce fc c6 bb
       0.011198982 0.012524524 0.024533533 -0.006072617
0003a0 85 23 f1 3c a8 04 04 3c 86 6b 92 bb 17 6a 28 bc
       0.029435882 0.008057751 -0.004468384 -0.0102792
0003b0 3b 33 8f 3a 93 a2 94 3c 4a 58 b2 3c 9d 3f 39 bb
       0.0010925302 0.018143928 0.021770615 -0.0028266676
0003c0 86 a0 92 3c 4c 46 b4 3c cd 9e d9 39 09 ec 33 3b
       0.01789881 0.022006176 0.0004150778 0.002745392
0003d0 93 f3 57 bc 19 a4 41 3c 30 29 49 bb 02 cd 89 bc
       -0.013180631 0.011818909 -0.0030694716 -0.016821388
0003e0 7a a0 b4 3c a9 e8 15 3c 5f dd 5a bc 25 8a 16 3c
       0.022049177 0.009149709 -0.013358443 0.00918821
0003f0 9c 99 a4 3c d8 31 93 3c d8 84 6e 3c bf a7 60 3c
       0.020092778 0.017968103 0.01455804 0.013711869

action_model._continuous_distribution.mu.bias f4 [2]
000000 fe 1a af 3a 10 5e 92 39
       0.0013359485 0.00027917372

action_model._discrete_distribution.branches.0.weight f4 [5, 128]
000000 6b 46 9b 3c 43 cb fb 3a 84 c8 96 ba c0 c9 1d 3c
       0.018954476 0.0019210357 -0.001150385 0.0096306205
000010 83 11 eb 3b 2c 91 4f 3c 48 3e 1c bc c9 c7 f5 b9
       0.0071737184 0.012668889 -0.009536333 -0.00046878893
000020 d5 84 24 3b cc be b5 3b 33 11 7f ba ea f9 67 bb
       0.0025103588 0.0055464264 -0.0009730041 -0.0035396763
000030 ad 6a e5 3b 35 db 26 3d 3b b6 9b ba 52 b4 87 bc
       0.007001242 0.040736396 -0.001187987 -0.016565476
000040 47 3f 26 bc f1 46 74 b8 1b c7 c3 bb 30 c5 08 3c
       -0.010146922 -5.8240203e-05 -0.005974663 0.008347794
000050 26 23 b9 bb 81 13 c6 3b 57 cc 32 bc 00 24 aa bc
       -0.005649942 0.0060448055 -0.010912976 -0.02076912
000060 2b 2c 55 bb c5 ed 45 bb ad c5 62 bb 82 5e 97 3c
       -0.0032527547 -0.0030201536 -0.0034602687 0.018477682
000070 f4 d9 84 3c d0 e1 4d 3c 31 d7 a4 bb 16 a1 bc bb
       0.01621721 0.012566045 -0.0050305356 -0.0057565076
000080 a0 be 36 ba 2e 28 a5 bc e7 1a 53 3b a1 5c 40 3b
       -0.00069711544 -0.02016076 0.003221208 0.0029352086
000090 bf 26 8b 3c 9d 68 cd 3b 37 5c 98 3c a1 bd 87 bc
       0.016986249 0.0062685744 0.018598659 -0.016569914
0000a0 fd d9 30 3c a0 99 1b 3a 16 bb 6c bc 7f 34 8d 3c
       0.01079416 0.00059356727 -0.014448902 0.017236946
0000b0 a8 68 16 3c e3 96 d5 bc 3f e1 91 3c 53 3a 74 3b
       0.009180225 -0.026072925 0.017807601 0.003726621
0000c0 29 21 82 bc 31 4c 16 bc 36 9a 89 bc 1b 0b 50 bb
       -0.015884953 -0.009173439 -0.016797166 -0.00317449
0000d0 2d c7 7a 3c d5 75 2d 3b aa 2b 9f 3c c2 80 54 3c
       0.015306276 0.0026467938 0.01943 0.012970151
0000e0 a4 52 21 bb 09 c6 03 3c 5a 89 b6 3c 70 b8 49 3b
       -0.0024615908 0.008042821 0.022282291 0.00307801
0000f0 89 85 80 3b eb 18 be bc b4 81 2d 3c 1b 22 84 3b
       0.0039221686 -0.023205241 0.010590006 0.004032386
000100 86 cd 4a bb e7 a6 f4 bb 3f 6a ce bc 78 7b 2d 3c
       -0.0030945255 -0.0074661854 -0.025197146 0.010588519
000110 87 90 b9 3a 87 f9 2d bb 00 a2 5a 3c 2f 95 6d 3c
       0.0014157452 -0.0026546435 0.013344288 0.0145009
000120 3b 8b 09 bc 81 55 a6 bb e2 9c c6 3c 88 25 64 bb
       -0.008395012 -0.005076111 0.02424473 -0.003481241
000130 ce 92 db 39 00 86 19 3a 97 c5 ae 3c 1d e8 97 ba
       0.00041880313 0.00058564544 0.021334453 -0.0011589561
000140 fb 3b c2 39 bb 7e 3e 3c c1 38 41 bb aa 36 42 3c
       0.00037047252 0.011626895 -0.002948329 0.011853853
000150 e2 d4 10 bb 3e ee 31 bc 89 c4 0d 3c df 44 b6 3b
       -0.0022099544 -0.010860024 0.008652815 0.0055624093
000160 01 1b 80 3c b6 a4 26 bb 07 d3 73 3c f9 37 08 3c
       0.015637876 -0.0025427765 0.014881856 0.008314126
000170 cd a1 50 bc cc c3 a6 38 23 7a 62 bc 8e 43 9a bb
       -0.012733889 7.951967e-05 -0.013823065 -0.00470776
000180 e0 bd 32 3b f1 fb 8e 3c 56 bc 65 3b 1f 4b 3d 3c
       0.002727382 0.01745412 0.0035054884 0.011553555
000190 bf bf 73 3b fa 28 9c bc 26 a8 c7 3a b0 aa 85 bb
       0.0037193147 -0.019062508 0.0015232607 -0.0040791854
0001a0 8c 14 49 3a b8 7e 36 3c 2b 73 21 3c 84 d8 93 bb
       0.0007670603 0.011138611 0.009854118 -0.0045118947
0001b0 8b 86 13 bc b1 5b f5 ba 19 d4 88 3c 3a 10 5e bc
       -0.0090042455 -0.0018719343 0.016702699 -0.013553673
0001c0 c6 e2 11 3c f3 3d da 3b 82 5e 1a bc 56 fd b2 3a
       0.008904165 0.006660217 -0.0094219465 0.0013655822
0001d0 fa 3c ab 3c 6d e2 01 3c d2 9f 6a 3c 05 63 c4 3c
       0.0209031 0.007927519 0.014320331 0.023972997
0001e0 ff 48 84 bc 99 83 16 bb 7c 61 ce 3a 76 e0 5c 3b
       -0.016148088 -0.0022966622 0.0015745605 0.0033703125
0001f0 2d 87 6b bc be de 01 3b 6a 80 be 3c 10 21 07 3c
       -0.01437549 0.0019816603 0.023254592 0.008247629
000200 20 d6 d9 3b 4e 68 05 39 28 8d 5a 3c 09 32 00 3b
       0.00664784 0.00012722725 0.013339318 0.0019561073
000210 6f a6 11 ba de a8 14 bb 5a b0 4c 3a 40 37 95 bb
       -0.00055561116 -0.002268366 0.0007808261 -0.0045537055
000220 5f b0 b4 bc 7c fd dc 3b ba 8b 0c bb f9 df 58 bc
       -0.022056757 0.006744085 -0.0021445588 -0.013236993
000230 0c dd 43 3c 43 7b 0f bd 19 fe a0 3c 24 d4 32 bc
       0.011954557 -0.03502966 0.019652413 -0.010914836
000240 8c e6 43 3c 87 29 39 bb 03 e2 64 bb 38 0a 3a bb
       0.011956822 -0.0028253512 -0.0034924753 -0.0028387439
000250 67 a6 75 bc 5b 9a 21 3c 6d 87 3e bc 36 d4 ac bb
       -0.014993287 0.009863461 -0.011628968 -0.005274321
000260 19 8c 7b 3b 77 84 a0 3c 27 a3 8e 3c fa c2 c5 bc
       0.0038383065 0.019594414 0.017411781 -0.024140824
000270 d3 35 93 bc f7 ea bb bc 0a ce 21 bc 43 3f 85 3b
       -0.017970001 -0.022939188 -0.009875784 0.0040663793
000280 f5 a3 21 bb 6b 32 04 3c b9 99 b4 3c 31 68 6f 3c
       -0.0024664376 0.008068661 0.022045957 0.0146122435
000290 63 6b 28 bc b2 9e c2 3c 2b 04 2f ba 7d 2e 9f bb
       -0.010279509 0.023757312 -0.0006676341 -0.0048578368
0002a0 fa 55 a7 bc a1 74 b6 bb 45 83 f1 bb 95 17 d8 ba
       -0.020426739 -0.0055681025 -0.007370385 -0.001648652
0002b0 71 7c bd 3b 6d 86 98 bb 4b 81 9e 3b b8 1f 42 3c
       0.005782657 -0.0046546967 0.0048371903 0.011848383
0002c0 ff 15 18 bb 14 a8 d0 3b ff 73 60 bb c8 a1 22 bb
       -0.002320647 0.0063676927 -0.0034248827 -0.0024815667
0002d0 00 f3 5f 3c f5 52 5a 3a bf 38 1b bc f5 f6 a3 bc
       0.013668776 0.00083284016 -0.009473979 -0.02001522
0002e0 5f ab 0f bc 01 ed 2a 3c 53 03 50 bc 7a 24 19 3c
       -0.008768885 0.010432483 -0.012696105 0.009347076
0002f0 6d 79 41 3c 9e bd 39 bc 16 69 c7 bb 99 54 dc bb
       0.011808735 -0.011336712 -0.0060855253 -0.006723952
000300 49 23 8e bc 72 8a 2b 3c ab 42 da ba 17 14 df bb
       -0.01735081 0.01047002 -0.0016651949 -0.006807815
000310 08 bd d3 3b 37 af c8 3b ba b4 24 bc 92 35 90 3b
       0.0064617433 0.006124403 -0.010052854 0.0044009173
000320 48 3f 70 3c c9 8d b5 3c 69 c2 61 3c 96 b4 e5 bb
       0.014663525 0.022162335 0.013779261 -0.007010053
000330 af 73 02 3b 81 db 0a bc 8c 3f 27 bb 54 b7 aa b9
       0.0019905379 -0.008475185 -0.0025520055 -0.00032561517
000340 96 2b 21 bc 0c c0 43 3c 4d 85 00 3c a2 82 7e bc
       -0.009837052 0.011947643 0.007844281 -0.015534075
000350 66 0a 9a 3b 5d ce 68 3c 75 59 89 bc 34 a0 50 3c
       0.0047009466 0.014209357 -0.01676629 0.012733508
000360 ef 0e d4 3a cc 67 f6 3a b6 83 20 3b ca fb 0c 3c
       0.0016178767 0.0018799244 0.0024492568 0.008604953
000370 96 9d 80 3b d1 20 17 3c 0d 66 dc b9 a2 22 c4 3c
       0.0039250357 0.009224133 -0.00042037704 0.023942295
000380 56 69 2a bc 8a fb 85 3b 7f b9 b4 bb ae 6b ab 3b
       -0.010401091 0.0040888237 -0.005515277 0.0052313423
000390 d1 de 8d 3c 0f 16 87 3c 19 5a 4b 3c c9 84 a3 bb
       0.017318161 0.01649001 0.012411618 -0.0049901945
0003a0 a4 ec 3f 3c 03 bf eb bb c1 0b 5f 3c ac e4 3c 3c
       0.011714134 -0.007194401 0.013613642 0.011529129
0003b0 70 fa 9c 3b c3 5b f1 bb cb 13 3f bc 22 dd 6a bc
       0.0047905967 -0.007365675 -0.011662434 -0.014334949
0003c0 b8 02 5b 3c 93 e8 fb bb 19 9f 25 3c b2 20 78 bc
       0.013367347 -0.007687637 0.010108733 -0.015144514
0003d0 05 e2 54 bb 0a 66 4f 3c 60 12 32 3b 83 8e 31 3c
       -0.003248335 0.012658605 0.0027171597 0.0108372
0003e0 1d 33 03 3b 78 54 02 3c 81 bc 46 bc be 64 d6 bc
       0.002001948 0.007954709 -0.012129904 -0.026171084
0003f0 3e 3d 03 ba 27 02 08 3c 9d 38 dd ba b9 0e 0a bc
       -0.0005006379 0.008301294 -0.0016877834 -0.008426362

action_model._discrete_distribution.branches.0.bias f4 [5]
000000 15 3c b0 bb d7 0b 2d 3a 72 90 41 ba 37 e0 f5 3b
       -0.005378256 0.00066011905 -0.000738389 0.007503535
000010 e8 00 8e bb
       -0.004333604
