3DPlayground/results/Test19/MoveToGoal/MoveToGoal-123300.pt (torch, 581774 bytes, 42 tensors)

network_body._body_endoder.seq_layers.0.weight f4 [128, 48]
000000 fd be 9a be e0 0f 79 bd 3d c8 ae bc bd c9 7a bc
       -0.30223837 -0.060806155 -0.021335715 -0.015306887
000010 65 50 5e 3b e1 e1 9b bd 25 a9 20 3e 1c e5 45 3d
       0.003392243 -0.07611442 0.15689524 0.0483142
000020 a0 42 38 be 2e ee 94 3d 89 fa b2 be 61 92 02 3d
       -0.17994165 0.07271992 -0.34956768 0.03187788
000030 d7 5b 1e be d6 c2 ab 3d d0 c5 28 3d 25 26 13 3e
       -0.15464722 0.083867714 0.041204274 0.1437002
000040 24 a1 39 bd 3c 5f f4 bd 8d 94 77 3c fd 40 ed 3c
       -0.04531969 -0.11932227 0.015111101 0.028961653
000050 9a d4 0e 3d 3a a6 09 be b1 51 20 3d 2d ba a5 bc
       0.03487072 -0.13442317 0.039140407 -0.020230377
000060 50 01 15 3e ea db bc bc 33 9c 9e bd e7 92 06 3e
       0.14551282 -0.023054082 -0.077446364 0.13141976
000070 3a e4 ae bd 07 3b 41 3d 85 91 68 3d 2f d7 0f be
       -0.085396245 0.047175433 0.056779403 -0.1404693
000080 49 3e f1 bd d1 3a fc 3d 79 ee 35 bd ad 52 14 3e
       -0.11779458 0.12315906 -0.04441688 0.14484663
000090 e2 46 54 be 3c 38 19 3e 77 ad 29 be 28 78 96 3c
       -0.20730165 0.14962858 -0.16570078 0.018367842
0000a0 f4 ea d8 3d e1 c9 5e 3d eb 05 38 3e e7 42 88 3d
       0.10591689 0.054391745 0.17971008 0.066533856
0000b0 b8 e2 b5 3e 26 93 4b 3e fb 12 70 3d 1b 92 5e 3d
       0.35524535 0.19880351 0.05861185 0.054338556
0000c0 1f 6d 70 3c a0 d1 47 bd 35 0f ba 3b 12 5b b9 3d
       0.014674454 -0.0487839 0.0056780824 0.090505734
0000d0 c2 3d 2d be 46 23 36 be 37 3f a7 3d 58 99 39 be
       -0.1691809 -0.17786893 0.08166354 -0.18124902
0000e0 0e db 6e bd 11 d6 33 bd 54 25 3f 3b 0d 6e 80 3e
       -0.058314376 -0.04390532 0.0029166536 0.25083962
0000f0 63 3e 2a bc b1 06 a9 3d e8 f6 1c 3e 39 27 0e 3e
       -0.010390851 0.082532294 0.15328562 0.1388215
000100 19 86 41 3d f7 21 62 be 49 dc c6 bd 50 1c 71 39
       0.047247026 -0.22083269 -0.09709985 0.00022994098
000110 53 de a3 3e 76 a7 35 bd e1 7c 8e be 00 31 b2 bc
       0.32005557 -0.044349156 -0.2782965 -0.02175188
000120 c3 b5 73 3e 87 05 2f 3e f5 40 5a 3a ef 99 44 3c
       0.23799805 0.17091952 0.00083257194 0.011999591
000130 b0 f1 06 3d b8 3e 0a 3d 4d 3f 30 be 32 cf 10 3e
       0.032945335 0.03375122 -0.17211647 0.14141539
000140 78 ba ba 3c 47 dd ca 3d 97 de a4 bd 9f 34 19 3d
       0.022793993 0.099054866 -0.08050268 0.0374037
000150 ac 48 19 3e b9 2a 33 be 59 4a b4 3d 53 28 3e bd
       0.14969128 -0.17496766 0.08803243 -0.046425175
000160 fc d4 39 3d 44 21 ac bd 81 e0 c6 3d 73 92 d7 3c
       0.045369133 -0.084047824 0.097107895 0.02631495
000170 4c 68 85 3d 14 88 22 3e cb bf 12 be 5c 85 6a 3e
       0.06514034 0.15872222 -0.14330976 0.22902435
000180 ce 03 e9 bd 66 fd c4 3d c5 98 ab 3d 92 d8 32 be
       -0.11377679 0.096186444 0.08378748 -0.17465428
000190 50 cf 08 be 5e 18 f3 bd f3 e8 a3 bd ae e2 ba bd
       -0.13360333 -0.11869882 -0.08003416 -0.09125267
0001a0 0c 99 1c be fa ac 1a 3e 08 ef d9 bd 8b 8c a6 3e
       -0.15292758 0.15105048 -0.10641295 0.325291
0001b0 c0 54 c4 bc 84 6b 2a 3d ea b1 47 3e c6 78 53 bd
       -0.023966193 0.04160644 0.19501463 -0.05162885
0001c0 58 7e 30 be b2 91 7b bc 22 bf d3 bd 52 3d bc 3a
       -0.17235696 -0.015354561 -0.1033919 0.0014361537
0001d0 03 54 29 3e 59 74 01 3e ea ce e0 3d 34 c6 b6 bd
       0.16535954 0.1264204 0.10976966 -0.08924523
0001e0 3c 23 34 bd 2b 53 7a be e2 b8 78 be 3a be d5 bd
       -0.043978915 -0.24445789 -0.24289277 -0.104366735
0001f0 71 15 cf bc 6a 4b 71 bd a8 3b 42 be 0c 52 b4 bb
       -0.025278779 -0.05890981 -0.1896807 -0.005502945
000200 50 15 bb be 46 64 0a be b2 fe 82 3e 48 35 a2 bd
       -0.36539698 -0.13514814 0.25584942 -0.07920319
000210 71 a5 75 3d 76 f2 dc 3d 40 31 01 3e fe 98 c0 bb
       0.05997223 0.10788433 0.12616444 -0.005877613
000220 80 35 a9 bd db 0e e4 3c ce 48 29 bc f2 6f ce bd
       -0.082621574 0.027839115 -0.010332299 -0.100799456
000230 02 57 65 3e bb 6e c7 3d 58 34 82 bd 0d aa 28 3e
       0.22396472 0.09737917 -0.0635764 0.16471119
000240 89 5f 08 be 16 11 4b 3d 80 e2 14 be 64 fe 06 be
       -0.13317694 0.04957684 -0.14539528 -0.1318298
000250 ad 0e ac 3c 85 2d da be c5 96 9a 3e 15 3b d6 3d
       0.021003092 -0.42612854 0.30193153 0.10460488
000260 29 f8 4a bd ea f2 90 3e e2 87 9a bd d5 ff 24 3e
       -0.04955307 0.2831033 -0.07545449 0.16113217
000270 93 3e 33 3d 84 7e 51 3e 64 3d ba bb ea eb b4 bb
       0.043760847 0.20458418 -0.005683588 -0.005521287
000280 79 86 b0 3d 79 5e 60 bc 82 2d 0d be 41 0e f8 3c
       0.086193986 -0.013694399 -0.13786891 0.030280234
000290 a4 b7 74 3e 4f a2 ab 3d 0e dd 83 3e 9b 5c 0c bd
       0.23898178 0.08380567 0.2575459 -0.034268003
0002a0 76 2b b5 bc 1c 28 6b bd 47 21 85 3c c3 00 8d be
       -0.02211545 -0.0574113 0.01625122 -0.27539644
0002b0 68 cf 61 ba 80 65 2d 3e 14 3b 14 3e 41 73 4f bd
       -0.0008613975 0.1693325 0.14475662 -0.050647024
0002c0 1c df 4c 3e 2e db fc 3d 8b 21 69 3e f0 9d 8c 3e
       0.20006984 0.12346493 0.22766702 0.27464247
0002d0 5c 94 fa 3c b5 d1 24 3e d0 ba ba bd af 8f 9a 3c
       0.030588321 0.16095622 -0.09117663 0.018867342
0002e0 e6 6f b1 bd f2 a7 83 3d 4c 53 82 ba cf a3 9d 3d
       -0.08663921 0.064285174 -0.0009943037 0.0769726
0002f0 c7 28 5b 3a 2b 92 16 3d 05 42 18 3d 74 69 0d be
       0.00083602633 0.03676049 0.037172336 -0.13809758
000300 af 17 f4 3d 11 7d 33 3c 79 bf 86 3d 17 3d b5 bb
       0.1191858 0.010955111 0.06579489 -0.005530964
000310 d5 5b 16 be 5c 23 b7 bc 97 3f d9 3d d5 a1 e7 3c
       -0.14683469 -0.022355728 0.10607832 0.02827541
000320 00 f2 39 3e dc 2f 6c bd 01 f7 43 3d 3e 85 53 bd
       0.18158722 -0.05766283 0.047842983 -0.05164074
000330 e7 94 ed bd c0 0e ad ba fb 7e bd 3d d9 73 35 3c
       -0.116006665 -0.0013203248 0.09252735 0.0110749835
000340 9a 43 de 3d be 9e 08 be c6 40 78 be 0a b3 a3 3d
       0.10852738 -0.13341805 -0.24243459 0.07993133
000350 f6 b1 d9 3d 75 9b 4c 3d ff 63 1e be ca 09 3b 3d
       0.106296465 0.049952943 -0.15467833 0.045663632
000360 83 c5 e2 be 3f 74 f5 ba 65 4c 74 bc 3b d2 14 3c
       -0.44291314 -0.0018726661 -0.014910792 0.009083326
000370 c6 9a aa bd 26 3a 69 bc 68 cc 05 3e d9 12 52 bd
       -0.08330302 -0.014235055 0.13066256 -0.051287506
000380 b1 40 88 3d 98 2c 32 3e 77 69 ae 3d 99 4b 97 be
       0.06652964 0.17399824 0.085162096 -0.29549864
000390 4c 70 11 be b1 73 5f 3e 5e 77 8c be 51 91 68 3d
       -0.14202994 0.21821477 -0.2743482 0.05677921
0003a0 aa d0 c5 3e 8b 46 4b 3d 22 a5 bf 3d 3c e7 aa 3d
       0.3863576 0.049627822 0.093576685 0.08344886
0003b0 3b f6 8e bd c7 29 08 be 68 ca bc be 3e 20 6b 3d
       -0.069805585 -0.13297187 -0.36873174 0.057403795
0003c0 bb 64 55 be b9 c9 98 3d 6c c5 cf 3d a8 88 25 be
       -0.20839207 0.074603505 0.10145077 -0.16165411
0003d0 1d 57 be bc e3 8e 32 bd 8b 49 17 be 7f 00 af be
       -0.023234898 -0.0435933 -0.14774148 -0.34180066
0003e0 5c 55 06 be 86 e8 19 be 99 dc c3 3d 04 6f 2d 3d
       -0.131185 -0.15030107 0.0956356 0.0423422
0003f0 a8 18 07 bd ce 35 db 3d 6a 8c 45 3d 7c 69 29 3e
       -0.0329825 0.10703622 0.048229612 0.16544145

network_body._body_endoder.seq_layers.0.bias f4 [128]
000000 00 11 83 ba 51 ef 3c bb a9 4d 34 bc 9e 18 b3 bb
       -0.0009999573 -0.0028829167 -0.011004844 -0.005465581
000010 e3 ef b4 3b a7 66 98 3b ce 9b 72 3a f6 e2 ae 3b
       0.005521761 0.004650909 0.0009254784 0.0053371144
000020 ab 36 e1 3a 12 1a 05 3a 38 4a 26 bc fe 47 8c bb
       0.001718243 0.0005077432 -0.010149531 -0.004281043
000030 7e 60 ef bb 7f e3 76 ba 50 5b 36 3b 77 50 8b bb
       -0.007305204 -0.0009418055 0.0027825423 -0.0042515355
000040 e6 ff 13 bb 95 d6 b1 3a 48 62 df bb 4d 76 c1 39
       -0.0022582947 0.0013567979 -0.006817136 0.0003689997
000050 c1 09 75 3b c6 37 85 3b 57 a8 58 bb 8a f8 15 3b
       0.0037389847 0.0040654866 -0.0033059323 0.0022883737
000060 d2 ea ae ba 7a b2 f5 3a 96 77 8c bb d4 d1 df bb
       -0.0013345128 0.0018745207 -0.0042867167 -0.0068304334
000070 54 e4 1e 3b ab 00 0b bc 5c 0a a4 3a 98 94 45 bb
       0.002424498 -0.008484046 0.0012515294 -0.0030148383
000080 be 6b e1 3b a3 df 35 bc 3e 8c 97 bb a0 53 82 3b
       0.006879299 -0.011100682 -0.0046248725 0.003977254
000090 cb e1 ac bb 74 90 c1 bb e5 2d 1c bb dc 95 fd 3a
       -0.00527594 -0.0059071127 -0.0023831066 0.001934703
0000a0 1e c2 06 ba 26 b4 ff ba ef 00 29 3b 85 74 f0 b8
       -0.000514062 -0.0019508644 0.002578791 -0.00011465795
0000b0 76 cc ca 3a a1 79 f9 3a 2a d7 dc ba 9f 69 fc bb
       0.0015472311 0.0019033441 -0.0016848792 -0.0077030207
0000c0 9e 6f 42 b9 8a 99 82 3b 2a 88 81 bb 27 63 01 3b
       -0.00018542862 0.0039855884 -0.0039529996 0.0019742937
0000d0 65 f0 dc ba 16 03 f2 ba 54 e7 b7 3a 4a a9 8c 3b
       -0.0016856311 -0.0018464054 0.0014030733 0.0042926418
0000e0 e5 43 12 3a 57 8e 51 bb d3 a9 80 bb c5 17 95 b9
       0.0005579575 -0.003197571 -0.0039264946 -0.00028437204
0000f0 6e af 52 bb eb 17 00 bb 88 6a 69 bc af ec 18 bb
       -0.0032148021 -0.0019545506 -0.01424659 -0.0023334434
000100 14 eb 4d 3c f0 ee f8 39 30 1d 82 3c 05 01 82 b9
       0.012568254 0.00047480268 0.015883058 -0.00024796292
000110 13 a6 b9 bb 9e 4c a4 bb 21 e4 3b bb 67 2d 1d bc
       -0.0056655495 -0.0050140163 -0.002866991 -0.009593344
000120 d7 1c ce 3b d9 25 c9 3b ff 8d 14 bb 54 7b d1 3a
       0.006290059 0.006138545 -0.0022667644 0.0015982189
000130 3a 47 a5 3b 7f a7 1d bc c7 32 30 ba 62 17 63 3b
       0.0050438913 -0.009622454 -0.00067214336 0.0034651388
000140 f8 d2 4b 3c 99 7a 23 bb 08 47 f4 ba b5 5c b5 39
       0.012440436 -0.00249449 -0.0018636892 0.00034592082
000150 04 8c a4 bb 1a 6e 88 3b 59 a4 9a 3a f9 7c 5f 39
       -0.005021574 0.0041635158 0.0011798247 0.00021313493
000160 4c 65 42 bb 6f 34 14 ba 59 b3 c6 3b 9e 9f f5 3b
       -0.0029662428 -0.0005653565 0.0060638604 0.0074958345
000170 e2 0d b7 ba b2 f2 84 3c 87 69 a7 3a 72 d1 99 ba
       -0.0013965929 0.016229007 0.0012772538 -0.0011735393
000180 c2 0f 66 3c 59 03 17 bb e3 74 dc bb fa bf 9c 3b
       0.014041843 -0.0023042767 -0.006727801 0.0047836276
000190 fa 46 41 bb 87 9e 12 bb 76 74 6e 3b 94 d2 a6 39
       -0.0029491768 -0.0022372322 0.0036385334 0.0003181888
0001a0 e0 ec 06 bc 2e 2f cb 3a 9e 8e 1f 3b 50 8e e0 ba
       -0.008235186 0.0015501732 0.002434648 -0.0017132256
0001b0 08 5a 88 bb b1 f6 09 3b f2 b3 5f 3b 89 22 23 bb
       -0.004161123 0.002105158 0.0034134355 -0.002489241
0001c0 b8 0d 6a bb 38 81 41 39 16 0a 85 3b 75 e9 23 ba
       -0.0035713743 0.00018454052 0.00406004 -0.00062527444
0001d0 a2 2a 8c 3a 21 ab 76 3b 3e 98 4c bb 79 9c 7d 3b
       0.0010693858 0.0037638622 -0.0031218673 0.0038698001
0001e0 6f 65 e7 bb 1b e9 68 3a 2a 67 6c ba 4c e7 47 bb
       -0.0070616524 0.0008884833 -0.0009018058 -0.0030502854
0001f0 28 1a b0 bb e6 93 6e bb 1c 75 99 ba 1a 7a 3b bb
       -0.005374212 -0.0036404072 -0.0011707875 -0.0028606714

network_body._body_endoder.seq_layers.2.weight f4 [128, 128]
000000 38 83 84 3d 60 10 91 3c 21 ce a8 bd 2e 5c a5 be
       0.064703405 0.017708004 -0.08242441 -0.3229689
000010 cc e1 37 be b9 d9 23 3e 3a 9e 9d 3c fb b8 ba 3d
       -0.17957228 0.16001023 0.019240487 0.091173135
000020 9c 5e 0e bc bb 92 10 3e 52 cb 52 bd 5a fe 91 bc
       -0.008689549 0.14118473 -0.051463433 -0.01782148
000030 dc 89 6a 3d 01 cb 51 3d a9 27 b0 3c f4 23 0e bc
       0.05726038 0.05121899 0.021503286 -0.008675564
000040 77 44 37 bd be d9 ba bd 9a c0 df 3d 7d d2 53 bd
       -0.044743028 -0.09123562 0.10925408 -0.05171441
000050 c4 32 b0 bb c5 d5 ba 3d 5a 36 dc 3c 52 2a c3 3c
       -0.0053771455 0.091228046 0.026881386 0.02382389
000060 93 ea 32 3e 3b 0f 30 bb 31 2c f7 bd d5 e9 66 3d
       0.17472295 -0.0026864547 -0.12068976 0.056375343
000070 b3 8b 3c 3d 34 c2 08 3d dc 8d ee bd 6c 4f 7c 3d
       0.046031665 0.03338833 -0.11648151 0.06159918
000080 12 ff 93 bd e4 ec e1 bb 4e 98 2a bd fb 9f a8 bd
       -0.07226385 -0.0068946946 -0.041649155 -0.08233639
000090 9b 60 3a bd f8 01 d7 bd 2a 8c 21 3d c2 64 fd bd
       -0.045502286 -0.104984224 0.03944031 -0.12372734
0000a0 bd 81 bc bd d0 e8 8d 3d fb 36 5f bd 4d 51 e0 bd
       -0.09204433 0.06929171 -0.054495793 -0.10953007
0000b0 76 b1 fa 3c f0 ff 8c b7 43 4d 42 3e 5b 81 0b be
       0.030602198 -1.680848e-05 0.18974786 -0.13623564
0000c0 00 e6 98 bd 07 99 26 be b2 0c 11 bb 13 4f 1c bd
       -0.07465744 -0.16269313 -0.002213281 -0.03816135
0000d0 41 c3 01 be 33 01 8e 3d 47 ef d9 bd 47 29 d5 bd
       -0.1267214 0.069338225 -0.10641342 -0.10408264
0000e0 34 c1 b3 bd ee 63 8b bb 25 30 a2 3d 7d 91 fb bc
       -0.08777085 -0.004253856 0.07919339 -0.030709023
0000f0 69 20 12 bd 9a f6 bd bd cb 57 59 bd fc 2f 69 3e
       -0.03567544 -0.09275551 -0.05306224 0.22772211
000100 1f 28 9e bc bb 83 d4 bd f5 c3 ac 3b 11 bd 8d bd
       -0.01930624 -0.10376688 0.0052723833 -0.06920827
000110 04 64 15 be 0b d4 03 3e 46 a5 a1 3d 99 d7 76 3d
       -0.14588934 0.12873857 0.078928515 0.060264204
000120 b8 5e fb bc fb c7 b0 3d dd 54 91 bd 98 ed c7 3d
       -0.030684814 0.08631893 -0.070962645 0.09762114
000130 a2 a2 cb 3d c1 23 c3 bc 27 31 09 bd 73 31 56 3e
       0.09943129 -0.02382076 -0.03349414 0.20917301
000140 eb 8e cc bc b2 9a a6 3d 9e 37 ef 3b d0 68 72 3d
       -0.024970492 0.081349745 0.0073003313 0.05918199
000150 c3 db d4 3c 7d e0 b2 3c b4 1e 8b 3d ec 51 e5 bc
       0.025983697 0.02183556 0.067929655 -0.027993165
000160 58 fb ca bc ab c0 9f 3d d6 01 b4 ba 7e 2f c4 bc
       -0.024778053 0.078004204 -0.0013733457 -0.023948427
000170 c1 5d bb 3c 55 76 a2 bd 25 20 ee 3b d7 b1 cc 3c
       0.022871854 -0.07932726 0.0072670155 0.024987144
000180 cd 02 16 3d 37 a1 f2 3c 23 25 3e 3e 84 6c f8 bc
       0.036623765 0.029617889 0.18568854 -0.030325182
000190 3d 2e 8a bc e1 2a b6 3d 68 cc 48 bd 17 ce 4a be
       -0.016867751 0.08894897 -0.049023062 -0.1980518
0001a0 55 fa 1f 3d 4d f5 65 3d 23 fa cc bd 77 51 32 bc
       0.039057095 0.05614214 -0.10008647 -0.010883681
0001b0 c8 b3 ce 3d 70 2b cf 3d ab e1 28 3e ea d0 a2 3c
       0.10092884 0.10115707 0.16492335 0.019875009
0001c0 89 64 14 3d f2 58 b9 bc 4f d1 b6 bd a0 24 35 bd
       0.03622869 -0.02262542 -0.08926641 -0.04422438
0001d0 5f 1b 5b bd 68 cb c0 3c ff b3 2f bc 17 ae 44 3e
       -0.0534929 0.023534492 -0.010724067 0.19207035
0001e0 f4 ef 16 3e 84 cf 2e 3e e5 7a a3 bc 0f cc 0e bc
       0.14739972 0.17071348 -0.019956062 -0.008715644
0001f0 7b 19 05 3e 95 f3 b5 3d 84 62 34 3e 2c 29 0a 3e
       0.12998001 0.0888435 0.17615706 0.13492268
000200 c3 bd 2c be 9f 06 3c 3d 08 c1 d4 3d 81 94 34 bd
       -0.16869263 0.045904752 0.1038838 -0.044086937
000210 97 39 01 bc ed 4f 21 be e9 9f 8c bd ab 4f 51 3d
       -0.007887266 -0.15753146 -0.06866438 0.051101368
000220 c8 cb 8d 3d be e0 3c 3d 40 cd 0f 3c 72 97 1c 3e
       0.06923634 0.04611277 0.008776963 0.15292147
000230 57 82 f5 bd 80 b0 74 3d ce 76 cc 3d cc e1 4a 3e
       -0.11987751 0.059738636 0.09983598 0.19812697
000240 ab 29 72 3d bc ca 15 3e d3 e5 72 3d d5 4c bd 3c
       0.05912177 0.14628118 0.05930121 0.023107925
000250 ca 14 33 bc c2 e0 9a 3d e2 a2 b6 bc 52 fe 72 bd
       -0.0109302495 0.075624004 -0.022294465 -0.05932457
000260 23 cb 72 3d b1 7a 6b 3b 3c 30 eb bd e1 15 a0 bc
       0.059275758 0.0035931284 -0.11483809 -0.019541683
000270 8a 03 93 bc 63 df ab bd c6 24 61 bd 4d a4 c7 bc
       -0.017946023 -0.08392217 -0.05496671 -0.024370337
000280 65 04 01 be bf 65 7b bc 6c 78 0c be 73 62 37 be
       -0.12599333 -0.015344082 -0.13717812 -0.17908649
000290 ee 97 4f 3c 7e 66 18 3d d2 e2 22 be ea 6b 01 3d
       0.0126705 0.03720712 -0.15906838 0.031597055
0002a0 44 a2 2c 3d 3e 5a 67 3d 7a 44 80 3d 20 c4 bd bd
       0.042146936 0.056482546 0.06263061 -0.092659235
0002b0 90 de 84 bd 8b c5 18 be 1a 7c 0f bd d7 6a 3d 3d
       -0.06487763 -0.14919107 -0.03503046 0.04624447
0002c0 52 35 8d 3c 50 be 8a 3d a7 25 9a 3d 32 23 f9 3d
       0.01723734 0.067745805 0.07526713 0.12164916
0002d0 e9 91 80 bd 41 20 92 bd 0e ad bc bc a5 d0 4a be
       -0.0627783 -0.07135058 -0.023031738 -0.19806154
0002e0 7d c9 a9 3c 9b 3f 3d 3d b2 ac 22 bd 7d 84 53 bd
       0.02072596 0.046203237 -0.039715476 -0.051640023
0002f0 45 48 97 3d b5 fa 5a 3d 73 00 49 bc df 6d 96 3d
       0.07386831 0.05346175 -0.0122681735 0.07345175
000300 27 3c ee 3d 1f a4 d8 bd 0c 35 1d 3d 90 59 25 3e
       0.11632567 -0.105781786 0.038380668 0.16147447
000310 76 75 50 3d 91 4c b1 bc 18 56 56 bc b3 91 5f 3d
       0.05089327 -0.021642955 -0.01308205 0.05458231
000320 aa c1 f0 3b a4 d8 b1 36 36 9b 5b be cf d9 4b bd
       0.0073473053 5.3002314e-06 -0.21445927 -0.049768265
000330 e6 14 ae bd 2e 1f 03 bd c8 b3 18 3d cc 56 47 3d
       -0.0850008 -0.032012157 0.037280828 0.04866676
000340 a7 f4 d5 bd 1d 95 06 3e 9c b9 03 bd fa f0 77 3d
       -0.10447054 0.1314282 -0.032159433 0.060532548
000350 aa 56 a3 bc 80 86 38 be 10 89 de bd 57 ca 90 bd
       -0.019938786 -0.18020058 -0.10865986 -0.07069843
000360 ce 3c db 3a a4 af 15 be fd ff 89 3c b3 e2 06 bd
       0.0016726495 -0.14617783 0.016845698 -0.03293104
000370 18 d9 13 bd f4 6e 26 bc 91 bd 14 bd 55 c7 77 bd
       -0.03609571 -0.010158289 -0.036313597 -0.060492832
000380 d2 c8 e4 bc 47 39 2e 3d 03 94 3a bd e7 d3 27 bd
       -0.02792779 0.042535093 -0.04555131 -0.04097357
000390 45 ee 30 bd e2 bb 89 3d dc 52 95 be d3 3d fc 3a
       -0.04319598 0.06725289 -0.2916478 0.0019244499
0003a0 11 58 d5 3d 64 0c f9 3d b0 5c 77 3d fc a7 15 3d
       0.10417188 0.121605664 0.060391128 0.036537156
0003b0 68 2b 32 be 80 ec 1f bc 95 b1 96 3d 7e 6b fe 3c
       -0.1739937 -0.009760976 0.0735809 0.031057116
0003c0 1b 20 0a bc b2 47 33 be c3 dc a6 bd 20 fb 4f 3d
       -0.008430506 -0.17507818 -0.08147576 0.0507766
0003d0 86 ff 9e 3d 4f 93 d5 3b 1d 4f 1e bd a0 4d d9 bd
       0.07763581 0.0065178047 -0.038649667 -0.10610509
0003e0 29 d3 18 3d fd a0 26 3c 81 d3 cf 3d 74 06 52 3d
       0.037310753 0.010170219 0.10147763 0.051275685
0003f0 dc de 6d 3c 1f 69 77 bd 04 c9 45 3d dd 33 c5 bd
       0.014518466 -0.060402986 0.048287407 -0.09629033

network_body._body_endoder.seq_layers.2.bias f4 [128]
000000 5e 68 d9 3a fb c5 51 bb d4 9d f8 ba b3 10 2b bb
       0.001658689 -0.0032008875 -0.0018967935 -0.0026102483
000010 77 e8 6b 3c 95 3e 3a bb 27 a0 72 bb af 7b 41 bb
       0.014398686 -0.002841865 -0.0037021728 -0.0029523184
000020 db b4 b4 bb 22 ed 41 39 2e 36 4c 3a 45 dd 5d bb
       -0.0055147237 0.00018494253 0.0007790056 -0.003385381
000030 73 c7 40 bb 9e 1f 76 ba 53 33 4b 3a c4 c1 04 3c
       -0.0029415756 -0.00093888666 0.00077514834 0.008102838
000040 7b bf 76 ba 59 98 87 bb 12 67 8b ba 09 87 14 bb
       -0.0009412688 -0.0041380343 -0.0010635576 -0.0022663495
000050 42 db 51 b9 cb 23 a3 3b d2 c6 34 ba 76 ec b9 ba
       -0.00020013473 0.004978632 -0.00068960816 -0.0014184851
000060 63 d1 50 3b a3 39 a8 ba bb fe 76 3b 1c a0 13 bb
       0.0031863085 -0.001283456 0.0037688452 -0.0022525853
000070 3b 66 60 3b 11 55 c9 ba d5 6d a3 bb 21 3f dc bb
       0.0034240622 -0.0015360435 -0.004987458 -0.0067213927
000080 09 2c 5a 3a 36 5f 2c bb 35 03 f1 38 36 a8 df b9
       0.0008322602 -0.0026301867 0.00011492373 -0.000426592
000090 2e 2d 67 39 e8 20 a2 3b f8 28 92 bb 27 a2 e8 b9
       0.00022046707 0.0049477704 -0.0044604503 -0.000443713
0000a0 67 1c 05 3b 1b e5 15 3a 77 11 a0 ba 36 df 84 bb
       0.0020311119 0.00057180383 -0.0012212236 -0.004054929
0000b0 01 bb 92 bb 73 c2 23 bb b9 56 e4 3a cd 67 a3 ba
       -0.004477859 -0.0024987727 0.0017420865 -0.0012466848
0000c0 46 8e 74 ba 9f 00 ea 3b a3 ec a7 ba 59 8a 00 3b
       -0.0009329062 0.0071411873 -0.0012811612 0.0019613712
0000d0 98 22 78 bb 6d 46 c8 bb d8 6c f8 3a a1 83 05 ba
       -0.0037862416 -0.006111911 0.0018953336 -0.00050931616
0000e0 44 fc af bb 4e 6a 39 bb 20 71 b4 3a 0b e4 55 bb
       -0.0053706486 -0.0028292122 0.0013766624 -0.0032637145
0000f0 49 1e ce ba fa f0 41 bb f2 16 5a 3b d3 05 84 39
       -0.0015725578 -0.0029593096 0.0033277837 0.0002518134
000100 09 25 08 3c 75 3c a3 b9 5c db 4d ba 54 3b 7b bb
       0.008309611 -0.00031134827 -0.00078528165 -0.0038334923
000110 16 d5 2a 3c c1 d6 be b9 57 27 ab ba 60 d1 ef ba
       0.01042678 -0.00036399628 -0.0013057989 -0.0018296652
000120 2a 68 0c 3c ca a5 30 bb d9 a7 ea b9 6c ba 40 b7
       0.0085697565 -0.0026954287 -0.00044757014 -1.14874965e-05
000130 1e be 21 3b 10 34 97 3b 35 b6 00 bb b3 ca 04 3a
       0.002467997 0.0046143606 -0.0019639854 0.0005065605
000140 01 d2 1a bb 8a d5 42 3a 2f 83 51 bb 9e 9a d8 b9
       -0.0023623707 0.00074323325 -0.003196906 -0.0004131393
000150 b7 81 8f ba 92 c2 17 bb 66 de 49 ba 94 f4 b8 3b
       -0.0010948692 -0.0023156744 -0.00077006815 0.0056443904
000160 85 f7 a5 bb fe be cd b9 b4 8f c8 bb e8 fb d6 39
       -0.005064907 -0.00039242947 -0.0061206464 0.00041004946
000170 03 07 5f bb f8 dc d2 3b c2 85 90 ba e2 65 33 ba
       -0.003403128 0.006435033 -0.0011026191 -0.000684349
000180 62 43 33 ba 70 d1 91 bb aa 30 1e 3c fa b2 ca bb
       -0.0006838349 -0.0044500157 0.009655157 -0.0061858865
000190 d0 60 a3 bb f1 04 cc ba 4e 41 10 bb ba 60 86 ba
       -0.004985906 -0.0015565437 -0.002201158 -0.0010252215
0001a0 6b 04 5f 39 79 64 08 bc 2b 6f 4d bb 61 0d 63 bb
       0.00021268583 -0.008324736 -0.003134678 -0.0034645426
0001b0 04 25 b9 ba b6 e8 1e ba 26 cc 64 bb f9 81 9c ba
       -0.0014125411 -0.00060618983 -0.003491172 -0.001194059
0001c0 ba 70 3e ba 5f 7a 12 ba ca f1 24 bb d1 38 34 3b
       -0.00072647224 -0.0005587693 -0.0025168532 0.0027499686
0001d0 a0 0b 87 ba 0b 46 05 3b 62 39 8e b9 51 cd 24 3b
       -0.0010303147 0.0020335938 -0.00027127104 0.0025146792
0001e0 01 3c 07 bb 10 4f 8e ba 2b f9 26 ba ac ed af bb
       -0.002063513 -0.0010857303 -0.00063695264 -0.005368909
0001f0 d2 05 88 3b a0 72 81 b9 4c a0 bd ba 36 c6 9a bb
       0.0041510845 -0.000246902 -0.0014467328 -0.0047233356

action_model._continuous_distribution.log_sigma f4 [1, 2]
000000 ed 65 92 3b b2 e5 15 3c
       0.004467717 0.009149002

action_model._continuous_distribution.mu.weight f4 [2, 128]
000000 7e 6a 35 3a 5f c0 03 3d 87 0c 14 bc 2b 0f 7a bb
       0.00069204706 0.03216588 -0.00903619 -0.0038156013
000010 71 d7 10 bd 66 bb 19 bc a7 5b 3b 3b 2d 83 20 bc
       -0.03536171 -0.009383058 0.0028588565 -0.0097969
000020 01 6e 7e 3a 54 28 42 bb da 41 cd 3c 20 b8 2b bc
       0.0009705723 -0.0029626088 0.025055815 -0.010480911
000030 86 84 e6 3b ba 96 03 3d 37 53 d8 bc f1 58 b6 3b
       0.007034841 0.032126166 -0.026406867 0.005564802
000040 24 15 dc bb 98 f6 73 bc 9e a3 07 bc 04 f7 63 bc
       -0.0067163873 -0.0148903355 -0.0082787555 -0.013913874
000050 12 6e 6f 3c 16 af df b8 49 12 06 3d f9 74 2f bc
       0.014613645 -0.00010666081 0.03273228 -0.010709041
000060 5d 80 85 3c b3 2c 56 bb 03 c1 19 3d 45 cd 8c bc
       0.01629656 -0.0032680451 0.037537586 -0.017187724
000070 18 b9 69 3c 36 96 02 bc a1 8d 21 bb d8 5e 8c bc
       0.014265321 -0.007970383 -0.0024651068 -0.017135069
000080 bc f6 7f bc 8a f1 32 bc e6 93 21 3c 1d 21 ba bb
       -0.015622791 -0.010921845 0.009861922 -0.005680217
000090 a5 52 f7 bc e8 c9 f1 3c c9 37 02 3d 07 41 69 bc
       -0.030190775 0.029515222 0.031791482 -0.014236695
0000a0 0f 6e 15 bc e7 a1 d1 3c 15 a1 a6 b8 52 8c 6e 3b
       -0.009120478 0.025589896 -7.945501e-05 0.0036399555
0000b0 d6 14 2f 3c 3a e3 8e 3b 08 da bc 3c 96 b6 ec 3a
       0.01068612 0.0043605836 0.023053184 0.0018059786
0000c0 de 74 17 bc 6d d7 ab 3b 5c 89 bf bc 7d 9f 9d bc
       -0.009244172 0.0052441866 -0.023380928 -0.019241089
0000d0 d6 4e c5 3a 85 32 11 bc cb 18 9c bc 29 24 26 bd
       0.0015053402 -0.008862142 -0.019054791 -0.04056183
0000e0 e5 71 5c 3c 8f 4e f2 bb 14 35 1c bc d2 e5 23 3b
       0.013454889 -0.007394619 -0.009534139 0.002500881
0000f0 7d 36 c2 b7 cb f6 8b bb fa 74 84 3c ad df 3a bc
       -2.3151975e-05 -0.0042713634 0.01616906 -0.0114058675
000100 dc bf 08 3c 0d eb 09 bd 42 fe e0 3a 98 31 b8 bc
       0.008346524 -0.033671428 0.0017165618 -0.022484586
000110 e0 5d f2 3c c1 cb 4a 3d 7c 2a e8 3b 19 8a df bc
       0.029585779 0.04951072 0.0070851427 -0.02728753
000120 33 d1 48 bc 88 b1 3b bc 1a 57 cf 3c 81 f2 a0 3c
       -0.012256908 -0.011455901 0.025310088 0.019646885
000130 1e 05 54 bc 67 b4 76 3b 35 8a 95 bc 44 09 fa 3c
       -0.012940673 0.003764415 -0.018254379 0.030521996
000140 89 c7 0a 3b de 20 64 bc 8e f1 d2 3c ef c0 08 3b
       0.002117606 -0.013923852 0.025749948 0.002086695
000150 0d 73 5f bb 77 ff 03 bc 50 56 3d 3a 15 2c 89 3c
       -0.0034095675 -0.008056513 0.00072226394 0.016744653
000160 2c c5 02 bc 6e 64 70 ba 26 52 40 bc cc 8c 34 3d
       -0.00798158 -0.00091702386 -0.011738336 0.044079587
000170 22 8d 57 bc 4f 9b 17 bc 2a 47 22 bc c3 6d 37 3c
       -0.013156207 -0.009253337 -0.009904662 0.011195603
000180 39 dd 7f bc dc 47 7c bc 40 ac 15 bc 55 c8 3e bc
       -0.015616708 -0.015397992 -0.009135306 -0.011644443
000190 c2 5f 1d 3c 6f 3b 42 bc 7a a0 6e bc 3b 8a b9 bc
       0.00960535 -0.01185499 -0.014564628 -0.022648921
0001a0 13 ad 42 bd 77 56 8e 3c 85 ca 50 3b 6b 10 25 bc
       -0.047528338 0.017375214 0.0031858992 -0.010074715
0001b0 c9 9f 93 ba 2a 9c d4 3b 94 08 c1 bb 67 5d 70 3c
       -0.001126283 0.006488343 -0.005890915 0.014670706
0001c0 7d 6b a2 3c 6c 0b ee 3c b2 0f 85 bc 61 a5 27 bd
       0.019826645 0.02905818 -0.016242836 -0.040929202
0001d0 6b 8f 05 bd 32 17 c6 3c e8 5f ad 3c 8d f8 f7 bc
       -0.032607477 0.024180982 0.021163896 -0.030269885
0001e0 e2 f4 8a ba 4b cd 38 bc 2f 42 9c 3a 5f 27 2d 3a
       -0.0010601545 -0.011279414 0.001192158 0.0006605293
0001f0 7d 13 39 3c c8 11 df bc fb 86 68 bb 2c 6d aa 3c
       0.01129615 -0.027230158 -0.0035480845 0.02080401
000200 4b 77 48 3d 6f 34 96 3b 27 d4 09 bb cc 8d 80 bc
       0.04894189 0.0045838873 -0.0021030994 -0.015692614
000210 5a 17 b8 bb 2f a7 f2 3a 6d da 92 bc 8d ce ea bb
       -0.005618018 0.0018512959 -0.01792642 -0.007165736
000220 fd b9 7e 3c 4f 9b 22 bc 26 6c 94 3c 6b 97 e1 3c
       0.015547273 -0.009924724 0.018117975 0.027538022
000230 9a a8 7a bb fa 11 83 3a cd ff de b9 ed b1 c0 bc
       -0.0038247467 0.0009999864 -0.00042533726 -0.023522342
000240 15 59 83 bc 9e 47 12 3c 84 3d cc bc 1c 76 ca bc
       -0.016033689 0.008928208 -0.024931677 -0.024714522
000250 d9 04 0a 3d 85 13 24 bd 11 63 a6 bc 66 9b 45 3d
       0.03369603 -0.040057678 -0.02031091 0.048243903
000260 b9 d2 25 bc 34 0f 3d 3c b7 1c ca bb 93 3a 0f 3c
       -0.010121041 0.011539269 -0.006167974 0.0087419925
000270 5d 78 3f bc 75 ec bd 3c 52 2f 07 3d 70 cf 96 3c
       -0.011686412 0.02318404 0.033004113 0.01840946
000280 02 bd 6f bc d3 e1 9d bc 14 28 d5 bc 13 c4 a8 bb
       -0.014632465 -0.01927272 -0.026020087 -0.005150327
000290 7a cf 37 3c 72 15 12 bb e3 c6 d6 3b 6c 13 09 3d
       0.0112189 -0.0022290614 0.006554471 0.033465788
0002a0 02 ed 6e bc 0d 28 57 bc fb e3 4c 3c 35 79 d0 3c
       -0.014582874 -0.013132107 0.012505527 0.025448421
0002b0 f8 e0 ba 3c 05 17 be 3b 67 81 2e bc 02 be 02 bc
       0.022812352 0.005801084 -0.010650969 -0.007979872
0002c0 12 3e 13 bd 94 2a 76 bc cf 1c 9f 3c d6 97 10 bc
       -0.035947867 -0.0150248 0.019422917 -0.008825263
0002d0 da f7 cb bc e9 30 32 bc 3a 43 1a bc 2e 4e a1 bb
       -0.024898458 -0.010875919 -0.009415442 -0.00492265
0002e0 d7 8e da ba 24 bc 8b bc 8c 14 2f bc 70 8b 15 3b
       -0.001667465 -0.017057486 -0.010686051 0.0022818707
0002f0 be 93 46 3c 0e fc b9 bb 14 95 39 bc f4 ed 90 3c
       0.012120185 -0.005675799 -0.011327047 0.01769159
000300 e4 c8 71 3c 42 0c bd bb 09 74 93 3c d6 8c fd bb
       0.014757369 -0.0057692835 0.017999666 -0.007737736
000310 6b df 1b bc 60 ec 91 3c be 2d eb bc a0 96 2f bc
       -0.009513716 0.017812908 -0.028708335 -0.010717064
000320 55 d7 7d bc 26 19 e6 3a 21 bd 10 3d 06 b6 ba 3c
       -0.015493234 0.0017555102 0.035336617 0.022791874
000330 63 f1 96 3c 00 57 2c 3d a4 e1 d7 bb bc 45 56 ba
       0.018425649 0.042075157 -0.0065881778 -0.00081738434
000340 ec 55 b0 bc 2e c1 19 bd bb bc 27 bc a3 29 07 bb
       -0.021525346 -0.037537746 -0.010237868 -0.0020624183
000350 1f 84 d0 bb 92 83 5f bc 74 55 19 bc 58 b3 a9 bc
       -0.0063634063 -0.013642209 -0.0093587525 -0.0207154
000360 3d 42 0c 3d 22 6d a0 3c 5a 20 38 bc 01 cc 94 3b
       0.034242857 0.019583289 -0.011238182 0.0045409207
000370 49 d3 3d bc 6a 13 35 3c 22 33 17 bd 3a 91 c3 bc
       -0.011586019 0.011051992 -0.036914 -0.02387296
000380 7e 82 01 bd 55 35 e3 3a 6c 6d dd bc 5a c6 7f 3b
       -0.031618588 0.001733462 -0.027029715 0.003902814
000390 77 b1 a6 bc 86 80 b8 bb 70 15 ea bb 8e a8 d6 ba
       -0.020348294 -0.0056305556 -0.007143669 -0.0016377138
0003a0 51 ac 55 3c e8 6f 8c bc 96 dc 05 3c 76 9c 39 bb
       0.013041572 -0.017143205 0.008170268 -0.0028322018
0003b0 53 ca 85 bb 32 ad c6 bc 6e fc 75 bc 83 d0 9e bc
       -0.004082957 -0.024252508 -0.015013797 -0.019386536
0003c0 6d 9b d9 bc e0 11 aa bc 3f 22 e7 bc da ed 58 3c
       -0.02656337 -0.020760477 -0.028214572 0.013240302
0003d0 c4 1f a0 bc 37 e4 a7 3b a3 17 fc 3c cf 3d 4e 3c
       -0.019546397 0.005123641 0.03077299 0.0125879785
0003e0 f6 78 02 bc f5 1c bc b9 6d 8a c2 bb 12 76 c1 3b
       -0.00796341 -0.0003587973 -0.005936912 0.0059039677
0003f0 24 01 71 3c 33 2e d5 bc 63 54 af bb 05 c8 30 bc
       0.014709745 -0.026023006 -0.005350636 -0.010789876

action_model._continuous_distribution.mu.bias f4 [2]
000000 76 f3 57 3a d7 d4 36 3a
       0.00082378776 0.00069744646

action_model._discrete_distribution.branches.0.weight f4 [5, 128]
000000 90 dd 2c bc ef f5 bf bc d1 4d 27 3a 2d 22 0a bc
       -0.0105508715 -0.0234327 0.000638214 -0.008431
000010 c5 be 09 3b 8e d2 56 3b 09 88 72 ba 83 50 ce bb
       0.0021018249 0.003277931 -0.0009251838 -0.006296219
000020 77 5a d3 3a 28 6f f2 39 a3 50 0a bc 6b f3 92 bc
       0.0016124983 0.00046240655 -0.008442077 -0.017938336
000030 21 8e ad 3b ac 96 67 3c 37 d4 18 bb d4 74 87 bc
       0.005296484 0.014135044 -0.002331985 -0.0165352
000040 7a b4 c8 bb 7c 41 f4 ba 2c 66 10 bc 9e 4c 58 3a
       -0.00612503 -0.0018635239 -0.008813422 0.0008251163
000050 46 68 88 bc 6e b3 69 bc ab ed 78 b9 c6 c2 2d ba
       -0.016651284 -0.014263971 -0.00023739661 -0.000662845
000060 2e ee de 3b a0 4c 56 bb 9f 06 c0 b9 27 5f 27 3b
       0.0068032956 -0.003269948 -0.00036626027 0.0025538893
000070 ab 2e d5 bc 10 c1 e9 bb 71 48 ac bb ca cb 57 bc
       -0.02602323 -0.0071336105 -0.005257659 -0.013171146
000080 dc dc 93 ba b5 93 a4 3a ad 43 46 b9 f4 b2 1f ba
       -0.0011281031 0.0012556227 -0.00018907963 -0.0006092035
000090 4b ba 26 3c 9c 78 1c 3b 18 b2 fc bb 2d 46 2c 3b
       0.010176252 0.00238756 -0.00771166 0.0026286945
0000a0 e4 03 89 bc e3 99 3d bc dc 78 af b8 54 1a 10 3c
       -0.016725488 -0.011572334 -8.367162e-05 0.00879534
0000b0 9f 26 ca bb 68 8b 40 bc cd 52 cf bb e4 46 5e bb
       -0.006169155 -0.011751987 -0.0063270093 -0.0033916766
0000c0 db 82 76 bc 2a 81 df bc c6 60 d8 bb 2a 60 6a 3b
       -0.015045847 -0.02728327 -0.006603333 0.0035762885
0000d0 c9 80 36 bc f5 d9 c6 bb 07 07 38 3c ee 2a 85 3a
       -0.011139103 -0.006068463 0.011232144 0.0010159889
0000e0 b4 68 4c b7 9f 6f 13 bc 98 23 e0 3b 3b 4e 88 bb
       -1.2183726e-05 -0.0089987805 0.0068401806 -0.0041597164
0000f0 8f fd 59 3c 6a 98 09 bc a0 25 94 bc 4e 47 38 3c
       0.013305082 -0.008398155 -0.018084347 0.011247469
000100 c3 c3 08 bc cf 10 0c 3b b6 0f 47 bb 6b 1e 45 bb
       -0.0083474545 0.0021372323 -0.0030374355 -0.0030077945
000110 99 ba 0f 3c 26 d2 ef bb d0 80 34 bb af 92 86 bb
       0.008772516 -0.007318753 -0.0027542599 -0.0041068415
000120 b0 87 cd b9 b3 9e 1a 3c fc b8 06 3c 87 3e 43 3c
       -0.00039201742 0.009437251 0.008222815 0.011916763
000130 c0 f4 bb 3b 14 65 8b bc 46 88 88 bc 8a 76 6d 39
       0.0057359636 -0.017015971 -0.016666543 0.0002264624
000140 54 43 1a bc 4a d9 d6 3a 83 bd af 3b a8 26 0b 3c
       -0.009415466 0.0016391661 0.0053631677 0.008493103
000150 8b 93 6c 3b 5f fd 01 bc 7c b2 dd 3b d4 41 15 bc
       0.0036098685 -0.0079339435 0.0067656618 -0.009109933
000160 49 62 b6 3a 1c 0b b4 ba be 16 03 bb 34 3a 86 ba
       0.0013914789 -0.0013736221 -0.002000257 -0.0010240735
000170 29 2b a4 b8 ee bf 2d bc 1a 37 87 3c ce a4 1e 3b
       -7.8281686e-05 -0.010604842 0.016505767 0.0024207118
000180 b1 b7 d1 ba 6a 30 b8 bb 30 e0 68 bb 66 c4 15 ba
       -0.0016000179 -0.005621006 -0.0035534017 -0.00057131646
000190 c8 ea c1 b8 b7 a2 29 3c 6e 32 9c 3a 47 cb b9 3a
       -9.2466886e-05 0.010353736 0.0011916885 0.0014174961
0001a0 00 41 e6 bb f7 83 e3 bb 64 53 be bb 07 b7 05 ba
       -0.0070267916 -0.0069432217 -0.005808281 -0.00051008206
0001b0 25 2a 36 3c 3a 0a c3 3b 35 ee 6c 3b f7 3d 6e bb
       0.0111184465 0.005952147 0.0036152725 -0.0036352852
0001c0 b4 5b d3 bb ab ea 9f 3c e6 2f 50 3c 4f be 49 bc
       -0.006450141 0.019521078 0.012706732 -0.0123134395
0001d0 61 a9 a5 bc 75 20 b5 3c 9a 9f 4e 3c a6 15 dd ba
       -0.020222368 0.022110203 0.012611294 -0.0016867414
0001e0 5a a6 23 3c 7f 49 c2 ba 09 d5 ac 3b 84 bd 54 3b
       0.009988392 -0.0014822929 0.005274419 0.0032461593
0001f0 2c 82 9b bc 5d 2a 84 3c a1 23 db 3a fb 5e 12 bc
       -0.01898297 0.016133482 0.0016718992 -0.008933778
000200 cc a6 1b 3c de ad 44 3c 02 32 b5 3b e7 10 e9 3b
       0.009500217 0.012004344 0.005529643 0.0071126106
000210 85 f4 54 3c be 1f 68 bc 6f 38 f7 bb ce e1 73 bb
       0.012997751 -0.014167724 -0.007544569 -0.0037213448
000220 72 0a 51 bb a6 37 61 bb 82 ff 31 3c a1 00 cb b9
       -0.0031897095 -0.0034365444 0.0108641405 -0.00038719646
000230 28 a9 44 bc a3 02 2a bc 11 b8 e7 3b 74 10 e5 ba
       -0.012003221 -0.010376605 0.007071503 -0.0017476217
000240 cb d5 3d 3b e8 e6 e4 bb 84 31 86 ba 2f 3c 74 bb
       0.0028966542 -0.006985534 -0.0010238145 -0.0037267318
000250 62 1a 9e 3b 6a 48 1a 3c a0 6c cd 3a 29 34 98 bb
       0.0048249224 0.009416679 0.0015672632 -0.00464489
000260 32 f6 0e bc 92 37 ab 3b a5 e8 44 bc d4 3a be 3c
       -0.00872569 0.0052251304 -0.012018357 0.02322141
000270 ac 42 e8 ba 82 c5 76 3b 36 e0 97 bc 7c 0e a9 bc
       -0.0017720065 0.0037654345 -0.01853953 -0.02063679
000280 6b 0e 0a 3c e1 a7 08 bc 8d f3 ea 3a 18 08 94 3b
       0.008426289 -0.008340807 0.0017925367 0.0045175664
000290 cf eb c2 3a 88 1e fc 3b 22 7c de bb 49 3a 40 3c
       0.0014871302 0.0076940693 -0.0067897 0.011732646
0002a0 87 27 9b 3b 42 27 c4 bc 57 59 00 3c 1b 14 17 bb
       0.0047349366 -0.0239445 0.0078338 -0.0023052755
0002b0 92 5a 88 3b d8 dd 4f 3b 36 57 90 3c 0f f5 49 3c
       0.0041611874 0.0031717923 0.01761971 0.012326493
0002c0 d0 b0 96 bb f0 7f 9d 39 61 bc a3 3b 54 4e 26 bb
       -0.0045987144 0.00030040694 0.0049968217 -0.0025376277
0002d0 e3 8f 65 bb d5 8e 58 bc 72 06 86 bc 28 45 c9 3c
       -0.003502839 -0.013217648 -0.016360495 0.02456911
0002e0 c2 d7 b1 3a b1 04 c2 3b 42 dc 21 bc ee 73 f7 bb
       0.0013568329 0.0059209694 -0.009879174 -0.0075516617
0002f0 ba 8c ad ba 9e ec 6a 3c e6 fd c2 bb c0 01 59 bb
       -0.0013240792 0.0143386405 -0.005950677 -0.0033112615
000300 77 21 1b bb dd c5 09 39 81 bc bc 3b 04 2e 0e bb
       -0.002367107 0.00013139048 0.005759776 -0.0021694908
000310 4d 2c 89 bc 62 83 e3 bb 32 41 8b bb a6 77 84 bc
       -0.016744757 -0.0069431523 -0.0042497152 -0.016170334
000320 af 30 00 bc bd db 3d 3b f3 b6 0e 3c 0f 65 29 3c
       -0.007824107 0.0028970086 0.008710611 0.010339036
000330 61 f7 94 3c 19 96 95 b9 b8 f3 59 bc c0 ed 8e 3b
       0.018184366 -0.00028531326 -0.013302736 0.004361838
000340 af 13 2e 3c 6f 61 21 3c fc 31 65 bc dd 44 ce 3b
       0.01062481 0.00984989 -0.013988968 0.0062948302
000350 3c a7 fe 3a a1 90 2c 3c be 87 d5 3b a2 98 60 3c
       0.0019428502 0.010532529 0.006516426 0.0137082655
000360 56 06 0d bc 7a 31 51 3b 87 00 1c 3c 1e 34 2b 3c
       -0.008607468 0.003192036 0.00952161 0.010449437
000370 67 4c 03 3c cf 33 c3 3c b5 81 d7 3b e7 da 87 3b
       0.008013821 0.023828415 0.0065767416 0.0041459682
000380 a8 90 b3 3b 48 c8 df bb 26 0f 42 bc 60 08 8d bb
       0.005479891 -0.0068292953 -0.011844432 -0.004303977
000390 d7 15 ae 3b e9 a7 44 bc bf 1a 0d 3b 87 34 81 3c
       0.005312662 -0.0120029235 0.0021530834 0.015772117
0003a0 71 6f 35 3b 49 26 7b 3c b9 16 80 bb 80 13 10 3c
       0.0027684832 0.015328952 -0.0039089588 0.008793712
0003b0 f7 bc 14 3c 55 c7 75 bc 24 cf c3 b8 09 08 75 3c
       0.009078256 -0.015001138 -9.3369075e-05 0.014955529
0003c0 9e fe 17 bc 05 80 2f 3c 39 04 6d bb d2 09 2f 3c
       -0.009277014 0.010711675 -0.0036165847 0.010683494
0003d0 b0 31 49 bc aa dc 2d 3b f5 3a 68 bc ca e4 1a bc
       -0.012279913 0.002652923 -0.014174213 -0.009453962
0003e0 a1 3b a8 bb 43 fc cd b9 85 5c 66 3c df aa 37 bc
       -0.0051340614 -0.00039288597 0.014060144 -0.011210172
0003f0 a5 2e 94 ba 18 3d be ba b6 43 69 3c d0 24 97 bb
       -0.0011305405 -0.0014514057 0.014237335 -0.0046125427

action_model._discrete_distribution.branches.0.bias f4 [5]
000000 3e e8 ed 3a ed 7d 59 3a 6a 9c 2f bb 73 88 7a ba
       0.0018150879 0.00082966575 -0.002679611 -0.00095570757
000010 d6 a7 8c 3a
       0.0010731171

exp_avg f4 [128, 48]
000000 42 21 73 35 00 00 00 00 32 fc 6a b7 3a b7 a6 b6
       9.057295e-07 0.0 -1.4006206e-05 -4.968516e-06
000010 63 88 a8 b5 00 00 00 00 d7 ff 2c b6 d7 bd 17 b6
       -1.2556669e-06 0.0 -2.5778916e-06 -2.2611255e-06
000020 aa be fb b6 00 00 00 00 73 dc 75 b6 5c 6a c0 b5
       -7.502579e-06 0.0 -3.6636163e-06 -1.4336069e-06
000030 21 e8 52 b6 00 00 00 00 7d a5 19 37 68 4f 9a 36
       -3.1427555e-06 0.0 9.158041e-06 4.5988018e-06
000040 18 3a 8c b6 00 00 00 00 12 da 52 b6 5d 65 59 36
       -4.179088e-06 0.0 -3.1419372e-06 3.239452e-06
000050 75 8d b8 36 00 00 00 00 d2 8d ed 36 81 71 18 b7
       5.500095e-06 0.0 7.0796605e-06 -9.086333e-06
000060 75 8d b8 36 00 00 00 00 d2 8d ed 36 81 71 18 b7
       5.500095e-06 0.0 7.0796605e-06 -9.086333e-06
000070 b1 80 9b b8 d0 31 51 37 d8 e5 9a 37 d3 2a b5 36
       -7.4149466e-05 1.2468969e-05 1.846526e-05 5.3992057e-06
000080 e8 0b 15 b7 0f 7f b6 39 e2 e2 c3 b9 e8 0b 15 b7
       -8.883864e-06 0.0003480841 -0.0003736234 -8.883864e-06
000090 95 5c 1c 39 ae 65 80 b8 7b 17 93 b7 53 43 ff b3
       0.00014911809 -6.122455e-05 -1.75347e-05 -1.1886609e-07
0000a0 a8 7b 2d 37 ae 65 80 b8 7b 17 93 b7 53 43 ff b3
       1.03403945e-05 -6.122455e-05 -1.75347e-05 -1.1886609e-07
0000b0 a8 7b 2d 37 00 00 00 00 00 00 00 00 00 00 00 00
       1.03403945e-05 0.0 0.0 0.0
0000c0 b9 d9 ab 34 00 00 00 00 6b d1 dd 31 29 65 0a 34
       3.2009646e-07 0.0 6.4557546e-09 1.2889053e-07
0000d0 f9 3c a9 b3 00 00 00 00 c9 ca 78 35 e2 05 b4 35
       -7.8807666e-08 0.0 9.268229e-07 1.3412757e-06
0000e0 e9 e1 90 b4 00 00 00 00 b9 a1 eb 34 57 b9 4f 35
       -2.698646e-07 0.0 4.388983e-07 7.7383214e-07
0000f0 a4 a8 ef b3 00 00 00 00 53 17 bf 34 b0 ce f1 34
       -1.115998e-07 0.0 3.5593493e-07 4.5040133e-07
000100 99 02 65 b4 00 00 00 00 02 cd 40 b4 23 47 a5 33
       -2.1328232e-07 0.0 -1.7955975e-07 7.696351e-08
000110 8f 45 da 33 00 00 00 00 83 29 3b b4 ef 1d 5f 35
       1.0164069e-07 0.0 -1.7430834e-07 8.311753e-07
000120 8f 45 da 33 00 00 00 00 83 29 3b b4 ef 1d 5f 35
       1.0164069e-07 0.0 -1.7430834e-07 8.311753e-07
000130 7b 3c 88 37 f8 4b 4a b6 ef 3f 83 36 8f a8 15 38
       1.6240627e-05 -3.0144565e-06 3.911547e-06 3.568135e-05
000140 a8 99 0e 36 bf 6e 22 b8 cc 98 24 b8 a8 99 0e 36
       2.1249089e-06 -3.872695e-05 -3.924295e-05 2.1249089e-06
000150 36 36 10 b7 e7 35 57 37 3b c5 77 b4 a7 56 8c 32
       -8.595691e-06 1.2827549e-05 -2.307542e-07 1.633755e-08
000160 23 ee fd b4 e7 35 57 37 3b c5 77 b4 a7 56 8c 32
       -4.729819e-07 1.2827549e-05 -2.307542e-07 1.633755e-08
000170 23 ee fd b4 00 00 00 00 00 00 00 00 00 00 00 00
       -4.729819e-07 0.0 0.0 0.0
000180 63 f2 ae 35 00 00 00 00 34 f3 aa b4 68 3a 27 37
       1.3034554e-06 0.0 -3.184192e-07 9.967574e-06
000190 dc 96 64 33 00 00 00 00 88 16 e7 36 a8 fa 7a 37
       5.3222593e-08 0.0 6.8869595e-06 1.4959522e-05
0001a0 df 09 86 b6 00 00 00 00 34 59 87 37 72 f8 5a 37
       -3.9946603e-06 0.0 1.6134793e-05 1.3051658e-05
0001b0 44 d6 b6 b6 00 00 00 00 8e c3 c3 37 7b af a8 37
       -5.4489665e-06 0.0 2.3336874e-05 2.0108875e-05
0001c0 32 57 14 37 00 00 00 00 89 de d3 36 0e 84 26 37
       8.841789e-06 0.0 6.3141965e-06 9.925117e-06
0001d0 86 50 3a 35 00 00 00 00 fa 86 11 37 1f 17 b0 37
       6.9407577e-07 0.0 8.6741e-06 2.0991602e-05
0001e0 86 50 3a 35 00 00 00 00 fa 86 11 37 1f 17 b0 37
       6.9407577e-07 0.0 8.6741e-06 2.0991602e-05
0001f0 66 e9 99 b8 9f d0 a5 b8 ea 62 a8 b7 e7 8f 22 3a
       -7.3390824e-05 -7.906672e-05 -2.0073221e-05 0.00062012527
000200 8a a3 61 38 56 70 46 ba f2 27 4c 3a 8a a3 61 38
       5.3796488e-05 -0.000756984 0.0007787935 5.3796488e-05
000210 a3 19 0a ba 90 df d3 38 e4 21 c4 36 f3 c0 6b 33
       -0.00052681024 0.00010102906 5.8452006e-06 5.4890688e-08
000220 aa 6b 1d b6 90 df d3 38 e4 21 c4 36 f3 c0 6b 33
       -2.3457492e-06 0.00010102906 5.8452006e-06 5.4890688e-08
000230 aa 6b 1d b6 00 00 00 00 00 00 00 00 00 00 00 00
       -2.3457492e-06 0.0 0.0 0.0
000240 44 ff e4 b5 00 00 00 00 1c 52 bf b6 26 c6 d0 36
       -1.7061616e-06 0.0 -5.7018024e-06 6.2219506e-06
000250 dc 49 08 b7 00 00 00 00 4c f6 a1 36 fc 7b 74 37
       -8.123428e-06 0.0 4.8268466e-06 1.4572401e-05
000260 1f 9a d0 35 00 00 00 00 6f 07 28 b7 0f 6f 05 36
       1.5542063e-06 0.0 -1.0015311e-05 1.988319e-06
000270 72 5b 0f 37 00 00 00 00 50 8d 24 36 12 e9 59 36
       8.5447555e-06 0.0 2.452016e-06 3.2471185e-06
000280 f1 26 5f 37 00 00 00 00 89 aa aa b7 34 69 1e b7
       1.33009025e-05 0.0 -2.034499e-05 -9.442028e-06
000290 3b ae 90 b6 00 00 00 00 f6 33 98 b7 c9 8f f6 35
       -4.3118175e-06 0.0 -1.8144008e-05 1.8370275e-06
0002a0 3b ae 90 b6 00 00 00 00 f6 33 98 b7 c9 8f f6 35
       -4.3118175e-06 0.0 -1.8144008e-05 1.8370275e-06
0002b0 8b 72 4f 39 c9 fa 73 b8 40 73 fd 38 30 0a 8a 39
       0.00019783729 -5.8169277e-05 0.00012085447 0.00026329
0002c0 f8 30 28 38 a4 a5 b5 b9 e9 52 90 37 f8 30 28 38
       4.0099927e-05 -0.00034646422 1.7204746e-05 4.0099927e-05
0002d0 dc 90 c5 b8 eb 2d 90 36 88 6b 9c 37 ba 57 2d 34
       -9.420674e-05 4.29688e-06 1.8646722e-05 1.6143795e-07
0002e0 dc b0 05 b6 eb 2d 90 36 88 6b 9c 37 ba 57 2d 34
       -1.992149e-06 4.29688e-06 1.8646722e-05 1.6143795e-07
0002f0 dc b0 05 b6 00 00 00 00 00 00 00 00 00 00 00 00
       -1.992149e-06 0.0 0.0 0.0
000300 ad d9 58 35 00 00 00 00 79 6f bc 37 20 b0 b6 37
       8.078303e-07 0.0 2.2463255e-05 2.1778105e-05
000310 01 b9 09 36 00 00 00 00 22 f4 bd 36 4d 8b 6f 37
       2.0522277e-06 0.0 5.6610597e-06 1.4277944e-05
000320 c5 8b 1e 37 00 00 00 00 fc db a2 36 67 35 e6 36
       9.4500765e-06 0.0 4.853586e-06 6.860751e-06
000330 fa 22 8c 36 00 00 00 00 9c 3a 2b b7 f2 e5 3f 37
       4.176397e-06 0.0 -1.020604e-05 1.14380255e-05
000340 b1 bb 65 b7 00 00 00 00 1d bc b2 37 df 91 1a 38
       -1.3693164e-05 0.0 2.130685e-05 3.6852314e-05
000350 32 fb b6 35 00 00 00 00 a7 f2 b4 b5 01 ed a6 37
       1.3633164e-06 0.0 -1.3481666e-06 1.9899106e-05
000360 32 fb b6 35 00 00 00 00 a7 f2 b4 b5 01 ed a6 37
       1.3633164e-06 0.0 -1.3481666e-06 1.9899106e-05
000370 9c e2 b4 b8 84 fc a3 b8 96 7a 1e b9 ed 9c 57 39
       -8.625278e-05 -7.8194804e-05 -0.00015113721 0.00020562457
000380 68 f0 5e 38 9e a7 3f ba a0 2c ad 3a 68 f0 5e 38
       5.315282e-05 -0.00073110487 0.0013212152 5.315282e-05
000390 30 8e 30 ba 7e 45 90 39 0f f7 17 b7 77 05 9b 34
       -0.0006735055 0.00027517596 -9.057824e-06 2.8874976e-07
0003a0 a4 a8 3f b7 7e 45 90 39 0f f7 17 b7 77 05 9b 34
       -1.1423752e-05 0.00027517596 -9.057824e-06 2.8874976e-07
0003b0 a4 a8 3f b7 00 00 00 00 00 00 00 00 00 00 00 00
       -1.1423752e-05 0.0 0.0 0.0
0003c0 0b 48 16 b6 00 00 00 00 ae 3d 7d 37 12 1e 27 37
       -2.2393676e-06 0.0 1.5094336e-05 9.960977e-06
0003d0 cd da 9c 34 00 00 00 00 ab 86 59 36 4f 46 d3 b5
       2.9216463e-07 0.0 3.2413907e-06 -1.5741188e-06
0003e0 b1 7f 9d b5 00 00 00 00 6f f9 18 36 4c 77 0d 35
       -1.1734575e-06 0.0 2.2794954e-06 5.2700193e-07
0003f0 75 c8 b4 b3 00 00 00 00 7e 74 46 b6 65 1d a2 b6
       -8.418366e-08 0.0 -2.9572107e-06 -4.831398e-06
