3DPlayground/results/test16/MoveToGoal/checkpoint.pt (torch, 550571 bytes, 42 tensors)

network_body._body_endoder.seq_layers.0.weight f4 [128, 38]
-0.037270445 0.26294798 0.075489655 0.22498578 0.29924572 0.08168169 0.2986367 0.055999774
-0.008995291 -0.24770123 -0.07870612 -0.13331687 -0.35162738 -0.0054482175 0.048146658 -0.08787544
-0.15588711 0.06073894 0.2745917 -0.10879086 0.08545367 0.16457126 0.07767183 -0.27895916
0.005815962 0.013757874 0.059572496 -0.0040049143 0.19628263 -0.13970207 0.121746525 -0.22480239
0.021560526 -0.18577689 0.11970554 0.008316597 0.067924924 0.02618848 -0.19105007 -0.11159563
-0.20401503 0.31290352 -0.14739643 -0.23151003 0.008708514 0.01961648 0.11627731 0.34629908
-0.023736475 0.17108601 -0.19660202 -0.2019611 -0.37554824 -0.1629274 -0.15268926 -0.072731845
-0.033323403 -0.3784822 -0.18381405 -0.08505915 -0.10545666 0.080419935 -0.23236963 0.17235294
0.013831092 -0.09189864 0.1746629 0.05317296 0.08788632 0.1507279 -0.081021555 -0.1410444
-0.0280146 0.37598452 -0.02626905 -0.31049988 -0.34707332 0.08326181 0.067283235 0.10024231
0.021308873 -0.09316359 -0.055346042 -0.2023031 -0.06671621 -0.18819965 -0.12451735 0.08885371
-0.1363949 0.27767512 0.22093126 0.054377586 0.11117884 -0.31280056 0.21883807 -0.059138097
0.09235741 0.105435096 -0.06630614 -0.14924148 0.27687424 0.10815193 -0.2429987 0.36238438
-0.06449639 -0.063549146 -0.13044377 -0.012842956 -0.138177 0.013614253 0.21985291 -0.087162144
-0.02209379 -0.044122223 0.07087163 0.14171287 -0.00062434096 -0.0067646587 0.3486132 0.20637818
-0.09752506 0.2639004 -0.050117802 -0.14671862 -0.060037892 0.09663356 0.14054242 -0.18419978
-0.37949216 -0.34660152 0.024750987 0.21442585 -0.2340299 -0.13473414 0.34398544 0.057088774
-0.12430967 0.047774967 -0.02319707 0.13310975 0.13404447 0.12206491 0.06449127 0.0073541505
0.007510324 0.3854356 0.23741065 -0.35723114 -0.18208492 0.12833276 0.1773869 -0.044074956
0.08090055 0.06617439 0.013198043 0.13477117 -0.04561436 -0.03552971 0.1443498 -0.010357647
0.13749354 -0.06750338 -0.26275992 -0.3449533 0.18360202 0.023828667 0.064465165 0.16869548
-0.25831884 -0.031240618 -0.02277332 0.1514956 0.056885954 -0.23198721 -0.112195306 -0.23029771
0.10961864 0.028920911 0.03526976 0.09819654 0.14795305 0.2739083 -0.20201555 -0.06275934
-0.05868034 -0.17470434 0.049886286 0.14032273 -0.07209743 -0.10515605 0.20794792 0.0029463528
-0.036648314 0.15568109 -0.091823846 0.33143565 0.15996447 0.0005937813 0.11373331 0.10333459
0.050764848 0.2686096 0.3523581 -0.2631825 0.092590615 0.32967594 0.041068763 0.31248993
-0.14143962 0.10565873 -0.18332157 0.29178086 0.006681215 -0.14388345 0.00970132 0.21143718
-0.15580459 -0.05708621 -0.24361524 0.3214786 -0.48421913 0.19476788 -0.009371837 -0.0064805606
-0.1314349 -0.040682018 -0.40149242 -0.01402962 -0.18754432 -0.08517228 -0.10565986 0.525029
-0.08830309 -0.03466286 -0.087240145 -0.19540712 0.26470214 0.06690297 -0.42199153 -0.08335135
-0.046346486 0.03624722 -0.0075435815 0.28845984 -0.046154503 0.26745602 0.018951247 0.19572553
0.12678328 -0.16556235 0.10777695 -0.24005942 0.02395073 0.1569728 -0.20319058 0.35137317
00000000: e5a8 18bd 1ea1 863e 529a 9a3d ac62 663e
00000010: bc36 993e bb48 a73d e9e6 983e 0560 653d
00000020: fc60 13bc 64a5 7dbe ad30 a1bd 3884 08be
00000030: 8108 b4be f686 b2bb 6e35 453d 0af8 b3bd
00000040: dfa0 1fbe 65c9 783d 4997 8c3e becd debd
00000050: 5502 af3d 5e85 283e 6912 9f3d bcd3 8ebe
00000060: d393 be3b b568 613c 4a02 743d a83b 83bb
00000070: 50fe 483e 0f0e 0fbe 3e56 f93d 9932 66be
00000080: b39f b03c 4c3c 3ebe 2e28 f53d 5642 083c
00000090: 391c 8b3d 3989 d63c a1a2 43be 408c e4bd
000000a0: 51e9 50be e434 a03e 17ef 16be f710 6dbe
000000b0: 28ae 0e3c beb2 a03c cc22 ee3d 1d4e b13e
000000c0: ff72 c2bc 2c31 2f3e 0a52 49be e4ce 4ebe
000000d0: dc47 c0be 71d6 26be 935a 1cbe 6ff4 94bd
000000e0: 1f7e 08bd 6bc8 c1be c039 3cbe 7e33 aebd
000000f0: a9f9 d7bd 35b3 a43d 4ef2 6dbe 4a7d 303e
00000100: ce9b 623c 5b35 bcbd d5da 323e e4cb 593d
00000110: befd b33d 6a58 1a3e a1ee a5bd f16d 10be
00000120: e07e e5bc 0b81 c03e 3132 d7bc d7f9 9ebe
00000130: 98b3 b1be 2b85 aa3d cbcb 893d d74b cd3d
00000140: f28f ae3c 8dcc bebd 88b2 62bd 8b28 4fbe
00000150: 82a2 88bd 69b7 40be f402 ffbd eff8 b53d
00000160: 1bab 0bbe 6f2b 8e3e ce3b 623e 08bb 5e3d
00000170: bbb1 e33d 6527 a0be 1617 603e ca3a 72bd
00000180: e225 bd3d 5bee d73d 83cb 87bd c2d2 18be
00000190: 76c2 8d3e c27e dd3d a7d4 78be 728a b93e
000001a0: af16 84bd 0e26 82bd 0d93 05be 436b 52bc
000001b0: 467e 0dbe 510e 5f3c 1f21 613e 1182 b2bd
000001c0: 09fe b4bc 81b9 34bd 2525 913d 2e1d 113e
000001d0: d0aa 23ba 12aa ddbb 6e7d b23e cd54 533e
000001e0: 38bb c7bd f41d 873e 5348 4dbd 683d 16be
000001f0: 4bea 75bd d1e7 c53d 5aea 0f3e de9e 3cbe
00000200: cc4c c2be c175 b1be 95c2 ca3c 7392 5b3e
00000210: 89a5 6fbe bff7 09be dc1e b03e ebd5 693d
00000220: 1196 febd afaf 433d c807 bebc ec4d 083e
00000230: f442 093e 2bfd f93d 0014 843d 16fb f03b
00000240: 2a19 f63b d157 c53e c71b 733e 00e7 b6be
00000250: 7874 3abe aa69 033e e9a4 353e f187 34bd
00000260: 30af a53d 7086 873d 9b3c 583c 7401 0a3e
00000270: 20d6 3abd 9a87 11bd 6fd0 133e 1fb3 29bc
00000280: 1bcb 0c3e 363f 8abd 7888 86be b89d b0be
00000290: 2b02 3c3e 5634 c33c 5006 843d 82be 2c3e
000002a0: 5e42 84be 53ec ffbc 1d8f babc aa21 1b3e
000002b0: 3f01 693d 0e8e 6dbe a7c6 e5bd 2ad3 6bbe
000002c0: bd7f e03d 8ceb ec3c 0677 103d 441b c93d
000002d0: 0181 173e b53d 8c3e 2add 4ebe f887 80bd
000002e0: cc5a 70bd b2e5 32be 9055 4c3d c3b0 0f3e
000002f0: d1a7 93bd 0e5c d7bd 4df0 543e 9917 413b
00000300: 8b1c 16bd dd6a 1f3e 240e bcbd efb1 a93e
00000310: bacd 233e fda7 1b3a 02ed e83d 16a1 d33d
00000320: cdee 4f3d 3387 893e 4868 b43e dbbf 86be
00000330: 26a0 bd3d 49cb a83e b837 283d aefe 9f3e
00000340: 8cd5 10be 9b63 d83d a6b8 3bbe 4d64 953e
00000350: 18ee da3b 2f56 13be 49f2 1e3c fd82 583e
00000360: 3d8b 1fbe 3bd3 69bd 4676 79be d898 a43e
00000370: 92eb f7be 3b71 473e 558c 19bc e25a d4bb
00000380: df96 06be 30a2 26bd 6a90 cdbe 7edc 65bc
00000390: 9e0b 40be ce6e aebd 3264 d8bd 4d68 063f
000003a0: 40d8 b4bd a5fa 0dbd f6aa b2bd ce18 48be
000003b0: 0a87 873e 6d04 893d 460f d8be 1db4 aabd
000003c0: d0d5 3dbd f777 143d 2630 f7bb 02b1 933e
000003d0: 810c 3dbd ffef 883e a53f 9b3c 466c 483e
000003e0: 7ad3 013e 2d89 29be 29ba dc3d 23d2 75be
000003f0: 5234 c43c 7abd 203e 3111 50be 2fe7 b33e

network_body._body_endoder.seq_layers.0.bias f4 [128]
0.006022999 -0.0014484989 -0.003303426 -0.0023422632 0.001292769 0.0010068667 0.0014370445 0.0016110867
0.00021966541 -0.0003715595 -0.0013549399 0.006318704 0.0041749943 -0.0043518096 0.0039147725 -0.0022119258
0.005479105 -0.0014156108 0.0035886683 0.0006329538 0.002391736 -0.0010896246 0.0031587458 -0.004112998
0.00081799494 -0.004915923 0.0028310863 -0.0054608155 0.007050675 -0.0024798037 0.005521295 0.0031941365
0.0033782166 -0.001992481 0.0016966282 0.0013807549 -0.002901518 0.0014351421 -0.00040872264 -0.006469829
0.0011496992 0.001382976 -0.0010995063 -0.0011876184 0.00040615143 -0.0032596868 0.004854732 0.012951267
0.00091636245 -0.005966298 0.0031559092 0.00067211466 -0.0086382255 0.0022321125 0.0039244965 -0.00037704725
-0.002008122 -0.0033317287 0.0006974305 -0.0024060642 -0.0007997723 -0.0018612411 0.0012755309 0.0031711976
0.001487099 -0.0003869314 -0.0064472333 0.00032664652 -0.0030952687 -0.0016181174 0.00040291148 -0.004178853
-0.002801882 0.0045754267 0.001012491 -0.0040834285 -0.0012265091 0.004022852 -0.0037020824 -0.004636904
-0.00012721376 -0.0020328797 0.0012975056 -0.0050386097 0.00066019787 0.0044554626 0.000510637 -0.0014612685
-0.0018757652 -0.003817653 -0.009656583 -0.00021911612 -0.0011527531 -0.0022107577 -0.0011458872 -0.0027577274
-0.0035059412 -0.0012515814 0.0031208892 -0.0035504224 -0.0006435858 -0.0016769179 0.003089513 -0.00015290183
-0.0014516963 -0.0015584691 0.0001851329 -0.00090161845 -0.0054132403 -0.009021751 -0.003497394 -0.005825354
0.010953745 -0.0017178789 0.0024301312 -0.0049807476 0.0016503945 0.0016872371 -0.0019444744 0.002496761
0.0016097935 -0.0021064372 0.00030958932 0.0038984586 -0.0008889437 0.010612807 0.0012138258 0.0068459203
00000000: 945c c53b 8fdb bdba 4b7e 58bb a880 19bb
00000010: 2172 a93a d7f8 833a 365b bc3a 192b d33a
00000020: fc55 6639 dfcd c2b9 3d98 b1ba 220d cf3b
00000030: 64ce 883b a099 8ebb 7e47 803b f5f5 10bb
00000040: 108a b33b 048c b9ba dd2f 6b3b cfec 253a
00000050: acbe 1c3b bcd1 8eba f602 4f3b 54c6 86bb
00000060: b66e 563a c015 a1bb bf89 393b a4f0 b2bb
00000070: 5909 e73b 3484 22bb fbeb b43b b854 513b
00000080: 1265 5d3b 4994 02bb 6561 de3a 72fa b43a
00000090: 6527 3ebb 611b bc3a d349 d6b9 dc00 d4bb
000000a0: 81b1 963a f944 b53a 4f1d 90ba dca9 9bba
000000b0: b9f0 d439 78a0 55bb 7214 9f3b 8d31 543c
000000c0: 0b38 703a ef80 c3bb 5fd3 4e3b da30 303a
000000d0: 5887 0dbc a248 123b 1099 803b 6dae c5b9
000000e0: b29a 03bb 2259 5abb c5d3 363a 0faf 1dbb
000000f0: cfa7 51ba e3f4 f3ba b72f a73a ded3 4f3b
00000100: c3ea c23a 0edd cab9 5043 d3bb c141 ab39
00000110: fed9 4abb 0317 d4ba dd3d d339 c2ee 88bb
00000120: c89f 37bb 76ed 953b 8fb5 843a 48ce 85bb
00000130: d1c2 a0ba 21d2 833b a39e 72bb 2cf1 97bb
00000140: af64 05b9 103a 05bb 1011 aa3a ec1a a5bb
00000150: 2111 2d3a 21ff 913b 45dc 053a 0988 bfba
00000160: 3cdc f5ba 9731 7abb a536 1ebc 89c2 65b9
00000170: fa17 97ba 5ce2 10bb 9831 96ba fdba 34bb
00000180: efc3 65bb 1a0c a4ba d587 4c3b 34ae 68bb
00000190: 50b6 28ba 07cc dbba 6d79 4a3b 4654 20b9
000001a0: d846 beba 8c45 ccba 3c20 4239 975a 6cba
000001b0: 8d61 b1bb f7cf 13bc 8934 65bb 9ce2 bebb
000001c0: 5677 333c 732a e1ba d642 1f3b 8a35 a3bb
000001d0: 0d52 d83a 4826 dd3a bcdd feba b3a0 233b
000001e0: b5ff d23a 270c 0abb 6050 a239 487d 7f3b
000001f0: 0008 69ba 57e1 2d3c 3c19 9f3a be53 e03b

network_body._body_endoder.seq_layers.2.weight f4 [128, 128]
0.021438817 -0.17180093 0.13820612 -0.027979938 -0.025437035 -0.004934175 -0.011458777 0.093094476
-0.021834703 -0.15205862 -0.018754827 0.08642195 0.040706616 0.15261951 -0.07196244 -0.08674243
0.016496537 0.011394274 0.04274015 -0.075829506 -0.10700332 -0.025999954 -0.19651678 -0.05772165
-0.06542034 -0.05188794 -0.03342496 0.22106442 -0.073228225 0.03327152 -0.05956118 0.1382113
-0.06872766 -0.039457362 -0.039333545 0.011786692 0.12886098 0.12102817 0.025286924 0.010463037
-0.091722585 0.14969786 0.0017788179 0.09970016 -0.06039713 0.0472609 0.07627918 0.029450625
-0.011399403 0.04546644 -0.19927105 -0.065031074 -0.019179448 0.11636054 -0.0626796 -0.10062113
0.072968535 -0.122358315 -0.06741781 0.034763142 0.025331257 -0.08359465 0.07085208 0.014715144
-0.005199977 -0.1236902 -0.06989466 -0.004536333 0.2107832 0.08821044 0.06406195 0.14898153
-0.06521185 -0.104384154 0.012905493 0.19664635 0.1315653 -0.17069353 0.013640195 0.0021286972
0.06040451 -0.0803613 0.07065075 0.16488308 0.056159243 -0.12859489 0.0036022863 -0.0017226262
-0.0033236893 -0.011623965 0.019896876 0.09968764 -0.03570863 -0.0076061445 0.22455761 0.0035977457
0.092917845 -0.03723349 0.09079799 0.030100638 -0.026275937 0.087996066 -0.0724083 -0.065553315
0.10873859 0.058611184 -0.04896057 0.06333965 0.051453676 0.06491587 -0.08368548 -0.09441761
-0.038201608 0.11688043 -0.012037099 0.037710875 0.15055864 0.019186283 0.018205121 -0.111272804
-0.07361737 -0.03380736 0.049659777 -0.012913164 0.12801154 0.04204708 0.06451768 0.020292005
-0.018744534 -0.040583935 0.017753933 0.24953271 0.04510324 0.036658935 -0.114489526 0.12120287
0.04348357 -0.109067 0.007722627 0.033666957 -0.028902955 -0.14441788 -0.17626981 0.025725834
-0.0004736064 -0.027873898 -0.0493123 -0.12583373 -0.060460106 0.021920703 -0.059693053 0.15110995
0.08468856 0.0969056 -0.03410425 -0.07748877 -0.09168605 -0.059191637 -0.08319337 -0.18001059
0.032152064 0.019077552 0.04893917 -0.052698545 0.027030079 0.058499303 -0.119288854 -0.033894196
-0.053366154 -0.16527389 -0.122743934 0.09958754 0.029672839 0.09840115 0.14721556 -0.09303638
0.0034807308 -0.037569176 0.0040803724 -0.027257897 -0.087150194 -0.07613577 0.032168746 0.100508116
-0.124425046 0.14633322 -0.09553845 -0.027296605 -0.11526199 -0.035249412 0.04378844 0.1455621
-0.051395044 -0.013873948 -0.059859365 -0.025994465 -0.025226777 0.0056473524 0.029918734 -0.013115971
0.14697933 -0.0103379525 -0.041120272 -0.028681768 0.12773263 -0.10483676 0.0917802 0.18240356
0.010004775 -0.007781948 0.10818579 -0.03406781 -0.1832614 -0.05233852 0.030064618 0.048613407
0.109852046 0.1042353 -0.028348679 -0.13353933 -0.03560591 0.07463682 -0.06953156 -0.15232378
0.120483175 -0.045389313 0.009823493 0.0833594 -0.04090243 -0.09745625 0.113000095 -0.08141056
-0.15458591 -0.07241536 0.047895163 0.094522044 0.0068465336 -0.09598533 -0.015825754 0.058366448
-0.0002966896 0.05028135 0.013985704 0.0418234 -0.0049315966 -0.14608903 0.21399015 -0.113164365
-0.015680676 0.04667487 0.024264097 -0.0069770277 0.017340444 0.07124568 0.14460419 0.14926992
00000000: 75a0 af3c 95ec 2fbe e885 0d3e 2f36 e5bc
00000010: 5461 d0bc dcae a1bb 98bd 3bbc 51a8 be3d
00000020: b1de b2bc 41b5 1bbe b9a3 99bc fefd b03d
00000030: fbbb 263d 4a48 1c3e 0b61 93bd 04a6 b1bd
00000040: bf23 873c 0daf 3a3c 4c10 2f3d 804c 9bbd
00000050: 8e24 dbbd dbfd d4bc b23b 49be 896d 6cbd
00000060: 19fb 85bd 7388 54bd 9ce8 08bd b65e 623e
00000070: aef8 95bd b847 083d 6df6 73bd 4387 0d3e
00000080: 16c1 8cbd 0b9e 21bd 361c 21bd f81c 413c
00000090: 22f4 033e 9edd f73d 8626 cf3c 286d 2b3c
000000a0: 0dd9 bbbd 654a 193e 3927 e93a 992f cc3d
000000b0: fb62 77bd a594 413d 4238 9c3d 7042 f13c
000000c0: 90c4 3abc 053b 3a3d b60d 4cbe 032f 85bd
000000d0: 381e 9dbc 6f4e ee3d 2a5e 80bd 7312 cebd
000000e0: 8770 953d ff96 fabd 5912 8abd cc63 0e3d
000000f0: 7f83 cf3c ac33 abbd e51a 913d ca17 713c
00000100: 9264 aabb 4a51 fdbd ee24 8fbd 85a5 94bb
00000110: 8dd7 573e ada7 b43d e932 833d 9d8e 183e
00000120: ca8d 85bd 5cc7 d5bd 9071 533c a95d 493e
00000130: 0eb9 063e 49ca 2ebe 207b 5f3c 9d81 0b3b
00000140: b86a 773d 7794 a4bd 57b1 903d 1cd7 283e
00000150: 3c07 663d 61ae 03be 5614 6c3b bec9 e1ba
00000160: 41d2 59bb 7172 3ebc c6fe a23c 0929 cc3d
00000170: 3643 12bd f73c f9bb 6ef2 653e 28c8 6b3b
00000180: b64b be3d 2582 18bd 4cf4 b93d 9d95 f63c
00000190: a240 d7bc 4837 b43d ce4a 94bd d140 86bd
000001a0: 56b2 de3d 4812 703d e18a 48bd 38b8 813d
000001b0: 17c1 523d 9df2 843d 4b63 abbd 055e c1bd
000001c0: 4a79 1cbd 025f ef3d 4137 45bc b876 1a3d
000001d0: 0b2c 1a3e 8d2c 9d3c e822 953c ffe2 e3bd
000001e0: b4c4 96bd 9679 0abd 0d68 4b3d bc91 53bc
000001f0: 7515 033e 8f39 2c3d d821 843d 6b3b a63c
00000200: 238e 99bc 573b 26bd b270 913c 8185 7f3e
00000210: 2dbe 383d ae27 163d 7c79 eabd 3639 f83d
00000220: d41b 323d 855e dfbd 170e fd3b 5de6 093d
00000230: e4c5 ecbc 48e2 13be 1380 34be fcbe d23c
00000240: 604e f8b9 cd57 e4bc b2fb 49bd 8fda 00be
00000250: 04a5 77bd 0c93 b33c b480 74bd 91bc 1a3e
00000260: 3271 ad3d 7176 c63d e6b0 0bbd 6fb2 9ebd
00000270: e5c5 bbbd ee72 72bd 4961 aabd b254 38be
00000280: e2b1 033d 8748 9c3c 7074 483d 6eda 57bd
00000290: 2f6e dd3c f79c 6f3d b74d f4bd a4d4 0abd
000002a0: 7896 5abd 8f3d 29be 2c61 fbbd 8df4 cb3d
000002b0: 7414 f33c 8b86 c93d adbf 163e dc89 bebd
000002c0: f91c 643b 23e2 19bd a5b4 853b f44b dfbc
000002d0: cd7b b2bd 12ed 9bbd 60c3 033d 33d7 cd3d
000002e0: 8fd2 febd 60d8 153e aaa9 c3bd 219d dfbc
000002f0: 7a0e ecbd b061 10bd 825b 333d 3b0e 153e
00000300: 9c83 52bd 8e4f 63bc 182f 75bd 58f2 d4bc
00000310: 63a8 cebc 6d0d b93b 2218 f53c 5fe4 56bc
00000320: c081 163e 8460 29bc bb6d 28bd 07f6 eabc
00000330: 58cc 023e a8b4 d6bd 42f7 bb3d 00c8 3a3e
00000340: 11eb 233c b6ff febb 8390 dd3d b08a 0bbd
00000350: e0a8 3bbe ea60 56bd 134a f63c da1e 473d
00000360: 1cfa e03d 5179 d53d 7d3b e8bc 89be 08be
00000370: 81d7 11bd 30db 983d 9066 8ebd c4fa 1bbe
00000380: e2bf f63d 25ea 39bd b7f2 203c 55b8 aa3d
00000390: 4e89 27bd 2497 c7bd 986c e73d 94ba a6bd
000003a0: c54b 1ebe 814e 94bd b82d 443d c694 c13d
000003b0: e358 e03b f593 c4bd 03a5 81bc a811 6f3d
000003c0: 018d 9bb9 d1f3 4d3d 4b24 653c 034f 2b3d
000003d0: 3b99 a1bb 5d98 15be 3c20 5b3e b8c2 e7bd
000003e0: c374 80bc 262e 3f3d 80c5 c63c 8d9f e4bb
000003f0: 8c0d 8e3c 41e9 913d 1f13 143e 37da 183e

network_body._body_endoder.seq_layers.2.bias f4 [128]
-0.0033657993 -0.005180525 0.005736904 -0.0010797231 0.00037053606 -0.0019461031 0.0012234182 0.001733173
0.0012394403 0.0014915594 0.0017590343 0.0011755037 -0.0048560356 0.0006934314 0.00025847278 0.0025997092
0.0009078471 -0.002795828 -0.00049382023 -0.0006960487 -0.00069379195 0.0025011615 -0.0031120805 -0.0021118722
0.00072591 -0.00080135214 -0.0038676362 -0.0032059778 -0.00016763453 0.0049559255 0.00039594353 0.0015156546
-0.003275336 -0.0021850674 -0.0036975576 0.00026485414 0.0046662968 0.002250403 -0.0037365735 0.0006518014
-0.000107941334 -0.001250115 0.00082672876 -0.0017230067 -0.00203825 -0.0032939522 -0.0004471669 -0.0023585625
0.0005616079 0.0045814775 0.00018522707 -0.00051896577 0.008146904 0.0024468245 -0.0017452509 0.0029124191
0.0068301973 -0.0015462055 0.0024331775 -0.0062829885 0.0032948167 0.0014215959 0.0017205108 0.0063864063
-0.0023915707 -0.0035316315 0.001710132 -0.0036209675 -0.003437023 0.0019082475 -0.00093937945 -0.000999818
0.0028035087 0.0022185727 0.003011469 0.0019748874 -0.004402742 -0.00016734975 -0.0050459933 0.0050525116
-0.002540214 0.00062641606 0.001650408 0.0011379959 0.006456715 -0.00050071074 -0.0026520598 0.00083808857
0.0024675834 0.0035372737 -0.0048743417 0.0010642584 0.0013634866 -0.0011619612 0.00023725608 -0.001588687
0.0022357109 -0.0016273836 0.0058383164 -0.0023878983 0.0054057427 0.002110861 -0.0007334069 -0.0005124054
-0.0022482604 -0.004223563 -0.00279697 0.002641227 0.00019339958 0.00081206474 0.0037648387 -0.0026039816
-0.00082626607 0.00010932497 -0.002642482 -0.00027810282 0.00182413 -0.002855026 0.00171039 0.0034295067
-0.00073817227 -0.003101279 -0.00077411236 -0.0027586224 -0.0024578846 -0.0028999534 -0.0034179038 -0.004430596
00000000: be94 5cbb 65c1 a9bb a4fc bb3b 7f85 8dba
00000010: 8244 c239 6214 ffba 1a5b a03a a32b e33a
00000020: b774 a23a 6e80 c33a 668f e63a 5c13 9a3a
00000030: 611f 9fbb 65c7 353a a183 8739 e25f 2a3b
00000040: 96fc 6d3a 363a 37bb b773 01ba 0a77 36ba
00000050: 97df 35ba 87ea 233b 0cf4 4bbb 5667 0abb
00000060: ff4a 3e3a d511 52ba 2b78 7dbb 621b 52bb
00000070: 0dc7 2fb9 5165 a23b a496 cf39 eea8 c63a
00000080: 05a7 56bb 5933 0fbb b952 72bb 1fdc 8a39
00000090: bce7 983b 7f7b 133b 4de1 74bb a7dd 2a3a
000000a0: 905e e2b8 e6da a3ba d4b8 583a 83d6 e1ba
000000b0: 2994 05bb 59df 57bb ba71 eab9 1d92 1abb
000000c0: de38 133a 3820 963b 8339 4239 340b 08ba
000000d0: 987a 053c e75a 203b e7c0 e4ba 49de 3e3b
000000e0: d9cf df3b 0caa caba f275 1f3b 87e1 cdbb
000000f0: daed 573b d854 ba3a c382 e13a 0f45 d13b
00000100: e6bb 1cbb f272 67bb 8226 e03a c14d 6dbb
00000110: ad3f 61bb 291e fa3a b040 76ba 530c 83ba
00000120: 12bb 373b 7965 113b 115c 453b 1d6d 013b
00000130: e044 90bb 9b7a 2fb9 dc58 a5bb 8a8f a53b
00000140: b879 26bb 1236 243a 8152 d83a ce28 953a
00000150: da92 d33b 2142 03ba 2ece 2dbb 2cb3 5b3a
00000160: 2eb7 213b 9bd1 673b f1b8 9fbb 967e 8b3a
00000170: 05b7 b23a f34c 98ba f2c7 7839 7d3b d0ba
00000180: 0185 123b ef4d d5ba 594f bf3b 497e 1cbb
00000190: a822 b13b 5f56 0a3b 1b42 40ba f252 06ba
000001a0: 8d57 13bb d065 8abb 5f4d 37bb 7018 2d3b
000001b0: 4ecb 4a39 bee0 543a 83bb 763b 90a7 2abb
000001c0: c799 58ba 6545 e538 7e2d 2dbb 54ce 91b9
000001d0: a517 ef3a 631b 3bbb 2a2f e03a 93c1 603b
000001e0: e781 41ba d43e 4bbb cded 4aba 01ca 34bb
000001f0: 7614 21bb 250d 3ebb e9fe 5fbb 882e 91bb

action_model._continuous_distribution.log_sigma f4 [1, 2]
0.0029219538 0.00848481
00000000: 407e 3f3b df03 0b3c

action_model._continuous_distribution.mu.weight f4 [2, 128]
0.007163078 0.012188597 0.017632265 0.02289101 0.017865468 0.006887092 -0.02421312 -0.021154488
-0.0038223597 -0.01193767 -0.031647645 0.0027903481 -0.015999055 -0.008593961 0.01651488 -0.029641714
-0.01662276 -0.008889255 0.012389681 -0.030227961 0.0031083673 -0.008556816 0.040971715 0.010389113
-0.0075427494 0.01432165 0.04988199 0.02064189 0.035207845 -0.014349085 -0.014612164 -0.008317568
0.024784096 0.027365165 0.0017013742 -0.010441992 0.0138048185 0.04083674 -0.0021426128 0.036007077
0.011541944 0.019347113 -0.014849726 -0.029123552 0.014320477 0.012923087 -0.004330604 0.0038624522
-0.003431955 -0.026628671 0.022248108 0.012134014 0.018003842 -0.014299306 -0.005228925 -0.025465162
-0.020253384 0.00022692989 -0.008210765 0.00065306865 -0.01736834 -0.0045068646 -0.018974097 0.017837107
-0.0032296984 -0.0037795773 0.009368048 -0.007524908 0.020271068 0.014761153 -0.004717681 -0.005474919
-0.011596316 -0.018100759 -0.024088372 0.005409715 0.013997157 0.008541158 -0.041399144 0.004232008
0.0022689984 0.019052414 -0.0013006517 -0.036888544 0.012151068 -0.029401584 0.004139601 -0.000738458
-0.018988013 -0.024279734 0.012835686 -0.0046176356 -0.015947789 -0.014235877 0.001645806 0.034618814
0.00084936136 0.024668142 0.008077409 0.018641658 -0.013880526 -0.006499722 0.020264048 -0.00444479
0.027157612 0.0077954507 0.0011405913 -0.017767379 0.015730886 0.017019434 -0.02035018 -0.0016127551
-0.012911181 -0.013089147 0.007160661 0.018684788 -0.0120792305 0.016964454 -0.018417347 -0.006808357
-0.013000594 0.015251676 0.016912432 0.022062069 0.024513451 0.003074736 0.012202867 -0.010830204
0.007051245 0.011663601 0.021391248 -0.016998837 0.008925034 0.04319424 -0.005622469 -0.020047335
0.032193094 -0.0029183894 0.009532687 0.00029485847 -0.0027281148 0.0027590038 0.013796771 0.0020327633
0.009355058 0.0019184836 -0.018797904 0.020310998 -0.0031237884 -0.0062223636 -0.009897744 0.02790105
0.010319664 -0.008548594 -0.0016075931 -0.002140323 -0.013493256 0.013504429 0.0066859494 0.0010659051
0.011774653 -0.0012787082 0.0042285444 -5.3711956e-05 0.020869292 -0.031172205 0.008183868 0.013261635
-0.024809455 -0.008436074 0.0013837467 -0.018423617 0.004201577 0.015130101 0.0017609991 -0.00665899
-0.005491333 -0.034043603 -0.013888129 -0.013791143 0.009872893 -0.022388695 0.0028290744 -0.014624891
0.006859963 0.0013837587 -0.01783114 -0.008014016 -0.021808753 0.0011870018 -0.0016853169 -0.028139155
0.01245027 -0.012093448 -0.014718241 0.02260454 0.01673353 0.014099518 0.01615384 -0.009499177
-0.025846975 0.0014352888 0.0014743871 -0.015222127 0.0036340551 -0.020346416 -0.034269623 -0.015646588
0.039887484 -0.005278864 -0.03834948 0.01844993 0.008241757 0.030081978 0.029381393 0.024640476
0.0046728193 0.0033443607 0.0100045325 -0.015742032 -0.018422842 0.04368893 -0.0044582775 0.02349424
-0.022030393 0.0105343815 0.0037758257 -0.007653375 -0.012825816 -0.015941676 0.0050611305 0.0060285763
0.015099343 0.0021698412 0.006194359 0.0015917209 -0.026435146 -0.02323115 4.5674242e-05 0.036514137
0.018666951 0.0039515807 0.024792913 0.0010982483 0.017065544 0.026499841 -0.004187384 -0.005844753
0.010553781 0.03238978 -0.018010171 0.020803872 0.02379254 0.011628756 0.016785229 -0.012976755
00000000: 41b8 ea3b aeb2 473c 8a71 903c ed85 bb3c
00000010: 9a5a 923c 1dad e13b 985a c6bc 2d4c adbc
00000020: 8e80 7abb 3896 43bc f6a0 01bd 46de 363b
00000030: 7310 83bc afcd 0cbc 374a 873c 2ed3 f2bc
00000040: 742c 88bc 3da4 11bc 17fe 4a3c a1a0 f7bc
00000050: c0b5 4b3b e331 0cbc f5d1 273d 1937 2a3c
00000060: 2b29 f7bb 5ba5 6a3c 0f51 4c3d 2e19 a93c
00000070: 1a36 103d 6d18 6bbc dc67 6fbc 6946 08bc
00000080: 0408 cb3c e92c e03c a500 df3a e414 2bbc
00000090: 9b2d 623c 6d44 273d 146b 0cbb 287c 133d
000000a0: 6c1a 3d3c d67d 9e3c 444c 73bc 8494 eebc
000000b0: 6fa0 6a3c 5bbb 533c bde7 8dbb 3221 7d3b
000000c0: a6ea 60bb 5f24 dabc aa41 b63c becd 463c
000000d0: cb7c 933c a347 6abc 6757 abbb 519c d0bc
000000e0: 6dea a5bc 07f4 6d39 7286 06bc b232 2b3a
000000f0: 0d48 8ebc 52ae 93bb 916f 9bbc 201f 923c
00000100: 59a9 53bb c9b2 77bb 717c 193c 8193 f6bb
00000110: 830f a63c c3d8 713c c796 9abb f366 b3bb
00000120: 79fe 3dbc 0b48 94bc fa54 c5bc fb43 b13b
00000130: 5554 653c 37f0 0b3c 2692 29bd a8ac 8a3b
00000140: 7ab3 143b cf13 9c3c a17a aaba 7118 17bd
00000150: 4615 473c 97db f0bc 7da5 873b 1495 41ba
00000160: c08c 9bbc 4be6 c6bc c54c 523c 894f 97bb
00000170: f0a4 82bc 993d 69bc 16b8 d73a 75cc 0d3d
00000180: ada7 5e3a d814 ca3c 1c57 043c 64b6 983c
00000190: 256b 63bc 9ffb d4bb ca00 a63c 9aa5 91bb
000001a0: a479 de3c fb70 ff3b e57f 953a e58c 91bc
000001b0: 0fde 803c 576c 8b3c 6cb5 a6bc 1563 d3ba
000001c0: 6b89 53bc dd73 56bc faa3 ea3b d710 993c
000001d0: f7e7 45bc 0af9 8a3c fadf 96bc a318 dfbb
000001e0: 7200 55bc 2ae2 793c f18b 8a3c 83bb b43c
000001f0: 6fd0 c83c 8381 493b 89ee 473c 2b71 31bc
00000200: 210e e73b b018 3f3c b33c af3c 2541 8bbc
00000210: 4e3a 123c 72ec 303d b03c b8bb 4f3a a4bc
00000220: e8dc 033d 7342 3fbb fd2e 1c3c 3c97 9a39
00000230: 2cca 32bb 67d0 343b da0b 623c 1c38 053b
00000240: f545 193c a175 fb3a 10fe 99bc 4063 a63c
00000250: 79b8 4cbb f8e4 cbbb 262a 22bc be90 e43c
00000260: cf13 293c 670f 0cbc e0b5 d2ba a944 0cbb
00000270: d112 5dbc ae41 5d3c cf15 db3b d7b5 8b3a
00000280: 79ea 403c 549a a7ba 9a8f 8a3b c648 61b8
00000290: 14f6 aa3c da5c ffbc a115 063c 5447 593c
000002a0: 333d cbbc 7537 0abc d65e b53a 20ed 96bc
000002b0: 62ad 893b 3ee4 773c 53d1 e63a a833 dabb
000002c0: a4f0 b3bb 4e71 0bbd 098b 63bc 3ff4 61bc
000002d0: eac1 213c 7f68 b7bc fe67 393b 3d9d 6fbc
000002e0: 8ac9 e03b 3d5f b53a 9c12 92bc 384d 03bc
000002f0: 45a8 b2bc 2c95 9b3a dae5 dcba 1684 e6bc
00000300: 38fc 4b3c 9923 46bc c724 71bc 282d b93c
00000310: c214 893c aa01 673c 0f55 843c 70a2 1bbc
00000320: 09bd d3bc 4d20 bc3a 3940 c13a 3a66 79bc
00000330: 5429 6e3b 87ad a6bc 4e5e 0cbd 462d 80bc
00000340: 0f61 233d 52fa acbb 5814 1dbd 4f24 973c
00000350: 6f08 073c 7b6e f63c 3fb1 f03c d3da c93c
00000360: 731e 993b 102d 5b3b 0dea 233c 6ff5 80bc
00000370: 80eb 96bc 2af3 323d be16 92bb fe76 c03c
00000380: 1579 b4bc 6698 2c3c d873 773b 2ac9 fabb
00000390: 5f23 52bc 1e98 82bc d7d7 a53b 5d8b c53b
000003a0: 3c63 773c e533 0e3b 0dfa ca3b 4aa1 d03a
000003b0: 858e d8bc 414f bebc 5892 3f38 d98f 153d
000003c0: 6feb 983c 437c 813b 821a cb3c 19f3 8f3a
000003d0: 0acd 8b3c 3216 d93c 5336 89bb 5785 bfbb
000003e0: c4e9 2c3c 25ab 043d 118a 93bc e26c aa3c
000003f0: 93e8 c23c 8a86 3e3c 2d81 893c 759c 54bc

action_model._continuous_distribution.mu.bias f4 [2]
-0.0030525154 -0.0019439352
00000000: b60c 48bb a4cb feba

action_model._discrete_distribution.branches.0.weight f4 [5, 128]
-0.003697016 -0.01292675 -0.0024150596 0.012641323 0.0092817 -0.006649586 0.0030479718 -0.00491152
0.00075140956 0.0072425804 -0.0024224718 0.022225913 -0.010233418 0.0019245589 -0.0071749683 0.000718696
0.0005527661 -0.007645934 0.0130687645 -0.0023090036 -0.0035738745 -0.00078389444 0.01214447 0.0088273045
-0.010116632 -0.014758465 -0.0057249004 -0.0013760987 0.019019885 -0.0031060015 0.0045840573 -0.006558582
-0.004898077 -0.0104003055 0.0034964152 0.0059177303 0.0013419805 -0.0046079853 0.005908183 -0.0081695905
0.009437876 0.00024474534 0.0057698484 0.0037694522 0.0051081427 -0.006257963 0.0071700155 0.0017129396
0.012731344 0.005303985 0.0046421182 0.0050928732 -0.0007496598 -0.011863166 0.004135539 0.00027869918
0.011535641 -0.00983561 -0.005308605 -0.005800912 -0.009938158 -0.000114329654 -0.0016112052 0.016044298
0.012267252 0.0016267844 -0.0055374857 -0.0015747122 0.00048463992 -0.0071499706 -0.0013462658 0.008573786
-0.008960772 -0.00089822063 -0.0016454753 -0.004126079 0.0022642524 0.012726559 0.018768037 -0.0028550471
0.0043265074 0.009596211 0.0006407605 0.009481908 -0.003215909 -0.011094908 0.011328089 0.0058469246
-0.002248367 0.0041207816 0.01472911 0.0067851464 0.0032410768 -0.0059031965 -0.009658949 -0.0023120341
0.00076458266 -0.002574919 0.0008478442 -0.00041951428 0.004882597 -0.005689264 0.0036089544 0.0155175505
0.009051754 0.0051589417 -0.018808194 -0.0049075577 0.0045592687 0.016598042 -0.0025485219 -0.010864399
0.00087044487 0.013340584 -0.0017072274 0.002397106 -0.0050089913 0.0113520855 0.010192885 -0.004871074
0.01865336 0.008757029 0.015214543 0.001156496 -0.008378281 0.008840606 -0.002301405 -0.011782522
0.01503358 -0.001014903 -0.008043212 0.008389916 -0.0136855105 0.0025528444 -0.0048340694 -0.0051454855
-0.014071904 -0.014646399 -0.0031820785 -0.012629007 0.017105153 0.009432118 -0.022244953 -0.0045268266
0.008092591 0.0050330297 0.01117658 0.008189514 0.01634593 -0.0073050377 0.018674295 -0.006521928
-0.016051458 -0.005238699 -0.0057822196 0.013911818 -0.0028746235 -0.011723812 0.008905514 -0.002419078
-0.010952871 0.0058015417 0.0065214294 0.008467573 0.004863794 -0.003263324 0.0076761968 0.010167765
0.009419662 -0.0008408356 -0.0043396475 0.010385841 -0.0068166787 0.0010056432 0.01594765 -0.010067004
-0.0055290456 0.001996755 -0.00025206542 0.0027903607 0.00093422126 0.002779812 -0.004070727 0.00035889767
0.016421938 0.0068686316 0.009807505 0.0036228315 0.009829408 -0.008330248 0.004590769 -0.015205722
0.0039816657 -0.0073042507 -0.00391471 -0.010793007 -0.018175326 0.0018016713 0.012954711 -0.015884604
-0.010369571 -0.008154764 -0.0052829846 0.005019868 0.0041822623 0.0061315666 -0.010285363 0.0041591576
-0.011033623 0.006312163 -0.0065489253 0.02080512 0.004738602 0.004673229 0.015711162 0.003477257
0.006379928 -0.010925538 -0.0043276097 -0.0027169331 -0.0007095643 -0.0023253679 -0.011346357 -0.008625537
-0.01350781 -0.0033945278 0.0035085604 -0.0015420177 -0.014704617 -0.002804624 -0.005897297 0.006771627
0.00074184476 0.0048471172 -0.0135417925 0.008043652 0.0057005547 -0.006630928 0.0060565355 0.004366632
0.0020806163 -0.007322739 0.010588952 -0.0018091543 -0.010385729 0.009302745 0.0018486232 -0.007841912
0.009684536 -0.004416338 -0.0043116836 -0.009993895 -0.008434912 -0.00728927 0.011292571 0.005367455
00000000: a349 72bb b8ca 53bc fa45 1ebb 8d1d 4f3c
00000010: 4512 183c c5e4 d9bb 7bc0 473b d1f0 a0bb
00000020: 3efa 443a 2b53 ed3b 55c2 1ebb 1e13 b63c
00000030: 11aa 27bc 7b41 fc3a ff1b ebbb df66 3c3a
00000040: 81e7 103a be8a fabb 5f1e 563c a752 17bb
00000050: aa37 6abb 447e 4dba 99f9 463c 66a0 103c
00000060: 3bc0 25bc 7dcd 71bc f297 bbbb 365e b4ba
00000070: 97cf 9b3c 0f8e 4bbb dc35 963b 60e9 d6bb
00000080: 0c80 a0bb 0b66 2abc 1d24 653b 85e9 c13b
00000090: 65e5 af3a 95fe 96bb 6e99 c13b bfd9 05bc
000000a0: 52a1 1a3c 2a51 8039 ff10 bd3b ea08 773b
000000b0: 3562 a73b 990f cdbb 73f2 ea3b b784 e03a
000000c0: 2197 503c 0dcd ad3b e91c 983b 1ee2 a63b
000000d0: d184 44ba b95d 42bc 6a83 873b 5f1e 9239
000000e0: fcff 3c3c 8a25 21bc cef3 adbb 9415 bebb
000000f0: a8d3 22bc 44c4 efb8 132f d3ba 556f 833c
00000100: 96fc 483c d439 d53a cc73 b5bb 9366 ceba
00000110: 4517 fe39 4d4a eabb 2f75 b0ba 1179 0c3c
00000120: 34d0 12bc 9176 6bba fdac d7ba 0f34 87bb
00000130: da63 143b 0f83 503c 6dbf 993c be1b 3bbb
00000140: 60c5 8d3b 6d39 1d3c b6f8 273a 015a 1b3c
00000150: 00c2 52bb 6bc7 35bc 7399 393c 8f97 bf3b
00000160: 5759 13bb 9f07 873b 5d52 713c ef55 de3b
00000170: 3f68 543b 9a6f c1bb 9240 1ebc 7f85 17bb
00000180: 466e 483a f9bf 28bb dc41 5e3a 41f2 dbb9
00000190: 31fe 9f3b 016d babb 3584 6c3b 533d 7e3c
000001a0: cf4d 143c 570c a93b a413 9abc 94cf a0bb
000001b0: eb65 953b 9ef8 873c 1a05 27bb 9800 32bc
000001c0: 912e 643a 7792 5a3c 0cc5 dfba c418 1d3b
000001d0: 7722 a4bb 19fe 393c 0f00 273c 889d 9fbb
000001e0: eece 983c a479 0f3c 6b46 793c 9195 973a
000001f0: 0f45 09bc 30d8 103c 2bd3 16bb 7b0b 41bc
00000200: 684f 763c 7e06 85ba adc7 03bc dc75 093c
00000210: 3139 60bc 9f4d 273b 1d67 9ebb 769b a8bb
00000220: d88d 66bc 73f7 6fbc 6b8a 50bb e5e9 4ebc
00000230: 1b20 8c3c 2c89 1a3c 0c3b b6bc c655 94bb
00000240: c996 043c 1dec a43b f91d 373c 502d 063c
00000250: e6e7 853c 195f efbb d6fa 983c e6b5 d5bb
00000260: 597e 83bc 64a9 abbb c678 bdbb 65ee 633c
00000270: 2e64 3cbb 3b15 40bc 6fe8 113c 6589 1ebb
00000280: ac73 33bc dc1a be3b b7b1 d53b 93bb 0a3c
00000290: 7660 9f3b 7edd 55bb 9b88 fb3b b396 263c
000002a0: ed54 1a3c 866b 5cba 9a33 8ebb 6029 2a3c
000002b0: 725e dfbb c9cf 833a a5a4 823c 13f0 24bc
000002c0: ff2c b5bb fddb 023b a627 84b9 7cde 363b
000002d0: 87e6 743a 822d 363b bc63 85bb 6e2a bc39
000002e0: 4d87 863c 4212 e13b a8af 203c 076d 6d3b
000002f0: 860b 213c 987b 08bc 296e 963b 6c21 79bc
00000300: a278 823b 7f58 efbb f846 80bb 27d5 30bc
00000310: 6ce4 94bc 0f26 ec3a ff3f 543c 6e20 82bc
00000320: 22e5 29bc 8f9b 05bc e31c adbb b47d a43b
00000330: 5c0b 893b 4feb c83b f083 28bc 8b49 883b
00000340: 5ec6 34bc 43d6 ce3b 5e98 d6bb 806f aa3c
00000350: 4646 9b3b e321 993b b2b4 803c b1e2 633b
00000360: b70e d13b 0701 33bc 9fce 8dbb 930e 32bb
00000370: 0e02 3aba 3365 18bb 12e6 39bc 2052 0dbc
00000380: dd4f 5dbc ba76 5ebb e0ef 653b 871d caba
00000390: a2eb 70bc c8cd 37bb 1d3e c1bb 86e4 dd3b
000003a0: 5c78 423a 91d4 9e3b 65de 5dbc 86c9 033c
000003b0: b8cb ba3b 4148 d9bb e775 c63b f715 8f3b
000003c0: f35a 083b 96f3 efbb 497d 2d3c 2521 edba
000003d0: e828 2abc 8a6a 183c 804d f23a 5d7b 00bc
000003e0: e3ab 1e3c eeb6 90bb 0649 8dbb 6fbd 23bc
000003f0: 9632 0abc d4da eebb 7a04 393c 7ae1 af3b

action_model._discrete_distribution.branches.0.bias f4 [5]
-0.0009831113 -0.00018196813 0.0013801017 0.001565716 0.00079419
00000000: bedb 80ba b3ce 3eb9 87e4 b43a b638 cd3a
00000010: 3031 503a

exp_avg f4 [128, 38]
-1.4917398e-05 0.0 1.8388537e-05 6.108211e-05 -5.9614267e-06 0.0 3.5235058e-05 6.3845735e-05
4.837402e-06 0.0 5.9689966e-05 6.356345e-05 -1.5787385e-06 0.0 4.2740925e-05 4.1899806e-05
4.075641e-06 0.0 1.9854268e-05 3.72942e-05 -8.539539e-06 0.0 6.3387386e-05 4.9818704e-05
-8.539539e-06 0.0 6.3387386e-05 4.9818704e-05 -0.00018614925 -0.00019796682 0.0005102358 0.00090717495
0.00013193859 -0.0009668332 0.000529449 1.1780115e-06 2.8548024e-07 1.7684966e-05 -1.238972e-05 0.0
-1.6371476e-05 1.8712211e-05 6.2473205e-06 0.0 2.921117e-05 1.444069e-05 -2.4523379e-06 0.0
5.3637705e-06 -1.2737818e-06 -1.1132581e-05 0.0 -4.3642838e-05 -3.9419825e-05 2.4690755e-05 0.0
-6.0027294e-05 -7.437286e-05 1.9166384e-06 0.0 -7.665573e-05 -5.7838057e-05 1.9166384e-06 0.0
-7.665573e-05 -5.7838057e-05 -0.00016028673 0.00021443349 -0.00015884747 -0.0004639359 -0.00014259269 0.0011983248
-0.00034047256 5.6353438e-06 2.1620697e-07 1.2732385e-05 1.0808553e-05 0.0 -2.6178077e-06 -6.176589e-05
-1.3050443e-06 0.0 -7.051006e-05 -6.7235225e-05 1.6281434e-05 0.0 -4.8317987e-05 -3.634028e-05
3.3322597e-06 0.0 -4.8283905e-06 -7.56272e-06 -1.1041005e-06 0.0 -3.1410952e-06 1.3540068e-05
1.0644474e-05 0.0 -7.010232e-06 -4.5022202e-06 1.0644474e-05 0.0 -7.010232e-06 -4.5022202e-06
0.0005238695 3.1573163e-05 -5.8996055e-05 -0.0003056899 -1.8398665e-05 0.0004210386 -0.00020138912 2.086258e-06
-1.7472779e-07 -1.0028907e-05 -2.541927e-05 0.0 -5.216235e-06 3.9648636e-05 2.6318573e-06 0.0
2.7455593e-05 2.210547e-05 -1.7689505e-05 0.0 1.5803838e-05 1.4891116e-05 -1.1179942e-05 0.0
-2.3859691e-05 -1.5392752e-05 1.5878157e-05 0.0 -2.865794e-05 -3.1753414e-05 1.2004319e-06 0.0
-2.926971e-05 -2.1273807e-05 1.2004319e-06 0.0 -2.926971e-05 -2.1273807e-05 0.00016684376 5.6533565e-05
0.00025954575 0.00024226651 -3.66541e-05 0.00044034782 0.00019054164 -1.4688589e-05 4.669431e-07 4.1442247e-05
-1.5782478e-05 0.0 1.6598365e-06 -6.7633323e-06 -5.9583795e-06 0.0 -1.6554266e-05 -2.3484343e-05
-2.045858e-05 0.0 -5.9774163e-07 -8.203701e-06 -4.3840264e-06 0.0 -3.5660625e-05 -3.3971246e-05
2.5965132e-06 0.0 -2.4750176e-05 -3.389933e-05 -9.0806685e-07 0.0 -3.027324e-05 -3.368405e-05
-9.0806685e-07 0.0 -3.027324e-05 -3.368405e-05 -1.3312974e-05 0.00016030719 0.00011459831 -0.00061434705
-0.000106454114 0.0006999678 -0.00018313726 -1.1458191e-05 2.2815755e-07 2.0983309e-05 -7.049655e-06 0.0
-2.1490903e-06 6.65114e-06 1.2558975e-06 0.0 9.569671e-06 6.6897537e-06 -5.186983e-06 0.0
5.525272e-06 1.9409263e-06 -1.8765766e-07 0.0 -1.3658474e-05 -1.0346721e-05 3.8015753e-07 0.0
-2.2892727e-06 -7.639657e-06 1.8454779e-07 0.0 -1.5144485e-05 -1.2262881e-05 1.8454779e-07 0.0
-1.5144485e-05 -1.2262881e-05 9.253413e-05 4.7247293e-05 -2.0774767e-05 -1.1818239e-05 -3.1727825e-05 0.0002528854
-4.7522462e-05 -1.6222905e-06 4.9968534e-08 7.6274127e-06 -1.7253822e-05 0.0 -7.440021e-06 7.716992e-05
6.4948335e-06 0.0 9.220611e-05 7.250024e-05 -1.81117e-05 0.0 5.7998393e-05 4.3211352e-05
-1.4904269e-05 0.0 -3.3890974e-05 -3.734781e-05 2.5402174e-05 0.0 -3.2631226e-05 -5.1278606e-05
-3.778967e-06 0.0 -4.448629e-05 -3.8851085e-05 -3.778967e-06 0.0 -4.448629e-05 -3.8851093e-05
00000000: bd45 7ab7 0000 0000 1541 9a37 3519 8038
00000010: 4408 c8b6 0000 0000 5bc9 1338 ebe4 8538
00000020: f750 a236 0000 0000 9d5b 7a38 5e4d 8538
00000030: 0be5 d3b5 0000 0000 b844 3338 93bd 2f38
00000040: 7dc1 8836 0000 0000 b78c a637 586c 1c38
00000050: 0a45 0fb7 0000 0000 d8ee 8438 6df4 5038
00000060: 0a45 0fb7 0000 0000 d8ee 8438 6df4 5038
00000070: 0f31 43b9 5095 4fb9 58c1 053a 7bcf 6d3a
00000080: ff58 0a39 1473 7dba b9ca 0a3a 2b1c 9e35
00000090: 1b44 9934 2d5a 9437 71dd 4fb7 0000 0000
000000a0: 7a55 89b7 2bf8 9c37 13a0 d136 0000 0000
000000b0: 830a f537 4b46 7237 d892 24b6 0000 0000
000000c0: 70fa b336 cff6 aab5 12c6 3ab7 0000 0000
000000d0: 240d 37b8 b756 25b8 fe1e cf37 0000 0000
000000e0: d1c5 7bb8 a0f8 9bb8 999f 0036 0000 0000
000000f0: 3bc2 a0b8 2497 72b8 999f 0036 0000 0000
00000100: 3bc2 a0b8 2497 72b8 a412 28b9 8dd9 6039
00000110: 4b90 26b9 6c3c f3b9 ef84 15b9 1c11 9d3a
00000120: 7481 b2b9 3c17 bd36 8526 6834 2d9d 5537
00000130: 6256 3537 0000 0000 98ad 2fb6 4f88 81b8
00000140: fb28 afb5 0000 0000 cdde 93b8 a300 8db8
00000150: 1d94 8837 0000 0000 0ba9 4ab8 146c 18b8
00000160: c99f 5f36 0000 0000 8f03 a2b6 45c3 fdb6
00000170: 9b30 94b5 0000 0000 9bcb 52b6 262a 6337
00000180: ab95 3237 0000 0000 6f39 ebb6 c711 97b6
00000190: ab95 3237 0000 0000 6f39 ebb6 c711 97b6
000001a0: 4954 093a 6d6d 0438 8872 77b8 0145 a0b9
000001b0: d556 9ab7 d8be dc39 fb2b 53b9 a401 0c36
000001c0: cf9c 3bb4 d441 28b7 773b d5b7 0000 0000
000001d0: 1e07 afb6 664c 2638 f79e 3036 0000 0000
000001e0: 7050 e637 236f b937 ec63 94b7 0000 0000
000001f0: 7c92 8437 dbd4 7937 7c91 3bb7 0000 0000
00000200: 4c26 c8b7 af1f 81b7 1532 8537 0000 0000
00000210: 7566 f0b7 f82e 05b8 871e a135 0000 0000
00000220: 3988 f5b7 2775 b2b7 871e a135 0000 0000
00000230: 3988 f5b7 2775 b2b7 c8f2 2e39 741e 6d38
00000240: a413 8839 ec08 7e39 0abd 19b8 7cde e639
00000250: 22cc 4739 026f 76b7 2cb0 fa34 46d2 2d38
00000260: 9d64 84b7 0000 0000 8cc7 de35 95f0 e2b6
00000270: 17ee c7b6 0000 0000 04de 8ab7 3e00 c5b7
00000280: 779e abb7 0000 0000 7e74 20b5 a1a2 09b7
00000290: 801a 93b6 0000 0000 4e92 15b8 597c 0eb8
000002a0: c23f 2e36 0000 0000 999e cfb7 212f 0eb8
000002b0: e1c1 73b5 0000 0000 4af3 fdb7 f947 0db8
000002c0: e1c1 73b5 0000 0000 4af3 fdb7 f947 0db8
000002d0: ca5a 5fb7 2218 2839 8054 f038 220c 21ba
000002e0: 1e40 dfb8 0b7e 373a 8908 40b9 8e3c 40b7
000002f0: 78fb 7434 5005 b037 138c ecb6 0000 0000
00000300: 1739 10b6 dc2c df36 4f90 a835 0000 0000
00000310: 6d8d 2037 8c78 e036 d80b aeb6 0000 0000
00000320: ba65 b936 dc40 0236 f27e 49b4 0000 0000
00000330: b326 65b7 d496 2db7 7418 cc34 0000 0000
00000340: 68a1 19b6 142c 00b7 1c28 4634 0000 0000
00000350: 1115 7eb7 acbc 4db7 1c28 4634 0000 0000
00000360: 1115 7eb7 acbc 4db7 e20e c238 652b 4638
00000370: 7945 aeb7 f346 46b7 7e13 05b8 b495 8439
00000380: db52 47b8 7abd d9b5 fc9c 5633 faee ff36
00000390: 4dbc 90b7 0000 0000 4ba5 f9b6 49d6 a138
000003a0: 32ee d936 0000 0000 c75e c138 450b 9838
000003b0: 94ee 97b7 0000 0000 4d43 7338 d63d 3538
000003c0: 590d 7ab7 0000 0000 2826 0eb8 e8a5 1cb8
000003d0: c116 d537 0000 0000 83dd 08b8 fc13 57b8
000003e0: 299a 7db6 0000 0000 ca96 3ab8 09f4 22b8
000003f0: 299a 7db6 0000 0000 ca96 3ab8 0bf4 22b8

exp_avg_sq f4 [128, 38]
4.925572e-10 0.0 2.1383535e-10 1.1323623e-09 1.4927137e-10 0.0 1.090194e-09 2.0627609e-09
7.9215307e-10 0.0 8.274947e-10 1.3610966e-09 7.897085e-11 0.0 3.809277e-09 4.223881e-09
9.953339e-11 0.0 2.4069484e-09 3.3032457e-09 1.2489287e-10 0.0 3.593952e-09 4.38337e-09
1.2489287e-10 0.0 3.593952e-09 4.38337e-09 6.5973364e-07 9.1426095e-08 1.7855389e-07 1.6788459e-06
4.0977447e-08 3.001837e-06 3.0728833e-07 7.1472134e-10 9.080086e-14 8.8991986e-10 5.4808763e-10 0.0
2.727968e-10 1.612169e-09 2.0830485e-10 0.0 1.2455893e-09 2.8854097e-09 5.9412014e-10 0.0
1.401964e-09 2.9634195e-09 1.3905116e-10 0.0 7.838574e-09 9.044924e-09 1.933101e-10 0.0
4.487088e-09 7.3308457e-09 1.2925604e-10 0.0 7.877368e-09 9.433894e-09 1.2925604e-10 0.0
7.877368e-09 9.433894e-09 8.6808564e-07 1.9899322e-07 3.73941e-07 5.2540995e-06 8.9054204e-08 6.5227805e-06
8.956836e-07 5.800149e-10 1.8704397e-13 7.132555e-10 4.205166e-10 0.0 1.5452152e-10 1.0564094e-09
2.3934904e-10 0.0 1.0412571e-09 1.8187686e-09 1.6992155e-10 0.0 6.774384e-10 1.3288282e-09
9.402959e-11 0.0 4.984303e-09 5.173212e-09 4.2746685e-11 0.0 1.27172e-09 2.8301623e-09
7.941183e-11 0.0 3.925892e-09 4.8783244e-09 7.941183e-11 0.0 3.925892e-09 4.8783244e-09
8.5852054e-07 1.01824575e-07 2.4872662e-07 2.9064452e-06 4.5458375e-08 3.2282562e-06 4.3139107e-07 3.79152e-10
8.478509e-14 4.4230547e-10 6.2455174e-10 0.0 2.2568647e-10 1.5229745e-09 2.2956546e-10 0.0
1.5027628e-09 2.8089273e-09 6.2754113e-10 0.0 1.2420336e-09 2.4983398e-09 1.6805239e-10 0.0
6.9187487e-09 7.762539e-09 1.8126613e-10 0.0 4.3517367e-09 6.356612e-09 9.57788e-11 0.0
5.7221277e-09 7.593194e-09 9.57788e-11 0.0 5.7221277e-09 7.593194e-09 7.426707e-07 1.6313048e-07
2.8072404e-07 5.495808e-06 7.3150495e-08 4.976686e-06 7.03134e-07 5.9652666e-10 1.927721e-13 1.0523669e-09
1.167336e-10 0.0 3.0086468e-11 4.6010484e-10 3.342567e-11 0.0 5.129865e-10 1.0772111e-09
2.7620464e-10 0.0 3.4172046e-10 6.719949e-10 1.6975485e-11 0.0 1.2879685e-09 1.9390498e-09
3.0812776e-11 0.0 1.6420822e-09 2.0646016e-09 4.316975e-11 0.0 1.57486e-09 2.127904e-09
4.316975e-11 0.0 1.57486e-09 2.127904e-09 3.4786126e-07 4.7365056e-08 5.757655e-08 1.456911e-06
2.1292774e-08 1.6747833e-06 1.7694556e-07 2.3969318e-10 9.953982e-14 2.9656824e-10 2.569673e-11 0.0
1.5860582e-11 1.0008353e-10 2.5301107e-11 0.0 1.371449e-10 1.7846215e-10 2.7267437e-11 0.0
8.1553306e-11 1.4234916e-10 1.5754462e-11 0.0 4.50012e-10 4.3814963e-10 2.635833e-12 0.0
1.2029817e-10 2.4214794e-10 1.7484744e-12 0.0 3.277155e-10 3.8875508e-10 1.7484744e-12 0.0
3.277155e-10 3.8875508e-10 7.292094e-08 8.257419e-09 2.3948452e-08 3.9163433e-07 3.6815093e-09 2.1509196e-07
3.4721236e-08 3.9560195e-11 1.2670501e-14 6.299186e-11 1.0996959e-09 0.0 6.3549577e-10 3.1352878e-09
4.1907205e-10 0.0 2.7332154e-09 5.5155134e-09 1.5724891e-09 0.0 2.7037919e-09 5.0107323e-09
3.4324796e-10 0.0 1.2699382e-08 1.4734739e-08 4.2792123e-10 0.0 8.345247e-09 1.2012429e-08
4.3315365e-10 0.0 1.2622957e-08 1.5323335e-08 4.3315365e-10 0.0 1.2622957e-08 1.5323335e-08
00000000: a264 0730 0000 0000 4d1d 6b2f 75a1 9b30
00000010: 2820 242f 0000 0000 cbd5 9530 79c0 0d31
00000020: d1be 5930 0000 0000 c375 6330 5411 bb30
00000030: a3a8 ad2e 0000 0000 c1e2 8231 a621 9131
00000040: 51e0 da2e 0000 0000 7c67 2531 50ff 6231
00000050: 3852 092f 0000 0000 79f9 7631 889c 9631
00000060: 3852 092f 0000 0000 79f9 7631 889c 9631
00000070: 8d18 3135 0756 c433 85b8 3f34 b554 e135
00000080: 2eff 2f33 2b73 4936 63f9 a434 0b76 4430
00000090: 2277 cc29 8b9e 7430 3da8 1630 0000 0000
000000a0: bdf8 952f 2793 dd30 9a08 652f 0000 0000
000000b0: 4731 ab30 aa48 4631 7d4f 2330 0000 0000
000000c0: 39af c030 07a5 4b31 6ce3 182f 0000 0000
000000d0: 6aaa 0632 ff63 1b32 f58b 542f 0000 0000
000000e0: d82c 9a31 cde2 fb31 571e 0e2f 0000 0000
000000f0: 0855 0732 b412 2232 571e 0e2f 0000 0000
00000100: 0855 0732 b412 2232 6406 6935 d7aa 5534
00000110: 0fc2 c834 5f4c b036 113e bf33 42de da36
00000120: e96e 7035 ec6e 1f30 c197 522a e50e 4430
00000130: 732e e72f 0000 0000 f1e5 292f 1a31 9130
00000140: 6295 832f 0000 0000 fa1b 8f30 3bf8 f930
00000150: aad4 3a2f 0000 0000 7d36 3a30 fca1 b630
00000160: f4c5 ce2e 0000 0000 6542 ab31 0ec0 b131
00000170: 7d00 3c2e 0000 0000 abc8 ae30 be7c 4231
00000180: e3a0 ae2e 0000 0000 83e4 8631 329e a731
00000190: e3a0 ae2e 0000 0000 83e4 8631 329e a731
000001a0: 1575 6635 a7aa da33 ba88 8534 590c 4336
000001b0: 033e 4333 05a5 5836 f099 e734 e670 d02f
000001c0: 47eb be29 f628 f32f ecac 2b30 0000 0000
000001d0: 1825 782f e750 d130 ef68 7c2f 0000 0000
000001e0: c489 ce30 2c07 4131 487f 2c30 0000 0000
000001f0: 2cb4 aa30 42af 2b31 8bc6 382f 0000 0000
00000200: f5b9 ed31 025c 0532 e14d 472f 0000 0000
00000210: 4886 9531 5a69 da31 ac9e d22e 0000 0000
00000220: 5e9c c431 3873 0232 ac9e d22e 0000 0000
00000230: 5e9c c431 3873 0232 f15b 4735 f728 2f34
00000240: 6bb6 9634 a268 b836 e916 9d33 68fd a636
00000250: 00bf 3c35 d5f8 2330 c60a 592a dea2 9030
00000260: 9659 002f 0000 0000 5a52 042e 00f2 fc2f
00000270: f501 132e 0000 0000 3702 0d30 ff0c 9430
00000280: 59d8 972f 0000 0000 e1dc bb2f 70b7 3830
00000290: 6551 952d 0000 0000 5d04 b130 2040 0531
000002a0: 1a84 072e 0000 0000 a2af e130 dbe0 0d31
000002b0: d1dc 3d2e 0000 0000 7672 d830 7c3a 1231
000002c0: d1dc 3d2e 0000 0000 7672 d830 7c3a 1231
000002d0: b0c1 ba34 6e6e 4b33 164a 7733 158b c335
000002e0: 4ee7 b632 1ec9 e035 6dfe 3d34 d1c5 832f
000002f0: cd24 e029 450a a32f e407 e22d 0000 0000
00000300: db82 8b2d 0516 dc2e 078d de2d 0000 0000
00000310: dcca 162f a138 442f cfd8 ef2d 0000 0000
00000320: 6e56 b32e ba83 1c2f e593 8a2d 0000 0000
00000330: 8f65 f72f 14e0 f02f f27a 392c 0000 0000
00000340: ed44 042f 4b1f 852f 6e13 f62b 0000 0000
00000350: db29 b42f 6ab8 d52f 6e13 f62b 0000 0000
00000360: db29 b42f 6ab8 d52f b698 9c33 83dc 0d32
00000370: 34b7 cd32 d041 d234 ccfd 7c31 07f4 6634
00000380: 6720 1533 d2fc 2d2e 5f40 6428 4485 8a2e
00000390: 1c24 9730 0000 0000 0aaf 2e30 9174 5731
000003a0: 2663 e62f 0000 0000 3cd3 3b31 f882 bd31
000003b0: 0b1f d830 0000 0000 9ccd 3931 de2a ac31
000003c0: dbb3 bc2f 0000 0000 792c 5a32 1124 7d32
000003d0: 8f40 eb2f 0000 0000 c95e 0f32 395f 4e32
000003e0: f520 ee2f 0000 0000 5adc 5832 5fa0 8332
000003f0: f520 ee2f 0000 0000 5adc 5832 5fa0 8332

exp_avg f4 [128]
4.5339722e-05 -4.900091e-05 -6.3225607e-06 -1.2595912e-05 -3.658216e-05 -1.09030325e-05 -4.3178592e-05 4.5934343e-05
-3.551382e-05 1.9453846e-05 -6.7656045e-05 -3.0001377e-06 1.4893585e-05 -5.4204844e-05 3.8877715e-05 1.6066846e-07
3.5551217e-08 7.166501e-05 -3.768147e-05 4.4425605e-07 -4.62056e-07 3.0523013e-06 8.3138446e-05 3.6863126e-05
6.61305e-05 5.3752156e-06 -1.2230291e-05 -7.227265e-06 -1.0163812e-05 7.0197064e-05 -1.7941659e-06 3.233166e-05
5.9980615e-05 -1.9591263e-05 -2.583822e-05 8.956283e-06 3.8712715e-06 -1.3704897e-05 -1.0798786e-06 -1.6388234e-05
8.9340965e-06 -5.5175813e-05 -6.575283e-05 -1.0823601e-06 7.4128126e-05 6.9527837e-06 -1.0045608e-06 1.6451818e-06
-9.592021e-06 -2.0865677e-06 5.8556866e-06 -7.521204e-07 1.9625813e-06 -8.120878e-06 3.6579954e-07 -9.097341e-07
5.763092e-06 3.905365e-05 -4.6860027e-06 6.733485e-06 3.6162884e-05 2.8890895e-06 -1.7896302e-05 9.001902e-07
2.0095136e-05 3.3270884e-05 1.0961544e-06 2.2525439e-05 1.7166976e-05 -2.4582705e-05 3.5056548e-06 -0.00017564459
-3.0719214e-06 -1.488817e-06 -1.597465e-05 2.4101162e-05 -1.8227229e-05 8.665519e-05 4.2614298e-05 3.1904092e-05
-1.39184895e-05 2.962977e-05 5.5669734e-06 -6.1581355e-05 -9.798675e-06 1.4202112e-05 -9.155435e-06 1.9198344e-05
2.2834924e-06 -2.6160678e-05 1.4944762e-07 -7.4760055e-07 -2.0176974e-05 -0.000102401864 9.3095986e-07 -6.876305e-05
-4.3904118e-05 -1.0211459e-06 4.6859728e-05 1.601709e-05 -6.64681e-06 -1.8698032e-05 -8.593825e-06 -6.6403563e-06
8.406282e-05 -2.9369692e-05 -2.1729046e-07 3.311275e-05 1.2191816e-06 6.756016e-06 4.1689104e-06 4.2686268e-05
1.3555256e-06 1.3058396e-06 8.801292e-05 -2.3912671e-06 2.8738934e-05 -3.8775208e-05 2.0628968e-05 6.321307e-05
-4.9744354e-05 -3.798301e-05 -1.0369971e-05 6.9460555e-05 5.2474308e-05 2.6252828e-06 9.12014e-06 1.564044e-05
00000000: 282b 3e38 5486 4db8 6226 d4b6 0853 53b7
00000010: cc6f 19b8 2bec 36b7 a91a 35b8 a0a9 4038
00000020: adf4 14b8 d130 a337 90e2 8db8 f955 49b6
00000030: 76df 7937 025a 63b8 a110 2338 3684 2c34
00000040: fab0 1833 dc4a 9638 2c0c 1eb8 1682 ee34
00000050: 7e10 f8b4 23d6 4c36 9d5a ae38 7b9d 1a38
00000060: 8baf 8a38 c05c b436 b330 4db7 bc81 f2b6
00000070: 3d85 2ab7 c336 9338 12cf f0b5 db9b 0738
00000080: b293 7b38 eb57 a4b7 28bf d8b7 f142 1637
00000090: f8e5 8136 16ee 65b7 59f0 90b5 7779 89b7
000000a0: a7e3 1537 946c 67b8 c8e4 89b8 9c45 91b5
000000b0: 3c75 9b38 f54b e936 72d4 86b5 04d0 dc35
000000c0: 6bed 20b7 f606 0cb6 f77b c436 52e5 49b5
000000d0: e4b4 0336 e83e 08b7 1b63 c434 7434 74b5
000000e0: 9560 c136 8acd 2338 753c 9db6 32f0 e136
000000f0: 9aad 1738 2ee2 4136 0420 96b7 99a4 7135
00000100: fa91 a837 578c 0b38 941f 9335 03f5 bc37
00000110: cd01 9037 f536 ceb7 b142 6b36 3c2d 38b9
00000120: 3527 4eb6 5dd3 c7b5 4d01 86b7 da2c ca37
00000130: ade6 98b7 a7ba b538 c1bc 3238 c2d0 0538
00000140: 7583 69b7 728d f837 f0cb ba36 3d25 81b8
00000150: fd64 24b7 9b45 6e37 4b9a 19b7 210c a137
00000160: 1a3e 1936 a173 dbb7 d977 2034 b8ae 48b5
00000170: b941 a9b7 95c0 d6b8 13e7 7935 e234 90b8
00000180: b025 38b8 4e0e 89b5 408b 4438 705c 8637
00000190: aa07 dfb6 b8d9 9cb7 332e 10b7 3ad0 deb6
000001a0: e24a b038 ef5e f6b7 5950 69b4 8be2 0a38
000001b0: c3a2 a335 bcb1 e236 abe2 8b36 080a 3338
000001c0: 81ef b535 4f44 af35 9493 b838 a879 20b6
000001d0: 6414 f137 90a2 22b8 5f0c ad37 4291 8438
000001e0: 98a4 50b8 f24f 1fb8 b0fa 2db7 5aab 9138
000001f0: dc17 5c38 042e 3036 b402 1937 9733 8337
