3DPlayground/results/test15/MoveToGoal/MoveToGoal-151969.pt (torch, 551054 bytes, 42 tensors)

network_body._body_endoder.seq_layers.0.weight f4 [128, 38]
0	0xbc397eb0	-0.011321709
1	0x3d31471b	0.043280702
2	0xbe3b1076	-0.18267998
3	0x3c64370f	0.013929143
4	0xbe186950	-0.14883924
5	0x3e15c5a8	0.14626181
6	0xbcfafe78	-0.030638918
7	0x3ec02b6b	0.37533125
8	0x3df1abe0	0.11800361
9	0xbe055ca5	-0.13023622
10	0x3e01349a	0.12617722
11	0xbdcab027	-0.0989688
12	0x3b7c5f00	0.0038508773
13	0xbdb68ea9	-0.08913929
14	0x3de35371	0.110998996
15	0xbe7c3526	-0.2462965
16	0xbd949336	-0.07254641
17	0xbd71372a	-0.0588905
18	0x3e89e7b9	0.26934603
19	0xbe358200	-0.17725372
20	0x3d781b77	0.060573068
21	0xbc97e6de	-0.018542703
22	0x3d3ba2e4	0.04580964
23	0x3e20f886	0.15719804
24	0xbe857b2c	-0.26070535
25	0xbe61a0a0	-0.2203393
26	0xbc3a5628	-0.01137308
27	0x3df330eb	0.11874565
28	0x3c5f6527	0.013634956
29	0xbe352d8e	-0.17693159
30	0x3d59f8e1	0.053215865
31	0xbe33c086	-0.1755391
32	0x39696431	0.00022257936
33	0xbe00e4c0	-0.12587261
34	0xbd9a3b73	-0.0753087
35	0x3eb646c5	0.35600868
36	0x3eaa7c25	0.3329784
37	0xbec7a63f	-0.38994023
38	0x3e0673d8	0.13130128
39	0xbd617390	-0.05504185
40	0xbeb7fc30	-0.3593459
41	0x3d3dbbd1	0.046321694
42	0x3e22f157	0.15912376
43	0xbdadb7d1	-0.08482326
44	0x3d764702	0.060126312
45	0xbe6bcad6	-0.23026595
46	0x3d68f112	0.056870528
47	0xbea58adb	-0.323325
48	0x3e4ed0a0	0.20196772
49	0x3dd906fe	0.10597037
50	0x3e1004a1	0.14064266
51	0xbe29d7d3	-0.16586237
52	0x3ef52f20	0.47887516
53	0xbcb9f945	-0.022701869
54	0xbd72dcb1	-0.0592925
55	0xba9d5d1e	-0.00120059
56	0xbe8c9fda	-0.27465707
57	0x3e6928ec	0.22769517
58	0x3e86d5f9	0.26335123
59	0x3d961402	0.07328035
60	0xbcb4d79a	-0.022075463
61	0xbe8b72a7	-0.2723591
62	0xbdb1de44	-0.08684972
63	0xbdfb574e	-0.122725114
64	0x3c316845	0.010828082
65	0x3d613bb8	0.054988593
66	0x3e00c9e4	0.12577015
67	0xbe24fa95	-0.16111214
68	0xbe07313d	-0.13202377
69	0xbc132cce	-0.00898285
70	0x3e51e5b6	0.20497784
71	0x3d48de2d	0.04904001
72	0xbe53bc9a	-0.20677415
73	0xbe25c3f6	-0.16188034
74	0xbd0c3143	-0.034226667
75	0x3e4a62a4	0.19764191
76	0x3d8b66d4	0.06806722
77	0x3d2d832a	0.042361416
78	0x3e3f3517	0.18672596
79	0xbd11d0be	-0.035599463
80	0x3bb3f93d	0.005492358
81	0x3cf42ed5	0.029807488
82	0x3d4c81d7	0.049928512
83	0x3d731293	0.059343886
84	0x3e7d507f	0.24737738
85	0x3d054d21	0.03254426
86	0xbebb8ee3	-0.3663245
87	0x3cc5d051	0.024147185
88	0x3e29eab5	0.1659344
89	0xbe81ffd1	-0.25390485
90	0xbd8b1355	-0.06790797
91	0xbc1c168f	-0.009526863
92	0xbdb05561	-0.08610035
93	0x3d73a256	0.059480987
94	0x3e64daca	0.22349086
95	0xbd9ae1f3	-0.07562628
96	0x3e120cbd	0.14262672
97	0x3e40d4ec	0.18831223
98	0xbe0e54f1	-0.1389959
99	0xbd8719a3	-0.06596687
100	0xbd35a398	-0.04434547
101	0x3d75f74a	0.060050286
102	0x3e7cb6f2	0.24679163
103	0x3e9fa7de	0.3118276
104	0x3dc92eaa	0.098233536
105	0xbe4beab6	-0.19913754
106	0xbdc7ead7	-0.09761589
107	0x3eb2ee3e	0.3494739
108	0xbe1a1147	-0.15045653
109	0x3db0dcc8	0.08635861
110	0xbe6c0f41	-0.23052694
111	0x3de856f9	0.11344714
112	0x3d9714af	0.07376992
113	0xbe61396f	-0.21994565
114	0xbeca28ab	-0.39484152
115	0x3dfcdf4f	0.1234728
116	0xbe0906e4	-0.13381535
117	0x3de000eb	0.10937675
118	0x3db4a042	0.08819629
119	0x3e1f6505	0.1556588
120	0x3e8512a7	0.25990793
121	0x3e6a0595	0.22853692
122	0x3c851a04	0.016247757
123	0x3ea65ebe	0.32494158
124	0xbe0cd475	-0.13752921
125	0xbefad08d	-0.48987237
126	0xbe160ef2	-0.14654139
127	0x3dc183c9	0.09448964
128	0x3e2114ed	0.15730639
129	0xbe9c552c	-0.3053373
130	0xbe536b1e	-0.2064633
131	0xbddc3ef9	-0.107541986
132	0xbdda4098	-0.106568515
133	0xbd04648b	-0.032322448
134	0x3dbc0577	0.0918073
135	0xbb52f79a	-0.003219104
136	0xbdbe9d1e	-0.093073115
137	0xbe9db6ce	-0.3080353
138	0x3e0563fa	0.1302642
139	0xbdd28b16	-0.10280435
140	0xbcb3cd32	-0.02194843
141	0x3eaae892	0.33380562
142	0x3dcccdfd	0.10000227
143	0xbe85d3d9	-0.2613819
144	0x3e1ba163	0.15198283
145	0xbd04a35f	-0.032382365
146	0x3d8e1313	0.06937232
147	0xbe3fb5c0	-0.18721676
148	0x3dd33483	0.1031275
149	0xbbfcaad7	-0.0077107954
150	0xbd77f92e	-0.06054037
151	0xbf005d3f	-0.5014228
152	0xbe63e4bd	-0.22255225
153	0xbe270f77	-0.16314493
154	0xbe434390	-0.19068742
155	0xbe828bee	-0.25497383
156	0x3ddfb33d	0.10922859
157	0xbd91e890	-0.07124436
158	0xbcb1dcd4	-0.021711744
159	0xbc981e38	-0.018569097
160	0x3dbc7947	0.09202819
161	0x3dec20f0	0.1152972
162	0xbe1dbe9e	-0.15404746
163	0x3e7754de	0.24153468
164	0xbd643b93	-0.055720877
165	0x3cce7193	0.02520064
166	0x3ea80128	0.32813382
167	0x3bd7d352	0.0065864706
168	0xbe668123	-0.22510199
169	0x3d942f1b	0.07235547
170	0xbc9742b8	-0.018464431
171	0xbe2dae7b	-0.1696109
172	0x3a9e30b4	0.0012068958
173	0x3df9d522	0.12198855
174	0xbe8390bb	-0.25696358
175	0x3ca39bba	0.019971717
176	0xbd3f634e	-0.046725564
177	0x3ccb8f55	0.02484862
178	0x3d17a079	0.037018273
179	0xbe17b68a	-0.14815727
180	0x3d933252	0.07187332
181	0xbe0e9f51	-0.13927962
182	0xbe765f8c	-0.24059886
183	0x3dedaf03	0.116056465
184	0x3d5a65a6	0.053319596
185	0x3c3ac589	0.011399635
186	0xbe072574	-0.13197881
187	0x3ec9f570	0.39445066
188	0x3d9aac8e	0.075524434
189	0xbd9af0a6	-0.07565431
190	0xbda72373	-0.08161058
191	0xbe76cba0	-0.24101114
192	0x3d518d1a	0.051159956
193	0xbf02e878	-0.5113597
194	0x3e6da576	0.2320765
195	0x3df64b9f	0.12026142
196	0x3d4ebc67	0.050472643
197	0x3db824d3	0.08991399
198	0xbeb530f0	-0.353889
199	0x3bd7d9d9	0.0065872488
200	0x3bf96311	0.0076106866
201	0x3d6b7427	0.05748382
202	0x3df79937	0.1208977
203	0x3db67157	0.089083366
204	0xbe94f53c	-0.2909335
205	0xbe879d32	-0.26487118
206	0x3ba7984e	0.0051145917
207	0x3e372228	0.17884123
208	0xbd98f806	-0.07469182
209	0x3d9cca38	0.07655758
210	0x3e39a7c3	0.18130402
211	0xbd896ee4	-0.06710604
212	0xbdb2ba2c	-0.08726916
213	0xbe630e0a	-0.22173324
214	0x3d4aa803	0.049476635
215	0xbdcbe8dd	-0.099565245
216	0x3e17dccd	0.14830323
217	0xbdb84c94	-0.08998981
218	0x3e6d4ce4	0.23173863
219	0xbbe732ca	-0.007055615
220	0x3e5c6441	0.21522619
221	0xbe0a8d4a	-0.1353046
222	0x3c3f1f28	0.011665143
223	0x3d5b0480	0.05347109
224	0x3e3d7fdb	0.18505804
225	0x3ddc2741	0.107496746
226	0xbd65c5c5	-0.05609681
227	0x3cf49fab	0.029861292
228	0x3e3c2f84	0.18377501
229	0xbdef1c75	-0.116753496
230	0xbea1cc18	-0.31601024
231	0x3da31094	0.079621464
232	0x3e60caf4	0.2195242
233	0x3d188764	0.037238494
234	0x3e31520b	0.17316453
235	0xbc9e6f5d	-0.019340212
236	0xbcd65f1b	-0.026168397
237	0xbd586035	-0.052826125
238	0xbe8b67c0	-0.27227592
239	0xbd1beb81	-0.03806639
240	0xbbd184a3	-0.0063939854
241	0xbe0014a8	-0.1250788
242	0x3d8ea567	0.06965142
243	0xbe12f6aa	-0.14351907
244	0x3dae511b	0.085115634
245	0xbdbbacd3	-0.09163823
246	0xbbfa692b	-0.0076419315
247	0xbe3851c6	-0.17999944
248	0xbe0938e1	-0.13400604
249	0x3d3ef65e	0.046621673
250	0xbd94ae08	-0.07259756
251	0x3ea27b64	0.31734765
252	0x3c95e044	0.018295415
253	0x3d88e9be	0.06685208
254	0x3b524193	0.0032082542
255	0xbd2c1fed	-0.042022634

network_body._body_endoder.seq_layers.0.bias f4 [128]
0	0x3c0dff3b	0.008666809
1	0x3a0ba5dd	0.0005327145
2	0x39e7f405	0.00044241562
3	0x3b9728b3	0.004613006
4	0x3b63b5aa	0.0034745731
5	0x3b61f71f	0.003447957
6	0xbac1bf9c	-0.0014781835
7	0x3c8db62c	0.01729878
8	0x3b96dfb5	0.0046043047
9	0xbb153aed	-0.0022770718
10	0x3b94b4df	0.004538163
11	0x3b90fbab	0.0044245324
12	0x3a60407c	0.0008554531
13	0xbb64a149	-0.0034886173
14	0x3b4e69d0	0.0031496175
15	0x3af8abe3	0.0018972125
16	0x38f2a275	0.00011569719
17	0xbbce9275	-0.00630408
18	0x3c06f042	0.008235993
19	0xb8164b8e	-3.5833153e-05
20	0x3b2277c7	0.002479063
21	0x3c03916d	0.008030278
22	0x3bee26d6	0.007267813
23	0xbab607bc	-0.0013887803
24	0x3acceab5	0.0015633913
25	0x3bfb19ac	0.0076629724
26	0x3bcc28b6	0.006230439
27	0x3b66011b	0.0035095874
28	0x3ac62611	0.0015117546
29	0xbbb4ed6a	-0.005521466
30	0x3a1625e2	0.0005727691
31	0xbbc9e8b3	-0.006161773
32	0xbb6bf19f	-0.0036002172
33	0x3c02e982	0.007990243
34	0xbb6f84bc	-0.0036547622
35	0xbb0137c6	-0.0019717081
36	0xba41d948	-0.0007394743
37	0xbc2cd162	-0.010547968
38	0x385289c5	5.019621e-05
39	0xbc15e889	-0.009149679
40	0xbc0a6335	-0.008446504
41	0xbb13b51f	-0.0022538377
42	0xbb99e989	-0.004697029
43	0x3a9dd26e	0.0012040862
44	0xbaea8938	-0.0017893678
45	0x375de54d	1.3226015e-05
46	0xbb3ad79a	-0.0028509856
47	0x3ba9a476	0.005177076
48	0xbbe0c927	-0.0068599167
49	0xbaa0d009	-0.001226903
50	0xbb3f0fb5	-0.002915365
51	0xbaf7b973	-0.0018899873
52	0x3a2e794e	0.0006655649
53	0xbb006a60	-0.0019594654
54	0x3bb8df82	0.0056418786
55	0xba864e93	-0.0010246806
56	0x3b43a8d5	0.002985527
57	0xba8937d9	-0.0010468914
58	0x3c285c31	0.010275886
59	0xbb2d5bcd	-0.0026452423
60	0x3c2d2e12	0.010570066
61	0x3b597287	0.0033179836
62	0x3bd02b52	0.0063528204
63	0xbb825b26	-0.003978151
64	0xbb36cbf4	-0.0027892562
65	0x39a9e197	0.0003240227
66	0xbb31db96	-0.002713894
67	0x3c875091	0.01651791
68	0xbc731b72	-0.014838086
69	0x3acdcd60	0.0015701465
70	0xbc1a1d16	-0.009406349
71	0x3b216fb1	0.0024633224
72	0x3bd352aa	0.0064490633
73	0xbb217a65	-0.0024639603
74	0xbb14d4b4	-0.0022709789
75	0x39f26bee	0.0004623825
76	0xbb6723e0	-0.0035269186
77	0xbb945e04	-0.004527809
78	0x3c89a778	0.016803488
79	0xbb5f56e9	-0.0034078902
80	0xb8c20cd5	-9.253031e-05
81	0xbc23df15	-0.010001917
82	0x3b463b49	0.003024774
83	0xbbed188d	-0.0072355927
84	0xbb7091b2	-0.0036707935
85	0x3add7671	0.001689626
86	0x3c1a789b	0.009428169
87	0x3b1446a6	0.0022625118
88	0xbbdf7d13	-0.00682033
89	0xbbe4f565	-0.006987261
90	0xba965b41	-0.0011471288
91	0x3b81fdb3	0.003967011
92	0xbb34dcd5	-0.0027597446
93	0xbb27cb1c	-0.002560324
94	0xba9cc717	-0.0011961189
95	0xbb90be71	-0.0044172336
96	0xbaf3e3c9	-0.0018607314
97	0x3c48769c	0.01223531
98	0xb80e14e9	-3.3874912e-05
99	0xbbe1894b	-0.0068828217
100	0xbbb9be07	-0.005668405
101	0xba002a36	-0.00048891024
102	0x3a5f64f8	0.00085218204
103	0x3aa1162d	0.0012289934
104	0x3aa7e10d	0.0012808159
105	0xba5d3ffb	-0.0008440015
106	0xbb4240cc	-0.0029640673
107	0x3c988704	0.018619068
108	0xbbe54e93	-0.006997892
109	0xbc81c5ab	-0.015841326
110	0xbba54b5a	-0.005044383
111	0xb973d47e	-0.00023253445
112	0x3c85814a	0.016297001
113	0x3b3fc395	0.0029260863
114	0x3b388d35	0.0028160338
115	0x3af96c42	0.0019029456
116	0x37a2915a	1.937959e-05
117	0x3a7ac05e	0.0009565408
118	0x3b991d11	0.0046726544
119	0xbbfadefe	-0.0076559773
120	0xb9250296	-0.0001573659
121	0xb94d305d	-0.0001956834
122	0xbb2c9296	-0.002633249
123	0x3bb424fa	0.005497572
124	0xba2651e2	-0.0006344599
125	0xbbac17dc	-0.0052518677
126	0xb923629f	-0.0001558163
127	0xbc12efba	-0.008968288

network_body._body_endoder.seq_layers.2.weight f4 [128, 128]
0	0xbd870213	-0.065921925
1	0xbc76c47d	-0.015061495
2	0x3d4c781a	0.049919225
3	0xbd5f3d25	-0.05450167
4	0x3e216b01	0.15763475
5	0x3d0bbc1c	0.034114942
6	0xbdbd30a5	-0.09237794
7	0x3d82d4a3	0.063882135
8	0x3e0042cc	0.12525481
9	0x3d12de3c	0.03585647
10	0x3c593a3f	0.013258516
11	0xbccdffde	-0.025146421
12	0x3dba6079	0.09100432
13	0xbd2e4ae5	-0.042551894
14	0x3d8dafcd	0.06918297
15	0xbd5696f6	-0.05239006
16	0xbcaa230f	-0.02076867
17	0x3d86effc	0.06588742
18	0x3d10cb3c	0.03535007
19	0x3e123b41	0.14280416
20	0xbd7e5e32	-0.06210155
21	0xbdd46ca8	-0.10372287
22	0xbc6a5e87	-0.014304764
23	0x3c8d6e1e	0.017264422
24	0x3ac2788e	0.0014836953
25	0x3cc4692e	0.023975935
26	0x3d24b48a	0.040211238
27	0xbc2025eb	-0.009774665
28	0xbd76f4d5	-0.060292084
29	0xbda908dd	-0.08253644
30	0x3dc228e1	0.09480453
31	0xbd13d599	-0.036092374
32	0xbd1bb882	-0.038017757
33	0xbe03679f	-0.12832497
34	0x3dba9135	0.09109727
35	0xbd9ed987	-0.07756334
36	0xbc4be968	-0.012445785
37	0xbe46ced0	-0.1941483
38	0x3d4aa18b	0.049470466
39	0xbe803108	-0.25037408
40	0xbe51ff22	-0.20507482
41	0x3d1b3328	0.037890583
42	0xbc3c21c4	-0.01148266
43	0x3d135b8a	0.03597597
44	0xbda7aa6c	-0.08186802
45	0x3cb8f2fd	0.022576803
46	0x3d8c4e46	0.06850867
47	0xbbc52be7	-0.0060171965
48	0x3d3be1bb	0.04586957
49	0xbd5e3c8c	-0.05425696
50	0x3d08176c	0.03322546
51	0xbe336624	-0.17519432
52	0x3da7909f	0.08181881
53	0xbcbbb967	-0.022915555
54	0x3e0a2df6	0.13494095
55	0x3dfb6c5f	0.122765295
56	0xbbd5a8ae	-0.0065203523
57	0x3d02b629	0.031912003
58	0x3c20164b	0.00977094
59	0x3cd97208	0.026543632
60	0x3d44ab91	0.04801518
61	0x3d030663	0.031988513
62	0xbc95206f	-0.018203942
63	0xbc843d91	-0.016142638
64	0xbe1a2dba	-0.15056506
65	0x3da37d29	0.07982857
66	0x3e10d9b2	0.14145544
67	0xbcf05f85	-0.029342422
68	0x3d4c3aa2	0.049860604
69	0x3ce80b72	0.02832577
70	0xbce05732	-0.027385328
71	0x3debe541	0.11518336
72	0x3d72ad1a	0.059247114
73	0x3da5a2a1	0.080876596
74	0xbd9a9a67	-0.07548981
75	0xbe2e7aee	-0.17039081
76	0xbd373ada	-0.04473386
77	0x3ce18a56	0.027531784
78	0xbdca0e1d	-0.09865973
79	0xbdf9aa25	-0.121906556
80	0x3d5e4858	0.05426821
81	0x3c9e267c	0.01930546
82	0x3de336d6	0.110944435
83	0xbe0b5bc7	-0.13609229
84	0xbdb2e20b	-0.087345205
85	0xbd6e5706	-0.05818846
86	0x3d6eeab3	0.058329295
87	0x3d6bcac4	0.05756642
88	0xbd482a37	-0.048868384
89	0x3ca0f582	0.019648317
90	0x3df7098d	0.120623685
91	0x3ddb7c3c	0.10717055
92	0xbe083e41	-0.13304998
93	0xbe123a74	-0.1428011
94	0x3d3eea6c	0.04661028
95	0x3d6cd85e	0.05782353
96	0x3bad4b0f	0.0052884887
97	0x3d5cfe5f	0.053953525
98	0x3b1ab9cf	0.0023609286
99	0xbdc2480a	-0.094863966
100	0xbd69e7e7	-0.057105925
101	0xbe32e7eb	-0.17471282
102	0x3dc31af4	0.09526625
103	0x3dede90f	0.11616718
104	0xbd70a936	-0.058755122
105	0x3e0ee2c4	0.13953692
106	0x3d84bc32	0.06481208
107	0xbd288892	-0.04114587
108	0x3d9071ed	0.070529796
109	0x3cdf5fdd	0.02726739
110	0x3e029556	0.1275228
111	0x3dbf7885	0.09349159
112	0x3a21158e	0.00061448745
113	0x3ca2eb85	0.019887695
114	0xbd87f2b6	-0.0663809
115	0x3df43aef	0.11925303
116	0x3b184182	0.0023232405
117	0xbca6fa36	-0.020382982
118	0x3d5e39f1	0.054254476
119	0xbdb6e8b1	-0.08931101
120	0xbdb2a01d	-0.087219454
121	0x3a280b5b	0.00064103835
122	0x3d589713	0.05287845
123	0xbca12612	-0.019671474
124	0x3dd95210	0.10611355
125	0x3e1f61b7	0.15564619
126	0x3d761862	0.060081847
127	0xbcaaaf34	-0.020835496
128	0xbd0d6327	-0.034518387
129	0x3ca7b498	0.020471856
130	0x3e16b593	0.14717703
131	0xbd208e46	-0.039198183
132	0x3de80f9f	0.113311045
133	0x3cfba868	0.03071995
134	0x3c4eefd0	0.012630418
135	0x3c1606c3	0.009156886
136	0x3e149a41	0.14511968
137	0x3d214432	0.039371677
138	0x3d6c5f03	0.057707798
139	0x3c8e0507	0.017336382
140	0x3e18762d	0.1488883
141	0x3d102b8d	0.035197783
142	0xbcf8a8d4	-0.030353941
143	0x3c1010f0	0.008793101
144	0xbe0cb003	-0.13739018
145	0xbc49f721	-0.0123269865
146	0xbe0be3df	-0.13661145
147	0xbe1d2afc	-0.15348428
148	0xbd7dcbe6	-0.06196203
149	0xbde00b6b	-0.10939678
150	0x3ddc57cc	0.107589334
151	0x3d56019e	0.052247636
152	0xbde8579c	-0.11344835
153	0xbc59d69e	-0.013295798
154	0xbdd57b19	-0.1042387
155	0x3b95bee1	0.0045698737
156	0x3d2ef4d9	0.042713974
157	0xbcb43002	-0.021995548
158	0xbe3d54e5	-0.18489416
159	0x3d8187a8	0.063247025
160	0x3b88336e	0.0041565215
161	0x3d8f1aac	0.06987509
162	0xbcb311cf	-0.021859078
163	0x3e01cf8f	0.12676834
164	0xbca517c1	-0.020152928
165	0x3e74b7a6	0.23898181
166	0xbbf42850	-0.0074510947
167	0xbcda9f0f	-0.026687173
168	0x3d9daea1	0.076993234
169	0x3e17f1af	0.14838289
170	0xbdcee06d	-0.101013996
171	0x3e51f141	0.20502187
172	0xbd7f976a	-0.06240026
173	0xbe1c71d0	-0.15277791
174	0x3c70c743	0.014695945
175	0xbccac61e	-0.024752673
176	0x3caccf2e	0.021094885
177	0x3e85f028	0.26159787
178	0xbd1b5981	-0.037927154
179	0xbd22667a	-0.03964851
180	0x3e055b3e	0.13023087
181	0x3e06b972	0.1315668
182	0xbe152d2f	-0.14568017
183	0xbcd93953	-0.026516592
184	0xbd08c617	-0.03339204
185	0xbe549404	-0.20759588
186	0x3cef5f7f	0.02922034
187	0xbdc045ba	-0.09388299
188	0xbcfd241c	-0.030901007
189	0xbd99c276	-0.075077936
190	0xbabc2b0f	-0.0014356094
191	0x3db714eb	0.08939537
192	0xbdb18b75	-0.086691774
193	0x3c45d09a	0.01207366
194	0xbe09e179	-0.13464917
195	0xbd72d2dc	-0.059283122
196	0x3e0fa7df	0.14028881
197	0xbd29c005	-0.04144289
198	0xbe11e68f	-0.14248107
199	0xbc023d71	-0.007949219
200	0xbca22b04	-0.019795902
201	0xbcc3e078	-0.023910746
202	0x3d9738ee	0.07383905
203	0xbcf61a70	-0.030041903
204	0xbd9603ea	-0.07324965
205	0xbd87f82e	-0.066391334
206	0xbd8c8007	-0.06860357
207	0x3c98fb5e	0.018674549
208	0xbcd7e049	-0.026352065
209	0x3ce7b359	0.028283762
210	0x3cbb521e	0.022866305
211	0x3db593f8	0.088661134
212	0xbd56cb6a	-0.052440085
213	0x3d7ab8d5	0.061211426
214	0x3d39d65d	0.04537045
215	0xbd588c33	-0.05286808
216	0xbd7f8d7b	-0.062390786
217	0x3d0c81b2	0.034303375
218	0xbca4fbc2	-0.020139579
219	0x3dd4267e	0.10358904
220	0xbdef2d9c	-0.11678621
221	0xbd9d8110	-0.07690632
222	0xbd7975fe	-0.06090354
223	0xbd8e7527	-0.06955939
224	0x3da6f4b5	0.08152143
225	0x3e4db664	0.20089108
226	0xbd6a8cb5	-0.057263095
227	0xbcde5cac	-0.027143799
228	0x3d9260e0	0.07147384
229	0xbb8ed81f	-0.0043592597
230	0x3d942b3f	0.07234811
231	0xbd3f03ef	-0.04663461
232	0x3d6f564c	0.05843191
233	0x3b477ad8	0.003043821
234	0xbdad2159	-0.08453626
235	0xbddce4b9	-0.10785813
236	0x3d98e14e	0.074648485
237	0xbde88e9e	-0.11355327
238	0x3d71e79f	0.05905878
239	0x3e06caae	0.13163254
240	0xbc58209f	-0.013191371
241	0x3debf3cc	0.1152111
242	0x3cdc2fc4	0.026878245
243	0x3db7bdec	0.089717716
244	0xbdc15744	-0.09440473
245	0x3cb9fea0	0.022704422
246	0xbdb111ff	-0.086460106
247	0x3d9b0055	0.07568423
248	0xbd832722	-0.06403948
249	0xbd0fb4e7	-0.03508463
250	0x3dc15af2	0.094411746
251	0x3c25c95d	0.0101188095
252	0x3d8d85db	0.069102965
253	0x3e1bd43d	0.15217681
254	0xbdf4ca55	-0.11952654
255	0x3e53fa3c	0.20700926

network_body._body_endoder.seq_layers.2.bias f4 [128]
0	0x3c395b37	0.011313251
1	0xbb0a0c7d	-0.0021064573
2	0x3a2578e7	0.00063122663
3	0xb8c0b177	-9.188329e-05
4	0xbba49b1b	-0.005023373
5	0x3a75cee7	0.0009376839
6	0xbb29edf5	-0.0025929187
7	0xbc037df0	-0.008025631
8	0x3c032dce	0.008006526
9	0xba9cdfc3	-0.0011968542
10	0xbb3cdd99	-0.0028818606
11	0xbb6caf7a	-0.0036115334
12	0xbacd173e	-0.0015647186
13	0x3b3639ca	0.002780544
14	0x3bd3bd16	0.00646175
15	0x3befefff	0.007322311
16	0xbbb82570	-0.0056196973
17	0xba9f4627	-0.0012151644
18	0xbbc50001	-0.0060119634
19	0xb94dad60	-0.0001961491
20	0x3952da6e	0.00020108532
21	0xb9e4751a	-0.00043574796
22	0x3a421aa9	0.00074044854
23	0x3ab3e010	0.0013723392
24	0xbb70ea89	-0.0036760888
25	0x3ac5e9dd	0.0015099604
26	0xbb185906	-0.0023246421
27	0x3a17f35b	0.00057964557
28	0xba8ff1a0	-0.0010982044
29	0xbb110b68	-0.0022132043
30	0xbaf3e192	-0.0018606654
31	0x3b895d90	0.0041920617
32	0x3a134514	0.00056178984
33	0x3aa76672	0.001277162
34	0x3b5ae29f	0.0033399237
35	0x3b5d265b	0.0033744785
36	0xbb5cfde8	-0.0033720676
37	0xb9817ffb	-0.0002470015
38	0xbbe31447	-0.0069299075
39	0xba6c1316	-0.00090055296
40	0x3b8d57c3	0.0043134405
41	0xbb7ae544	-0.0038283626
42	0xbb581fd2	-0.003297795
43	0xbacd6410	-0.001567008
44	0x3c28b63d	0.010297355
45	0x3b853275	0.004064853
46	0xbc141893	-0.009039062
47	0xbbe4c323	-0.00698127
48	0x3b1c6f6d	0.0023870126
49	0x3b21fbf0	0.0024716817
50	0xbb6d3c39	-0.0036199226
51	0x3883103d	6.2495914e-05
52	0x3a0535c6	0.000508156
53	0x3c247be6	0.010039305
54	0xbb2e2cce	-0.0026576999
55	0xbc7207bd	-0.014772353
56	0xbabd7277	-0.0014453669
57	0xbaafa7dc	-0.0013401466
58	0x3bcceac7	0.0062535736
59	0x391a8dfc	0.00014739478
60	0x3b209695	0.0024503816
61	0x3c45f923	0.012083325
62	0x3b0d88bc	0.0021596393
63	0x3b1eee72	0.0024251011
64	0xba866d3a	-0.0010255941
65	0xbbaa3da4	-0.0051953364
66	0xb735b25d	-1.0829969e-05
67	0x3b317483	0.0027077503
68	0x3b79cfb4	0.0038118185
69	0xbb5b5f47	-0.0033473538
70	0xb8d7b180	-0.00010285061
71	0x3b11e43f	0.002226129
72	0xb9cb07f9	-0.00038725117
73	0x3a827310	0.0009952504
74	0x3bb6d2a3	0.005579309
75	0xb9243bae	-0.00015662491
76	0x3c2d9362	0.010594221
77	0xbc24b619	-0.010053181
78	0xbb889586	-0.004168215
79	0x3af53191	0.0018706789
80	0x3b0a69b4	0.0021120133
81	0xbb93e07c	-0.0045128446
82	0xbb5a0196	-0.0033265105
83	0x3b039bd6	0.00200819
84	0xbbd25489	-0.006418769
85	0xbb55aa18	-0.0032602604
86	0xbad2d240	-0.0016084388
87	0xbb93befc	-0.004508851
88	0xbb8a7459	-0.0042252955
89	0x3b8ed904	0.0043593664
90	0x3a785c95	0.0009474245
91	0x3bd3799e	0.006453707
92	0x3a6ed0c1	0.0009110086
93	0x3b14e430	0.0022719018
94	0x399ce065	0.00029921826
95	0x39c83a52	0.00038190425
96	0xbae34cad	-0.0017341577
97	0xbb51832a	-0.003196905
98	0xba96f31c	-0.0011516544
99	0xbb0d3bf0	-0.0021550618
100	0x394bb936	0.00019428585
101	0x3be58f31	0.007005595
102	0x3b89f046	0.004209551
103	0x3b4b803a	0.003105177
104	0x3ab07939	0.0013463862
105	0xbb12aade	-0.0022379677
106	0x3b2a4061	0.0025978314
107	0xbc339c28	-0.0109625235
108	0xbb8bc1c1	-0.0042650406
109	0x3c044cd9	0.0080749625
110	0x3b3d217a	0.0028859065
111	0xbb4f1c39	-0.0031602515
112	0xbab614ae	-0.0013891661
113	0x3a46a850	0.0007578181
114	0xbacaf0cc	-0.001548314
115	0xbadb11b2	-0.0016713648
116	0xbace036b	-0.0015717571
117	0x3b737036	0.003714574
118	0x3b0f7dff	0.0021895168
119	0x3b01c05c	0.0019798493
120	0xbbf27704	-0.0073994417
121	0xbb5f64ff	-0.0034087298
122	0xbb43e8f4	-0.002989349
123	0xbbf0b5e4	-0.007345902
124	0x3b1dd7e3	0.0024084977
125	0x3ba13ba8	0.0049204417
126	0x3990d356	0.00027623278
127	0x3b29fd41	0.0025938305

action_model._continuous_distribution.log_sigma f4 [1, 2]
0	0x3ba6210f	0.005069859
1	0x3bb1f907	0.0054312977

action_model._continuous_distribution.mu.weight f4 [2, 128]
0	0xbd01c760	-0.03168428
1	0xbc332b0b	-0.010935555
2	0x3cc9c4f0	0.02463004
3	0xbbc84331	-0.0061115255
4	0x3beb244e	0.0071759587
5	0xbc6ac06a	-0.014328102
6	0x3c3526c7	0.0110566085
7	0x3c07b683	0.00828326
8	0xbb820ec5	-0.003969046
9	0x3c981c31	0.01856813
10	0x3cc0a36c	0.023515426
11	0x3bbbd99e	0.005732729
12	0xbc5ff6f4	-0.013669718
13	0x3b74efbf	0.0037374345
14	0xbd0644f2	-0.032780595
15	0xbbcf5daf	-0.0063283066
16	0x3be4a8f5	0.006978149
17	0x3cdd03ab	0.026979288
18	0x3c0654d1	0.008198933
19	0xbd0c1750	-0.03420192
20	0xbca2db4c	-0.01987996
21	0xbc52bcd7	-0.012862406
22	0xbcb93118	-0.022606418
23	0xbcebcdb3	-0.028784608
24	0x3b87c19d	0.0041429535
25	0xbc0d7c45	-0.008635585
26	0x3d031657	0.032003727
27	0x3c9fd8d0	0.019512564
28	0xbaae7460	-0.0013309829
29	0xbc3a4886	-0.01136983
30	0xbc7301a0	-0.01483193
31	0xbcb89c2b	-0.022535404
32	0xbc446a4d	-0.011988235
33	0x3b7fc9ee	0.0039030272
34	0x3beecfb8	0.0072879456
35	0xbcb75144	-0.022377618
36	0x3ccc049b	0.02490454
37	0x3d10bc0b	0.03533558
38	0x3d538581	0.05164099
39	0xb9d797c5	-0.00041121073
40	0x3ce253bf	0.027627824
41	0x3cb54d96	0.022131722
42	0x3c92e579	0.017931687
43	0xbc8d3eb4	-0.017241813
44	0xbc5bf252	-0.013424473
45	0x3ac3c043	0.0014934618
46	0x3d05b943	0.032647382
47	0x3ba5ae7b	0.0050562
48	0xbcb18c92	-0.021673474
49	0x3ce92c84	0.02846361
50	0x3c6fa8ac	0.014627617
51	0x3c1735dd	0.009229151
52	0xbb53367a	-0.0032228515
53	0x3d363ad7	0.044489708
54	0xbba44f8d	-0.005014366
55	0xbc3e2fa1	-0.011608035
56	0xbbbe70fb	-0.005811808
57	0xbc705447	-0.014668531
58	0x3ca36dbf	0.019949792
59	0x3ae9199c	0.0017784121
60	0x3c996670	0.018725604
61	0xbc879f09	-0.016555326
62	0xbca5f445	-0.020258078
63	0x3b1b6e52	0.002371688
64	0x3c680f15	0.014163752
65	0x3d0689a7	0.03284612
66	0xbbebe114	-0.0071984623
67	0x3a0c69a4	0.0005356318
68	0x3a40bfd4	0.00073528034
69	0x3bfecae5	0.0077756518
70	0xbc925a0e	-0.017865207
71	0x3c8d2275	0.017228344
72	0x3c91156f	0.017710416
73	0xbc8ba386	-0.017045747
74	0x3c00ba3c	0.007856902
75	0xbbb2b244	-0.00545338
76	0x3d0037fd	0.031303395
77	0x3b938544	0.0045019705
78	0x3c211187	0.009830839
79	0x3d18adac	0.037275
80	0xbc01deb2	-0.00792663
81	0x3bc5eef4	0.0060404483
82	0x3d158cac	0.03651111
83	0x3aa2eeb6	0.001243076
84	0xbc64e692	-0.013970988
85	0x3c4a526e	0.012348754
86	0x3c6b5b61	0.014365048
87	0x3cb2ba8f	0.021817474
88	0x3c6d33e9	0.014477708
89	0x3c040951	0.008058862
90	0xbcb987a2	-0.022647683
91	0x3c771d89	0.015082725
92	0xbc83535d	-0.016030962
93	0xbcc14942	-0.023594502
94	0x3d0cd0fa	0.034378983
95	0x3c457be8	0.012053467
96	0x3ce2c600	0.027682304
97	0xbd273954	-0.040826157
98	0xbb921d3b	-0.004459051
99	0xb9ba59a1	-0.00035543463
100	0x3c6144a9	0.01374928
101	0x3c8d40d5	0.017242828
102	0xbd089976	-0.033349477
103	0x3ac52a72	0.0015042557
104	0x3b0d4dcd	0.0021561265
105	0xbbcc34a2	-0.0062318603
106	0xbc7a7482	-0.015286567
107	0xbc70bf1c	-0.0146940015
108	0xbb9b976e	-0.0047482764
109	0xbd2ae0cc	-0.04171829
110	0x3ceefb90	0.029172689
111	0x3d1ddd8e	0.03854137
112	0x3b45a319	0.0030157028
113	0x3ce18aa5	0.027531931
114	0xbb5bd5ea	-0.003354425
115	0x3c02ce79	0.007983797
116	0xbaf2fe0d	-0.0018538848
117	0xbc675322	-0.0141189415
118	0xbbd8fec9	-0.0066221696
119	0xbcf0c51d	-0.029390866
120	0x3b1d49a4	0.0024000192
121	0x3cad6421	0.02116591
122	0xbaaed471	-0.0013338459
123	0x3c092b31	0.008372114
124	0xbc5b5d72	-0.013388978
125	0x3d13e623	0.036108147
126	0x3cb9e627	0.022692753
127	0xbcdd3328	-0.027001932
128	0x3cd41c29	0.025892334
129	0xbc63a945	-0.0138953375
130	0xbc8af4f1	-0.0169625
131	0xbb9039d1	-0.0044014235
132	0x3d3720cb	0.04470901
133	0xbba4c0df	-0.005027875
134	0xbb73905d	-0.0037164905
135	0xbcd105a7	-0.02551539
136	0x3cbd7a8f	0.02312973
137	0x3d299257	0.041399326
138	0x3c0f1748	0.008733578
139	0xbcd13fb4	-0.025543071
140	0xbd0891d0	-0.033342183
141	0x3d0e85ae	0.034795456
142	0xbcedb60a	-0.029017467
143	0x3c9cf002	0.019157413
144	0xbc2384cf	-0.0099803945
145	0xbab3c805	-0.0013716227
146	0xbbb257ad	-0.0054425807
147	0xba65d57a	-0.0008767467
148	0xbc24958d	-0.010045421
149	0xbcc19d21	-0.023634495
150	0xbc76ad97	-0.0150560355
151	0x3ccbcbe2	0.024877492
152	0xbc2289e0	-0.009920567
153	0xbb885d00	-0.004161477
154	0xbaa8cb61	-0.0012877994
155	0x3d214ab7	0.039377894
156	0xbd1ab1f8	-0.03776738
157	0xbc0162a4	-0.007897053
158	0x3c2948b7	0.010332278
159	0x3ced1d55	0.02894465
160	0xbbc39b4a	-0.0059694396
161	0xbbfe8c7f	-0.0077682133
162	0x3c0592d9	0.008152687
163	0x3b66e4fc	0.00352317
164	0x3b9e2a49	0.004826818
165	0xbcc14c44	-0.023595937
166	0x3bc980ad	0.0061493726
167	0xbcd20175	-0.02563546
168	0x3bc85e90	0.0061147884
169	0x3a93e8b5	0.0011284562
170	0xbc26844b	-0.010163377
171	0xbc389b17	-0.011267445
172	0xbc9fdbf0	-0.019514054
173	0xbd233ea2	-0.039854653
174	0xbcc91c5c	-0.024549656
175	0xbc2f02d0	-0.010681823
176	0x3cca3bb6	0.024686676
177	0x3cc9392a	0.02456339
178	0xbc9f9818	-0.019481704
179	0xbb96c11a	-0.004600656
180	0x3c6ad55f	0.014333098
181	0x3c1c1100	0.0095255375
182	0x3b9b0b25	0.004731553
183	0x3cbc7369	0.02300425
184	0x3bec7c4c	0.007216966
185	0xba578c98	-0.0008222549
186	0x3b45a9e9	0.0030161089
187	0x3cd48690	0.02594307
188	0x3c1242fa	0.008927101
189	0x3d82ebb5	0.06392614
190	0xbbc27cf3	-0.0059353053
191	0xbcc7c0ed	-0.024383986
192	0x3aae2a8a	0.0013287824
193	0xbba6f720	-0.0050953776
194	0x3b3c27e4	0.00287103
195	0xbcc8300b	-0.024436971
196	0xbccda9fd	-0.02510547
197	0xbc0de019	-0.008659386
198	0xbb485365	-0.0030567285
199	0x3c222eaf	0.009898826
200	0x3d1c1239	0.038103316
201	0xbc05d691	-0.008168832
202	0x3c2979d7	0.01034399
203	0x3cb6a973	0.022297597
204	0xbd00e295	-0.031466085
205	0xbb631823	-0.0034651838
206	0x3ca84c64	0.020544238
207	0xbcb11140	-0.02161467
208	0xbd9022b5	-0.0703787
209	0x372d77b3	1.0339473e-05
210	0xbc6d28e2	-0.014475079
211	0xbd1543e7	-0.03644171
212	0xbc3af2b6	-0.011410406
213	0x3b433f33	0.0029792308
214	0x3b847612	0.0040423954
215	0x3a2ea99e	0.0006662848
216	0xbc9e1a92	-0.01929978
217	0x3c99629b	0.018723777
218	0x3baf8681	0.0053566103
219	0xbc476d65	-0.012172078
220	0xbbdde61f	-0.0067718173
221	0x3ce44da3	0.027869051
222	0x3cc5586d	0.024090016
223	0xbc840269	-0.01611443
224	0xbcaba0f6	-0.020950776
225	0xbc2d6f8c	-0.010585677
226	0xbc11f6e2	-0.008908959
227	0xbcdba43a	-0.026811708
228	0x3d0402b0	0.032229125
229	0xbd392d31	-0.045209114
230	0x3cde1041	0.02710736
231	0x3c297cbd	0.010344681
232	0xbb91bd17	-0.00444759
233	0xbc66d8b8	-0.014089756
234	0x3c898821	0.016788544
235	0xbd268a13	-0.04065902
236	0xb9a97b4c	-0.00032326055
237	0x3ab413aa	0.001373877
238	0x3cc8d449	0.024515288
239	0x3b25beb2	0.0025290665
240	0x3ca2b0a4	0.01985962
241	0xbac1a68e	-0.0014774369
242	0xbbd155b2	-0.0063883895
243	0x3c24a15a	0.010048235
244	0x3c2335b0	0.009961531
245	0x3cbc5c43	0.022993213
246	0x3c2725e8	0.010201909
247	0x3a376593	0.0006996032
248	0xbbcbd789	-0.006220762
249	0xbb2ae5c9	-0.0026076904
250	0xbc1b53bf	-0.009480416
251	0x3bf74cbe	0.00754699
252	0xbbb01c15	-0.0053744414
253	0xbcd59613	-0.026072538
254	0xbc1f2a0e	-0.009714616
255	0x3c7dc2fc	0.015488382

action_model._continuous_distribution.mu.bias f4 [2]
0	0xbb1324b8	-0.0022452306
1	0x3aa4ce56	0.00125737

action_model._discrete_distribution.branches.0.weight f4 [5, 128]
0	0x3ca2bafe	0.019864555
1	0x3b9756ec	0.004618516
2	0x3babb25e	0.005239769
3	0x3b3702d5	0.0027925272
4	0x3bae8c1d	0.0053267614
5	0x3c59f184	0.013302211
6	0xba602119	-0.0008549854
7	0xbc4ae8d0	-0.012384608
8	0xbb416932	-0.0029512164
9	0x3b51a3be	0.0031988467
10	0xbcbd6fe7	-0.023124648
11	0x3c24de16	0.010062715
12	0x3c8bc310	0.017060786
13	0xbba9a86a	-0.005177547
14	0xbca598a3	-0.020214384
15	0xbadfb05d	-0.001706611
16	0xbb2fa7bd	-0.002680286
17	0xbc9a6d3a	-0.018850911
18	0xbc64131b	-0.013920571
19	0xb9c46295	-0.00037457483
20	0x3c376fbe	0.011196075
21	0xbbdd68f9	-0.0067568985
22	0x3c2e0a8b	0.010622631
23	0x3b1f5002	0.0024309163
24	0xbb9d416b	-0.004799058
25	0xbb42eaf8	-0.0029742103
26	0xbb8e3a0f	-0.004340417
27	0x3bf5b59a	0.0074984552
28	0xbca23743	-0.019801741
29	0x3bd136b2	0.006384694
30	0x3a7cc183	0.00096418726
31	0x3c0cdf62	0.0085981805
32	0xbc146da7	-0.009059346
33	0x3a81ab72	0.0009893014
34	0x3bd720da	0.0065651955
35	0xbc546dd9	-0.012965643
36	0x3c12a431	0.008950279
37	0x3c1a8b81	0.009432674
38	0xbc3f019a	-0.011658097
39	0xbc56e0d4	-0.013115127
40	0xbbc678d9	-0.0060568866
41	0xbb2c47ca	-0.0026287907
42	0x3b926b1d	0.0044683353
43	0xb969146b	-0.00022228218
44	0x3b7d9b93	0.0038697466
45	0x3c116691	0.008874551
46	0xbc0ad526	-0.00847367
47	0xba8a2134	-0.001053846
48	0xb9260440	-0.00015832577
49	0xbc9c4cbd	-0.01907956
50	0xbaf7832d	-0.0018883698
51	0xbc1ffbff	-0.00976467
52	0x3c5e364c	0.01356275
53	0xbb8e6f47	-0.0043467614
54	0x3c01d229	0.007923641
55	0xbbb7019a	-0.0055849077
56	0xba8f51cf	-0.0010934415
57	0xb7c63cf1	-2.3631817e-05
58	0xbba857a9	-0.005137403
59	0x3b3005e6	0.0026858984
60	0x3c0c0bc1	0.008547724
61	0xbc83f8d0	-0.016109854
62	0x3b919f7a	0.00444406
63	0x3c130e4b	0.008975576
64	0xbbf939e4	-0.007605778
65	0x3c8ea48e	0.01741245
66	0xbadc30af	-0.0016799177
67	0xbcabb716	-0.020961326
68	0x3aa6b090	0.0012717415
69	0xbc52075d	-0.012819138
70	0x3c31a351	0.01084216
71	0xbb662648	-0.0035118032
72	0xbc03eac5	-0.008051579
73	0x3c2f7cbd	0.010710892
74	0x3c20ff00	0.009826422
75	0xbad3c085	-0.0016155398
76	0xbaf50994	-0.0018694871
77	0x3b49bb14	0.0030781673
78	0x3bdf82eb	0.0068210266
79	0xbba9e4da	-0.005184752
80	0x3bddef5e	0.0067729196
81	0x3c0231d5	0.007946451
82	0xbbf2d36a	-0.0074104564
83	0x3bdd08a1	0.0067454134
84	0xbc3fdded	-0.011710626
85	0xbbfe80ff	-0.0077668424
86	0xbc8d147f	-0.017221687
87	0xbb05184a	-0.0020308667
88	0x3b669167	0.0035181881
89	0x3b922eff	0.004461169
90	0x3b3381b5	0.0027390544
91	0xbb26794e	-0.0025401893
92	0x3abb402c	0.0014286092
93	0x3b7a307f	0.0038175879
94	0xbc0384fa	-0.00802731
95	0x3b6ec106	0.003643097
96	0x3ca2d4d2	0.019876871
97	0x3b7842fd	0.0037881725
98	0x3c8da4d2	0.017290507
99	0xbc23299c	-0.009958651
100	0x3b5cf67d	0.0033716254
101	0x3c8c8547	0.017153395
102	0xbbb1078f	-0.0054025124
103	0x3c3a3342	0.01136476
104	0xbc7d1710	-0.015447393
105	0xbc70255e	-0.0146573465
106	0xbb4fc366	-0.003170216
107	0xbb728a3f	-0.003700867
108	0xbbf37523	-0.0074297353
109	0xbb97739d	-0.0046219365
110	0xb688f442	-4.081551e-06
111	0x3b85822d	0.004074356
112	0x3c5714f7	0.013127557
113	0x3b3dd38a	0.0028965198
114	0x3c2affd0	0.010436967
115	0x3b91c1a2	0.0044481317
116	0x3b8e9bc4	0.004352065
117	0xbc68976f	-0.014196261
118	0x3ab9e1af	0.0014181639
119	0xbc960fb8	-0.018318042
120	0xba323700	-0.0006798357
121	0x3c071f95	0.008247276
122	0x3c2e733e	0.010647593
123	0xbb4adc3e	-0.0030954028
124	0xbca1d69a	-0.01975565
125	0x3c04cc7d	0.008105394
126	0x3b19de0e	0.0023478302
127	0x3c13fb01	0.009032012
128	0xbc095ff9	-0.008384698
129	0x3bec3e40	0.007209569
130	0x3ba44ba9	0.005013902
131	0x3beae694	0.0071686003
132	0xbaed20ad	-0.0018091403
133	0x3a97213d	0.0011530292
134	0xbb9538df	-0.0045538987
135	0x3ba3dc79	0.0050006476
136	0xbbc74d90	-0.006082244
137	0x3bdd182c	0.0067472663
138	0xbc239636	-0.009984544
139	0xbc0dd5b4	-0.008656908
140	0xbbe206a1	-0.006897763
141	0x3bf6af26	0.0075282035
142	0x3b6b1349	0.003586965
143	0x3c0a5980	0.00844419
144	0x3b4ece1d	0.0031555959
145	0xbc927a72	-0.017880652
146	0xbc08fb53	-0.008360702
147	0x3b8675c2	0.0041033933
148	0xbb872e22	-0.0041253725
149	0xbbabf2f6	-0.005247469
150	0x3b3962ed	0.0028287724
151	0x3c3511e0	0.011051625
152	0x3b1c7ea0	0.0023879185
153	0x3c48b7f2	0.012250887
154	0x3bec721b	0.007215751
155	0xbcbdfd94	-0.023192205
156	0x3c0d9380	0.008641124
157	0x3afe002c	0.0019378713
158	0xbc047f05	-0.008086924
159	0x3b9b487d	0.004738866
160	0x3c995626	0.018717837
161	0x3c60e1bf	0.013725697
162	0xbbda3452	-0.006659069
163	0x3c88af37	0.016685111
164	0x3a948cc6	0.0011333458
165	0x3be74710	0.007058032
166	0x3befce11	0.007318266
167	0xbc95a35d	-0.018266374
168	0x3b992757	0.004673879
169	0x3c7d3935	0.015455534
170	0x3c1c22b8	0.009529762
171	0x3ba303db	0.004974825
172	0x3b61851e	0.003441162
173	0x3b347292	0.002753411
174	0xbba3b3c4	-0.004995795
175	0xbc9e0cb2	-0.019293163
176	0x3c2f6a3c	0.010706481
177	0x39f64724	0.0004697378
178	0x3c1823a2	0.009285839
179	0x3b96db56	0.0046037836
180	0x3b953aa3	0.004554109
181	0xbbd59931	-0.006518506
182	0xbbbc98f7	-0.0057555395
183	0xbc027614	-0.007962722
184	0xbabcfd19	-0.0014418691
185	0xbc1ed26c	-0.009693723
186	0x3c4dabea	0.012553195
187	0x3bcfd45f	0.0063424553
188	0x3bb84750	0.0056237355
189	0xbc409b8f	-0.011755838
190	0x3ca17c2a	0.019712526
191	0x3c3326bb	0.010934527
192	0x3c022935	0.007944395
193	0xbc3c7ed2	-0.011504846
194	0x3c31c26c	0.010849576
195	0xbc34c0d1	-0.011032299
196	0x3b3b554c	0.0028584776
197	0x3b9be696	0.0047577126
198	0x3c0b5c40	0.008505881
199	0x3c3b4eda	0.011432374
200	0x3b603422	0.003421076
201	0x3bfb40a1	0.0076676165
202	0xbb2f4514	-0.0026744055
203	0xbb258fd9	-0.0025262742
204	0xbb7caabd	-0.0038553916
205	0xbb216810	-0.0024628676
206	0xbbd33a34	-0.0064461473
207	0xbae451a4	-0.001741935
208	0xbb463493	-0.003024374
209	0xbbc00af2	-0.00586068
210	0xb7a5639d	-1.9715919e-05
211	0x3a2c6e26	0.00065776927
212	0xb952f894	-0.00020119763
213	0x3c09db7b	0.008414145
214	0xbc89bb74	-0.016813017
215	0x3c576a1c	0.013147857
216	0xbb16359e	-0.0022920142
217	0xbca18e88	-0.019721285
218	0x3be59cdd	0.007007225
219	0x3b3b17e4	0.0028548175
220	0x3b8fb6c2	0.0043858
221	0x3b9fc060	0.004875228
222	0xbbc2eedf	-0.005948886
223	0x3c2f5fef	0.010704025
224	0x3bbc4a92	0.005746194
225	0xbc3f7fc0	-0.011688173
226	0x3c709bc2	0.014685573
227	0x3bd10658	0.00637893
228	0x3c91dd59	0.017805742
229	0x3b121592	0.002229069
230	0xbc1cf5b0	-0.009580061
231	0x3a48532b	0.00076417875
232	0x3c9c4bb6	0.01907907
233	0x3a9fc058	0.001218806
234	0x3c152c4c	0.0091047995
235	0x3b2fafce	0.0026807669
236	0xbb3dee22	-0.002898105
237	0xba551592	-0.00081285194
238	0x3c40b4d0	0.011761859
239	0x3c0e0d95	0.00867023
240	0xbba93f98	-0.0051650517
241	0xbb025b13	-0.001989071
242	0xbbc28080	-0.0059357285
243	0xbc5031e1	-0.012707205
244	0x3a1e7d2c	0.0006045874
245	0x3bd25ce1	0.0064197634
246	0x3af95b7c	0.0019024457
247	0xb8dd3d5a	-0.00010549529
248	0x3b29823e	0.0025864984
249	0xbc2b3fb8	-0.010452203
250	0xbaf7187d	-0.0018851903
251	0x3c85c1a3	0.016327685
252	0x3d03e46a	0.032200254
253	0xbb745c76	-0.0037286556
254	0xbb5de12b	-0.0033856134
255	0x3a2952ae	0.00064591586

action_model._discrete_distribution.branches.0.bias f4 [5]
0	0x3b34f452	0.0027611447
1	0x3b268ed3	0.002541472
2	0xbb55865d	-0.0032581307
3	0xbb7b9758	-0.0038389768
4	0x3a55c8d1	0.0008155229

exp_avg f4 [128, 38]
0	0xb7960a50	-1.7886196e-05
1	0x00000000	0.0
2	0xb599f877	-1.1471701e-06
3	0x37620041	1.3470709e-05
4	0x3683887b	3.9199927e-06
5	0x00000000	0.0
6	0x36cec1b2	6.1618275e-06
7	0xb5a74608	-1.2462851e-06
8	0xb7d45af1	-2.5314717e-05
9	0x00000000	0.0
10	0x372fda08	1.0481577e-05
11	0x37b27160	2.1272048e-05
12	0x368a3221	4.1185563e-06
13	0x00000000	0.0
14	0x3646840c	2.958116e-06
15	0x36b5be79	5.4163943e-06
16	0xb7c79ccb	-2.3795661e-05
17	0x00000000	0.0
18	0x385d5835	5.2772655e-05
19	0x38301299	4.197899e-05
20	0x373dc5c2	1.1311322e-05
21	0x00000000	0.0
22	0xb6f75af0	-7.37176e-06
23	0xb6141aaf	-2.206925e-06
24	0x373dc5c2	1.1311322e-05
25	0x00000000	0.0
26	0xb6f75af0	-7.37176e-06
27	0xb6141aaf	-2.206925e-06
28	0x3698a259	4.5488528e-06
29	0xb8085f13	-3.251347e-05
30	0xb7c0c45a	-2.2979617e-05
31	0x3a0b942c	0.00053245085
32	0x37b93d58	2.2082284e-05
33	0xb9f8f114	-0.00047481863
34	0xb7738642	-1.4515188e-05
35	0xb89f324b	-7.5910786e-05
36	0x322a109a	9.899077e-09
37	0x385545c1	5.084812e-05
38	0x371b9a05	9.27458e-06
39	0x00000000	0.0
40	0x36498010	3.0025876e-06
41	0x37e26bf4	2.6991569e-05
42	0x38282528	4.0088926e-05
43	0x00000000	0.0
44	0xb788f572	-1.6326758e-05
45	0xb30344c4	-3.0563356e-08
46	0x380f24f1	3.412826e-05
47	0x00000000	0.0
48	0x3825ee93	3.9561255e-05
49	0x37f91568	2.9693081e-05
50	0x353368be	6.6835116e-07
51	0x00000000	0.0
52	0x37649b16	1.3625968e-05
53	0x381f40e9	3.7969006e-05
54	0x37ca011d	2.4080795e-05
55	0x00000000	0.0
56	0x3749723e	1.2007133e-05
57	0x37c26064	2.3171488e-05
58	0xb6a50948	-4.9184637e-06
59	0x00000000	0.0
60	0x36a003db	4.7688204e-06
61	0x3814be03	3.5462912e-05
62	0xb6a50948	-4.9184637e-06
63	0x00000000	0.0
64	0x36a003db	4.7688204e-06
65	0x3814be03	3.5462912e-05
66	0x39a36061	0.0003116159
67	0xb9476e71	-0.00019019262
68	0xb96fcd2a	-0.00022869246
69	0x3a869e8f	0.0010270643
70	0x3905c09e	0.00012755624
71	0xba7a266e	-0.00095424696
72	0x3916e6ba	0.00014391067
73	0xb82493e1	-3.923837e-05
74	0xb42d26a1	-1.6125934e-07
75	0xb8841fdc	-6.300185e-05
76	0xb6864aaa	-4.0022032e-06
77	0x00000000	0.0
78	0xb6217d19	-2.4063686e-06
79	0xb6a08a94	-4.784504e-06
80	0xb71416ee	-8.826826e-06
81	0x00000000	0.0
82	0x372596aa	9.869846e-06
83	0x36fc55d3	7.5201765e-06
84	0xb731b442	-1.0591992e-05
85	0x00000000	0.0
86	0xb7a32434	-1.9447973e-05
87	0xb6dda9b4	-6.6060693e-06
88	0x35b9a5a4	1.3831782e-06
89	0x00000000	0.0
90	0xb6c0cb1d	-5.7456914e-06
91	0xb780fc30	-1.5376223e-05
92	0xb8056415	-3.180288e-05
93	0x00000000	0.0
94	0x3760c0c0	1.33963185e-05
95	0x37164aba	8.958095e-06
96	0xb65be4ca	-3.2766716e-06
97	0x00000000	0.0
98	0x3722498c	9.673076e-06
99	0xb6c9f708	-6.019025e-06
100	0xb65be4ca	-3.2766716e-06
101	0x00000000	0.0
102	0x3722498c	9.673076e-06
103	0xb6c9f708	-6.019025e-06
104	0xb99b6f74	-0.00029646943
105	0x38929157	6.988894e-05
106	0xb70c3330	-8.356568e-06
107	0xba18721e	-0.00058153446
108	0xb846392e	-4.726013e-05
109	0x399a522e	0.00029434398
110	0xb903f139	-0.00012582996
111	0x36c4befe	5.8634896e-06
112	0x325dd0b5	1.29113475e-08
113	0x38143a4c	3.5340243e-05
114	0xb72055e7	-9.556744e-06
115	0x00000000	0.0
116	0xb592e6b6	-1.0944993e-06
117	0x371a765f	9.206676e-06
118	0x34ea4425	4.3635478e-07
119	0x00000000	0.0
120	0x37934611	1.7556393e-05
121	0x3714e818	8.875526e-06
122	0xb73572bf	-1.0815157e-05
123	0x00000000	0.0
124	0x363fa31b	2.8556158e-06
125	0x371ea85c	9.456733e-06
126	0xb628e9ed	-2.5170114e-06
127	0x00000000	0.0
128	0xb70a45a6	-8.241657e-06
129	0xb6ab2442	-5.100418e-06
130	0xb8234a2d	-3.893131e-05
131	0x00000000	0.0
132	0x381cb9ea	3.7366444e-05
133	0x38103575	3.438206e-05
134	0xb7103006	-8.59425e-06
135	0x00000000	0.0
136	0xb5ad8d25	-1.2930583e-06
137	0x3626031d	2.473774e-06
138	0xb7103006	-8.59425e-06
139	0x00000000	0.0
140	0xb5ad8d25	-1.2930583e-06
141	0x3626031d	2.473774e-06
142	0xb939995c	-0.00017700106
143	0x380e69d6	3.3954006e-05
144	0xb91fc4f3	-0.00015236791
145	0x33255c25	3.850086e-08
146	0xb7bc56e0	-2.24518e-05
147	0xb8f0bef9	-0.00011479663
148	0x36e1cf48	6.7296533e-06
149	0xb82fbcb6	-4.1899002e-05
150	0xb2cd9947	-2.3934843e-08
151	0x37fdbb32	3.024712e-05
152	0xb663b91d	-3.3933386e-06
153	0x00000000	0.0
154	0xb5a0151a	-1.192707e-06
155	0x373cf6b1	1.12631105e-05
156	0xb730236f	-1.04986675e-05
157	0x00000000	0.0
158	0x38054183	3.1770684e-05
159	0x37f86a62	2.9613442e-05
160	0xb5d35d8c	-1.5747951e-06
161	0x00000000	0.0
162	0xb58e59a2	-1.0605911e-06
163	0x3763567c	1.3550391e-05
164	0x3710ecc8	8.638199e-06
165	0x00000000	0.0
166	0x3438d67d	1.7214366e-07
167	0x35d530e5	1.5883967e-06
168	0xb809432c	-3.2725904e-05
169	0x00000000	0.0
170	0x382174ea	3.8494276e-05
171	0x38260eb2	3.959117e-05
172	0x35715c5d	8.99139e-07
173	0x00000000	0.0
174	0x37064f15	8.005435e-06
175	0x373fad96	1.1424903e-05
176	0x35715c5d	8.99139e-07
177	0x00000000	0.0
178	0x37064f15	8.005435e-06
179	0x373fad96	1.1424903e-05
180	0xb8d7929f	-0.00010279309
181	0xb82e62b5	-4.157676e-05
182	0xb8cda3f1	-9.805698e-05
183	0x39bde542	0.000362197
184	0x37e5f8e7	2.7414831e-05
185	0xb9d16c52	-0.0003994429
186	0x38c54d52	9.408094e-05
187	0xb75a34ad	-1.3006077e-05
188	0xb3da31be	-1.0160464e-07
189	0x38058039	3.1829088e-05
190	0x3413a638	1.3750912e-07
191	0x00000000	0.0
192	0xb4ad7579	-3.2309234e-07
193	0xb547c99b	-7.442665e-07
194	0xb508534e	-5.078517e-07
195	0x00000000	0.0
196	0x35ada99a	1.2938865e-06
197	0xb61daeb6	-2.3496518e-06
198	0xb689b6de	-4.1042067e-06
199	0x00000000	0.0
200	0x3600e845	1.9208685e-06
201	0xb53bf758	-7.002286e-07
202	0x35851d90	9.917876e-07
203	0x00000000	0.0
204	0xb7919da6	-1.7358758e-05
205	0xb78b0045	-1.6570217e-05
206	0xb7813386	-1.540199e-05
207	0x00000000	0.0
208	0x354971b4	7.5043795e-07
209	0xb40111f8	-1.2020598e-07
210	0xb67c2b21	-3.757603e-06
211	0x00000000	0.0
212	0xb747101a	-1.1865073e-05
213	0xb7390f0f	-1.1030365e-05
214	0xb67c2b21	-3.757603e-06
215	0x00000000	0.0
216	0xb747101a	-1.1865073e-05
217	0xb7390f0f	-1.1030365e-05
218	0xb8e48682	-0.00010896941
219	0x38847798	6.3165266e-05
220	0xb8f99d85	-0.000119025855
221	0xb9a89f51	-0.00032162157
222	0xb8313a15	-4.225418e-05
223	0x39131d5e	0.00014029953
224	0xb752f0d0	-1.2573044e-05
225	0xb780248f	-1.5275813e-05
226	0x338cf50c	6.563832e-08
227	0xb6bb9ea6	-5.5915034e-06
228	0xb6f1054e	-7.1829772e-06
229	0x00000000	0.0
230	0xb507286d	-5.0350246e-07
231	0x37c4ea1f	2.3474042e-05
232	0x370be8f9	8.339289e-06
233	0x00000000	0.0
234	0x37ca992a	2.4151599e-05
235	0x37cd637d	2.4484232e-05
236	0xb5e04633	-1.6709731e-06
237	0x00000000	0.0
238	0x37bf4341	2.2800292e-05
239	0x37fedf09	3.0383018e-05
240	0x3693edd2	4.4086273e-06
241	0x00000000	0.0
242	0x37c9579d	2.4001865e-05
243	0x37bd5e75	2.257454e-05
244	0xb81f9460	-3.804674e-05
245	0x00000000	0.0
246	0x389950eb	7.310681e-05
247	0x388b7c02	6.651135e-05
248	0x36d9c77e	6.490328e-06
249	0x00000000	0.0
250	0xb69487b1	-4.4265403e-06
251	0x37967313	1.7934979e-05
252	0x36d9c77e	6.490328e-06
253	0x00000000	0.0
254	0xb69487b1	-4.4265403e-06
255	0x37967313	1.7934979e-05

exp_avg_sq f4 [128, 38]
0	0x30b106e2	1.2880401e-09
1	0x00000000	0.0
2	0x3081b040	9.436079e-10
3	0x316b2bc5	3.422188e-09
4	0x3091d631	1.0611015e-09
5	0x00000000	0.0
6	0x31914a5c	4.228509e-09
7	0x31dc47d1	6.4110073e-09
8	0x30f8804d	1.808084e-09
9	0x00000000	0.0
10	0x31586fa4	3.1495597e-09
11	0x31a74fe7	4.8694235e-09
12	0x3058d567	7.8883605e-10
13	0x00000000	0.0
14	0x320c9d56	8.184847e-09
15	0x321dfcd9	9.196094e-09
16	0x30c0a7a7	1.4017488e-09
17	0x00000000	0.0
18	0x31aa7e6a	4.962023e-09
19	0x31ee1fcc	6.9303265e-09
20	0x30ee475f	1.7337064e-09
21	0x00000000	0.0
22	0x31a65348	4.840704e-09
23	0x320420f7	7.690907e-09
24	0x30ee475f	1.7337064e-09
25	0x00000000	0.0
26	0x31a65348	4.840704e-09
27	0x320420f7	7.690907e-09
28	0x35bc981d	1.4051362e-06
29	0x345e885b	2.0724967e-07
30	0x34becc34	3.5538835e-07
31	0x35b6e777	1.3627422e-06
32	0x33c66dab	9.240042e-08
33	0x36e6fe5e	6.8841464e-06
34	0x34c53b12	3.673709e-07
35	0x318f8540	4.1769965e-09
36	0x2b539cad	7.517969e-13
37	0x317dd9a9	3.694007e-09
38	0x317f6251	3.716327e-09
39	0x00000000	0.0
40	0x30976d67	1.101779e-09
41	0x31978b80	4.4105377e-09
42	0x30b02d37	1.2818536e-09
43	0x00000000	0.0
44	0x31b59964	5.285232e-09
45	0x323bf7f3	1.094121e-08
46	0x31ba48be	5.4215823e-09
47	0x00000000	0.0
48	0x31b9db84	5.4091647e-09
49	0x3216966a	8.765349e-09
50	0x305c3358	8.01085e-10
51	0x00000000	0.0
52	0x3283e29e	1.535346e-08
53	0x329212c6	1.7005174e-08
54	0x318eeb4c	4.159494e-09
55	0x00000000	0.0
56	0x32827110	1.5185407e-08
57	0x328cb178	1.6378848e-08
58	0x317d9f50	3.6906904e-09
59	0x00000000	0.0
60	0x3212f8e9	8.554914e-09
61	0x328186c4	1.507886e-08
62	0x317d9f50	3.6906904e-09
63	0x00000000	0.0
64	0x3212f8e9	8.554914e-09
65	0x328186c4	1.507886e-08
66	0x36533ba7	3.1476172e-06
67	0x34d3a809	3.9424074e-07
68	0x350ea80f	5.314368e-07
69	0x374495c3	1.17173795e-05
70	0x343d716f	1.7643264e-07
71	0x37108c56	8.615743e-06
72	0x347bfe78	2.3468772e-07
73	0x31ce7e37	6.009738e-09
74	0x2d4c78e8	1.1622904e-11
75	0x3270f2a3	1.4025008e-08
76	0x30790572	9.059341e-10
77	0x00000000	0.0
78	0x30501879	7.5704737e-10
79	0x3163c7f0	3.3146499e-09
80	0x303018e0	6.4063777e-10
81	0x00000000	0.0
82	0x3188f3b1	3.9858254e-09
83	0x31e9b045	6.801232e-09
84	0x30ceaa76	1.5036921e-09
85	0x00000000	0.0
86	0x314e634f	3.0033396e-09
87	0x31b60c14	5.2982703e-09
88	0x3034dd3a	6.5798e-10
89	0x00000000	0.0
90	0x32073b54	7.871524e-09
91	0x3222446b	9.4451975e-09
92	0x30ce5aae	1.5014245e-09
93	0x00000000	0.0
94	0x31e3ab93	6.6260752e-09
95	0x320cc432	8.193682e-09
96	0x311b565c	2.2604558e-09
97	0x00000000	0.0
98	0x3196d303	4.389564e-09
99	0x320877db	7.943494e-09
100	0x311b565c	2.2604558e-09
101	0x00000000	0.0
102	0x3196d303	4.389564e-09
103	0x320877db	7.943494e-09
104	0x35b5ba19	1.3539712e-06
105	0x346ebc5a	2.2233999e-07
106	0x34b95ac3	3.4524973e-07
107	0x36f20214	7.212404e-06
108	0x33d51644	9.9226355e-08
109	0x36d79c4e	6.4256956e-06
110	0x34e9ea7b	4.357024e-07
111	0x3147018b	2.8959188e-09
112	0x2c3a4658	2.6471238e-12
113	0x31b5be80	5.2894507e-09
114	0x3095ad2d	1.0890396e-09
115	0x00000000	0.0
116	0x30216b3f	5.8723865e-10
117	0x314717a8	2.8971758e-09
118	0x30700f9a	8.733366e-10
119	0x00000000	0.0
120	0x3189ca48	4.0102215e-09
121	0x31d59364	6.2158723e-09
122	0x31040432	1.9210913e-09
123	0x00000000	0.0
124	0x3124067a	2.3868822e-09
125	0x318dcca0	4.1269033e-09
126	0x300c15ac	5.09625e-10
127	0x00000000	0.0
128	0x32075f83	7.879751e-09
129	0x321c23a2	9.088497e-09
130	0x30c69307	1.4448184e-09
131	0x00000000	0.0
132	0x319d51dd	4.578608e-09
133	0x31dee234	6.4867667e-09
134	0x30a95b34	1.232229e-09
135	0x00000000	0.0
136	0x31a5f0e7	4.8295195e-09
137	0x320868cd	7.940071e-09
138	0x30a95b34	1.232229e-09
139	0x00000000	0.0
140	0x31a5f0e7	4.8295195e-09
141	0x320868cd	7.940071e-09
142	0x35bacb69	1.391728e-06
143	0x345dc13b	2.0652526e-07
144	0x34a062d7	2.9874238e-07
145	0x36a5f784	4.946198e-06
146	0x33c626f7	9.227181e-08
147	0x36d60697	6.378464e-06
148	0x34f3824b	4.5357078e-07
149	0x317ba301	3.6617964e-09
150	0x2c74466b	3.4713575e-12
151	0x3156fa05	3.1283218e-09
152	0x30168dd0	5.477121e-10
153	0x00000000	0.0
154	0x3037e819	6.6904843e-10
155	0x312153de	2.3476256e-09
156	0x2f9c0525	2.837989e-10
157	0x00000000	0.0
158	0x315607fc	3.1145637e-09
159	0x31895de3	3.9978985e-09
160	0x30a88959	1.2262645e-09
161	0x00000000	0.0
162	0x3126f17a	2.4293443e-09
163	0x31510917	3.041867e-09
164	0x302f78f5	6.383652e-10
165	0x00000000	0.0
166	0x316370b3	3.309691e-09
167	0x3188b31f	3.9784847e-09
168	0x308e6130	1.0359482e-09
169	0x00000000	0.0
170	0x31210db9	2.3436384e-09
171	0x3169a856	3.400165e-09
172	0x30e13ab3	1.6387588e-09
173	0x00000000	0.0
174	0x30e49d73	1.6633933e-09
175	0x314a86f0	2.9471572e-09
176	0x30e13ab3	1.6387588e-09
177	0x00000000	0.0
178	0x30e49d73	1.6633933e-09
179	0x314a86f0	2.9471572e-09
180	0x35221235	6.03762e-07
181	0x33daacae	1.0182826e-07
182	0x34970c01	2.8134676e-07
183	0x362e5dec	2.598269e-06
184	0x33432db7	4.5443553e-08
185	0x36635ed4	3.3880833e-06
186	0x341874da	1.4198613e-07
187	0x3115fc16	2.1825648e-09
188	0x2bd5c69d	1.5189687e-12
189	0x31418a56	2.8163831e-09
190	0x2d5daa8a	1.2600263e-11
191	0x00000000	0.0
192	0x2e36fbfa	4.160581e-11
193	0x2f5fd6fc	2.035811e-10
194	0x2e746e3c	5.5577085e-11
195	0x00000000	0.0
196	0x2f5612c7	1.9469858e-10
197	0x2fe455fd	4.1534057e-10
198	0x2d463c7d	1.1268428e-11
199	0x00000000	0.0
200	0x2f691777	2.1199563e-10
201	0x2fa94c12	3.0794972e-10
202	0x2dac5676	1.9592532e-11
203	0x00000000	0.0
204	0x2f93d53b	2.6890654e-10
205	0x30834960	9.552359e-10
206	0x2f1c68ff	1.422542e-10
207	0x00000000	0.0
208	0x30f79ad8	1.8015625e-09
209	0x30fe9c33	1.8525327e-09
210	0x2fc32d4b	3.5502476e-10
211	0x00000000	0.0
212	0x30f3a296	1.7726787e-09
213	0x3102f4b3	1.9056585e-09
214	0x2fc32d4b	3.5502476e-10
215	0x00000000	0.0
216	0x30f3a296	1.7726787e-09
217	0x3102f4b3	1.9056585e-09
218	0x3586bbfa	1.0038486e-06
219	0x3339e43d	4.328125e-08
220	0x33c02bfc	8.9486974e-08
221	0x35d7f670	1.6090471e-06
222	0x32a65da3	1.9367524e-08
223	0x35a68c59	1.240881e-06
224	0x344c0093	1.899919e-07
225	0x2f2774c6	1.5230048e-10
226	0x290a0807	3.0649118e-14
227	0x2fc8133f	3.6393463e-10
228	0x31378bf3	2.6709557e-09
229	0x00000000	0.0
230	0x3110b110	2.1055406e-09
231	0x320bb07f	8.130995e-09
232	0x30c323c1	1.4198279e-09
233	0x00000000	0.0
234	0x321dc10b	9.182496e-09
235	0x32824264	1.5164183e-08
236	0x31846603	3.853303e-09
237	0x00000000	0.0
238	0x31abf561	5.0046514e-09
239	0x322621e9	9.670182e-09
240	0x307b80aa	9.149611e-10
241	0x00000000	0.0
242	0x328e0bed	1.6536399e-08
243	0x32a84dfd	1.9593239e-08
244	0x313e732a	2.7714102e-09
245	0x00000000	0.0
246	0x31fe8815	7.4078437e-09
247	0x324f4b28	1.2066074e-08
248	0x310321ee	1.9082296e-09
249	0x00000000	0.0
250	0x31badc5a	5.4383635e-09
251	0x3278a8fd	1.4473923e-08
252	0x310321ee	1.9082296e-09
253	0x00000000	0.0
254	0x31badc5a	5.4383635e-09
255	0x3278a8fd	1.4473923e-08
