3DPlayground/results/Test33/MoveToGoal/MoveToGoal-90826.pt (torch, 864329 bytes, 42 tensors)

network_body._body_endoder.seq_layers.0.weight f4 [128, 140]
0	0x3dbd5c96	0.09246175
1	0x3c9213fe	0.017831799
2	0x3daa23fa	0.08307643
3	0x3c8e215a	0.017349888
4	0x3ddbb6cd	0.10728226
5	0xbe4ed70c	-0.20199221
6	0x3cfcae7a	0.030844916
7	0xbe62e613	-0.22158079
8	0xbdbfdaa8	-0.09367877
9	0x3e648283	0.22315411
10	0xbdcaa81a	-0.09895344
11	0xbddce96c	-0.10786709
12	0xbca8403e	-0.020538446
13	0xbdc1cd71	-0.09463013
14	0x3d314f29	0.043288384
15	0xbe3adc57	-0.18248115
16	0xbc203599	-0.009778404
17	0xbd7f229b	-0.06228886
18	0x3cf5c5ed	0.030001605
19	0x3dc35641	0.09537936
20	0xbc753da9	-0.014968314
21	0xbe2fe552	-0.17177323
22	0x3dbb25ed	0.09138093
23	0xbd07c61a	-0.03314791
24	0xbe23612f	-0.15955041
25	0x3e337606	0.17525491
26	0xbd444099	-0.047913168
27	0x3d98f5b4	0.07468739
28	0x3c356a55	0.011072715
29	0xbdd1c35f	-0.10242342
30	0x3da5b7be	0.08091687
31	0xbc941571	-0.01807663
32	0x3d702b07	0.058634784
33	0xbe5ae6c8	-0.21377099
34	0xbd2a852d	-0.041630913
35	0xbcad0fba	-0.021125663
36	0xbcf6a119	-0.030106114
37	0x3d7a49d6	0.06110557
38	0xbe58dea3	-0.21178679
39	0xbdb35e5b	-0.08758231
40	0xbdc97be2	-0.09838082
41	0xbd4d19b7	-0.05007335
42	0xbdcba2ca	-0.09943159
43	0x3ba9fc72	0.0051875645
44	0xbd96c233	-0.07361259
45	0x3e0c8169	0.13721241
46	0x3dcc0672	0.09962167
47	0xbe1e79c1	-0.15476133
48	0xbd8abcbe	-0.06774281
49	0x3d120c69	0.035656366
50	0xbd8ba6e8	-0.06818944
51	0xbd7fd710	-0.06246096
52	0xbe2459be	-0.16049859
53	0x3c83296a	0.016010959
54	0xbcf6993d	-0.030102367
55	0xbd59f75d	-0.05321442
56	0x3d1c6545	0.038182516
57	0x3df24565	0.11829642
58	0x3d7ab085	0.0612035
59	0x3dbdfdc8	0.092769206
60	0xbd08c2db	-0.033388954
61	0xbd307035	-0.04307576
62	0x3cd6f6a8	0.026240662
63	0x3d576165	0.052583117
64	0x3da2d2dc	0.079503745
65	0x3ce79060	0.028267086
66	0x3d0dd832	0.034630008
67	0xbd68c3cf	-0.056827363
68	0xbd65964e	-0.056051545
69	0x3d3867e7	0.045020964
70	0xbd3a289b	-0.04544888
71	0x3c8c5ee9	0.0171351
72	0x3e14ad80	0.1451931
73	0x3dad4507	0.084604315
74	0x3da1d5ba	0.07902093
75	0x3df51960	0.119677305
76	0x3db6ac8b	0.08919629
77	0x3dda26fc	0.10651967
78	0xbd3a02b4	-0.045412734
79	0xbd64eaba	-0.055887915
80	0x3e227f69	0.15868916
81	0xbd89b3ae	-0.06723724
82	0x3de0c362	0.10974766
83	0xbd20431f	-0.03912651
84	0x3d8be195	0.06830136
85	0xbdf59465	-0.11991195
86	0xbdde8e8c	-0.108670324
87	0x3da81032	0.08206214
88	0x3d79b747	0.060965803
89	0xbd8100ef	-0.06299006
90	0xbe096786	-0.13418397
91	0xbd6594b6	-0.056050025
92	0xbcf68da8	-0.030096844
93	0xbdfdff95	-0.12402264
94	0xbd785774	-0.060630277
95	0x3d960de7	0.073268704
96	0x3d430a59	0.04761729
97	0xbdce64a6	-0.10077791
98	0x3ca504dd	0.02014392
99	0xbd835f84	-0.064147025
100	0x3e2fe4db	0.17177145
101	0xbd80c9d5	-0.062884964
102	0xbdd6ffac	-0.10497984
103	0xbcadbcf4	-0.021208264
104	0xbdbda538	-0.092600286
105	0xbc8dbacc	-0.017300986
106	0x3db185a1	0.08668066
107	0x3db5e5b9	0.08881707
108	0xbd94154d	-0.07230625
109	0xbc758f8c	-0.0149878375
110	0xbd173b6c	-0.036921903
111	0xbcad009b	-0.021118453
112	0x3e38e379	0.18055524
113	0xbd0731a6	-0.033006333
114	0xbe16ae94	-0.14715034
115	0xbdc81062	-0.0976875
116	0x3d94ba7f	0.07262134
117	0xbd8c36bc	-0.06846377
118	0x3cefded0	0.02928105
119	0x3dfac46d	0.122444965
120	0xbe072ab5	-0.13199885
121	0xbe14b67d	-0.14522739
122	0x3a5afd3f	0.00083537766
123	0x3db45055	0.088043846
124	0xbd736999	-0.059426878
125	0x3cd455d2	0.025919829
126	0x3d9db5bc	0.07700679
127	0x3df14f2b	0.11782678
128	0x3da94573	0.082651995
129	0xbdfe321a	-0.124119
130	0xbd511fca	-0.051055707
131	0xbd3793fd	-0.044818867
132	0x3d26d3df	0.0407294
133	0xba9b0e6e	-0.0011829862
134	0x3dcfb8eb	0.10142692
135	0x3d837a5f	0.06419825
136	0x3e3e1a4e	0.18564722
137	0xbd5aea90	-0.053446352
138	0xbcea949d	-0.028635317
139	0xbd4b150b	-0.049580615
140	0xbe16973f	-0.14706133
141	0xbe13b62d	-0.14424963
142	0xbcb04e0f	-0.021521596
143	0xbc9510b8	-0.018196449
144	0x3dca0ce9	0.09865744
145	0x3e0a89e8	0.1352917
146	0xbd0948e5	-0.033516783
147	0x3e073998	0.13205564
148	0xbe0f1934	-0.13974458
149	0x3b88df9c	0.004177047
150	0xbc3ee08a	-0.011650214
151	0xbd54af93	-0.051925253
152	0xbe227421	-0.15864612
153	0x3d4aad08	0.04948142
154	0xbcf8f770	-0.030391425
155	0x3d7ba075	0.06143232
156	0x3b4ebb6c	0.0031544818
157	0x3d0ebdcc	0.034848973
158	0xbd952adf	-0.07283568
159	0x3e3a0ad3	0.18168192
160	0xb9e92760	-0.0004447056
161	0x3a1282d5	0.00055889535
162	0xbc78235a	-0.015145147
163	0xbdd3b2ec	-0.10336861
164	0x3e062773	0.13100986
165	0x3cbd19b2	0.023083542
166	0xbcbf93b9	-0.02338587
167	0x3c0def87	0.008663065
168	0x3dddef64	0.10836676
169	0xbd271999	-0.040795896
170	0x3d2b9b1f	0.041895982
171	0x3e6a262e	0.22866127
172	0x3e3c7547	0.18404113
173	0x3d808adb	0.062764846
174	0x3d6192eb	0.055071753
175	0x3dd44e65	0.10366515
176	0xbe0bdc50	-0.13658261
177	0x3c80d812	0.01572803
178	0x3ccd4938	0.025059327
179	0x3da16775	0.07881061
180	0x3dbf6018	0.093445
181	0xbc121044	-0.008915011
182	0x3d71139c	0.05885659
183	0x3d736b24	0.05942835
184	0x3cb9967f	0.02265477
185	0x3d2d329a	0.042284586
186	0xbc897a49	-0.016781943
187	0x3c761a44	0.015020911
188	0xbca0b692	-0.019618306
189	0x3d373d3c	0.044736132
190	0x3d7c4bd0	0.061595738
191	0xbd96f1dc	-0.0737035
192	0xbdf1b638	-0.118023336
193	0xbdc83479	-0.09775633
194	0xbc091ce9	-0.008368709
195	0x3d38049e	0.04492628
196	0x3ceb2318	0.028703257
197	0x3d13577d	0.035972107
198	0xbd1d5dff	-0.03841972
199	0x3cdc7070	0.026909083
200	0x3d5c8167	0.053834345
201	0xbcf385d8	-0.029726908
202	0xbc58a829	-0.013223686
203	0xbd610b9c	-0.054942712
204	0xbc92be07	-0.017912878
205	0x3e1c6dac	0.15276212
206	0x3e074da4	0.13213211
207	0xbe5c9e0b	-0.21544664
208	0x3dc26219	0.09491367
209	0x3e1d3e84	0.15355879
210	0xbe427599	-0.18990172
211	0xbd9553bb	-0.07291361
212	0xbdb2be38	-0.087276876
213	0xbd401c1e	-0.046901815
214	0xbd914d53	-0.070948265
215	0xbd5a1a0b	-0.053247493
216	0x3e64b44d	0.22334404
217	0xbe0fbf98	-0.14037931
218	0x3d0bb25a	0.034105636
219	0x3d42d8b4	0.047569945
220	0xbcd75c7d	-0.026289219
221	0x3dcadc91	0.09905351
222	0x3dce37c6	0.10069232
223	0xbdcba16f	-0.099429004
224	0xbd8e893c	-0.06959769
225	0xbd90736c	-0.07053265
226	0x3dfdf52a	0.12400277
227	0x3d4718f5	0.048607785
228	0x3c86735c	0.01641243
229	0x3da1c9eb	0.07899841
230	0xbdf10d21	-0.11770082
231	0x3d9e6942	0.0773492
232	0xbe01981f	-0.12655686
233	0xbdb02cc5	-0.08602289
234	0xbda82e20	-0.08211923
235	0xbd9d8e00	-0.076931
236	0x3d115c40	0.035488367
237	0x3be4845f	0.0069737877
238	0x3de170d7	0.110078506
239	0xbe7a8916	-0.24466357
240	0x3d2560cc	0.040375516
241	0xbe0b96c6	-0.13631734
242	0xbda9aafb	-0.08284565
243	0x3daa1df8	0.08306497
244	0xbd98a284	-0.074528724
245	0x3db4e096	0.08831899
246	0xbc9edede	-0.01939338
247	0x3dc0f46e	0.09421621
248	0x3d087ac3	0.0333202
249	0x3d9ff6cd	0.078107454
250	0xbdfe2534	-0.1240944
251	0x3db627fe	0.08894347
252	0xbdac7a63	-0.08421781
253	0x3df6613a	0.12030263
254	0xbe0e5746	-0.1390048
255	0xbcfde720	-0.030993998

network_body._body_endoder.seq_layers.0.bias f4 [128]
0	0x3b70e8bc	0.0036759814
1	0xba82e727	-0.0009987102
2	0xbb47f769	-0.0030512458
3	0x38202030	3.817695e-05
4	0x3afefa62	0.0019453282
5	0xba295c80	-0.0006460622
6	0x3b339113	0.0027399703
7	0xbb66d757	-0.0035223567
8	0xbae737dd	-0.001764055
9	0x3a5a765c	0.0008333677
10	0x3a3f8560	0.0007305946
11	0xbb8ca6c1	-0.0042923396
12	0x3b33372d	0.002734612
13	0x3b53a812	0.0032296223
14	0xbc284445	-0.010270183
15	0xbbb3a998	-0.0054828636
16	0xbc12ba37	-0.00895553
17	0xbb41d499	-0.002957618
18	0x3b5ba5e8	0.0033515636
19	0xbba228cf	-0.0049487124
20	0xbaf02cb4	-0.001832387
21	0x3b9f1b39	0.00485554
22	0xbbbf7bd8	-0.0058436207
23	0xbbf71db2	-0.0075413818
24	0x3a874d73	0.0010322764
25	0xbb17d205	-0.0023165953
26	0xbb090fa9	-0.0020913875
27	0xb86a91d1	-5.592575e-05
28	0xbb865be0	-0.004100308
29	0xbab50b15	-0.0013812507
30	0x3b6b0282	0.003585965
31	0x3ba3518f	0.004984088
32	0xba64160b	-0.00087007944
33	0x3b970290	0.00460846
34	0xbbbe7e91	-0.0058134277
35	0xb92575f4	-0.00015779567
36	0xbc00a3f9	-0.007851594
37	0xbc2138d1	-0.009840206
38	0xbc01fc9d	-0.007933763
39	0x3ba06350	0.0048946515
40	0x3c3dcdf6	0.011584749
41	0x3baf6daf	0.0053536515
42	0xbb2d1aaf	-0.002641361
43	0x384d8ca1	4.900678e-05
44	0x3b15ad57	0.0022838914
45	0xbc08a1d5	-0.008339365
46	0xbbe3254d	-0.006931937
47	0xbb16029d	-0.0022889741
48	0x3b4173e6	0.0029518544
49	0x3bbb98d1	0.0057250042
50	0x3ad6a597	0.0016376254
51	0xba981ac3	-0.0011604655
52	0xba167cfc	-0.000574067
53	0xbb77c670	-0.0037807487
54	0xba61fbb4	-0.00086205755
55	0x3b225d80	0.0024774969
56	0xbb16495d	-0.0022931912
57	0xbb43ed7d	-0.0029896193
58	0xbbe99e47	-0.007129464
59	0xbba1add3	-0.0049340515
60	0xbbfac10d	-0.007652408
61	0x3b3a2916	0.0028405837
62	0xbc2954db	-0.0103351725
63	0x3bddf23c	0.0067732614
64	0x39cbb74a	0.00038855738
65	0xbb0e2878	-0.0021691602
66	0xbbdd2a9f	-0.0067494656
67	0x3a2acbbe	0.00065153453
68	0x3be8ca91	0.007104226
69	0x39ae2f3b	0.00033223056
70	0x3bb9a22e	0.0056650853
71	0xbb79ffc0	-0.0038146824
72	0xbb06f23a	-0.0020591156
73	0xbbaa6de4	-0.0052010883
74	0xbba08d2e	-0.0048996424
75	0xbb0c7e33	-0.0021437525
76	0x39cea30e	0.00039412867
77	0x39315ee5	0.00016915386
78	0x3b800cf0	0.0039077923
79	0x3abfe0a4	0.0014639092
80	0xbbf06a78	-0.007336911
81	0x39ac2ce8	0.00032839854
82	0xbb5e28d2	-0.0033898843
83	0x3c035579	0.008015984
84	0xb9f6c1f4	-0.00047065283
85	0xbb2dd4a1	-0.0026524442
86	0xbb02dccd	-0.0019968033
87	0x3b59f360	0.0033256635
88	0x39ee592f	0.00045461344
89	0xbb997601	-0.0046832566
90	0xbbc0c14d	-0.0058824182
91	0xbc91d251	-0.017800482
92	0xbb930fb7	-0.0044879573
93	0xbbc007ac	-0.0058602896
94	0x3b95cb59	0.00457136
95	0xba4a4cfa	-0.0007717159
96	0xbbdbc707	-0.0067070755
97	0xbbc6fcd2	-0.006072619
98	0x3b9e1c11	0.004825123
99	0xbbf10f67	-0.0073565724
100	0xbb91f0d7	-0.004453759
101	0xbae00280	-0.0017090589
102	0x3ac6850c	0.0015145852
103	0xbabc4cd5	-0.001436616
104	0x3ba35cfc	0.00498545
105	0x3b5930dd	0.0033140697
106	0x39a0875f	0.00030618437
107	0x3b0181a4	0.001976111
108	0xbbd20cbf	-0.006410211
109	0x3b4677d7	0.0030283832
110	0xbb766349	-0.00375958
111	0xba0a3e64	-0.0005273579
112	0x3c1da76b	0.009622435
113	0x39c4a3fa	0.00037506205
114	0x3bf83a58	0.0075753145
115	0xba22f571	-0.0006216383
116	0xbc0cf60a	-0.008603582
117	0x3afeec2e	0.0019449049
118	0xbb7ab3b4	-0.0038254084
119	0x3894b042	7.0900205e-05
120	0x3bef3c32	0.007300877
121	0x3c8adcc8	0.01695098
122	0x3bc360b3	0.005962455
123	0xbbc5527c	-0.006021796
124	0xbb637bca	-0.0034711235
125	0x3a8d1dbf	0.0010766311
126	0x3c03cedc	0.008044925
127	0x3c07041d	0.008240727

network_body._body_endoder.seq_layers.2.weight f4 [128, 128]
0	0x3e10fc07	0.14158641
1	0x3cfcd483	0.030863052
2	0xbcdaa263	-0.02668876
3	0xbd484c4d	-0.04890089
4	0xbd7a8790	-0.06116444
5	0x3b81a2e2	0.0039561847
6	0x3c51b121	0.0127985785
7	0xbdd35f2d	-0.10320888
8	0xbcfa7f98	-0.03057842
9	0x3e090365	0.13380201
10	0xbdf1020a	-0.11767967
11	0x3d44b8f7	0.04802796
12	0xbc4e3159	-0.012585008
13	0xbe0f2240	-0.13977909
14	0xbda69137	-0.08133166
15	0xbdfcdb3a	-0.12346502
16	0x3c46b477	0.012127987
17	0xbd9c8e6c	-0.07644352
18	0x3be88ecd	0.0070971013
19	0xbe1068ba	-0.1410245
20	0x3dc0d202	0.09415056
21	0xbdad6ced	-0.084680416
22	0xbdc72f23	-0.097257875
23	0x3db17003	0.08663943
24	0xbda239f8	-0.07921213
25	0xba642c6b	-0.00087041286
26	0xbdc4bebd	-0.09606693
27	0x3b6e53a5	0.0036365774
28	0xbd0dbff5	-0.034606893
29	0x3d0821ca	0.03323535
30	0xbd2b0483	-0.04175235
31	0x3dc12604	0.09431079
32	0xbc62fa93	-0.013853687
33	0x3d32538a	0.0435367
34	0x3d9e3623	0.077251695
35	0xbc90a2ec	-0.017655812
36	0x3d63b134	0.055588916
37	0xbbd2afaf	-0.0064296345
38	0x3c3aad50	0.01139386
39	0xbc3e4d87	-0.011615164
40	0x3e120f55	0.14263661
41	0xbd1bfc36	-0.038082324
42	0x3deafc1e	0.11473869
43	0x3e1ab89c	0.15109485
44	0x3e00d0e3	0.12579684
45	0xbd367f65	-0.044555087
46	0x3e324845	0.17410381
47	0xbd6576ad	-0.05602138
48	0xbe0bf07c	-0.13665956
49	0x3cd9afb3	0.026573038
50	0x3d9de98f	0.077105634
51	0xbbf7e628	-0.0075652786
52	0x3e7f0912	0.24905804
53	0xbdb13c0f	-0.086540334
54	0x3d339a9b	0.043848615
55	0xbc9f3d18	-0.019438311
56	0x3dce7e9c	0.100827426
57	0x3d5a1b57	0.05324873
58	0xbd4197d0	-0.04726392
59	0xbd2d24dd	-0.042271484
60	0xbc0e7b5a	-0.0086964015
61	0xbcc97763	-0.02459306
62	0x3e21a52d	0.15785666
63	0x3cfa61f2	0.030564282
64	0xbd4676a7	-0.048453
65	0x3cf32542	0.029680852
66	0x3cad2cdc	0.021139555
67	0xbc89ec68	-0.01683636
68	0x3c448631	0.011994884
69	0xbe011b6b	-0.12608115
70	0x3d3fb33a	0.046801783
71	0x3d9555dd	0.07291768
72	0xbd939298	-0.07205695
73	0x3ce69bfa	0.028150547
74	0x3cf33ef1	0.029693099
75	0xbc9f98cb	-0.019482037
76	0xbe13d9f8	-0.14438617
77	0x3dcc03cd	0.099616624
78	0x3e24b556	0.16084799
79	0xbd512e8d	-0.051069785
80	0xbd993494	-0.074807316
81	0xbda983d8	-0.082771
82	0x3d2525bd	0.040319193
83	0x3d2c148c	0.042011783
84	0xbdf9a660	-0.12189937
85	0x3ca04737	0.019565208
86	0xbc1141ae	-0.008865757
87	0xbd06eb98	-0.032939523
88	0x3e86706b	0.26257643
89	0x3dbc9f03	0.092100166
90	0x3cd6b080	0.026207209
91	0xbe31a061	-0.17346336
92	0xbc3baf1f	-0.011455326
93	0xbd9ba289	-0.075993605
94	0x3d104201	0.035219196
95	0x3ccc8269	0.024964528
96	0x3d725aa9	0.05916849
97	0x3dced777	0.100996904
98	0x3e714e2c	0.23564976
99	0x3d40b838	0.047050685
100	0xbbc2930a	-0.0059379386
101	0xbbeecdbd	-0.0072877095
102	0xbcf1eee7	-0.029532863
103	0x3daa2e1a	0.083095744
104	0xbdcbe9ad	-0.099566795
105	0xbd76162c	-0.06007974
106	0xbdff3868	-0.124619305
107	0x3d4c66ef	0.049902853
108	0xbdab0df8	-0.08352274
109	0xbce03003	-0.027366644
110	0xbc8e26fb	-0.017352572
111	0xbd88ab2b	-0.06673273
112	0xbd3aca58	-0.045603126
113	0x3a18f981	0.0005835519
114	0xbd569b82	-0.052394398
115	0xbca129ae	-0.019673195
116	0x3d5d7461	0.054066066
117	0xbe002e49	-0.12517656
118	0x3e0490ca	0.12945858
119	0x3d26842b	0.04065339
120	0xbcfd3ab6	-0.030911785
121	0xbd6216a7	-0.055197384
122	0xbdf30f4b	-0.11868151
123	0xbe27f550	-0.16402173
124	0xbdf27663	-0.11838987
125	0x3e0be663	0.13662104
126	0xbdd55dcf	-0.10418283
127	0x3d262693	0.04056413
128	0xbd2ef1ae	-0.042710952
129	0x3dc55bdf	0.09636664
130	0x3cd5ff98	0.026122853
131	0x3b428d89	0.0029686412
132	0xbe085cc7	-0.13316642
133	0xbd4ad346	-0.049517892
134	0x3e0bad6d	0.13640375
135	0xbc368bc3	-0.01114172
136	0xbe087653	-0.13326387
137	0x3cdd0c0a	0.02698328
138	0x3cd39ced	0.025831664
139	0x3e578b9c	0.2104935
140	0xbdaeabea	-0.08528884
141	0x3c718f82	0.014743688
142	0x3dd9355a	0.10605879
143	0x3d8d75b1	0.069072135
144	0x3e395775	0.18099768
145	0xbd0072af	-0.03135937
146	0x3df2473c	0.11829993
147	0xbcac5d15	-0.021040479
148	0xbc687f6b	-0.014190535
149	0xbda7c289	-0.081914015
150	0xbe0443e5	-0.12916525
151	0x3dc720b2	0.09723033
152	0x3e2fa317	0.17152058
153	0x3db7f0bb	0.089814626
154	0xbca3717f	-0.01995158
155	0x3baf7d2d	0.0053554983
156	0x3c7604b4	0.01501577
157	0x3d4c99f6	0.049951516
158	0xba5f2cc2	-0.00085134443
159	0x3dc8f57f	0.0981245
160	0x3bf4a4b3	0.0074659227
161	0x3d8bfbb6	0.068351194
162	0xbdf9a47c	-0.12189576
163	0xbd973065	-0.073822774
164	0x3d928591	0.07154382
165	0xbe5f856c	-0.2182824
166	0xbc2f8bf2	-0.010714518
167	0xbcd579e6	-0.026059102
168	0x3cab3aed	0.020902121
169	0xbc41ceb7	-0.01182907
170	0xbcf06353	-0.029344236
171	0x3d7401aa	0.0595719
172	0x3cf13302	0.029443268
173	0xbd4194b7	-0.047260966
174	0xbd616b0d	-0.055033732
175	0x3bbc287f	0.005742132
176	0x3ccfb0b4	0.025352813
177	0xbd3b0ad6	-0.04566463
178	0x3c965837	0.018352611
179	0x3d170f17	0.036879625
180	0xbd9cd04c	-0.07656917
181	0xbdfb90f9	-0.12283511
182	0x3d1f6317	0.03891286
183	0xbcaff8b6	-0.0214809
184	0x3d4bfec1	0.0498035
185	0x3e0def80	0.13860893
186	0x3de61974	0.112353235
187	0x3d8ee737	0.069776945
188	0xbbe3fd86	-0.0069577126
189	0xbe2a74d8	-0.16646135
190	0xbdd9b6fa	-0.10630603
191	0xbe0cc8ad	-0.13748427
192	0xbe8fc264	-0.28077996
193	0xbcc7ad8d	-0.024374748
194	0xbdc730f8	-0.09726137
195	0x3d419c30	0.047268093
196	0x3d722b3a	0.059123255
197	0x3d7d7321	0.061877374
198	0xbc225d31	-0.009909914
199	0x3d8810c9	0.066438265
200	0xbcbfbaca	-0.023404498
201	0x3c8016b4	0.015635826
202	0x3d7b1ce9	0.061306868
203	0xbe26a8ea	-0.16275373
204	0xbdc51ea3	-0.09624984
205	0xbd69edc9	-0.057111535
206	0x3d246eb8	0.040144652
207	0x3d524e7d	0.051344384
208	0xbcbf375d	-0.023341829
209	0xbd56f8ee	-0.05248349
210	0xbe34c759	-0.1765417
211	0xbd99aaab	-0.075032555
212	0xbd77f955	-0.060540516
213	0x3e2cf6b7	0.16890989
214	0xbd30871a	-0.043097593
215	0xbe2bf90a	-0.1679422
216	0xbd2d53f2	-0.042316385
217	0xbe1edbb9	-0.15513505
218	0xbcc77b8c	-0.024350904
219	0xbd28b9b2	-0.041192718
220	0xbdd54cba	-0.10415025
221	0xbd2b4291	-0.04181153
222	0xbd9720f4	-0.07379332
223	0x3d863747	0.06553512
224	0x3de59da8	0.11211711
225	0x3cba5fd6	0.022750776
226	0xbda8d646	-0.082439944
227	0x3d1f4e41	0.038892988
228	0xbd2d687d	-0.042335976
229	0x3d69652c	0.05698125
230	0xbe08a26d	-0.1334321
231	0x3d6414bb	0.055683833
232	0x3e09d5d2	0.13460472
233	0x3c984c41	0.018591048
234	0xbdc43f44	-0.095823795
235	0x3bc6e8e3	0.0060702427
236	0xbd9b247c	-0.07575318
237	0x3d8d5010	0.06900036
238	0xbcd807a8	-0.026370838
239	0xbdd1d33d	-0.10245369
240	0x3d8c3073	0.068451785
241	0xbd4c6237	-0.049898352
242	0xbdb78507	-0.0896092
243	0xbda135f5	-0.078716196
244	0xbdaac16c	-0.083376735
245	0x3e37bd64	0.1794334
246	0xbd82577f	-0.06364345
247	0xbd0a288e	-0.033730082
248	0x3d81b8de	0.06334089
249	0xbdfd64ad	-0.12372718
250	0xbb0973dd	-0.00209736
251	0x3e167e4c	0.14696616
252	0xbcf49eab	-0.029860815
253	0xbd74c56a	-0.05975858
254	0x3dae0aea	0.084981754
255	0x3dc14799	0.09437484

network_body._body_endoder.seq_layers.2.bias f4 [128]
0	0xbab6ce1f	-0.0013946927
1	0x3a81a97d	0.000989243
2	0x3ba6d00b	0.0050907186
3	0xbb5c84ba	-0.0033648447
4	0x3a997a9f	0.0011709518
5	0x3b82c9ab	0.003991326
6	0x3aea9a80	0.0017898828
7	0xbbcb2c10	-0.006200321
8	0xba8ca79f	-0.0010731107
9	0x3a4ec855	0.0007888128
10	0x3a12b53f	0.0005596466
11	0xbbe2b4e2	-0.0069185356
12	0xbc0083b3	-0.0078439
13	0xbae588e5	-0.0017512111
14	0xbbd211de	-0.0064108213
15	0x3b01f859	0.0019831865
16	0xbbe563f9	-0.007000443
17	0x3b58641b	0.0033018652
18	0x3c19dc24	0.0093908645
19	0xba753beb	-0.0009354937
20	0xbad7525a	-0.0016427741
21	0xbb3cfddd	-0.0028837838
22	0xbc1862f8	-0.00930094
23	0xbb86515b	-0.004099054
24	0x3bbbe060	0.0057335347
25	0xbb33073f	-0.0027317551
26	0xba8d5800	-0.0010783672
27	0x3a10bcb3	0.00055212824
28	0x3a0624fd	0.0005117206
29	0xbae659cf	-0.0017574372
30	0x3b002199	0.0019551276
31	0x3c5def9a	0.013545895
32	0x3b25ea3a	0.0025316612
33	0x3bda53c0	0.006662816
34	0x3a5aca85	0.0008346218
35	0xb9d96abd	-0.00041468992
36	0x3baf951e	0.0053583523
37	0x3b4feb54	0.003172596
38	0x3b4c5808	0.00311804
39	0xbb742523	-0.003725358
40	0xbb165948	-0.00229414
41	0xbb9c223b	-0.004764823
42	0x3b23bc57	0.0024984085
43	0x3ba6983d	0.005084066
44	0xbb96d71a	-0.004603279
45	0xbbcdacb4	-0.0062766913
46	0x3ad465ac	0.0016204617
47	0xbbdcc919	-0.00673784
48	0x3c20dfe0	0.009819001
49	0xbb6cb220	-0.0036116913
50	0x3b0c3d93	0.0021399006
51	0x3bcf25c1	0.0063216393
52	0xbb6fef12	-0.0036611003
53	0x3c0b4573	0.008500445
54	0xbb1889bc	-0.0023275455
55	0xbba583ff	-0.0050511356
56	0x3b76ae11	0.0037640373
57	0x3b0ed25e	0.002179287
58	0xbb4766ce	-0.0030426267
59	0x3b36f77a	0.0027918504
60	0xba444d83	-0.0007488357
61	0xbc06212b	-0.008186619
62	0x3a882aa2	0.0010388682
63	0xbb1299ec	-0.0022369577
64	0x3b871927	0.0041228714
65	0x3c06435b	0.00819477
66	0xbb2c34a9	-0.0026276505
67	0x3b49ee4d	0.0030812204
68	0x3b73af77	0.0037183443
69	0x3b9285c2	0.0044715116
70	0x399a7bed	0.000294655
71	0xbb99da92	-0.004695245
72	0xbbbcadc1	-0.005758018
73	0xbb1b9391	-0.002373908
74	0xbc4bb689	-0.0124336565
75	0xba536073	-0.0008063383
76	0x3bde7057	0.0067882943
77	0x3bdf0615	0.006806145
78	0x3b1dc314	0.0024072574
79	0xbb6fb7d4	-0.0036578076
80	0xbb93736d	-0.004499844
81	0x3a5d3188	0.00084378617
82	0xbb198160	-0.002342306
83	0xbb1e2a2b	-0.002413402
84	0xbba3eee0	-0.0050028414
85	0x3b956763	0.004559444
86	0x3b221101	0.0024729373
87	0xbc0eef99	-0.008724117
88	0xbbbb3657	-0.005713265
89	0xbb00a307	-0.0019628422
90	0x3c329ee1	0.0109021375
91	0xbaae1e2e	-0.0013284141
92	0xbbe855f4	-0.0070903245
93	0xbb2e5167	-0.0026598813
94	0xbb10fa40	-0.0022121817
95	0x3abb407e	0.0014286188
96	0xbb314394	-0.0027048336
97	0xbb4ed2cc	-0.003155875
98	0xbb89b048	-0.0042019226
99	0x3bc941e0	0.006141886
100	0xbbaf1826	-0.005343455
101	0xbc02dcb6	-0.007987192
102	0x3b4ec29f	0.0031549109
103	0x3ae1578a	0.0017192226
104	0x3b9bab8c	0.0047506746
105	0x3b88f753	0.004179874
106	0xba55df8f	-0.0008158618
107	0x3b8b57d5	0.0042524138
108	0x3b9e837d	0.004837452
109	0x3a1249ff	0.0005580484
110	0x3bbc83f2	0.005753034
111	0x3bd6a2ab	0.0065501533
112	0x3be97000	0.007123947
113	0xbbf27cc0	-0.0074001253
114	0x3bbe8201	0.0058138375
115	0x3be35769	0.0069379103
116	0xbbb346ba	-0.0054710777
117	0xba11738e	-0.000554853
118	0xbb2931b3	-0.0025816977
119	0xbbe846cc	-0.007088518
120	0xbb43857d	-0.0029834204
121	0xbb61ac52	-0.0034434986
122	0xbbc1ef25	-0.005918401
123	0xbc11248b	-0.00885881
124	0x3aa20bcd	0.0012363136
125	0xbb92c0e2	-0.00447856
126	0xbbe8674b	-0.0070923916
127	0xbc0af124	-0.008480344

action_model._continuous_distribution.log_sigma f4 [1, 2]
0	0x3ba09c38	0.004901435
1	0x3c938201	0.018006327

action_model._continuous_distribution.mu.weight f4 [2, 128]
0	0xbbc0809d	-0.005874707
1	0x3c0c7c92	0.008574622
2	0x3cb3180b	0.02186205
3	0x3c3edb52	0.01164897
4	0xbccd6a0a	-0.025074977
5	0x3ccce4a1	0.025011363
6	0xba0fc2cf	-0.0005484046
7	0xbd08cc3c	-0.033397898
8	0xbaad87ce	-0.0013239325
9	0x3c2208e1	0.009889812
10	0x3bf2f10d	0.0074139894
11	0xbc2a6cb3	-0.0104018925
12	0xbb77630c	-0.0037748246
13	0x3bd9f147	0.006651077
14	0x3a49efca	0.0007703273
15	0xbc736ed3	-0.0148579655
16	0x3b87ad19	0.004140508
17	0x3d0848d1	0.033272568
18	0xba0e3a22	-0.00054255326
19	0x3b479235	0.0030452136
20	0xbc25e760	-0.010125965
21	0x3b578e6e	0.0032891291
22	0xbccb62ce	-0.024827387
23	0x3bce062f	0.0062873582
24	0x3ce574e0	0.028009832
25	0xbc5c55ca	-0.013448188
26	0xbb68b330	-0.0035507195
27	0x3aaad348	0.0013032937
28	0xbc0d0d16	-0.008609077
29	0x3c41e0db	0.011833395
30	0xbc501ca2	-0.012702139
31	0x3c367351	0.011135892
32	0xbbf112df	-0.007356986
33	0x3c0f1c54	0.008734781
34	0xbcda71f8	-0.026665673
35	0xbcc8870f	-0.024478463
36	0xbb85e425	-0.004086035
37	0xbc6db3d2	-0.014508205
38	0x3cd0c982	0.025486711
39	0xbd2656d4	-0.04061015
40	0x3abaee3f	0.0014261677
41	0xbcddaabc	-0.027058952
42	0x3d1b9970	0.037988126
43	0x3c87bb8d	0.016568923
44	0xbb97a282	-0.0046275267
45	0xbc645384	-0.013935927
46	0x3cd4f7b0	0.025997013
47	0xbb992260	-0.0046732873
48	0x3d0a7bd2	0.03380949
49	0xbc379384	-0.011204604
50	0x3bcac1df	0.006187662
51	0xbb355e89	-0.0027674756
52	0x3c5a7ac3	0.013334933
53	0x3bbd8723	0.005783932
54	0xbc542697	-0.012948654
55	0xbd164877	-0.0366902
56	0x3bd6b7cf	0.0065526734
57	0x3ca8cda5	0.020605871
58	0xbbb61986	-0.005557242
59	0x3c5d81bc	0.013519701
60	0x3d5cbfb6	0.053893767
61	0xbc3302e7	-0.010925985
62	0xba3e7e60	-0.0007266756
63	0xbc5e0e02	-0.013553144
64	0x3ca22891	0.019794734
65	0x3bbc9683	0.005755247
66	0xbcf869ef	-0.03032395
67	0x3cb77463	0.022394365
68	0x3d001bf9	0.031276677
69	0x3c7a2025	0.015266453
70	0x3cbb70b3	0.022880888
71	0xbc7eacb9	-0.01554411
72	0xbcb50287	-0.022095932
73	0xbd1f0009	-0.038818393
74	0xbc6afeca	-0.014342973
75	0xbc6ca064	-0.014442537
76	0xbbc75c8b	-0.00608403
77	0x3cb3e432	0.021959398
78	0xbc124174	-0.008926738
79	0xbb907f07	-0.004409674
80	0x3bd987fc	0.006638525
81	0x3c56a974	0.013101924
82	0x3c15c57c	0.009141322
83	0x3c204959	0.009783112
84	0xbb8c8d78	-0.0042893253
85	0x3c118e21	0.008883984
86	0xbc84c92d	-0.01620921
87	0xbd06a607	-0.03287318
88	0xbc905d19	-0.017622517
89	0x3cdecdc7	0.027197732
90	0x3c2b780c	0.010465633
91	0xbb8d31d4	-0.0043089185
92	0x3b5d40bb	0.0033760506
93	0x3c151790	0.009099856
94	0xbc309c0e	-0.010779394
95	0x3d4a9159	0.04945502
96	0x3c914c63	0.01773662
97	0xbc12138b	-0.008915792
98	0xbca91d30	-0.0206438
99	0x3c556b8c	0.013026129
100	0xbce4abb4	-0.027913906
101	0xbae44d76	-0.0017418105
102	0xbcb5b56e	-0.022181239
103	0x3caedd34	0.021345712
104	0x3c8dd282	0.017312292
105	0xbd200a0b	-0.039072078
106	0xbcbb18f1	-0.022839041
107	0x3d04e0f7	0.032441106
108	0x3c0f4af7	0.0087459
109	0x3bffc517	0.0078054774
110	0xbcb9f772	-0.022700999
111	0xbca4ac74	-0.020101763
112	0xbb730396	-0.0037080995
113	0x3ba0de5a	0.004909319
114	0xbca4c33a	-0.020112623
115	0x3cc0b6be	0.023524638
116	0xbd12502c	-0.03572099
117	0xbcaeedbb	-0.021353593
118	0x3ca1fcdd	0.019773895
119	0xbc26345b	-0.010144318
120	0xbc9e7fd4	-0.019348063
121	0xbd041055	-0.032242138
122	0xbc7b6ff3	-0.015346515
123	0xbceff1c4	-0.029290088
124	0xbc83693a	-0.016041387
125	0x3c5c785d	0.013456431
126	0xbcb514dc	-0.022104673
127	0xbab207bc	-0.0013582627
128	0xbbd98079	-0.0066376296
129	0xbc2bc9c3	-0.010485115
130	0xbbba03e3	-0.005676733
131	0x3c8ad969	0.016949372
132	0xbc47b94b	-0.012190173
133	0xbc6abaee	-0.014326794
134	0x3d2d2cf0	0.042279184
135	0xbb1cf783	-0.002395124
136	0x3bb6d03c	0.0055790227
137	0x3d1a289d	0.037636388
138	0x3cb8ce93	0.02255944
139	0xbb40b960	-0.0029407367
140	0x3b7581c2	0.0037461375
141	0x3be9a49d	0.007130219
142	0x3ab766b0	0.0013992395
143	0xbca7a188	-0.020462766
144	0x3c9c73f1	0.019098254
145	0x3cd79372	0.026315425
146	0xbbc41a9f	-0.005984619
147	0x3c29293a	0.010324771
148	0xbb916d13	-0.0044380515
149	0x3be71a35	0.0070526847
150	0x3c22cc17	0.009936354
151	0xbb374e41	-0.0027970227
152	0x3bfe2ba2	0.0077566663
153	0x3bc41744	0.005984219
154	0x3b0bdbf5	0.0021340821
155	0x395c7b58	0.00021026784
156	0x3cb5485b	0.022129228
157	0x3ccea819	0.02522664
158	0xbc1efe65	-0.009704207
159	0xbc2daba4	-0.010600004
160	0xbd28f5ca	-0.041250028
161	0xbc533ea0	-0.012893349
162	0xbc2acbb7	-0.010424546
163	0xbcc1a22c	-0.0236369
164	0xbd19a8e3	-0.03751458
165	0xbcd301a2	-0.025757615
166	0xbc82ae8f	-0.015952377
167	0x3c85b6fe	0.016322609
168	0x3b9b1bc7	0.004733536
169	0xba5d8df0	-0.00084516313
170	0x3b336a69	0.0027376658
171	0xbd312f4e	-0.043258004
172	0x3c2e2588	0.010629065
173	0x3d217f62	0.039428122
174	0xbb0df4ef	-0.0021660884
175	0x3c274a5f	0.010210603
176	0xbc14cab2	-0.009081529
177	0x3c5bc13b	0.013412769
178	0x3cd31a5f	0.02576941
179	0x3b6b287a	0.003588228
180	0x3c874e1c	0.016516738
181	0x3c953f84	0.018218763
182	0x3bf5925e	0.007494255
183	0x3c62cb0f	0.013842358
184	0x3af86f81	0.0018954129
185	0xbcd7b97b	-0.026333561
186	0xbc3a45d9	-0.011369192
187	0x3b8bd68b	0.004267519
188	0x3d222a3e	0.039591067
189	0x3c0b8536	0.008515647
190	0xbca801bb	-0.020508638
191	0xba4fbd61	-0.0007924643
192	0xbca97df6	-0.020689946
193	0xbc978610	-0.018496543
194	0xbd0e1c7a	-0.034695126
195	0x3ca25cdc	0.01981967
196	0xbb4e9867	-0.0031523944
197	0xbbf266a7	-0.007397491
198	0x3ce00ebf	0.027350781
199	0x3cab24a8	0.020891502
200	0x3c855bbb	0.016279092
201	0x3c81feff	0.015868662
202	0x3cf39223	0.02973277
203	0x3c7a3c28	0.015273131
204	0xbd5d5407	-0.054035213
205	0xbcf0fcc4	-0.029417403
206	0xbc392596	-0.011300465
207	0x3c9164b0	0.017748207
208	0x3cb4f55c	0.022089653
209	0x3abbc86a	0.0014326696
210	0xbcacccb9	-0.021093713
211	0xbbcfb919	-0.006339204
212	0x3ced4beb	0.028966865
213	0xbccd8822	-0.025089327
214	0xbbce9014	-0.0063037965
215	0xbbaf174a	-0.0053433524
216	0x3d1463a8	0.036227852
217	0x3c9404b0	0.018068641
218	0xbcdf1e1b	-0.027236035
219	0xbc23dc17	-0.010001204
220	0x3d1bde67	0.038053896
221	0x3aea5919	0.0017879336
222	0x3ca51772	0.020152781
223	0xbbbbbf41	-0.0057295864
224	0x3c8413e4	0.016122766
225	0x3d29cba8	0.041453987
226	0x3c164674	0.009172071
227	0x3ccd75c8	0.025080577
228	0x3c83501d	0.016029412
229	0x3c96b00b	0.01839449
230	0x3ce1e1a9	0.027573423
231	0x3ba083d4	0.0048985276
232	0xbbfddf82	-0.0077475915
233	0x3cc07630	0.023493856
234	0xbaebc8d3	-0.0017988927
235	0x3c9ad312	0.018899474
236	0x3cd8182f	0.02637872
237	0x3c81829a	0.015809346
238	0x3c3017eb	0.01074789
239	0xbd257c8b	-0.040401977
240	0xbbcfd404	-0.006342413
241	0x3c37f1e3	0.011227104
242	0xbd13f9e6	-0.036126994
243	0xbbc677ff	-0.006056785
244	0x3ae87162	0.0017733986
245	0xbca7967c	-0.020457499
246	0x3d00b47d	0.031422127
247	0x3b4a7901	0.0030894878
248	0x3b99cd49	0.0046936614
249	0x3c967a5f	0.018368898
250	0x3d244592	0.04010541
251	0x3c169a0d	0.009192002
252	0x3c8c9cb4	0.017164566
253	0x3cd2914c	0.025704049
254	0x3a8851c8	0.0010400349
255	0x3c822f12	0.015891585

action_model._continuous_distribution.mu.bias f4 [2]
0	0x3b8a3710	0.0042179897
1	0xbbab4a51	-0.005227365

action_model._discrete_distribution.branches.0.weight f4 [5, 128]
0	0xbc63cfb2	-0.013904499
1	0x3ad95967	0.001658243
2	0x3b9de9de	0.004819139
3	0xbb779394	-0.0037777172
4	0xbca82c05	-0.020528803
5	0xbc7be3a5	-0.015374099
6	0x3b42b223	0.0029708229
7	0x3c88836f	0.016664235
8	0x3b95c480	0.0045705438
9	0x3af548c7	0.0018713706
10	0x3b6ee20b	0.003645065
11	0x3bf31658	0.007418435
12	0x3c0897e4	0.008336995
13	0xbc60c4b1	-0.01371877
14	0xbbf857fe	-0.007578849
15	0xbcaaf0ae	-0.020866718
16	0x39b7bafc	0.00035043794
17	0xbb0e91c3	-0.0021754361
18	0x3a1658bd	0.0005735269
19	0xbb4345e8	-0.0029796306
20	0x3aca6aea	0.001544324
21	0x3aefebaf	0.0018304492
22	0xbb7eab00	-0.0038859248
23	0x3bc641ea	0.006050338
24	0x3bed4de8	0.007241953
25	0x3c396fbc	0.011318143
26	0xbc874227	-0.016511036
27	0x3ba4426b	0.0050128005
28	0xbcae06e5	-0.021243522
29	0x3c024d54	0.007953007
30	0xb9e10068	-0.00042915647
31	0xbc04a5f8	-0.008096211
32	0x3cd32708	0.025775447
33	0xbc0594fe	-0.008153198
34	0x3af7c184	0.0018902277
35	0xbbbd42be	-0.0057757786
36	0x3c524df3	0.012835967
37	0x3c220fe6	0.009891486
38	0x3c1b309a	0.009472037
39	0x3b6a713f	0.0035773066
40	0xbb3c5a49	-0.0028740338
41	0x3bfbb6d1	0.0076817055
42	0xbbead570	-0.007166557
43	0x3ca38ef1	0.01996562
44	0x3b819f0c	0.0039557274
45	0xbbcbb904	-0.006217124
46	0x3ca34961	0.01993245
47	0x3a60ca32	0.00085750513
48	0x3c603cd5	0.0136863785
49	0x3c2b8ec8	0.010471053
50	0x3b43f217	0.0029898935
51	0xbbb55957	-0.005534332
52	0x3cdaba02	0.026700024
53	0xb9289320	-0.00016076537
54	0xbc5150ed	-0.012775642
55	0x3bb64d6b	0.005563428
56	0x3bd85ebd	0.0066030906
57	0x3b1c0baa	0.0023810663
58	0xbba20ea6	-0.004945594
59	0xbc55296b	-0.013010363
60	0xbc7c36dd	-0.01539394
61	0xbb0b4bf4	-0.0021254988
62	0x3c173eab	0.00923125
63	0xbc832802	-0.016010288
64	0x3c447693	0.011991161
65	0x3bdcb2c3	0.0067351772
66	0xba29d0bf	-0.0006477944
67	0x3b21dad7	0.002469709
68	0xbc5d8591	-0.013520614
69	0xb9dae10d	-0.00041747876
70	0x3cd9c224	0.026581831
71	0x3ba70691	0.0050972183
72	0xbc53e252	-0.012932377
73	0x3c8dd6b0	0.017314285
74	0x3c2b68ac	0.010461967
75	0x3cef7b98	0.029233739
76	0x3bfba810	0.0076799467
77	0xbbb94cc2	-0.005654902
78	0x3c24e563	0.010064456
79	0x3c0b00e3	0.008484098
80	0x3c0de704	0.008661035
81	0x3a902a16	0.0010998871
82	0xbb89dd7d	-0.0042073117
83	0x3c19fced	0.009398681
84	0x3a2146f6	0.00061522366
85	0xbb88fab1	-0.0041802754
86	0x3a569117	0.0008185072
87	0x3ad10a3f	0.0015948488
88	0xbc6b57a8	-0.014364161
89	0x3c13a017	0.009010336
90	0x3c5d88c8	0.013521381
91	0x3bfed80b	0.007777219
92	0xbc655356	-0.01399692
93	0x3c81cfbc	0.015846126
94	0x3c8cb943	0.017178183
95	0x3c2cc93d	0.010546026
96	0x3a634019	0.0008668914
97	0x3c449617	0.011998675
98	0x3c4f0cf0	0.012637362
99	0x399100b3	0.00027657076
100	0x3c0de2e9	0.008660057
101	0x3c1d6ad0	0.009607986
102	0xbc156f1b	-0.009120728
103	0x38974155	7.21241e-05
104	0x3cb0a3dc	0.02156251
105	0x3bf52125	0.007480758
106	0x3b98044b	0.0046391836
107	0xbbdf315d	-0.0068113045
108	0x3c227658	0.009915911
109	0xbc60dfab	-0.013725202
110	0x3b9ce16c	0.0047876146
111	0xbc90e030	-0.017685026
112	0x3c1f2724	0.009713922
113	0x3c6ee878	0.014581792
114	0x3c95ca49	0.018284934
115	0xbc182259	-0.009285533
116	0xbb63cf2a	-0.003476093
117	0x3cad2af8	0.021138653
118	0x3cbe8bd8	0.023260042
119	0xbc8a2d85	-0.016867409
120	0xbb9fbc03	-0.0048747077
121	0x39f111b6	0.00045980298
122	0xbc5533d4	-0.013012845
123	0x3a2b818f	0.0006542438
124	0x3b9d08a3	0.0047922893
125	0x3b412771	0.0029472972
126	0x3c98ed0e	0.018667724
127	0x3b12ea1f	0.002241738
128	0xb95d56e4	-0.00021108572
129	0xba8f7daf	-0.0010947491
130	0x3c551d60	0.013007492
131	0x3bf7ff74	0.007568294
132	0x3cbd85e3	0.023135131
133	0xbc92c9e2	-0.01791853
134	0x3aa6cdd5	0.0012726138
135	0xba60fa4d	-0.00085822196
136	0x3c8b93db	0.017038276
137	0xbbec77a8	-0.0072164126
138	0x3bf17d31	0.0073696603
139	0x3a9cd46d	0.0011965163
140	0xbc1f9030	-0.009738967
141	0x3bef05e8	0.0072944053
142	0x3aa360ca	0.0012464758
143	0x3bad8ff5	0.005296702
144	0x3b53a624	0.0032295072
145	0xbbd0a51e	-0.0063673398
146	0x3beb5717	0.007182013
147	0x3c5af77f	0.013364672
148	0xba50b545	-0.00079615816
149	0xbaac2409	-0.0013133298
150	0x3c37521a	0.011189008
151	0x3bfb3f14	0.0076674316
152	0xbca0f762	-0.019649211
153	0xbc8b5bb1	-0.017011495
154	0x3bd1cdf2	0.0064027244
155	0xbcdc1b06	-0.026868355
156	0x3b743f36	0.0037269122
157	0x3b84ea00	0.0040562153
158	0x3b8bfb18	0.004271876
159	0xba93fdf8	-0.0011290899
160	0xbc8812a5	-0.016610453
161	0x3cd3537c	0.025796644
162	0x3bdd762c	0.006758472
163	0x3b8b3a78	0.0042489134
164	0x3bfbeaa4	0.0076878835
165	0x3c7f676b	0.015588622
166	0xbc7af22e	-0.015316529
167	0xbc37e79b	-0.011224653
168	0x3c0d3b55	0.008620103
169	0x3beb03d0	0.0071720853
170	0xbc0f6793	-0.008752721
171	0x3a815976	0.000986858
172	0x3ca1e0b6	0.01976047
173	0xbb96fc21	-0.004607693
174	0x3c309d44	0.010779683
175	0x3be05ad4	0.006846765
176	0x3a647636	0.00087151246
177	0x3c2c698d	0.010523212
178	0x3ad804c1	0.0016480909
179	0xbbe852b5	-0.0070899376
180	0xbc5ef568	-0.013608314
181	0xbb91a9cd	-0.0044452907
182	0xbcba1f99	-0.022720145
183	0xbb1000cf	-0.0021973138
184	0xbbae8a3f	-0.005326539
185	0xbbdbf44b	-0.0067124716
186	0x3bd2a49b	0.006428314
187	0xbc3af07a	-0.011409873
188	0xbae1d4ed	-0.0017229595
189	0xba9d089d	-0.0011980716
190	0x3bd14d14	0.0063873623
191	0xbb706fd3	-0.0036687746
192	0x3b131695	0.002244388
193	0x3c2e26fe	0.010629414
194	0x3bb1bfd7	0.0054244804
195	0xbb6802a8	-0.0035401974
196	0x3c554f76	0.013019433
197	0xbb93dace	-0.0045121675
198	0x3c66ce14	0.014087219
199	0x3c6abaf9	0.014326804
200	0x3c36b1ba	0.011150772
201	0x3b64b895	0.0034900059
202	0xbb0e1ffa	-0.002168654
203	0xbcf8a50c	-0.030352138
204	0x3bfea453	0.007771054
205	0x3c557eab	0.013030688
206	0x3c2f3db3	0.010695863
207	0x3c5e9a11	0.013586537
208	0x3c292c73	0.010325539
209	0x3b66443e	0.003513589
210	0x3a1697ed	0.00057446846
211	0xbc3c3a6f	-0.011488541
212	0xbb9c6d3b	-0.0047737635
213	0xbb0e2e99	-0.0021695255
214	0xbc66a94f	-0.014078452
215	0xbc4e6291	-0.012596742
216	0xbc8bc1e8	-0.017060235
217	0x3926a636	0.00015892912
218	0xbb3cd320	-0.0028812364
219	0x3bcaa9e4	0.0061848033
220	0xb972ef54	-0.00023168075
221	0x3bcf739a	0.0063309195
222	0xbbc88eab	-0.006120523
223	0x3acd22c2	0.0015650617
224	0x3c556e98	0.013026856
225	0xba17f36b	-0.0005796465
226	0x3c590926	0.01324681
227	0x3aff14b7	0.001946113
228	0xbc00e42b	-0.0078668995
229	0xbb474706	-0.0030407324
230	0xbbf44dab	-0.007455548
231	0x3baeba38	0.0053322576
232	0x3c19a7b0	0.009378359
233	0x3c8fedbb	0.017569413
234	0xbbe4c376	-0.0069813086
235	0xbc018314	-0.007904787
236	0xbc2244c8	-0.009904094
237	0x3c55bc75	0.01304542
238	0xbb79f257	-0.003813883
239	0x3c67f7cd	0.014158201
240	0xbae0f71e	-0.001716349
241	0xbc0ff9f4	-0.008787621
242	0x3be0ba02	0.0068581114
243	0x3be8ecd4	0.0071083102
244	0xbb6571f3	-0.0035010546
245	0x3c9c0da7	0.019049479
246	0x3c1d4547	0.009599037
247	0x3c61645c	0.013756838
248	0x3b3725f9	0.0027946217
249	0xbbbe053f	-0.005798965
250	0x3b5460f0	0.0032406412
251	0x3bd603db	0.0065312213
252	0x3af114a4	0.0018392992
253	0xb9630b91	-0.00021652716
254	0x3b870771	0.00412076
255	0x3c126c91	0.008937017

action_model._discrete_distribution.branches.0.bias f4 [5]
0	0xbb36ba5c	-0.0027882075
1	0x3b85e0ef	0.004085652
2	0x3b614020	0.0034370497
3	0xba82b64c	-0.0009972542
4	0xbbaf9016	-0.0053577526

exp_avg f4 [128, 140]
0	0xb7eab445	-2.7978918e-05
1	0x00000000	0.0
2	0xb11bd83c	-2.2678384e-09
3	0xb50e5a03	-5.3030107e-07
4	0xb7eef9b6	-2.8488092e-05
5	0x00000000	0.0
6	0xb52290a1	-6.0560166e-07
7	0xb50e8f2e	-5.3107476e-07
8	0xb7a99665	-2.0216403e-05
9	0x00000000	0.0
10	0xb11fd9c6	-2.3261335e-09
11	0xb5a21de9	-1.2078646e-06
12	0xb84c99e2	-4.8780705e-05
13	0x00000000	0.0
14	0xb0a1158a	-1.1720414e-09
15	0x360d1ac0	2.1026208e-06
16	0xb803391d	-3.1286025e-05
17	0x00000000	0.0
18	0xb11fdac0	-2.326189e-09
19	0x33a3955e	7.617449e-08
20	0xb7be8825	-2.2713162e-05
21	0x00000000	0.0
22	0xb0a17aed	-1.1749229e-09
23	0x347a0b2f	2.3287133e-07
24	0xb7858cbc	-1.592037e-05
25	0x00000000	0.0
26	0xb131ca89	-2.5872018e-09
27	0xb6bf4fba	-5.701525e-06
28	0xb7dfce24	-2.6679663e-05
29	0x00000000	0.0
30	0xb0a0f6da	-1.1711692e-09
31	0x358ac390	1.0338717e-06
32	0x374d3267	1.2230687e-05
33	0x00000000	0.0
34	0xb13263b8	-2.5959093e-09
35	0xb753ed09	-1.2631769e-05
36	0x37c42b32	2.3385135e-05
37	0x00000000	0.0
38	0xb0a13487	-1.1729221e-09
39	0xb75bd2fd	-1.3102542e-05
40	0xb6c3aba4	-5.8314345e-06
41	0x00000000	0.0
42	0x299842ab	6.761721e-14
43	0xb70bed2f	-8.340269e-06
44	0x37f46b2d	2.9136974e-05
45	0x00000000	0.0
46	0xb0a13487	-1.1729221e-09
47	0xb78494e6	-1.5804962e-05
48	0xb424f4c3	-1.5362734e-07
49	0x00000000	0.0
50	0x299842ab	6.761721e-14
51	0xb70c611f	-8.367263e-06
52	0x38581e59	5.1526677e-05
53	0x00000000	0.0
54	0xb0a13487	-1.1729221e-09
55	0xb76c16b4	-1.4071982e-05
56	0x3731648d	1.0573433e-05
57	0x00000000	0.0
58	0x299842ab	6.761721e-14
59	0xb74db71e	-1.22615875e-05
60	0x37f2685a	2.889724e-05
61	0x00000000	0.0
62	0xb0a13487	-1.1729221e-09
63	0xb76e7e7c	-1.4215355e-05
64	0xb80a4a42	-3.2970922e-05
65	0x00000000	0.0
66	0x2b002671	4.5528083e-13
67	0xb6d47369	-6.331528e-06
68	0x388062f0	6.121944e-05
69	0x00000000	0.0
70	0x00000000	0.0
71	0xb7bdfda3	-2.2648665e-05
72	0x388062f0	6.121944e-05
73	0x00000000	0.0
74	0x00000000	0.0
75	0xb7bdfda3	-2.2648665e-05
76	0xb897cd0e	-7.2384355e-05
77	0x38fa249a	0.000119277465
78	0x38565237	5.1098144e-05
79	0xba795227	-0.0009510838
80	0xb8a81e49	-8.016505e-05
81	0x3a7e6373	0.000970415
82	0xba3dd824	-0.00072419853
83	0xb8a81e49	-8.016505e-05
84	0x3a7b7cb1	0.00095934706
85	0xb9305446	-0.00016816062
86	0x37230c4b	9.718419e-06
87	0x34f69529	4.59296e-07
88	0x374906ce	1.1982118e-05
89	0xb7ff3f07	-3.0427718e-05
90	0xb805ebea	-3.1929383e-05
91	0xb5bedf24	-1.4221046e-06
92	0x388860f6	6.503046e-05
93	0x00000000	0.0
94	0x00000000	0.0
95	0x00000000	0.0
96	0x00000000	0.0
97	0x00000000	0.0
98	0x00000000	0.0
99	0x00000000	0.0
100	0x00000000	0.0
101	0x00000000	0.0
102	0x00000000	0.0
103	0x00000000	0.0
104	0x00000000	0.0
105	0x00000000	0.0
106	0x00000000	0.0
107	0x00000000	0.0
108	0x00000000	0.0
109	0x00000000	0.0
110	0x00000000	0.0
111	0x00000000	0.0
112	0x00000000	0.0
113	0x00000000	0.0
114	0x00000000	0.0
115	0x00000000	0.0
116	0x00000000	0.0
117	0x00000000	0.0
118	0x00000000	0.0
119	0x00000000	0.0
120	0x00000000	0.0
121	0x00000000	0.0
122	0x00000000	0.0
123	0x00000000	0.0
124	0x00000000	0.0
125	0x00000000	0.0
126	0x00000000	0.0
127	0x00000000	0.0
128	0x00000000	0.0
129	0x00000000	0.0
130	0x00000000	0.0
131	0x00000000	0.0
132	0x00000000	0.0
133	0x00000000	0.0
134	0x00000000	0.0
135	0x00000000	0.0
136	0x00000000	0.0
137	0x00000000	0.0
138	0x00000000	0.0
139	0x00000000	0.0
140	0xb6b5fa7c	-5.4233806e-06
141	0x00000000	0.0
142	0x31a67171	4.8441327e-09
143	0x35bb4883	1.3953689e-06
144	0x3602acc5	1.9472075e-06
145	0x00000000	0.0
146	0xb60adeb0	-2.0693224e-06
147	0xb5e1b407	-1.6816201e-06
148	0x3718cff0	9.10832e-06
149	0x00000000	0.0
150	0x3186461f	3.907885e-09
151	0x359922f4	1.1409561e-06
152	0x37ad1b2c	2.063586e-05
153	0x00000000	0.0
154	0xb276d6b3	-1.43679015e-08
155	0xb685e404	-3.9902534e-06
156	0xb698b673	-4.551193e-06
157	0x00000000	0.0
158	0x3186423c	3.9074433e-09
159	0x361ac0a4	2.305992e-06
160	0x381c7865	3.7305424e-05
161	0x00000000	0.0
162	0xb2777be6	-1.44054635e-08
163	0xb7545e34	-1.2658118e-05
164	0xb6adb6e6	-5.177094e-06
165	0x00000000	0.0
166	0x31595bb6	3.1629788e-09
167	0x36225378	2.4188466e-06
168	0x38468521	4.7330865e-05
169	0x00000000	0.0
170	0xb27788b0	-1.4408371e-08
171	0xb76da66d	-1.416505e-05
172	0xb7fde646	-3.026718e-05
173	0x00000000	0.0
174	0x3157b21d	3.1387863e-09
175	0x371a3bc7	9.193033e-06
176	0x37e33189	2.7083575e-05
177	0x00000000	0.0
178	0xb27771f7	-1.4403205e-08
179	0xb7192036	-9.12701e-06
180	0xb70826b3	-8.115242e-06
181	0x00000000	0.0
182	0xaa806843	-2.2809714e-13
183	0xb597b354	-1.1302568e-06
184	0xb5d8f6b8	-1.6165059e-06
185	0x00000000	0.0
186	0xb27771f7	-1.4403205e-08
187	0x363ca067	2.810755e-06
188	0xb44b59a2	-1.8938456e-07
189	0x00000000	0.0
190	0xaa806843	-2.2809714e-13
191	0xb551d851	-7.817335e-07
192	0xb8387700	-4.3979846e-05
193	0x00000000	0.0
194	0xb27771f7	-1.4403205e-08
195	0x3744299a	1.16921965e-05
196	0xb729acba	-1.0113401e-05
197	0x00000000	0.0
198	0xaa806843	-2.2809714e-13
199	0x36a7b295	4.9977775e-06
200	0xb85c5c45	-5.253802e-05
201	0x00000000	0.0
202	0xb27771f7	-1.4403205e-08
203	0x372c8bc6	1.0284542e-05
204	0xb4fb7948	-4.6840637e-07
205	0x00000000	0.0
206	0xaaaae5c4	-3.0357498e-13
207	0x36422b4e	2.893346e-06
208	0xb889a92f	-6.564182e-05
209	0x00000000	0.0
210	0x00000000	0.0
211	0x379b0117	1.8477947e-05
212	0xb889a92f	-6.564182e-05
213	0x00000000	0.0
214	0x00000000	0.0
215	0x379b0116	1.8477946e-05
216	0xb996b4aa	-0.00028744835
217	0xb78a3c7d	-1.6479049e-05
218	0xb816fc3e	-3.5997706e-05
219	0x3886085a	6.3911735e-05
220	0x372abcfe	1.0176793e-05
221	0xb9bd387f	-0.00036090982
222	0xba0a8758	-0.000528445
223	0x372abcfe	1.0176793e-05
224	0xb86440ca	-5.4419776e-05
225	0xb8205d46	-3.823384e-05
226	0xb7beeb3d	-2.2759306e-05
227	0xb4f72ec7	-4.604137e-07
228	0xb7ff4d39	-3.0434328e-05
229	0xb6f2629d	-7.223642e-06
230	0xb81f2487	-3.7942573e-05
231	0x32a524bc	1.9225233e-08
232	0xb7c99929	-2.4032388e-05
233	0x00000000	0.0
234	0x00000000	0.0
235	0x00000000	0.0
236	0x00000000	0.0
237	0x00000000	0.0
238	0x00000000	0.0
239	0x00000000	0.0
240	0x00000000	0.0
241	0x00000000	0.0
242	0x00000000	0.0
243	0x00000000	0.0
244	0x00000000	0.0
245	0x00000000	0.0
246	0x00000000	0.0
247	0x00000000	0.0
248	0x00000000	0.0
249	0x00000000	0.0
250	0x00000000	0.0
251	0x00000000	0.0
252	0x00000000	0.0
253	0x00000000	0.0
254	0x00000000	0.0
255	0x00000000	0.0

exp_avg_sq f4 [128, 140]
0	0x30a75d28	1.2177326e-09
1	0x00000000	0.0
2	0x2c2c4e51	2.4486144e-12
3	0x2fa17005	2.9365324e-10
4	0x30c5ec15	1.4400735e-09
5	0x00000000	0.0
6	0x2d90f796	1.6480855e-11
7	0x2fb76609	3.3360006e-10
8	0x30bf73d4	1.3929999e-09
9	0x00000000	0.0
10	0x2c2bfb45	2.4440044e-12
11	0x2fb30b1b	3.25678e-10
12	0x30d6ff7a	1.564316e-09
13	0x00000000	0.0
14	0x2d3ab840	1.0613788e-11
15	0x2fe36d6f	4.1368817e-10
16	0x30ca3c35	1.4714546e-09
17	0x00000000	0.0
18	0x2c2384c7	2.32374e-12
19	0x300b20ac	5.0614335e-10
20	0x30b381f7	1.3060902e-09
21	0x00000000	0.0
22	0x2d3a0662	1.0574293e-11
23	0x300f7c8d	5.2200094e-10
24	0x30ceb0c3	1.5038711e-09
25	0x00000000	0.0
26	0x2c23dfd6	2.3287947e-12
27	0x30950f7a	1.0845576e-09
28	0x3097f0f9	1.1055185e-09
29	0x00000000	0.0
30	0x2d8bfac1	1.5913828e-11
31	0x3021c86c	5.8856275e-10
32	0x313d6935	2.7562923e-09
33	0x00000000	0.0
34	0x2c8e4a1f	4.044112e-12
35	0x30d574f8	1.5531034e-09
36	0x308eac8a	1.0380898e-09
37	0x00000000	0.0
38	0x2d0f980f	8.162373e-12
39	0x301df84f	5.7469135e-10
40	0x30d554bf	1.5521876e-09
41	0x00000000	0.0
42	0x2ae78a87	4.1129966e-13
43	0x30ec2be4	1.7183734e-09
44	0x3101451a	1.881125e-09
45	0x00000000	0.0
46	0x2d0f980f	8.162373e-12
47	0x30132cb3	5.354181e-10
48	0x30414d22	7.0322603e-10
49	0x00000000	0.0
50	0x2ae78a87	4.1129966e-13
51	0x308fa9c2	1.0452867e-09
52	0x31036b92	1.9124156e-09
53	0x00000000	0.0
54	0x2d0f980f	8.162373e-12
55	0x2fdab48e	3.978226e-10
56	0x30909f64	1.052268e-09
57	0x00000000	0.0
58	0x2ae78a87	4.1129966e-13
59	0x30209b9f	5.842881e-10
60	0x30f1e8e0	1.7601245e-09
61	0x00000000	0.0
62	0x2d0f980f	8.162373e-12
63	0x2fe355df	4.1352075e-10
64	0x30970504	1.0988122e-09
65	0x00000000	0.0
66	0x2aed68f4	4.2172483e-13
67	0x2fe2299b	4.1138723e-10
68	0x30d90b8c	1.579211e-09
69	0x00000000	0.0
70	0x00000000	0.0
71	0x2feb2fe3	4.2780277e-10
72	0x30d90b8c	1.579211e-09
73	0x00000000	0.0
74	0x00000000	0.0
75	0x2feb2fe3	4.2780277e-10
76	0x360691ea	2.005249e-06
77	0x34329e74	1.6635187e-07
78	0x34daba51	4.0741227e-07
79	0x36629818	3.3765155e-06
80	0x33a024cf	7.457276e-08
81	0x36af3b6c	5.222324e-06
82	0x3719b1cb	9.160906e-06
83	0x33a024cf	7.457276e-08
84	0x36b4579d	5.3746176e-06
85	0x34ff87be	4.7596217e-07
86	0x31019646	1.8857391e-09
87	0x2d89feaf	1.5688199e-11
88	0x30efe45b	1.7454441e-09
89	0x34d87f01	4.0325543e-07
90	0x30ce888b	1.502728e-09
91	0x2ca9f77c	4.830745e-12
92	0x31336c80	2.6109603e-09
93	0x00000000	0.0
94	0x00000000	0.0
95	0x00000000	0.0
96	0x00000000	0.0
97	0x00000000	0.0
98	0x00000000	0.0
99	0x00000000	0.0
100	0x00000000	0.0
101	0x00000000	0.0
102	0x00000000	0.0
103	0x00000000	0.0
104	0x00000000	0.0
105	0x00000000	0.0
106	0x00000000	0.0
107	0x00000000	0.0
108	0x00000000	0.0
109	0x00000000	0.0
110	0x00000000	0.0
111	0x00000000	0.0
112	0x00000000	0.0
113	0x00000000	0.0
114	0x00000000	0.0
115	0x00000000	0.0
116	0x00000000	0.0
117	0x00000000	0.0
118	0x00000000	0.0
119	0x00000000	0.0
120	0x00000000	0.0
121	0x00000000	0.0
122	0x00000000	0.0
123	0x00000000	0.0
124	0x00000000	0.0
125	0x00000000	0.0
126	0x00000000	0.0
127	0x00000000	0.0
128	0x00000000	0.0
129	0x00000000	0.0
130	0x00000000	0.0
131	0x00000000	0.0
132	0x00000000	0.0
133	0x00000000	0.0
134	0x00000000	0.0
135	0x00000000	0.0
136	0x00000000	0.0
137	0x00000000	0.0
138	0x00000000	0.0
139	0x00000000	0.0
140	0x30729db2	8.8263186e-10
141	0x00000000	0.0
142	0x2e458009	4.4906332e-11
143	0x2fc6fa36	3.6193776e-10
144	0x304c4a21	7.432011e-10
145	0x00000000	0.0
146	0x2f00fd87	1.1731603e-10
147	0x2ff2db47	4.417535e-10
148	0x3092b99f	1.0675655e-09
149	0x00000000	0.0
150	0x2e4bfee7	4.6383255e-11
151	0x2fe34ee4	4.1347115e-10
152	0x30582a84	7.864076e-10
153	0x00000000	0.0
154	0x2edf6c32	1.0160085e-10
155	0x301b7911	5.6560717e-10
156	0x30874ebc	9.84492e-10
157	0x00000000	0.0
158	0x2e49bf32	4.5871924e-11
159	0x3028c34e	6.139559e-10
160	0x305d8c7d	8.059898e-10
161	0x00000000	0.0
162	0x2ee51ad0	1.0418477e-10
163	0x303a8111	6.784982e-10
164	0x309f0853	1.1571138e-09
165	0x00000000	0.0
166	0x2e429ff3	4.4252556e-11
167	0x30a8fab1	1.229486e-09
168	0x30562414	7.7904017e-10
169	0x00000000	0.0
170	0x2f13ff1d	1.3460207e-10
171	0x30806266	9.341192e-10
172	0x311d9f01	2.293689e-09
173	0x00000000	0.0
174	0x2e853255	6.0570805e-11
175	0x3109b885	2.004101e-09
176	0x30617712	8.202373e-10
177	0x00000000	0.0
178	0x2e79fccf	5.6840584e-11
179	0x308d44ee	1.0278691e-09
180	0x30da70de	1.5893666e-09
181	0x00000000	0.0
182	0x280adfc8	7.709064e-15
183	0x31164343	2.1866107e-09
184	0x30c717ab	1.4485882e-09
185	0x00000000	0.0
186	0x2e79fccf	5.6840584e-11
187	0x308bf14a	1.018216e-09
188	0x3099399d	1.114859e-09
189	0x00000000	0.0
190	0x280adfc8	7.709064e-15
191	0x30ca4789	1.4717766e-09
192	0x30d66e28	1.5601858e-09
193	0x00000000	0.0
194	0x2e79fccf	5.6840584e-11
195	0x3055576d	7.761319e-10
196	0x308c4653	1.0206328e-09
197	0x00000000	0.0
198	0x280adfc8	7.709064e-15
199	0x307f999b	9.2986746e-10
200	0x30c40b82	1.4264148e-09
201	0x00000000	0.0
202	0x2e79fccf	5.6840584e-11
203	0x3044db0e	7.161568e-10
204	0x30820b98	9.46204e-10
205	0x00000000	0.0
206	0x2850f243	1.1598852e-14
207	0x304627de	7.2088635e-10
208	0x30c0cfd3	1.4028906e-09
209	0x00000000	0.0
210	0x00000000	0.0
211	0x30467c6f	7.220881e-10
212	0x30c0cfd3	1.4028906e-09
213	0x00000000	0.0
214	0x00000000	0.0
215	0x30467c70	7.2208817e-10
216	0x360a6f2e	2.0628318e-06
217	0x345eeefe	2.0762306e-07
218	0x34d958c7	4.0483994e-07
219	0x36701836	3.577688e-06
220	0x33c7515f	9.281461e-08
221	0x36d59808	6.3655934e-06
222	0x370676cd	8.014683e-06
223	0x33c7515f	9.281461e-08
224	0x36e76914	6.896569e-06
225	0x355f98ea	8.3296493e-07
226	0x30dd34e1	1.6094895e-09
227	0x2d3362d4	1.0196916e-11
228	0x309aae53	1.1254521e-09
229	0x35212f13	6.0045676e-07
230	0x310394f1	1.9147672e-09
231	0x2c3afe83	2.6573472e-12
232	0x31236d66	2.3781808e-09
233	0x00000000	0.0
234	0x00000000	0.0
235	0x00000000	0.0
236	0x00000000	0.0
237	0x00000000	0.0
238	0x00000000	0.0
239	0x00000000	0.0
240	0x00000000	0.0
241	0x00000000	0.0
242	0x00000000	0.0
243	0x00000000	0.0
244	0x00000000	0.0
245	0x00000000	0.0
246	0x00000000	0.0
247	0x00000000	0.0
248	0x00000000	0.0
249	0x00000000	0.0
250	0x00000000	0.0
251	0x00000000	0.0
252	0x00000000	0.0
253	0x00000000	0.0
254	0x00000000	0.0
255	0x00000000	0.0
