3DPlayground/results/Test11/MoveToGoal/MoveToGoal-2792.pt (torch, 174563 bytes, 14 tensors)

network_body._body_endoder.seq_layers.0.weight f4 [128, 27]
000000 57 10 01 3e ba 8e da be a6 67 aa 3e 4b e3 39 3e
       0.1260389 -0.42687017 0.33282202 0.18153112
000010 4f 2d 8c bd 03 c0 59 3e f8 c9 d8 3e da 3c 09 3f
       -0.068445794 0.21264653 0.4234159 0.5360848
000020 3e 89 2b 3e f5 ad 32 bc 3d 1c 0e 3e b8 4a 1b be
       0.16751572 -0.010905732 0.1387796 -0.15165222
000030 78 88 15 be 35 2d 07 3d 44 45 23 3c c6 cc 87 3e
       -0.1460284 0.033002097 0.009965245 0.26523417
000040 19 c1 70 be 43 39 75 3e 4b 92 49 be fc 16 e0 3d
       -0.23511161 0.23947625 -0.19684713 0.10941884
000050 50 25 48 3e c3 45 80 3d 6b 68 95 be 11 7a be 3e
       0.19545484 0.06263306 -0.29181227 0.37202504
000060 54 f0 7d be ad 6e 39 3e 86 a8 5c 3e 34 87 a7 3e
       -0.24798709 0.18108626 0.21548662 0.3272034
000070 6f 78 ac bd e9 ea ab bd 8c 09 2e be c7 d2 64 3e
       -0.084214084 -0.08394415 -0.1699583 0.2234603
000080 5c 90 80 3b 80 4a 6f 3d 5e 87 94 bd 0f f5 46 3e
       0.003923459 0.058420658 -0.07252382 0.1942942
000090 04 40 d6 3d 3a dd d6 bd e5 3d 1b be 9b fa 16 bd
       0.10461429 -0.10491414 -0.1516033 -0.03686009
0000a0 f0 ac ed bd 0d bc 42 3e dd e2 0a 3c 3e 1b 85 ba
       -0.11605251 0.19017048 0.00847694 -0.0010155214
0000b0 7d e2 81 3c 44 a1 8a 3e 11 11 aa 3d 4e 4f 7e be
       0.015855068 0.2707616 0.083040364 -0.2483494
0000c0 e7 01 6e bd 26 80 43 3e 59 70 99 3c 4f 8f 5b be
       -0.058107283 0.19091853 0.01873033 -0.21441387
0000d0 49 d6 36 bd 26 30 db 3b 16 c1 a1 3c c9 f7 b1 3d
       -0.044637952 0.0066890894 0.01974539 0.086898394
0000e0 a7 bb c2 be 08 61 84 be 95 7b d0 bd ec 76 c3 bd
       -0.38033792 -0.2585528 -0.101798214 -0.09544167
0000f0 95 09 d1 3e 0c 2e 81 bd 98 38 2f bc 3a 0c e3 3b
       0.40827623 -0.06307611 -0.010694645 0.0069289478
000100 b9 aa bb be 15 bc 3e bc ff fd 09 3e ba e3 8f bd
       -0.3665369 -0.011641522 0.13475798 -0.07025857
000110 95 db 7d 3e cb df 33 3e d1 c1 b5 3e 7c 9d c8 bd
       0.24790795 0.17565839 0.35499433 -0.09795663
000120 9d dd c8 bc 64 bf b6 3d 15 01 8b be 49 1b a6 3c
       -0.024519736 0.089232236 -0.27149263 0.020276682
000130 6f 7d a9 3d ba 68 f0 bd ea 40 42 bd 9e d7 05 3e
       0.08275878 -0.11738725 -0.047425188 0.13070533
000140 5b 7e 19 3e 1f 45 b5 3c 5e 76 a6 3c fe d9 88 3d
       0.14989607 0.022127686 0.020320114 0.06682204
000150 56 46 65 bc 75 9c 5c be 0f a4 5a 3e 37 d3 5c bb
       -0.01399382 -0.21544059 0.21351646 -0.003369523
000160 04 ff 5c bd ef 51 b2 3d 88 7a d4 3d de af 15 3e
       -0.05395414 0.08707034 0.103749335 0.1461787
000170 c6 15 64 be f4 cb 87 3d eb 59 1a 3e f4 b4 0e 3e
       -0.22273931 0.06630698 0.15073363 0.13936216
000180 01 3b f1 bd 4d a0 35 bc 66 f9 0d 3e e6 86 cd 3d
       -0.11778832 -0.011085582 0.13864669 0.100354955
000190 ed e4 0c 3e 2f a9 d6 3d cc ba 0e 3d 40 be 89 3c
       0.13759203 0.10481488 0.034846112 0.016814351
0001a0 b1 a2 aa 3d 36 25 66 3e 99 6f 17 3d f0 9c ca be
       0.08331812 0.22475132 0.036971662 -0.3957286
0001b0 47 a9 d7 be 0f 6f a9 bd aa b1 7c be e1 cc 99 be
       -0.42121336 -0.08273136 -0.24677148 -0.30039123
0001c0 aa fe 2f be ad 1d e5 3d 26 95 09 3e bc 34 16 be
       -0.1718699 0.11187301 0.13435802 -0.14668554
0001d0 4f ff a6 3e 6b b8 a5 3d 67 6f 50 3a 5f af ad be
       0.3261666 0.080918156 0.00079511706 -0.3392286
0001e0 53 ba ce 3c 72 a7 d9 be 0e d2 d1 3e 52 fa ec 3e
       0.02523533 -0.42510563 0.40980572 0.4628473
0001f0 aa ee 7b 3b 34 b5 a2 3e b8 c8 8b 3b 46 02 73 be
       0.0038441815 0.31778872 0.004265871 -0.23731336
000200 56 ea 9b 3e fb ac 44 bd 0f 8e 8b 3e ab 22 b6 bd
       0.30452222 -0.04801653 0.2725682 -0.08893331
000210 4b 81 6d 3e 78 53 91 3d cf 3a 0e 3e f3 4c 18 3e
       0.23193853 0.070959985 0.13889621 0.14873104
000220 3b 04 89 be a4 24 10 bd 5f 9a 7e be 3c ab 18 be
       -0.2676104 -0.035191193 -0.24863575 -0.1490907
000230 df eb 96 3e 1e 1d a8 3d d3 36 cb be 44 22 66 3d
       0.2947683 0.08208679 -0.39690265 0.056185022
000240 8d ac 9b bd 55 03 50 bb 8f 83 51 3d e7 78 42 be
       -0.07601271 -0.0031740267 0.051150855 -0.18991433
000250 fc 17 72 be 8e d8 90 3d 64 9b 05 3d 07 d5 ba be
       -0.23641962 0.070725545 0.032618895 -0.36490652
000260 f2 fc 57 be f5 67 31 be f8 f0 24 be 38 ab 4e 3e
       -0.21092585 -0.17324813 -0.16107547 0.20182502
000270 37 7d 17 3e ac b8 0b 3d 51 80 5a bd eb 57 e0 bd
       0.1479386 0.034111664 -0.05334503 -0.10954269
000280 b6 74 be 3d d1 a5 fd 3d ed 15 0a 3d d4 2c 25 bd
       0.092996046 0.123851426 0.033712316 -0.040325955
000290 41 96 17 3d 49 83 8f 3e 9d ce 9c 3e 53 64 5f 3e
       0.037008528 0.2802985 0.30626383 0.21815614
0002a0 ff 20 08 bf 6d 10 fd bd 67 c8 7f 3e e9 98 3b 3e
       -0.5317535 -0.123566486 0.24978791 0.1832005
0002b0 c9 7a 31 3e cd 1d da bd d4 5b 4a be a5 c5 8c 3e
       0.17331995 -0.10650215 -0.19761592 0.2749454
0002c0 25 4c bf 3e e7 f6 8a be 7e 2f c7 be 08 ff ff 3d
       0.3736278 -0.27141497 -0.3890342 0.12499815
0002d0 6e 80 17 be ca 78 f8 bc f1 da 94 be f6 37 20 3e
       -0.14795086 -0.030331034 -0.2907329 0.15646347
0002e0 a1 f4 d9 3e 70 0e 26 bd 12 f3 07 3e 57 5f 4f be
       0.4256945 -0.040541112 0.13276318 -0.20251213
0002f0 a8 05 20 be 92 9d 54 bd 4e 72 b7 3e 3a 5d 29 be
       -0.15627158 -0.051908083 0.35829395 -0.1653947
000300 32 f6 9e 3e 35 1e 8a 3e 3d 36 04 be 48 20 89 be
       0.31047207 0.2697617 -0.12911315 -0.2678244
000310 26 4a a2 3d 74 ac 84 3e fe 9e 05 be 33 1a db bd
       0.07924299 0.2591282 -0.13048932 -0.106983565
000320 c6 c9 1c 3e 14 f2 3d be 9c b6 70 be 3a 45 24 bb
       0.15311345 -0.18549377 -0.2350716 -0.0025065676
000330 8b 09 d9 3e ef b9 2a 3e 66 da 87 be d7 72 05 3e
       0.42390093 0.1667249 -0.26533812 0.13032089
000340 89 ad 52 3e 3a b8 25 3d f2 70 c1 bd 72 30 41 3d
       0.20574011 0.040458895 -0.09445371 0.04716534
000350 ee f6 f7 bd c3 77 0b be c6 8f eb 3d 6e ab 47 3e
       -0.12107645 -0.13619904 0.11502032 0.19498989
000360 64 fc e7 bd 6f 01 c9 bb 7d aa 86 3c 96 84 5b 3d
       -0.113274366 -0.006134204 0.016438717 0.05359324
000370 d2 7f 5e bd 37 19 c8 3d 7b aa 0a 3d 2a 07 84 3d
       -0.054321118 0.09770434 0.03385399 0.06446679
000380 46 31 b6 3e f1 99 83 ba c4 22 0c 3e ce f1 5f 3e
       0.35584468 -0.0010040385 0.13685137 0.21869585
000390 c9 b5 d8 3d 1f 18 3e 3e f0 bd e5 bd 91 f1 6a be
       0.10581548 0.18563889 -0.11217868 -0.22943713
0003a0 ba 3f b3 3d 52 d1 e2 be aa c0 a6 3e 13 26 30 bc
       0.08752389 -0.44300324 0.32568866 -0.010751265
0003b0 d0 91 f2 3d 31 f7 b2 3e 88 fd 67 3d 38 53 4b 3d
       0.11844218 0.34954217 0.05663827 0.04963991
0003c0 2e 41 8b 3e d6 a1 8f 3d 97 58 3e be 82 1d ef bd
       0.27198166 0.0701329 -0.18588482 -0.1167555
0003d0 e7 75 ad 3d 1e 53 08 3e 5e 10 d4 3d 55 da 04 3d
       0.08469754 0.13312957 0.10354684 0.03243478
0003e0 90 fd 3d bd dd c8 3d be 04 04 29 3e 10 af 15 bd
       -0.046384394 -0.18533655 0.16505438 -0.036543906
0003f0 71 85 d2 bd b7 5e 8a 3d 9f e5 41 be a8 f7 c6 be
       -0.10279358 0.06756347 -0.1893525 -0.38860822

network_body._body_endoder.seq_layers.0.bias f4 [128]
000000 00 00 00 00 00 00 00 00 00 00 00 00 00 00 00 00
       0.0 0.0 0.0 0.0
000010 00 00 00 00 00 00 00 00 00 00 00 00 00 00 00 00
       0.0 0.0 0.0 0.0
000020 00 00 00 00 00 00 00 00 00 00 00 00 00 00 00 00
       0.0 0.0 0.0 0.0
000030 00 00 00 00 00 00 00 00 00 00 00 00 00 00 00 00
       0.0 0.0 0.0 0.0
000040 00 00 00 00 00 00 00 00 00 00 00 00 00 00 00 00
       0.0 0.0 0.0 0.0
000050 00 00 00 00 00 00 00 00 00 00 00 00 00 00 00 00
       0.0 0.0 0.0 0.0
000060 00 00 00 00 00 00 00 00 00 00 00 00 00 00 00 00
       0.0 0.0 0.0 0.0
000070 00 00 00 00 00 00 00 00 00 00 00 00 00 00 00 00
       0.0 0.0 0.0 0.0
000080 00 00 00 00 00 00 00 00 00 00 00 00 00 00 00 00
       0.0 0.0 0.0 0.0
000090 00 00 00 00 00 00 00 00 00 00 00 00 00 00 00 00
       0.0 0.0 0.0 0.0
0000a0 00 00 00 00 00 00 00 00 00 00 00 00 00 00 00 00
       0.0 0.0 0.0 0.0
0000b0 00 00 00 00 00 00 00 00 00 00 00 00 00 00 00 00
       0.0 0.0 0.0 0.0
0000c0 00 00 00 00 00 00 00 00 00 00 00 00 00 00 00 00
       0.0 0.0 0.0 0.0
0000d0 00 00 00 00 00 00 00 00 00 00 00 00 00 00 00 00
       0.0 0.0 0.0 0.0
0000e0 00 00 00 00 00 00 00 00 00 00 00 00 00 00 00 00
       0.0 0.0 0.0 0.0
0000f0 00 00 00 00 00 00 00 00 00 00 00 00 00 00 00 00
       0.0 0.0 0.0 0.0
000100 00 00 00 00 00 00 00 00 00 00 00 00 00 00 00 00
       0.0 0.0 0.0 0.0
000110 00 00 00 00 00 00 00 00 00 00 00 00 00 00 00 00
       0.0 0.0 0.0 0.0
000120 00 00 00 00 00 00 00 00 00 00 00 00 00 00 00 00
       0.0 0.0 0.0 0.0
000130 00 00 00 00 00 00 00 00 00 00 00 00 00 00 00 00
       0.0 0.0 0.0 0.0
000140 00 00 00 00 00 00 00 00 00 00 00 00 00 00 00 00
       0.0 0.0 0.0 0.0
000150 00 00 00 00 00 00 00 00 00 00 00 00 00 00 00 00
       0.0 0.0 0.0 0.0
000160 00 00 00 00 00 00 00 00 00 00 00 00 00 00 00 00
       0.0 0.0 0.0 0.0
000170 00 00 00 00 00 00 00 00 00 00 00 00 00 00 00 00
       0.0 0.0 0.0 0.0
000180 00 00 00 00 00 00 00 00 00 00 00 00 00 00 00 00
       0.0 0.0 0.0 0.0
000190 00 00 00 00 00 00 00 00 00 00 00 00 00 00 00 00
       0.0 0.0 0.0 0.0
0001a0 00 00 00 00 00 00 00 00 00 00 00 00 00 00 00 00
       0.0 0.0 0.0 0.0
0001b0 00 00 00 00 00 00 00 00 00 00 00 00 00 00 00 00
       0.0 0.0 0.0 0.0
0001c0 00 00 00 00 00 00 00 00 00 00 00 00 00 00 00 00
       0.0 0.0 0.0 0.0
0001d0 00 00 00 00 00 00 00 00 00 00 00 00 00 00 00 00
       0.0 0.0 0.0 0.0
0001e0 00 00 00 00 00 00 00 00 00 00 00 00 00 00 00 00
       0.0 0.0 0.0 0.0
0001f0 00 00 00 00 00 00 00 00 00 00 00 00 00 00 00 00
       0.0 0.0 0.0 0.0

network_body._body_endoder.seq_layers.2.weight f4 [128, 128]
000000 26 a0 c6 3c e1 d4 a2 bd 37 5a 14 bc 08 fb 3b bd
       0.024246287 -0.0795076 -0.009054712 -0.0458937
000010 2e b1 2a bc 60 33 87 bd c8 0d 96 3d 98 a8 ab 3c
       -0.0104182195 -0.06601596 0.07326847 0.020954415
000020 f6 fa 9c bc 73 51 31 bb ac 11 3b be 31 4a 13 be
       -0.019162636 -0.0027056604 -0.1826846 -0.1438377
000030 0c b2 db 3d 3b 35 4c 3c f2 2b 86 bd ac 08 43 3d
       0.10727319 0.012463863 -0.06551351 0.047615692
000040 27 67 a9 bb ee d0 d5 bd a1 d4 1b be 2d cf 4d bd
       -0.0051697674 -0.10440241 -0.1521783 -0.050246406
000050 de 36 dd 3d 23 25 3d 3c 71 de a0 bc 53 99 fc bc
       0.10801481 0.011544499 -0.019637318 -0.03083483
000060 4a e3 11 bc 11 d7 e2 bc 82 93 db bc c9 5a 15 be
       -0.008904288 -0.027690442 -0.026803736 -0.14585413
000070 94 af c5 3d c3 da 15 3c 7a 9c a5 bc 50 83 32 3e
       0.096526295 0.009146395 -0.020216215 0.17432904
000080 99 9e 08 be 3c 31 3e bc 5c 65 48 be 32 6d d4 ba
       -0.1334175 -0.011608418 -0.19569916 -0.0016206859
000090 f3 18 3a bc 2e 80 00 be 28 1a 5e bd 74 f1 ed 3d
       -0.011358487 -0.12548897 -0.054224163 0.11618319
0000a0 d9 40 43 bd 67 d5 32 bd 92 a9 55 bc db e4 04 be
       -0.047669265 -0.043660548 -0.013040917 -0.12977926
0000b0 e6 d2 b2 3c 8d d9 11 bd 75 92 91 3b 64 c8 a0 bc
       0.02182908 -0.035607863 0.004442508 -0.019626804
0000c0 e3 ff 69 bd 83 f3 85 bc 19 e9 e7 bc a9 8f 18 3e
       -0.0571288 -0.016351467 -0.028309392 0.14898552
0000d0 7c 6a ad 3d 2d 58 be 3d 36 14 22 3d 7c 1b e1 3c
       0.08467576 0.09294162 0.039570056 0.027478926
0000e0 1e 32 3d bd 60 b9 d7 3c 33 d3 34 be 93 64 13 be
       -0.046190374 0.02633351 -0.17658691 -0.14393835
0000f0 ae 90 60 bc 9f b5 dd bd c7 b6 49 3c f3 ab 2a bd
       -0.013706369 -0.10825657 0.012311644 -0.04166789
000100 d4 48 82 3c e9 a4 f2 bc 89 4d a6 bd ca e1 26 be
       0.015903868 -0.02961965 -0.081202574 -0.16297069
000110 f9 f5 92 3d c6 0c 03 3d 67 68 de bd 32 62 38 bd
       0.07175822 0.031994604 -0.10859757 -0.04501552
000120 1b d5 23 be ed 98 2f be f5 a3 d8 bd 21 ea b8 3d
       -0.15999262 -0.1714818 -0.10578147 0.090290315
000130 2c 47 8a 3d 17 20 b8 bd 3b 0c cc bc 33 cc 0f be
       0.06751856 -0.08990496 -0.024908176 -0.1404274
000140 bd 26 67 3d 47 16 33 3d 46 f6 f3 bd 91 f0 f6 3c
       0.056433428 0.043722417 -0.11912207 0.030144008
000150 4d 59 28 be f4 5c 04 be bf 4c 1f bd 11 20 68 bd
       -0.16440316 -0.12926084 -0.03889155 -0.056671206
000160 7f b4 d5 3c eb 2b 1d 3d f8 b5 4b 3d 92 c9 b8 3d
       0.026087044 0.03837196 0.049734086 0.090228215
000170 1b ce 0e be c9 18 45 3c d7 40 21 3e 09 90 48 bd
       -0.1394581 0.012029835 0.1574739 -0.048965488
000180 22 08 b5 bd 1a 97 c1 3d 33 83 0b bd 22 32 a0 3d
       -0.08839442 0.094526485 -0.03406067 0.07822062
000190 d9 b8 39 bb d7 3c e7 bd 9a 20 10 3d ad 86 bc bd
       -0.0028338938 -0.11290901 0.03518734 -0.09205375
0001a0 95 28 81 3c 9c 54 32 be 0d b1 b6 bd 7e 19 86 3d
       0.015766421 -0.17415088 -0.089204885 0.06547831
0001b0 91 51 02 3e a2 f6 10 3e 69 a1 56 bd 80 07 83 3d
       0.12726428 0.14156583 -0.052400026 0.06397915
0001c0 f1 51 df 3b 3a d4 14 be d2 a1 d2 3d 1a c7 f9 3c
       0.006815188 -0.14534083 0.10284771 0.030490447
0001d0 83 62 fb 3c 74 34 38 be f7 ed 00 3e 2d 5d fe 3c
       0.030686622 -0.1798876 0.12590776 0.031050289
0001e0 9b e4 a0 3a 22 24 04 bc 0d 59 5d be 94 8f 06 3e
       0.0012275161 -0.008065255 -0.21616001 0.13140708
0001f0 81 7b a4 3c 57 bb 40 bb b5 0b 8c 3c a0 99 4f 3e
       0.020078423 -0.0029408538 0.017095426 0.20273447
000200 bd 86 a2 bc 5b 8b 63 3d 1f 26 ac bd a2 c8 05 3d
       -0.019839639 0.05555282 -0.084057085 0.03266204
000210 2f 6d c2 3d 5f 91 1e 3e 1e 15 86 3b ee d5 e3 bd
       0.09493481 0.15485142 0.004091873 -0.11124788
000220 a2 a9 31 be b8 e7 ab 3d cc c7 8a bd a7 c0 5f bd
       -0.17349866 0.08393806 -0.067763895 -0.054627087
000230 62 38 02 3e 28 24 a6 3c 99 d4 d2 3b b5 9d 97 3d
       0.12716821 0.020280913 0.006434035 0.07403127
000240 d1 84 19 be c6 04 ba bd 11 b4 c5 3c 10 4f 4f bd
       -0.14992072 -0.09082942 0.024133714 -0.05061251
000250 b5 a2 4a 3d 8b 3c 52 3c 1a 8d 2a bc bf 16 5c bd
       0.049471576 0.012831817 -0.010409618 -0.05373263
000260 fb 10 8d 3c 45 5c c9 3d c2 61 e0 3d da 95 8f 3d
       0.017220011 0.09832052 0.10956146 0.07011004
000270 65 fe 51 bd 14 2e 22 3d c2 12 15 bd c6 4a 06 3e
       -0.051268 0.039594725 -0.036394842 0.13114461
000280 22 fe c6 3d 7c d1 1b bc 4c 3a ae bd 25 16 69 3e
       0.09716441 -0.009510394 -0.08507213 0.22762354
000290 1a 9d 1d 3b ff 8f 8c 3c 31 ae 62 ba 63 88 51 bc
       0.0024049939 0.017158506 -0.00086471724 -0.012788865
0002a0 19 c9 2d bc da da 7a 3c b1 fc 17 3d a6 9a 7d 3d
       -0.010607027 0.015310967 0.03710622 0.061915062
0002b0 bb 61 b8 bc d3 79 bc 3d 0b 7e 56 3c 20 66 b4 bd
       -0.022507539 0.092029236 0.013091574 -0.08808541
0002c0 6b 65 40 bc f0 ae 53 be d8 29 ea 3c 5f e2 9d 3d
       -0.01174293 -0.20672202 0.028584406 0.077091925
0002d0 1f eb 7b be cb df 0e bc a6 d4 40 bb d5 4b 4e 3d
       -0.2460141 -0.008720349 -0.0029423623 0.050365288
0002e0 27 fe a1 bd 1e dd c2 3c 25 e4 28 bd 04 93 97 bc
       -0.07909804 0.023787078 -0.0412332 -0.01850272
0002f0 72 b0 06 be 9f af 2c be e4 fc e6 3d 67 45 a4 3d
       -0.13153246 -0.16863869 0.11278704 0.0802105
000300 74 1c 1e 3e c1 2b 25 be 69 2e df 3c 4e a7 99 bd
       0.15440542 -0.16129972 0.02724381 -0.07502614
000310 f9 c6 ca 3d 9b 5f 12 be 5c 1d d8 bb a4 34 cd bd
       0.09901232 -0.14294283 -0.006595297 -0.10019806
000320 09 51 9c 3d 91 c5 1a be 6f 6d f2 bd 55 62 8f 3e
       0.07632644 -0.15114428 -0.11837279 0.2800471
000330 26 20 db bd 95 d9 ed 3d be 93 26 3e d6 cd 74 3c
       -0.10699491 0.11613766 0.16267297 0.014941653
000340 23 d8 45 be 9c d1 1c bc ec ba 88 bd b0 96 75 bd
       -0.19320731 -0.009571459 -0.066762775 -0.05995816
000350 30 dc 8d bd 23 95 83 be 59 1a 89 bd f8 46 4b 3d
       -0.06926763 -0.2569972 -0.066944785 0.049628228
000360 0f e2 28 bd 16 27 62 bd 83 17 19 bc e2 77 f9 3c
       -0.04123121 -0.055213057 -0.009343985 0.030452672
000370 0a 99 b4 bc 1b 91 d0 3c b6 54 b7 3d b3 cc a6 3d
       -0.022045631 0.025459817 0.08951704 0.08144512
000380 59 3d 60 3d 89 4d b3 bc f4 7f f3 bc d5 53 96 3c
       0.054746006 -0.021887558 -0.029724099 0.018350521
000390 e0 35 b0 3d 33 36 95 3d 15 3e 5c 3d 7e 34 78 bc
       0.08604026 0.07285728 0.053770144 -0.015149234
0003a0 ea 96 94 3d 03 7d db bd 8b 64 2b be 2f e2 11 3e
       0.07255347 -0.107172035 -0.16737573 0.14246438
0003b0 0d 40 27 3c 09 6e 95 3b f6 25 aa bc fe 3d 2f be
       0.010208142 0.0045602364 -0.020770054 -0.17113492
0003c0 36 54 91 3d 73 0f 57 be b7 5a 19 bd 3f f3 e2 bd
       0.0709614 -0.21001987 -0.037440028 -0.11081552
0003d0 3d 9f 15 bd bd 51 d6 3b 2e bb d3 3d 1c 62 a1 bd
       -0.036528815 0.0065405057 0.10338436 -0.07880041
0003e0 ae 86 5b bd a2 36 6a bc a0 5d 62 3c f8 67 1b bd
       -0.053595237 -0.014295252 0.013816267 -0.03794095
0003f0 e3 9f fd 3b ca 2a 5f bd 2f 1f 05 bd 91 1c dd bd
       0.0077400072 -0.054484166 -0.032500442 -0.10796464

network_body._body_endoder.seq_layers.2.bias f4 [128]
000000 00 00 00 00 00 00 00 00 00 00 00 00 00 00 00 00
       0.0 0.0 0.0 0.0
000010 00 00 00 00 00 00 00 00 00 00 00 00 00 00 00 00
       0.0 0.0 0.0 0.0
000020 00 00 00 00 00 00 00 00 00 00 00 00 00 00 00 00
       0.0 0.0 0.0 0.0
000030 00 00 00 00 00 00 00 00 00 00 00 00 00 00 00 00
       0.0 0.0 0.0 0.0
000040 00 00 00 00 00 00 00 00 00 00 00 00 00 00 00 00
       0.0 0.0 0.0 0.0
000050 00 00 00 00 00 00 00 00 00 00 00 00 00 00 00 00
       0.0 0.0 0.0 0.0
000060 00 00 00 00 00 00 00 00 00 00 00 00 00 00 00 00
       0.0 0.0 0.0 0.0
000070 00 00 00 00 00 00 00 00 00 00 00 00 00 00 00 00
       0.0 0.0 0.0 0.0
000080 00 00 00 00 00 00 00 00 00 00 00 00 00 00 00 00
       0.0 0.0 0.0 0.0
000090 00 00 00 00 00 00 00 00 00 00 00 00 00 00 00 00
       0.0 0.0 0.0 0.0
0000a0 00 00 00 00 00 00 00 00 00 00 00 00 00 00 00 00
       0.0 0.0 0.0 0.0
0000b0 00 00 00 00 00 00 00 00 00 00 00 00 00 00 00 00
       0.0 0.0 0.0 0.0
0000c0 00 00 00 00 00 00 00 00 00 00 00 00 00 00 00 00
       0.0 0.0 0.0 0.0
0000d0 00 00 00 00 00 00 00 00 00 00 00 00 00 00 00 00
       0.0 0.0 0.0 0.0
0000e0 00 00 00 00 00 00 00 00 00 00 00 00 00 00 00 00
       0.0 0.0 0.0 0.0
0000f0 00 00 00 00 00 00 00 00 00 00 00 00 00 00 00 00
       0.0 0.0 0.0 0.0
000100 00 00 00 00 00 00 00 00 00 00 00 00 00 00 00 00
       0.0 0.0 0.0 0.0
000110 00 00 00 00 00 00 00 00 00 00 00 00 00 00 00 00
       0.0 0.0 0.0 0.0
000120 00 00 00 00 00 00 00 00 00 00 00 00 00 00 00 00
       0.0 0.0 0.0 0.0
000130 00 00 00 00 00 00 00 00 00 00 00 00 00 00 00 00
       0.0 0.0 0.0 0.0
000140 00 00 00 00 00 00 00 00 00 00 00 00 00 00 00 00
       0.0 0.0 0.0 0.0
000150 00 00 00 00 00 00 00 00 00 00 00 00 00 00 00 00
       0.0 0.0 0.0 0.0
000160 00 00 00 00 00 00 00 00 00 00 00 00 00 00 00 00
       0.0 0.0 0.0 0.0
000170 00 00 00 00 00 00 00 00 00 00 00 00 00 00 00 00
       0.0 0.0 0.0 0.0
000180 00 00 00 00 00 00 00 00 00 00 00 00 00 00 00 00
       0.0 0.0 0.0 0.0
000190 00 00 00 00 00 00 00 00 00 00 00 00 00 00 00 00
       0.0 0.0 0.0 0.0
0001a0 00 00 00 00 00 00 00 00 00 00 00 00 00 00 00 00
       0.0 0.0 0.0 0.0
0001b0 00 00 00 00 00 00 00 00 00 00 00 00 00 00 00 00
       0.0 0.0 0.0 0.0
0001c0 00 00 00 00 00 00 00 00 00 00 00 00 00 00 00 00
       0.0 0.0 0.0 0.0
0001d0 00 00 00 00 00 00 00 00 00 00 00 00 00 00 00 00
       0.0 0.0 0.0 0.0
0001e0 00 00 00 00 00 00 00 00 00 00 00 00 00 00 00 00
       0.0 0.0 0.0 0.0
0001f0 00 00 00 00 00 00 00 00 00 00 00 00 00 00 00 00
       0.0 0.0 0.0 0.0

action_model._continuous_distribution.log_sigma f4 [1, 2]
000000 00 00 00 00 00 00 00 00
       0.0 0.0

action_model._continuous_distribution.mu.weight f4 [2, 128]
000000 e5 f2 4a 3c 03 f6 3c 3c 1b 7d 55 bc 83 03 98 bc
       0.012387012 0.011533263 -0.013030316 -0.018556362
000010 64 1e 4a bc 4b 00 a7 bc 53 c7 07 bd 54 59 11 3c
       -0.012336347 -0.020385882 -0.033149075 0.008871395
000020 01 3b 89 3b d2 7d 23 3c 27 0f 0e bc 52 24 25 3c
       0.004187942 0.009978728 -0.008670605 0.01007946
000030 3b 4f ae 3b 48 07 ab bc ed e9 cf bc eb e3 d6 bc
       0.0053195036 -0.020877495 -0.0253801 -0.026231727
000040 e5 cf 0e 3d f7 d1 87 bc 47 57 61 bc c7 d1 b8 bc
       0.034866232 -0.016579611 -0.013753719 -0.022560967
000050 03 a5 9a bc 47 79 e7 3b 7c 22 81 bc bb ee 7e bb
       -0.018877512 0.007064018 -0.015763514 -0.0038899619
000060 11 39 92 bc fa 8f 83 3c d6 27 84 bc e3 fa ac bc
       -0.017849477 0.016059864 -0.016132277 -0.021115726
000070 67 17 38 3b 02 99 eb bc 46 81 31 3c d3 fe 11 bd
       0.002809012 -0.028759483 0.010834044 -0.03564341
000080 de 88 00 3d 7a 7f 81 39 28 56 85 bc 77 7c de bc
       0.031380527 0.00024699775 -0.016276434 -0.027158959
000090 3f 2f d0 bc 52 b4 4c 3a 36 7b b8 3c 31 e5 01 bc
       -0.025413154 0.0007808852 0.022519689 -0.007928179
0000a0 5d bd ee 3b 57 d5 2c 3c c6 3a 03 3c b2 ff 7e 3c
       0.0072857575 0.010548911 0.008009618 0.015563892
0000b0 e2 92 e5 bc b2 b0 71 3b 20 87 42 bd ea be 3c bd
       -0.02802414 0.0036879 -0.047492146 -0.046080507
0000c0 4f 93 ce 3b e2 54 a2 3c cb 17 9a 3c ae d3 a4 3c
       0.0063041816 0.019815866 0.018810173 0.020120468
0000d0 cd 49 f3 b8 63 e6 68 bb dc 24 9e 3b 99 09 b2 3c
       -0.000116008894 -0.0035537712 0.0048261713 0.021733092
0000e0 9b 55 b6 3a 23 09 18 bc f8 be 9f ba 43 d4 b5 bc
       0.001391101 -0.009279522 -0.001218765 -0.02219594
0000f0 cf cd b3 ba 2a 7a 04 bd e2 ac b5 bc 92 3d 78 bc
       -0.0013717952 -0.032343067 -0.022177164 -0.015151398
000100 53 16 49 3c d0 d9 d0 bb 27 08 dc bc 7d da 88 3c
       0.012273389 -0.0063736215 -0.026859356 0.016705746
000110 ff ab 5e 3c 27 7e 06 3c 58 91 5d bc 3f 16 5c bc
       0.013590812 0.008208788 -0.013523422 -0.013433038
000120 e0 b7 0d 3a 5b de 78 bc 00 16 c3 3c ab 96 99 bc
       0.00054061227 -0.015189732 0.023814201 -0.018748602
000130 c9 35 07 3b e2 8a 0e bd 1d 39 4d ba cf 41 81 3b
       0.0020631424 -0.034800418 -0.000782864 0.0039446126
000140 47 68 0e bb da 3b b0 ba 0b a0 db bb 23 36 54 3b
       -0.0021729635 -0.0013445572 -0.006702428 0.00323809
000150 39 77 15 bb 36 4e af 3c 1a c3 88 3c 53 18 67 3b
       -0.0022806658 0.021399599 0.016694594 0.00352623
000160 4d 78 39 3c fc 55 1b 3c 60 83 68 bc 7b 3f be 3c
       0.011320186 0.0094809495 -0.0141914785 0.02322363
000170 7a fa 98 bb 85 c7 cd 3c 35 32 81 3c eb 05 5a bb
       -0.004668531 0.025119552 0.01577101 -0.0033267688
000180 83 a3 79 ba b1 d4 43 3c 51 4f 3a 3d 58 ee 6b bd
       -0.00095229613 0.011952565 0.0454858 -0.05760035
000190 db 64 58 bc ea 71 a9 3c b3 9b 3d bc 8d 7f 5b bc
       -0.01320764 0.020684201 -0.011572766 -0.01339711
0001a0 22 64 30 bd 47 52 dc 3c ce b5 b6 3b 59 bb 85 3c
       -0.043064244 0.026894702 0.005575872 0.016324686
0001b0 bd 2d bf bc 7e be 9e 3b 9d 24 37 bc 1d 92 6a bd
       -0.02333724 0.004844486 -0.011178163 -0.05726825
0001c0 ad 2d be bb 43 f2 ca bc 87 a1 8a 3b 04 1b 24 bc
       -0.005803785 -0.024773723 0.0042306813 -0.010016207
0001d0 b3 5a 85 3c 7f 95 9a 3c bf 10 31 ba e2 fb 07 3d
       0.0162786 0.018870113 -0.00067545095 0.0331992
0001e0 b3 fe 80 bc 5e e4 1d 3c 08 0e dd 3c 5f 16 07 bd
       -0.01574645 0.0096369665 0.02698423 -0.03298032
0001f0 95 e5 73 3b 1a 56 04 3d cb b0 80 3c 2d b2 f5 bc
       0.00372157 0.032308675 0.015709301 -0.029992187
000200 a7 88 e7 bc d3 7f 28 3c 10 06 57 3c 14 3c 03 bc
       -0.028263403 0.010284382 0.013124004 -0.008009929
000210 d7 e8 9d bb ce df c9 bc ac ef 16 bd 22 2c ce bc
       -0.0048190164 -0.024642851 -0.036849663 -0.025167529
000220 b2 a2 bd 3b 17 bf ca 3b 58 64 61 bc ef 45 c2 3c
       0.005787217 0.0061873305 -0.013756834 0.023714988
000230 f2 43 0f bd 91 74 14 3d ba 7f a6 3b f9 fa 2e 3c
       -0.034976907 0.03624398 0.005081144 0.010679954
000240 13 da bf 3c 56 6c 41 bc d8 4c 3b bc bf 07 8d bc
       0.023419416 -0.011805614 -0.011431895 -0.017215608
000250 e0 c2 5d 3c 57 30 9d ba d8 a2 1f bc 13 ce 7e 3a
       0.013535231 -0.0011992556 -0.009743415 0.00097200385
000260 ab 7d 0f 3c 19 c4 95 3c fb 9e 70 bb 3f dd 1c 3d
       0.008757989 0.018281983 -0.0036715853 0.038296934
000270 fb f9 b7 bb 5b c8 d9 bc 9d c0 da 3c 50 2f 98 bc
       -0.005614517 -0.026584795 0.026703173 -0.018577248
000280 98 2a e7 bc 9d f0 5b bb b7 ae 85 bb 05 3a 49 bd
       -0.028218552 -0.0033560165 -0.0040796655 -0.049127597
000290 91 54 06 3d 01 03 c7 3b ff 57 86 3b 40 fe 6e 3c
       0.032795493 0.006073356 0.0040998454 0.014586985
0002a0 81 3f 2e 3c 86 69 0f 3d 3a ba f3 39 6b 91 bb 3c
       0.010635258 0.035012744 0.0004648732 0.02289649
0002b0 ee 11 b2 bc b5 c3 90 3b 1a f4 4e 3c 5d 55 82 ba
       -0.021737065 0.0044178613 0.012631441 -0.0009943653
0002c0 c5 95 91 bb 5e 42 09 bc 03 ed ec 3b 47 0a b3 bb
       -0.0044429027 -0.00837764 0.0072304024 -0.0054638716
0002d0 9b db 38 bd 53 4f 54 bc 27 5a e4 3c 02 5a ed 3a
       -0.045131307 -0.0129583655 0.02787502 0.001810849
0002e0 b9 47 2c bb b0 1e 22 3c aa 35 db 3b 35 17 6d bc
       -0.0026287867 0.009895012 0.006689747 -0.014470865
0002f0 66 14 b1 bb 1a 99 4e bc e8 b3 61 3c e3 a3 90 3c
       -0.005404043 -0.012609744 0.013775803 0.017656272
000300 e8 bc a8 3c 37 e3 09 bb f7 1f af bc 93 e3 42 3c
       0.02059789 -0.0021039972 -0.021377547 0.011895078
000310 e5 3d 39 3c 8b e6 a9 ba f3 60 ad 3b 61 c2 04 3d
       0.011306261 -0.0012962384 0.0052910983 0.032411937
000320 00 44 d9 ba f5 3b f9 3b 55 09 81 bb 7d af 6f bc
       -0.0016576052 0.0076060244 -0.00393788 -0.014629242
000330 72 56 7d bc 20 ab 56 3c bf 3a 0f 3c d9 a9 a1 bb
       -0.015462505 0.013102323 0.0087420335 -0.0049335775
000340 6b c5 6b 3c 2c 6e c3 bb 70 ec 52 3c ca 2d 47 bc
       0.01439033 -0.0059640612 0.012873754 -0.012156913
000350 12 33 67 3b 29 6c 89 3c 42 61 9d bb 6b 6c 07 3d
       0.0035278243 0.016775208 -0.004802854 0.03306238
000360 eb d8 77 bc b5 18 6c bc 5f 0f d8 ba 05 b5 9e bc
       -0.015127401 -0.0144101875 -0.0016484073 -0.019373426
000370 b4 19 a1 bc ca c4 f0 3b 4d 8c 61 3c 48 48 d2 bc
       -0.019665577 0.007347678 0.0137663605 -0.025669232
000380 bf f6 79 3b 01 8e 27 3b 3a 12 2a 3c 95 b4 82 bc
       0.0038141457 0.0025566819 0.010380322 -0.015955249
000390 7f 15 a5 bb 83 3b a9 3b fb 74 aa 3b 32 44 04 3d
       -0.005037963 0.005164565 0.0052019334 0.0322916
0003a0 32 96 8b 3a 8d c1 fa 3c 87 b7 f2 3a f1 ad b2 3c
       0.001064962 0.03060987 0.001851783 0.021811457
0003b0 34 47 c3 bb aa af fb bb 2b 15 f3 bb e0 46 8a bc
       -0.005959416 -0.007680853 -0.007418295 -0.016879499
0003c0 00 e6 e1 bb 15 01 79 b9 b3 6e 34 ba 22 df 1b 3c
       -0.006893873 -0.00023746894 -0.00068829505 0.009513648
0003d0 83 2a 3c bc 1f 92 a9 ba 77 94 b4 3b e1 21 9f bb
       -0.011484745 -0.0012937224 0.0055108625 -0.0048563336
0003e0 98 7c d5 bc f0 4c 4f 3c 0f 66 14 bc e4 bf be 3b
       -0.026060387 0.012652621 -0.009057536 0.005821215
0003f0 c3 f8 93 bc 69 ab 80 3c e9 73 42 bc ca a9 07 bc
       -0.018062955 0.015706735 -0.011868455 -0.008280227

action_model._continuous_distribution.mu.bias f4 [2]
000000 00 00 00 00 00 00 00 00
       0.0 0.0

action_model._discrete_distribution.branches.0.weight f4 [5, 128]
000000 41 5f 83 bc 52 dc 98 bc ed da 72 bb c3 5d e2 3b
       -0.016036632 -0.018659744 -0.003705676 0.00690815
000010 bd 79 88 3c 9f 8e b1 3b 3d 30 e5 bb f2 c7 1a 3c
       0.016659612 0.005418613 -0.006994276 0.009447085
000020 c2 74 53 3b 7e 06 37 3a 9b 1b 53 bc f7 2d 2a 3b
       0.0032265638 0.00069818634 -0.012885 0.0025967339
000030 20 be b3 3b 9e 2a b1 3b b0 28 f4 bb 2b 94 0c bc
       0.005485311 0.0054066917 -0.0074511394 -0.008580248
000040 8f 28 52 bb f6 20 20 3c 92 c3 da 3b fd 14 f9 3b
       -0.0032067632 0.0097734835 0.006676146 0.007601379
000050 e6 0d 2d 3c cd 2b 26 3b 0b d5 95 3b 5a d1 e9 3a
       0.010562396 0.0025355697 0.004572516 0.0017838881
000060 81 fd a9 3b 83 bb 68 ba 72 37 f3 3a 38 d6 45 bb
       0.0051876907 -0.0008878039 0.0018555953 -0.0030187499
000070 1f a7 ac bb 72 14 09 bc e2 2c de ba 69 b4 16 bc
       -0.005268946 -0.008366691 -0.0016950632 -0.009198287
000080 8d 95 2d 3b 0c 05 a3 bb 72 b3 ab 39 7f 93 4c bb
       0.0026486844 -0.004974967 0.0003274936 -0.0031215844
000090 91 05 21 bc 63 de 3c bc 13 70 8c 3b 1d ce 4c bc
       -0.009827987 -0.0115276305 0.004285821 -0.012500313
0000a0 2b 31 60 3b e4 28 18 3c 4f dc 25 3b 78 e1 9d bb
       0.0034208994 0.009287093 0.0025308316 -0.0048181377
0000b0 9f ce d9 bb 6b bd be bb 23 5c b6 ba 81 62 4a 3a
       -0.0066469456 -0.00582092 -0.0013912957 0.00077203667
0000c0 03 90 44 3c 4d ec 7b 3c f8 ca 0c 3b 5b e5 2e 3b
       0.011997226 0.015376163 0.0021483283 0.0026687
0000d0 65 d2 7f bb 55 33 d8 bb 72 bb 5b 3b 2e a3 b8 bb
       -0.0039035317 -0.006597916 0.0033528474 -0.005634687
0000e0 83 c5 9f ba 0d fc 6e 3c a7 17 df 3b 67 33 a1 3b
       -0.00121896 0.014586461 0.0068082395 0.0049194577
0000f0 a5 4b 32 3b 2b f5 b2 ba f9 d8 c5 3b db 53 12 3c
       0.0027205732 -0.0013653388 0.006037828 0.0089311255
000100 30 90 88 3b 17 86 33 bb 87 ab 64 bb ac 8a c5 bb
       0.004167579 -0.0027393156 -0.0034892277 -0.006028494
000110 20 38 4a bc da 68 61 bc c7 00 47 3c a4 b9 bb 3a
       -0.012342483 -0.013757909 0.012146181 0.0014322293
000120 55 e4 31 bb 91 fb 14 3c 38 a0 59 bc 2a 04 fa bb
       -0.0027144153 0.009093181 -0.013282828 -0.007629891
000130 bb f6 26 3c fd 8a a2 3b e0 e8 4e bc 24 f4 00 bc
       0.010190661 0.0049604164 -0.012628764 -0.007870708
000140 87 1b 34 3c 20 20 08 bb 46 ec be bb c7 7c ba 3b
       0.010992891 -0.00207711 -0.005826506 0.005691144
000150 d2 28 52 3c 50 0d e8 ba 04 0e 24 bb 08 e8 08 bc
       0.012827115 -0.0017704163 -0.0025032768 -0.008356102
000160 63 2e 01 3c 37 b2 00 bb 8b f5 b6 bb bc 46 98 3a
       0.007884595 -0.0019637474 -0.00558347 0.001161776
000170 3d 7b 81 bb 7b f4 96 bc 6d 7b 6d bc 6d 66 b0 bc
       -0.0039514587 -0.018427124 -0.014494759 -0.021533215
000180 b9 d4 a9 bc c2 05 67 3c 83 44 95 ba 3f 98 b0 b9
       -0.020731317 0.014100494 -0.0011388216 -0.00033682768
000190 35 a3 28 3b a0 fb 95 bc 9c 52 81 3c df 7b 59 ba
       0.0025732045 -0.01830846 0.015786462 -0.00082963513
0001a0 07 23 c7 39 29 0b 04 38 66 84 bb 3b f2 4b d6 3b
       0.00037982335 3.1481646e-05 0.0057225702 0.006539815
0001b0 c8 88 44 3c ff e0 42 3c fb 8f be bb 63 80 bc bb
       0.011995502 0.011894464 -0.0058155037 -0.0057526096
0001c0 af d8 04 3c 1f 3f a5 bc 33 77 57 3c 9f 1d b7 ba
       0.008108302 -0.0201717 0.013150978 -0.001397062
0001d0 6d b2 52 bc e8 db ae bb f3 06 88 bc ef 77 2d bb
       -0.012859923 -0.0053362735 -0.016604876 -0.002646919
0001e0 77 97 70 bc 6b 12 10 3c 1d 2f 2c bb d6 0c 8b bb
       -0.0146845495 0.008793454 -0.00262732 -0.0042434735
0001f0 34 c5 9e 3c 11 f8 0a bb 68 55 83 bb cd f2 ef ba
       0.019381143 -0.0021204988 -0.004007984 -0.0018306613
000200 a3 71 07 3c fe b2 c0 3a 33 b1 18 3b bc 7d a7 39
       0.008266839 0.0014701781 0.0023298978 0.00031946402
000210 d3 2c 7d bc 23 37 cf 3b c4 e0 ba 3b 4d ea 62 3b
       -0.015452581 0.0063237115 0.0057030637 0.0034624517
000220 7a 71 d5 bb 9d cd 0f ba b3 99 ac bb 6d 57 80 bc
       -0.0065137716 -0.0005485656 -0.005267346 -0.015666688
000230 5c 19 3d bb 40 58 bd bb 8e 64 4c 3c 73 a9 6b bb
       -0.0028854227 -0.0057783425 0.012475146 -0.0035959154
000240 19 50 a5 bb 5b 4f ad bc 87 15 81 3c 67 78 9b 3a
       -0.005044949 -0.021156004 0.015757335 0.0011861444
000250 ea af 13 3b b1 a4 12 bc 0b 8f 54 3b 38 d0 5e 3b
       0.0022535273 -0.008950398 0.0032433893 0.003399862
000260 57 62 87 3c 0c 5f 38 3b 5a 78 8e 3c 14 34 2e 3b
       0.016526384 0.0028132824 0.017391372 0.0026581334
000270 a8 de c2 3b ba 76 58 3c 6d 15 d1 3b ca dc e1 ba
       0.005946953 0.0132119 0.006380728 -0.0017231938
000280 35 cd 62 bc 67 e5 4c 3a 43 60 0d 3c 57 1c 68 3c
       -0.0138428705 0.0007816166 0.008628908 0.014166913
000290 63 1c 46 3b d2 93 84 3c 0d 26 36 39 cd 9b 2d 3c
       0.0030229322 0.016183767 0.00017371048 0.010596228
0002a0 90 19 3e bc ea 21 d5 bb a7 bc a2 bb d3 ad d6 bb
       -0.011602774 -0.006504287 -0.004966337 -0.006551483
0002b0 5a 36 05 bc dc ec 38 3b c5 32 20 bc d8 c5 2a bb
       -0.008130634 0.002821735 -0.009777729 -0.0026057865
0002c0 f6 30 0f 3c 21 96 b3 3b 3b 49 a1 3a 8f 39 c2 3c
       0.008739701 0.0054805432 0.001230515 0.023709087
0002d0 80 c8 de bb 28 0c ce 3b 9c 4f 47 3b c0 d4 d7 ba
       -0.006798804 0.00628807 0.003041244 -0.0016466603
0002e0 77 b2 1d ba d5 a1 55 bb 4d 40 22 3c 6b a8 88 39
       -0.0006015668 -0.003259768 0.009903026 0.00026065423
0002f0 ed ad e4 bb 33 58 9e bc e3 c7 c1 bb 63 6b 37 ba
       -0.0069787414 -0.019329166 -0.005913721 -0.0006996898
000300 e2 db fd 3a 3c da cb bb 72 a5 59 bc d2 96 67 bb
       0.0019367898 -0.006221084 -0.013284074 -0.0035337699
000310 25 38 17 bb 6e 48 40 3c 83 3a b0 bb 3b c5 e6 3a
       -0.0023074236 0.011736019 -0.005378069 0.0017606387
000320 fb 07 25 bc 84 1a 86 3b af 96 19 3c 0b 87 a5 ba
       -0.0100727035 0.0040925164 0.009374305 -0.0012628747
000330 00 be 33 3c ef 17 dc 3a 1b af 51 ba 73 98 1c 3c
       0.0109705925 0.0016791801 -0.000799881 0.009557831
000340 98 15 dd 3a 47 cc ca ba 34 f1 b6 3b b2 51 e2 3b
       0.0016867397 -0.0015472256 0.005582953 0.0069067115
000350 d3 8e 3c 3c 6c 07 31 3c ec f2 06 bc da 9f 6c 3c
       0.011508661 0.010804992 -0.008236628 0.014442408
000360 23 d1 46 3b c8 eb 4f bc 74 c3 16 3c 7b 62 84 bc
       0.0030337058 -0.012690492 0.009201873 -0.01616024
000370 86 f4 b4 3b 7d f0 d9 bb 95 83 d9 3a a3 72 03 bc
       0.0055223135 -0.006650983 0.0016595001 -0.008022937
000380 3d ad 93 3a b0 71 32 3c e1 25 87 bc ff 0a 0f bc
       0.0011266839 0.010891363 -0.016497554 -0.008730649
000390 e5 3e 4e 3b c4 11 39 3c 6e cd 15 bc cc a1 a8 3b
       0.0031470594 0.01129574 -0.009143217 0.005146241
0003a0 11 cf 1b 3b 96 f9 c0 bb af 37 39 bb dc 46 46 bc
       0.0023774544 -0.005889128 -0.002826195 -0.012101855
0003b0 c6 e6 cb 3a f6 fa ca 3c 35 41 ef 3a bf a9 cf 3b
       0.0015556447 0.02477787 0.0018253686 0.006337374
0003c0 ee 7c 03 bb ce b1 8d ba 3b 13 64 39 1d 1c 5c ba
       -0.0020063478 -0.0010810436 0.00021750938 -0.0008396523
0003d0 2d be 80 3b 1e 96 9f bb 28 76 fd 3a 76 74 9d bc
       0.0039289207 -0.0048701903 0.0019337581 -0.019220572
0003e0 32 50 b7 38 94 78 8b 3b 84 e5 0e 3c 5d cb dd bb
       8.7410575e-05 0.0042563174 0.008721713 -0.0067686276
0003f0 7d 92 50 ba 07 cb b9 3b 9f da e0 bb 41 29 93 3b
       -0.0007956399 0.0056699547 -0.006861999 0.004491002

action_model._discrete_distribution.branches.0.bias f4 [5]
000000 00 00 00 00 00 00 00 00 00 00 00 00 00 00 00 00
       0.0 0.0 0.0 0.0
000010 00 00 00 00
       0.0

network_body._body_endoder.seq_layers.0.weight f4 [128, 27]
000000 8e 0c 21 3e 08 88 17 3d 0b db ac 3e 38 f4 7a be
       0.15727445 0.036994964 0.33760867 -0.24507225
000010 ed c1 23 3e 96 53 6b be 9d fe b0 3d ef b9 04 be
       0.15991946 -0.22981104 0.08642314 -0.12961553
000020 7a 34 f5 bc d3 97 a1 bd fa 32 3f be 06 5c 26 be
       -0.02993225 -0.07890286 -0.1867179 -0.16246042
000030 02 fb 03 3e 53 7c fc 3d 13 4a 85 be 40 7c 41 3e
       0.1288872 0.123284005 -0.26033077 0.18895054
000040 d2 a1 8f bd 68 5a e4 3c d0 1b 3b 3e 8c 70 3f bd
       -0.07013287 0.02787514 0.18272328 -0.046738192
000050 f1 8d 16 be 5c b0 6e be de 62 9f 3e 87 44 2e bd
       -0.14702584 -0.23309463 0.31130117 -0.04254582
000060 b2 5d c0 be 7d 33 ee be 4a 02 7a be 62 1c eb 3d
       -0.37571484 -0.46523657 -0.24414936 0.11480023
000070 3c 84 91 3c 2b 09 87 3d 21 d9 a8 bd db 6d f7 bd
       0.01776325 0.065935455 -0.08244539 -0.120815
000080 d7 50 cf 3d 24 9d 21 3e 32 9d 62 bc 6f e0 04 3e
       0.10122841 0.157826 -0.013831424 0.1297624
000090 aa b4 5e 3d 24 d5 9b 3d 02 87 7e 3e ac f6 82 3e
       0.054371513 0.07609013 0.24856189 0.2557882
0000a0 55 56 ad be ff 82 7f be 20 9d 19 3e 91 b8 60 3e
       -0.3385493 -0.24952315 0.15001345 0.21945406
0000b0 af 35 06 bc 39 87 7e 3e e7 de 10 3d 82 6a 60 3e
       -0.00819151 0.24856271 0.035368826 0.2191563
0000c0 b4 8d df 3d 9e 6c ad 3d 2e 9e b6 bc 97 28 39 3d
       0.109156996 0.08467983 -0.022292223 0.045204725
0000d0 ea 7d ad 3d 60 e6 98 bd 16 96 d0 3c 81 1d ba bd
       0.08471282 -0.074658155 0.025462192 -0.09087659
0000e0 83 7d e8 be 0d 57 aa bd 69 69 ff 3d 11 7e c8 3d
       -0.45408258 -0.08317385 0.12471277 0.0978967
0000f0 33 17 ad 3d 57 3d 78 3b 35 f9 b4 bd ea cd f0 3d
       0.084516905 0.0037878358 -0.08836595 0.11758025
000100 66 d0 de be ba df 75 3d 4b 2b 89 3d 14 b2 64 be
       -0.4351837 0.060027815 0.066977106 -0.22333556
000110 f2 82 34 bd 31 62 18 3e cf 66 51 be c0 6b a2 3d
       -0.04407019 0.14881207 -0.20449375 0.07930708
000120 0b 72 fa 3d 49 44 81 bd 1e fd e7 3d ba 29 72 3e
       0.12228783 -0.063118525 0.11327575 0.2364873
000130 25 6f ab be ca df 9b be 5b 01 83 be 6f fb de 3e
       -0.33483234 -0.30444175 -0.25586972 0.43551204
000140 d3 42 a5 be a7 94 b9 3d 0a c1 f3 bd 07 cf e9 bd
       -0.32277545 0.09061556 -0.11902054 -0.114164405
000150 1d ef 34 3d 72 cf f4 3e 67 ac 9e bd ae 50 2f 3e
       0.04417335 0.47814518 -0.07747727 0.1712062
000160 6e dd e6 3d 03 d9 03 3e f7 45 32 3e 3a 28 0a bc
       0.11272703 0.12875752 0.17409502 -0.008432442
000170 5a ec 23 be 48 c1 6e be c0 f2 c6 3d 58 bd 14 3e
       -0.1600813 -0.23315918 0.0971427 0.14525354
000180 5e 82 cf bc 17 94 d9 3d 08 f7 97 be 10 13 0c 3e
       -0.025330719 0.10623949 -0.29680657 0.13679147
000190 5c 4c 20 3e 7d c0 5a bd 01 c0 9f 3d b6 48 9e be
       0.15654129 -0.053406227 0.07800294 -0.3091485
0001a0 eb 0a 78 be a3 3e 43 be 0f 87 58 bd 85 6e 61 3b
       -0.24222915 -0.19066863 -0.052863177 0.003439815
0001b0 bc b9 bd 3b a9 07 6a 3e 88 f0 0d 3e 77 8e e4 bc
       0.0057899635 0.22854485 0.13861287 -0.027899964
0001c0 e7 1c 5e 3d 7a 49 14 bd 1e 85 ae bd 8f 1b a1 3c
       0.054226782 -0.036202885 -0.08521484 0.019666461
0001d0 e4 82 1b 3e 31 09 af 3c 07 71 41 3d 6b ae 97 3c
       0.1518665 0.021366687 0.047226932 0.018515786
0001e0 5d 4d 34 3e f9 79 35 3e bf ce 08 3e 30 c7 96 3d
       0.17607637 0.1772231 0.13360117 0.07362211
0001f0 cd fe 4e 3b c9 c7 1f be 7e 00 84 bd 06 9f 38 bd
       0.0031584979 -0.15603556 -0.064454064 -0.04507353
000200 26 de 2e 3e 41 ce 48 be 23 ce aa 3d 1a 1f de 3e
       0.1707693 -0.1960993 0.08340099 0.43383104
000210 ce 74 c1 3d 08 f1 79 be 98 0f 41 3e 03 df 58 3c
       0.09446107 -0.24408352 0.18853605 0.013236764
000220 20 d4 18 be a5 c1 75 be e9 21 0b 3d 42 9f 47 be
       -0.1492467 -0.23999651 0.033967886 -0.19494346
000230 dd e6 75 3e 2a c6 82 3e cd 86 0e bf 5b e1 7e 3e
       0.24013849 0.25541812 -0.5567444 0.24890654
000240 c9 70 b6 3e 76 66 f1 be 70 4b 90 be 53 ec 23 bd
       0.35632923 -0.47148484 -0.28182554 -0.0400203
000250 11 91 52 bd 30 81 43 be 9c ba ce 3e 12 80 9a bd
       -0.051407877 -0.1909225 0.40376747 -0.07543959
000260 03 00 01 3d 78 de 42 3e 94 ca af 3d da ff a6 be
       0.03149415 0.19030178 0.085835606 -0.32617074
000270 90 50 dd 3e 86 a0 b9 be 7b 66 6d be 74 60 b7 be
       0.43225527 -0.36255282 -0.23183624 -0.35815775
000280 27 4d af 3e b0 aa 97 bd 7f cb 3f be a9 aa 66 be
       0.3423855 -0.07405603 -0.18729971 -0.22526039
000290 fa 53 a8 bd 84 5d b6 3d df 5a 1a 3e e3 d5 f0 3d
       -0.08219142 0.089045554 0.15073727 0.11759546
0002a0 3c 07 0d 3e 7c 9e a3 be 3f 91 8a 3e 96 a2 97 3d
       0.13772291 -0.3195685 0.2706394 0.07404058
0002b0 18 0e dd 3d 0e 0b d1 bd 6f 44 0b 3e 71 d8 54 be
       0.10793704 -0.10207187 0.13600324 -0.20785691
0002c0 17 d7 36 3e 67 da 23 be a5 58 64 be e7 5f 96 3d
       0.17855488 -0.16001283 -0.2229944 0.07342511
0002d0 bf b7 c6 be f0 a9 0d be e1 84 02 3e fc 1a bd 3e
       -0.38812062 -0.13834357 0.12746002 0.3693465
0002e0 f0 86 5b 3e df b0 9e bb 81 bc bd 3d e1 c8 1d bd
       0.21438193 -0.004842862 0.0926447 -0.03852165
0002f0 7b e5 aa bd ad c1 b9 3b 08 df 0d bf 07 44 73 bd
       -0.08344551 0.00566884 -0.55418444 -0.059391048
000300 6a cb 83 be 1d c2 32 3e 05 68 83 bd fc e1 ba bd
       -0.2574113 0.17456861 -0.064163245 -0.09125134
000310 f5 c0 ba 3e be 47 9b 3d 5b 43 56 3e d4 56 33 bd
       0.3647534 0.07582043 0.20924132 -0.043783978
000320 73 17 02 be 9e 80 37 be d3 b8 df 3d eb 39 eb bb
       -0.12704258 -0.17920157 0.10923924 -0.007178535
000330 9b c3 12 be 6a b1 3b bd 73 6b 3d bd fb 8c 00 be
       -0.1433243 -0.045823492 -0.04624505 -0.1255378
000340 3d 0e db 3b a0 ea 79 bc af 9e 6c be 94 3b a9 bd
       0.006685047 -0.015253693 -0.23107408 -0.08263317
000350 7a 59 f8 be 5a 6b a7 3e 50 dc 50 3e 57 d7 1d 3d
       -0.48505765 0.3269909 0.20396543 0.038535442
000360 2f 92 70 be aa 93 eb 3d 85 23 ec 3d fb 6b 40 be
       -0.23493265 0.11502774 0.11530212 -0.18791191
000370 42 54 2f be 1d 6b fe 3d 26 24 a9 3d 67 ec f5 be
       -0.17121986 0.12422774 0.08258848 -0.48031923
000380 ef b9 bb 3d c9 31 05 3e 89 44 9b be d1 74 28 be
       0.091663234 0.13007273 -0.30325726 -0.16450812
000390 39 19 bd be cd d0 cd be c8 cf b8 3e 6d 58 fa bc
       -0.36933306 -0.40198365 0.36096025 -0.030559743
0003a0 e9 04 5d 3d 76 0b 5d 3e 7a b0 b0 3e fc 8c 81 be
       0.05395976 0.21586403 0.3450964 -0.25302875
0003b0 96 75 0a 3e 5a 50 17 3e d8 9a 7c 3e 2a 58 95 be
       0.13521418 0.14776745 0.24668443 -0.29168826
0003c0 80 7b 26 be 20 d3 08 3e 2e da 73 3e 1d 2e 45 3c
       -0.16258049 0.13361788 0.23813698 0.01203492
0003d0 e7 fb ab be 41 2a 21 3e 98 6f 64 be 1e 75 98 bd
       -0.33590624 0.15738775 -0.22308195 -0.07444213
0003e0 29 76 c0 3e eb 99 cf bc d5 e3 89 3d 1b 59 96 be
       0.3759015 -0.025341948 0.06732909 -0.29364857
0003f0 b1 fb 98 be 7a ae 12 3e 74 7a 6c bd e3 f2 3d be
       -0.29879525 0.1432437 -0.057733968 -0.18549685

network_body._body_endoder.seq_layers.0.bias f4 [128]
000000 00 00 00 00 00 00 00 00 00 00 00 00 00 00 00 00
       0.0 0.0 0.0 0.0
000010 00 00 00 00 00 00 00 00 00 00 00 00 00 00 00 00
       0.0 0.0 0.0 0.0
000020 00 00 00 00 00 00 00 00 00 00 00 00 00 00 00 00
       0.0 0.0 0.0 0.0
000030 00 00 00 00 00 00 00 00 00 00 00 00 00 00 00 00
       0.0 0.0 0.0 0.0
000040 00 00 00 00 00 00 00 00 00 00 00 00 00 00 00 00
       0.0 0.0 0.0 0.0
000050 00 00 00 00 00 00 00 00 00 00 00 00 00 00 00 00
       0.0 0.0 0.0 0.0
000060 00 00 00 00 00 00 00 00 00 00 00 00 00 00 00 00
       0.0 0.0 0.0 0.0
000070 00 00 00 00 00 00 00 00 00 00 00 00 00 00 00 00
       0.0 0.0 0.0 0.0
000080 00 00 00 00 00 00 00 00 00 00 00 00 00 00 00 00
       0.0 0.0 0.0 0.0
000090 00 00 00 00 00 00 00 00 00 00 00 00 00 00 00 00
       0.0 0.0 0.0 0.0
0000a0 00 00 00 00 00 00 00 00 00 00 00 00 00 00 00 00
       0.0 0.0 0.0 0.0
0000b0 00 00 00 00 00 00 00 00 00 00 00 00 00 00 00 00
       0.0 0.0 0.0 0.0
0000c0 00 00 00 00 00 00 00 00 00 00 00 00 00 00 00 00
       0.0 0.0 0.0 0.0
0000d0 00 00 00 00 00 00 00 00 00 00 00 00 00 00 00 00
       0.0 0.0 0.0 0.0
0000e0 00 00 00 00 00 00 00 00 00 00 00 00 00 00 00 00
       0.0 0.0 0.0 0.0
0000f0 00 00 00 00 00 00 00 00 00 00 00 00 00 00 00 00
       0.0 0.0 0.0 0.0
000100 00 00 00 00 00 00 00 00 00 00 00 00 00 00 00 00
       0.0 0.0 0.0 0.0
000110 00 00 00 00 00 00 00 00 00 00 00 00 00 00 00 00
       0.0 0.0 0.0 0.0
000120 00 00 00 00 00 00 00 00 00 00 00 00 00 00 00 00
       0.0 0.0 0.0 0.0
000130 00 00 00 00 00 00 00 00 00 00 00 00 00 00 00 00
       0.0 0.0 0.0 0.0
000140 00 00 00 00 00 00 00 00 00 00 00 00 00 00 00 00
       0.0 0.0 0.0 0.0
000150 00 00 00 00 00 00 00 00 00 00 00 00 00 00 00 00
       0.0 0.0 0.0 0.0
000160 00 00 00 00 00 00 00 00 00 00 00 00 00 00 00 00
       0.0 0.0 0.0 0.0
000170 00 00 00 00 00 00 00 00 00 00 00 00 00 00 00 00
       0.0 0.0 0.0 0.0
000180 00 00 00 00 00 00 00 00 00 00 00 00 00 00 00 00
       0.0 0.0 0.0 0.0
000190 00 00 00 00 00 00 00 00 00 00 00 00 00 00 00 00
       0.0 0.0 0.0 0.0
0001a0 00 00 00 00 00 00 00 00 00 00 00 00 00 00 00 00
       0.0 0.0 0.0 0.0
0001b0 00 00 00 00 00 00 00 00 00 00 00 00 00 00 00 00
       0.0 0.0 0.0 0.0
0001c0 00 00 00 00 00 00 00 00 00 00 00 00 00 00 00 00
       0.0 0.0 0.0 0.0
0001d0 00 00 00 00 00 00 00 00 00 00 00 00 00 00 00 00
       0.0 0.0 0.0 0.0
0001e0 00 00 00 00 00 00 00 00 00 00 00 00 00 00 00 00
       0.0 0.0 0.0 0.0
0001f0 00 00 00 00 00 00 00 00 00 00 00 00 00 00 00 00
       0.0 0.0 0.0 0.0
