3DPlayground/results/test13/MoveToGoal/MoveToGoal-73903.pt (torch, 550985 bytes, 42 tensors)

network_body._body_endoder.seq_layers.0.weight f4 [128, 38]
0.035067353 0.09875111 0.14550434 -0.0028083478 0.063240446 0.28116965 0.058274727 0.089270905
0.13353007 -0.1825067 0.24887377 0.12727392 -0.35342562 0.15453617 0.09616037 0.045155838
0.0473769 -0.10016882 0.08704784 -0.11433831 0.16662526 0.18745755 0.12650344 0.007498685
-0.09106283 -0.24540904 0.07904226 -0.12183481 0.0075181425 0.055454306 0.21855292 0.08158674
0.3432691 -0.008940945 -0.031714104 -0.25806236 -0.04701287 -0.10957623 0.18252331 -0.060032696
0.07853315 -0.036673065 0.110797174 0.06280074 -0.06703188 -0.10658755 0.121168695 0.029818408
0.24990319 -0.16974115 0.042176124 0.00025626313 0.15907326 -0.16448073 -0.05827322 0.21408181
-0.07741416 -0.1265627 0.117820494 -0.28366002 -0.06685678 -0.03950541 -0.13990617 0.072975345
0.15498212 0.22875135 -0.02997543 0.14803931 -0.15980524 -0.11237139 -0.12489933 0.060274437
-0.32185116 -0.2215494 0.13070911 0.043546796 0.12711406 0.16062048 0.16287206 0.04711917
-0.06322919 0.017526785 -0.0725029 0.1351609 0.31936893 -0.16944371 0.16599835 -0.06708357
-0.086203456 -0.0853673 0.111848444 -0.0072992486 0.061070576 -0.06302506 -0.066757455 0.31110322
0.26615018 0.216336 0.20292202 -0.049344577 0.22335975 0.09732825 0.2858167 0.04504707
0.16392754 0.021752622 0.22060958 0.056265738 -0.048933927 0.091577016 0.05151389 -0.063994266
0.25962076 0.18930526 -0.16909744 0.06860048 0.21474834 -0.100709245 -0.2881094 -0.22872737
-0.032453086 0.09522465 -0.016744088 -0.27774075 0.19470786 0.22691457 0.09397553 0.049132116
-0.12590356 -0.20044304 -0.024021469 0.020232776 0.19712427 -0.25454232 0.07572043 0.044153947
-0.07445169 0.08345387 0.09771013 -0.105019525 -0.17343493 -0.07215346 -0.21446286 0.20623057
0.03970927 0.1148158 -0.17756973 0.07593551 0.11762298 -0.10076013 -0.049454074 -0.3105016
0.09773853 -0.15070182 -0.17109595 0.023294033 -0.11145091 0.023955293 -0.030899083 0.08628577
0.12283591 -0.07412335 -0.25669336 -0.22392604 0.09361848 -0.05948908 0.11179325 0.075721316
0.07572347 -0.0053080777 0.21353407 -0.13786472 -0.18844968 -0.12944305 0.0892413 0.08750323
-0.035563312 -0.21730794 0.07166056 -0.04763464 0.13570155 -0.16169786 0.07592736 -0.045764256
-0.11393507 0.037042934 -0.038558133 -0.071447775 -0.19958684 -0.017085906 0.05388812 -0.29873434
0.2183212 0.23696923 -0.25499052 0.045096494 -0.011861861 -0.33915466 0.1770588 -0.26915488
0.27656868 -0.15191926 0.2571103 -0.102157064 -0.1181585 -0.24277009 -0.06732383 0.12938991
0.08262492 0.001872492 0.09429708 -0.16023438 0.05907539 0.011027921 -0.07995766 -0.25078413
-0.1654018 -0.015607617 -0.097724445 -0.38787076 0.13544156 0.25818416 -0.084303446 0.073288284
-0.12759887 -0.17358485 0.05762156 0.022776153 0.12742274 0.20262055 -0.19768013 -0.07760828
0.1096705 -0.018860085 0.1474943 0.13922672 0.0043969676 -0.09523014 -0.06665206 -0.11543848
0.08107992 0.3139794 -0.066853024 0.21030548 -0.031422228 0.25673854 0.090489544 0.0667786
0.0030738951 0.09701443 0.056556217 -0.18963888 -0.0261759 -0.05954905 0.035426375 -0.1371847
00000000: c9a2 0f3d 063e ca3d 17ff 143e 420c 38bb
00000010: 3584 813d 78f5 8f3e 7bb1 6e3d aad3 b63d
00000020: 1bbc 083e 09e3 3abe c4d8 7e3e 1854 023e
00000030: 34f4 b4be bb3e 1e3e baef c43d 54f5 383d
00000040: 480e 423d 4f25 cdbd 2346 b23d 342a eabd
00000050: d09f 2a3e dff4 3f3e 1e8a 013e 87b7 f53b
00000060: 267f babd 824c 7bbe e9e0 a13d 8784 f9bd
00000070: c05a f63b 0e24 633d 56cc 5f3e f316 a73d
00000080: f8c0 af3e 0b7d 12bc a6e6 01bd c020 84be
00000090: 9190 40bd 8169 e0bd 64e7 3a3e d8e4 75bd
000000a0: fdd5 a03d 7f36 16bd a1e9 e23d ad9d 803d
000000b0: 0348 89bd 934a dabd 4b27 f83d bc45 f43c
000000c0: 9fe6 7f3e a0d0 2dbe dfc0 2c3d 0e5b 8639
000000d0: 1ae4 223e a36d 28be e6af 6ebd 4338 5b3e
000000e0: 518b 9ebd a799 01be df4b f13d e33b 91be
000000f0: 35ec 88bd 6dd0 21bd 9043 0fbe 1974 953d
00000100: a2b3 1e3e cb3d 6a3e 088f f5bc 9e97 173e
00000110: fca3 23be f922 e6bd 38cb ffbd 54e2 763d
00000120: adc9 a4be d9dd 62be 9cd8 053e 205e 323d
00000130: 302a 023e b279 243e efc7 263e 0800 413d
00000140: 4e7e 81bd 5594 8f3c 677c 94bd 9e67 0a3e
00000150: 5384 a33e a782 2dbe 79fb 293e 1c63 89bd
00000160: 708b b0bd 0dd5 aebd cc10 e53d 892e efbb
00000170: 2425 7a3d 4813 81bd 22b8 88bd ec48 9f3e
00000180: d644 883e 2f87 5d3e caca 4f3e 8a1d 4abd
00000190: 6bb8 643e 0954 c73d 9156 923e 4783 383d
000001a0: 9fdc 273e 8e32 b23c 7ae7 613e e776 663d
000001b0: f16e 48bd bb8c bb3d 3b00 533d 6d0f 83bd
000001c0: 03ed 843e 3dd9 413e e127 2dbe 697e 8c3d
000001d0: fde6 5b3e a640 cebd 1383 93be 8237 6abe
000001e0: 87ed 04bd 2405 c33d e62a 89bc 0934 8ebe
000001f0: 7f61 473e 4b5c 683e 3e76 c03d c23e 493d
00000200: ddec 00be f140 4dbe acc8 c4bc 35bf a53c
00000210: f2da 493e 5f53 82be 5013 9b3d c5da 343d
00000220: 217a 98bd dde9 aa3d 401c c83d 7a14 d7bd
00000230: ed98 31be 31c5 93bd 279c 5bbe 1b2e 533e
00000240: 30a6 223d 8c24 eb3d d7d4 35be 1484 9b3d
00000250: 51e4 f03d 545b cebd 5b90 4abd 11fa 9ebe
00000260: 232b c83d 9451 1abe c733 2fbe 21d3 be3c
00000270: 6040 e4bd e43d c43c 1320 fdbc 98b6 b03d
00000280: 6591 fb3d fccd 97bd 506d 83be de4c 65be
00000290: 0cbb bf3d d2aa 73bd dcf3 e43d c713 9b3d
000002a0: e814 9b3d 62ef adbb ada8 5a3e 692c 0dbe
000002b0: f4f8 40be b88c 04be 25c4 b63d e534 b33d
000002c0: d6aa 11bd f985 5ebe c6c2 923d 8a1c 43bd
000002d0: 59f5 0a3e 2094 25be ce7f 9b3d 4d73 3bbd
000002e0: ca56 e9bd 55ba 173d 22ef 1dbd 3653 92bd
000002f0: 7e60 4cbe bef7 8bbc cab9 5c3d b5f3 98be
00000300: 988f 5f3e 10a8 723e 1e8e 82be 1ab7 383d
00000310: 4058 42bc aea5 adbe e74e 353e abce 89be
00000320: 699a 8d3e b990 1bbe f6a3 833e b937 d1bd
00000330: 15fd f1bd b998 78be 14e1 89bd ca7e 043e
00000340: 4137 a93d 686e f53a d41e c13d 7b14 24be
00000350: 09f9 713d 74ae 343c d7c0 a3bd c766 80be
00000360: 175f 29be 17b7 7fbc c123 c8bd ff96 c6be
00000370: 31b1 0a3e b730 843e 49a7 acbd 2b18 963d
00000380: 47a9 02be 3ac0 31be 9604 6c3d 0e95 ba3c
00000390: 1b7b 023e c37b 4f3e a96c 4abe 17f1 9ebd
000003a0: ed9a e03d 7780 9abc bf08 173e 7391 0e3e
000003b0: 7014 903b 0508 c3bd e080 88bd 036b ecbd
000003c0: 3b0d a63d e8c1 a03e 3dea 88bd 525a 573e
000003d0: 98b4 00bd 3c73 833e 9552 b93d 38c3 883d
000003e0: 6773 493b 80af c63d 7ea7 673d b230 42be
000003f0: d76e d6bc b4e9 73bd 3f1b 113d 257a 0cbe

network_body._body_endoder.seq_layers.0.bias f4 [128]
0.0016018895 0.0037092234 -0.0020664104 -0.002316456 -0.0038268445 0.000442914 0.007014571 -0.002483455
-0.0040591815 -0.00043343462 -0.0028438242 -0.004430195 -0.007821417 -0.006739017 -0.0069433567 0.005115506
0.0025970272 -0.00279393 0.00024415238 -0.0053614792 0.009196693 -0.0052115507 0.0015320719 -0.0034747217
0.0071950825 -0.006380949 0.0022393265 -0.0011260959 0.0030044995 0.0019028424 -0.00045576057 -0.005231465
-0.0014581069 -0.00020658194 7.497514e-05 -0.0031566645 0.0003397319 0.0014378265 0.00038041256 -0.00066752906
0.0016719064 0.0014415907 0.005224344 -0.0020103722 -0.00462858 0.0113460915 -0.0018227659 0.0009958501
-0.005974874 -0.0058447807 -0.0061941016 -0.0033561978 0.00042592626 0.011571116 -0.0012585883 0.000743004
0.0023227397 0.0034435932 0.0024829262 0.0026397142 -0.00048981153 0.005009676 -0.010492416 -0.0058383695
0.0016624097 -0.0013065342 0.0035414223 -0.004400402 -0.006380564 0.010213225 0.0065932074 0.0033097975
-0.005370203 0.005219558 -0.005298784 0.0019522102 -0.004838714 -0.006144762 0.0035932506 0.004665527
-0.00089088315 -0.0019822537 -0.0019878796 -0.0046886057 0.009108131 -0.003565918 -0.0009329462 0.0027038457
0.0022987425 0.000292744 0.0005365207 0.0027719038 -0.0029076212 -0.0077944677 0.01590401 -0.00050317735
0.00052541547 0.00491268 0.00049165287 0.0014756712 0.004343741 -0.0039308546 -0.0049374215 -0.0022185745
-0.010271077 0.004052022 0.001687643 0.0005928838 -0.000472076 -0.0025976673 -0.016620133 0.0004123293
-0.008830249 -0.00806811 -0.0033230872 0.0054321745 -0.004864413 -0.0027331526 0.0002611349 0.0012537114
0.0008686602 -0.005258635 -0.0009487352 0.0024015827 -0.0041205017 0.002415557 -0.0070893476 0.0004903013
00000000: 7ef6 d13a 7116 733b 9d6c 07bb afcf 17bb
00000010: cccb 7abb e936 e839 7dda e53b 76c1 22bb
00000020: e202 85bb 9c3e e3b9 745f 3abb 2b2b 91bb
00000030: 6725 00bc f9d2 dcbb 1985 e3bb f99f a73b
00000040: e332 2a3b 5e1a 37bb 9401 8039 59af afbb
00000050: baad 163c a8c5 aabb cdcf c83a 28b8 63bb
00000060: bac4 eb3b 4817 d1bb aac1 123b 8299 93ba
00000070: 23e7 443b cc68 f93a 26f3 eeb9 b66c abbb
00000080: f31d bfba eb9d 58b9 f93b 9d38 0be0 4ebb
00000090: 0b1e b239 7475 bc3a 1c72 c739 1efd 2eba
000000a0: df23 db3a c2f3 bc3a f930 ab3b 73c0 03bb
000000b0: 58ab 97bb f5e4 393c e0e9 eeba 2f87 823a
000000c0: e0c8 c3bb 9385 bfbb e4f7 cabb a8f3 5bbb
000000d0: db4e df39 c794 3d3c 37f7 a4ba 28c6 423a
000000e0: 1b39 183b e8ad 613b 97b8 223b 0eff 2c3b
000000f0: b266 00ba 3528 a43b 62e8 2bbc cb4f bfbb
00000100: 37e5 d93a 0340 abba 3517 683b 3f31 90bb
00000110: 0d14 d1bb 5f55 273c d50b d83b 30e9 583b
00000120: 87f8 afbb d308 ab3b 6ca1 adbb 4ee1 ff3a
00000130: 138e 9ebb 005a c9bb be7c 6b3b 47e1 983b
00000140: 288a 69ba b3e8 01bb 1647 02bb e0a2 99bb
00000150: 453a 153c 2db2 69bb f690 74ba 0133 313b
00000160: 80a6 163b 6f7b 9939 4ba5 0c3a d4a8 353b
00000170: ca8d 3ebb bc68 ffbb 2049 823c a9e7 03ba
00000180: 09bc 093a 8cfa a03b 44e2 003a 4f6b c13a
00000190: f155 8e3b 66ce 80bb 18ca a1bb 8165 11bb
000001a0: 0548 28bc d3c6 843b e733 dd3a c26b 1b3a
000001b0: f880 f7b9 a03d 2abb f226 88bc e72d d839
000001c0: c0ac 10bc 1b30 04bc 27c8 59bb 6200 b23b
000001d0: a765 9fbb b11e 33bb efe8 8839 9353 a43a
000001e0: cdb6 633a a150 acbb 8bb4 78ba df63 1d3b
000001f0: 4605 87bb 524e 1e3b c24d e8bb 9087 003a

network_body._body_endoder.seq_layers.2.weight f4 [128, 128]
-0.075192526 0.16016304 0.06834937 -0.06319756 0.079960965 -0.027963419 -0.012119093 -0.057034593
0.04341467 0.10162548 0.13215849 0.08441176 -0.1460626 0.10115366 -0.0010512273 -0.043703787
-0.02561788 -0.049894173 0.018348068 0.02542027 0.05747214 0.028711215 0.031867456 -0.0838891
0.14635071 -0.03620958 -0.0021379362 0.027264433 0.047530707 0.049616843 0.014187104 -0.0032712356
-0.12990755 0.15463014 0.058433127 -0.0074846107 0.050582457 0.07328469 0.07436781 0.0031575004
-0.11122224 0.014315992 0.032560457 -0.012954332 0.040716633 0.022808066 0.16072282 -0.036052138
0.04096989 0.13834715 -0.021236133 -0.0344943 0.058134854 -0.17414764 0.13709767 -0.12926604
0.189814 0.10569698 0.07168235 -0.011289295 0.14851584 0.095529065 -0.03975434 -0.004196578
-0.17306733 -0.089836285 -0.015770152 0.057249527 -0.08219028 -0.0659862 -0.04225398 -0.011541254
0.056019183 0.009878151 -0.08061148 0.08152235 -0.0037255108 0.20006588 -0.014942553 -0.0829266
0.085409425 0.013309161 -0.032564647 0.15232852 0.014748035 0.07808381 0.105957516 -0.01884633
-0.15455084 -0.011112704 -0.09779698 -0.032612614 0.017470563 0.10717311 0.004565794 -0.043775428
0.013916036 0.043062802 -0.09803801 -0.042911407 0.07973621 0.0670919 0.008774985 0.0018837658
-0.023656247 0.21935727 -0.094226375 -0.02394335 -0.045209557 -0.14006652 -0.018473867 -0.06730111
-0.036551263 0.107228525 0.14887188 -0.05372419 -0.029631782 -0.10888367 0.083650455 0.090219304
-0.031513724 -0.00904605 -0.0052026124 -0.07433446 -0.12226527 0.031452537 0.11891056 -0.043389052
-0.21104407 -0.07699414 -0.0880552 0.0009581068 -0.102986135 0.009121672 -0.05498943 0.0006170911
-0.118704714 -0.03312682 -0.034175247 0.038792036 0.011843559 -0.01783509 -0.055000566 -0.0041803913
-0.15035115 -0.051838655 0.1078666 -0.094307154 -0.15528144 -0.18151785 -0.087717235 -0.065088876
-0.14421462 0.08162897 -0.015699124 -0.025341008 -0.082605295 -0.016492426 -0.04144596 -0.23729748
0.09614471 -0.12619427 -0.057547115 -0.019994374 0.019699242 0.072809845 0.075421914 0.034197666
0.13120706 -0.049638286 0.06843137 0.101390906 0.0027814065 0.021272117 0.06856516 0.05514717
0.029938297 0.022312824 0.21095017 0.013766167 0.06810937 0.07947145 -0.04575379 -0.099833235
0.060317755 0.120338745 -0.09739938 0.029442485 0.020070741 -0.018909778 -0.058743402 -0.013182204
0.17449248 -0.049962077 -0.057927407 0.04175972 0.025823 -0.0951234 0.0078010433 -0.040517032
0.08112071 -0.0019444075 -0.010270744 -0.047683123 -0.038836844 -0.07782788 -0.06337712 -0.10197568
-0.07963199 -0.012024617 0.0316127 0.1582474 -0.05637526 0.051403146 -0.013261654 -0.26443475
0.03375172 0.068025395 0.023684422 -0.014574167 0.13729818 0.038777847 -0.002314078 0.115083784
0.11976575 0.036410645 -0.05584832 0.08660406 -0.060889643 0.0066770804 0.06802603 0.017185073
-0.123654366 0.17220908 0.14783107 -0.07446219 -0.046595383 -0.0389339 0.03737099 0.17494445
-0.03498873 -0.19868 -0.064329445 0.026067728 0.033884224 -0.045518566 0.06291541 -0.022431491
0.13247027 0.01950208 -0.04157982 0.10248699 0.18960734 -0.06015793 0.09927609 0.059947934
00000000: 8afe 99bd c801 243e c1fa 8b3d b96d 81bd
00000010: 93c2 a33d 8a13 e5bc 298f 46bc 1b9d 69bd
00000020: 95d3 313d 0521 d03d 8e54 073e 13e0 ac3d
00000030: 6f91 15be a629 cf3d 56c9 89ba be02 33bd
00000040: 97dc d1bc d55d 4cbd b04e 963c 2c3e d03c
00000050: e867 6b3d c833 eb3c 7387 023d 0cce abbd
00000060: f6dc 153e 7f50 14bd 9e1c 0cbb a959 df3c
00000070: 8faf 423d 083b 4b3d 0771 683c 3a62 56bb
00000080: 7c06 05be 5d57 1e3e 9357 6f3d 7741 f5bb
00000090: 8d2f 4f3d 4916 963d 264e 983d 11ee 4e3b
000000a0: 7cc8 e3bd 9f8d 6a3c 1d5e 053d 683e 54bc
000000b0: 7cc6 263d fbd7 ba3c 8694 243e 68ab 13bd
000000c0: 0bd0 273d e0aa 0d3e 66f7 adbc e549 0dbd
000000d0: d01e 6e3d c253 32be 5563 0c3e 515e 04be
000000e0: 9a5e 423e a977 d83d 32ce 923d bcf6 38bc
000000f0: 8914 183e bea4 c33d 72d5 22bd 7383 89bb
00000100: 9038 31be 16fc b7bd 6830 81bc 7b7e 6a3d
00000110: 6153 a8bd c623 87bd 8212 2dbd 8717 3dbc
00000120: 5f74 653d f8d7 213c a217 a5bd 31f5 a63d
00000130: b327 74bb 12de 4c3e 9cd1 74bc 6cd5 a9bd
00000140: 23eb ae3d ab0e 5a3c 8262 05bd 02fc 1b3e
00000150: bea1 713c 68ea 9f3d 4100 d93d 9e63 9abc
00000160: 9342 1ebe 0f12 36bc c849 c8bd ce94 05bd
00000170: 6d1e 8f3c 937d db3d a89c 953b dd4d 33bd
00000180: 1600 643c 9f62 303d 27c8 c8bd dfc3 2fbd
00000190: bd4c a33d 7a67 893d f4c4 0f3c b1e8 f63a
000001a0: bfca c1bc 319f 603e c2f9 c0bd d824 c4bc
000001b0: a82d 39bd 996d 0fbe 8256 97bc 2ad5 89bd
000001c0: c7b6 15bd a19a db3d df71 183e e50d 5cbd
000001d0: 5abe f2bc 67fe debd ee50 ab3d e6c4 b83d
000001e0: 8914 01bd e235 14bc ad7a aabb aa3c 98bd
000001f0: 3766 fabd 60d4 003d 6187 f33d b8b8 31bd
00000200: f01b 58be 1baf 9dbd 4956 b4bd 7529 7b3a
00000210: 65ea d2bd 1173 153c 993c 61bd 48c4 213a
00000220: 751b f3bd fdaf 07bd 58fb 0bbd 66e4 1e3d
00000230: 7d0b 423c e51a 92bc 4648 61bd aafb 88bb
00000240: a7f5 19be c554 54bd 2ae9 dc3d 1c24 c1bd
00000250: 1902 1fbe d1df 39be 18a5 b3bd 514d 85bd
00000260: ffac 13be 172d a73d 739b 80bc f297 cfbc
00000270: f72c a9bd 201b 87bc 3dc3 29bd 1cfe 72be
00000280: 85e7 c43d 1239 01be 86b6 6bbd 3ecb a3bc
00000290: 4e60 a13c 541d 953d ce76 9a3d da12 0c3d
000002a0: 255b 063e 8451 4bbd bf25 8c3d 09a6 cf3d
000002b0: 4248 363b dd42 ae3c e46b 8c3d 00e2 613d
000002c0: 2941 f53c 62c9 b63c 5203 583e 7d8b 613c
000002d0: ed7c 8b3d edc1 a23d 5368 3bbd 5e75 ccbd
000002e0: c00f 773d 2974 f63d 5379 c7bd 5e31 f13c
000002f0: 656b a43c aee8 9abc ec9c 70bd 2cfa 57bc
00000300: 28ae 323e 09a5 4cbd 4a45 6dbd 3d0c 2b3d
00000310: c28a d33c 0fd0 c2bd e59f ff3b 30f5 25bd
00000320: 9d22 a63d 7ddb feba 9f46 28bc 614f 43bd
00000330: 6213 1fbd 3964 9fbd ddcb 81bd a0d8 d0bd
00000340: 1916 a3bd e602 45bc 527c 013d 9b0b 223e
00000350: bfe9 66bd 1b8c 523d 6947 59bc fe63 87be
00000360: 3e3f 0a3d e650 8b3d d505 c23c 7dc8 6ebc
00000370: e597 0c3e 85d5 1e3d c9a7 17bb 0cb1 eb3d
00000380: bf47 f53d 5423 153d 35c1 64bd 785d b13d
00000390: 6b67 79bd 69cb da3b 3b51 8b3d b6c7 8c3c
000003a0: 803e fdbd 9457 303e 0761 173e a27f 98bd
000003b0: cdda 3ebd 2779 1fbd 5312 193d a324 333e
000003c0: 5850 0fbd c572 4bbe 28bf 83bd fd8b d53c
000003d0: 2fca 0a3d ad71 3abd cbd9 803d 3fc2 b7bc
000003e0: 49a6 073e d3c2 9f3c 9a4f 2abd b3e4 d13d
000003f0: 6d28 423e 2968 76bd 4351 cb3d f78b 753d

network_body._body_endoder.seq_layers.2.bias f4 [128]
0.0020865723 -0.0037443137 0.002731403 0.0068629687 0.0036604044 -0.0011995885 0.0005032794 0.013841831
0.0038051207 -0.00058226037 -0.0026430904 -0.0015851593 0.0023983598 0.0048648836 -0.0024697254 -0.007857011
-0.009511011 0.01148248 -0.0020561805 -0.0035235006 -0.0024709362 -0.0028384235 -0.003572757 -0.0036388286
-0.0020581463 0.0050651003 0.0011961911 0.0012705552 -0.0020161155 -0.002802102 0.0048263497 0.0053267865
0.0008611278 0.0016106211 -0.005907727 0.0062991814 -0.002858483 0.0037705183 -0.0043800715 0.0038909402
-0.0022318687 -0.0013126519 -0.005232875 0.0018543955 0.0030987498 -0.004207261 0.004580215 0.0008893444
-0.0038345072 0.0037473282 -0.0019120006 -0.0015381854 -0.009593862 -0.006097667 -0.005220398 0.0001200731
-0.0010545175 0.00022291685 0.0001558436 -0.0044079833 -0.0018272746 0.0044338102 0.0015070775 -0.0066362624
0.0003889586 -0.0017096375 -0.0039378796 -0.0049029957 0.00451951 0.0009956039 -0.007117613 -0.0014237233
0.0021368566 0.0005015079 -0.0012443981 0.00025329727 -0.0022466187 0.0014201459 -0.004813767 -0.010156461
-0.012302107 -0.002973752 -0.0035336954 0.005867371 -0.0073092994 -0.0009902491 -0.002069675 -0.0015243838
0.0062286537 0.004720062 -0.003723467 0.0032016786 -0.0065276255 -0.0034009805 0.004145953 -0.0005824915
-0.0027610804 -0.00021301983 -0.0029888693 -0.00073609344 -0.002819848 0.0013286654 -0.0024390975 -7.190344e-05
-0.0026781838 -0.00459473 0.0006141326 0.0034655563 -0.0007009617 -0.0016530593 0.00034645668 0.007328278
0.0055915522 0.0023403645 -0.0003907035 -0.004994357 -0.0020695962 -0.00019195252 9.119967e-05 -0.0029882328
0.0052692657 -0.0068768403 0.00844177 0.0035745718 0.0014271555 0.00032200018 0.0062993304 -0.0034810244
00000000: e0be 083b 2963 75bb 5701 333b c1e2 e03b
00000010: 65e3 6f3b 833b 9dba 82ee 033a d9c8 623c
00000020: 555f 793b d5a2 18ba b337 2dbb 1fc5 cfba
00000030: cd2d 1d3b 9a69 9f3b 1edb 21bb b1ba 00bc
00000040: 12d4 1bbc 0321 3c3c fcc0 06bb 88ea 66bb
00000050: 6eef 21bb d804 3abb ea24 6abb 6a79 6ebb
00000060: f7e1 06bb 24f9 a53b 83c9 9c3a c288 a63a
00000070: ce20 04bb 78a3 37bb 5b26 9e3b 538c ae3b
00000080: 4fbd 613a 7a1b d33a 9b95 c1bb 5d69 ce3b
00000090: 6355 3bbb cd1a 773b b486 8fbb 25ff 7e3b
000000a0: 8b44 12bb 4a0d acba 8978 abbb 300f f33a
000000b0: 6514 4b3b 10dd 89bb a115 963b e422 693a
000000c0: 5b4c 7bbb bc95 753b 189c faba f09c c9ba
000000d0: 932f 1dbc f0ce c7bb df0f abbb c1cf fb38
000000e0: bc37 8aba c9be 6939 f369 2339 d870 90bb
000000f0: 2981 efba 7f49 913b 2189 c53a 0175 d9bb
00000100: 24ed cb39 ea15 e0ba 5409 81bb 4fa9 a0bb
00000110: 6618 943b ec7e 823a de3a e9bb 3a9c baba
00000120: 810a 0c3b a077 033a 121b a3ba fccc 8439
00000130: 023c 13bb 3024 ba3a cebc 9dbb 4967 26bc
00000140: c78e 49bc 48e3 42bb 9295 67bb 1343 c03b
00000150: d982 efbb 3fcb 81ba 62a3 07bb d5cd c7ba
00000160: bc19 cc3b c0aa 9a3b 6905 74bb 41d3 513b
00000170: b1e5 d5bb fce2 5ebb c6da 873b 58b2 18ba
00000180: 3ef3 34bb 135e 5fb9 e8e0 43bb 65f6 40ba
00000190: 33cd 38bb 9d26 ae3a 44d9 1fbb deca 96b8
000001a0: 7884 2fbb 648f 96bb befd 203a 631e 633b
000001b0: bec0 37ba 77ab d8ba a1a4 b539 0d22 f03b
000001c0: 5739 b73b cd60 193b 56d7 ccb9 b4a7 a3bb
000001d0: 10a2 07bb dd46 49b9 7342 bf38 3ad6 43bb
000001e0: cea9 ac3b 1e57 e1bb 5a4f 0a3c 5d43 6a3b
000001f0: 640f bb3a 22d2 a839 9d6a ce3b e621 64bb

action_model._continuous_distribution.log_sigma f4 [1, 2]
0.0036530315 0.0075864783
00000000: b367 6f3b fe97 f83b

action_model._continuous_distribution.mu.weight f4 [2, 128]
-0.018812364 0.011191021 0.015054973 -0.0041303798 -0.02872507 0.0016561466 0.016472802 -0.0117237065
0.017060272 -0.041641127 0.018836662 -0.01799822 0.010009366 0.0010727438 -0.011783405 0.003806775
-0.030863913 -0.008042734 0.018277623 0.0023031177 -0.019752892 -0.0010732865 0.0013131544 -0.0084014265
-0.026557816 -0.019492265 0.006919688 -0.004552418 -0.0005543612 -0.017977748 -0.005975306 0.00021204914
0.01604592 0.006581109 -0.010645208 0.02735972 0.03511063 0.037162814 -0.0017905625 -0.009892443
0.033518475 -0.014267658 -0.0034422588 0.016643481 0.00034877408 0.017528513 0.006456892 0.013931541
0.018671814 0.0050052092 -0.0067585204 -0.015893817 0.013087803 0.015216885 -0.009460228 0.018547371
0.009819015 -0.021629762 0.01126811 -0.006424377 0.02620041 -0.018859731 0.029816827 -0.022105834
-0.019244412 -0.011973332 -0.007637552 -0.009994093 0.024042388 -0.00597054 -0.0050221425 0.012784127
0.014654922 0.0069252555 -0.018481651 0.0043477155 -0.01570671 0.0056663547 -0.0032372829 0.0022073064
0.002534141 0.0013675279 -0.03272392 0.033553146 -0.0038567926 0.025945665 0.025252473 -0.027053358
0.018638395 -0.018524338 -0.0108723575 -0.0017630183 0.0020917759 -0.006800449 -0.025119945 0.00016470448
-0.013514281 0.02695848 -0.011499681 0.026585365 0.0011779763 0.039364524 -0.008937724 0.027562434
0.007241609 -0.012632029 -0.013819026 0.003767707 0.012367299 0.0002758062 0.015466054 -0.012339891
-0.007977094 -0.012061015 0.03382498 0.03982548 0.009780442 -0.00246164 0.0075737243 0.015222137
-0.024726788 0.009943004 0.010647663 -0.005686781 -0.00026783615 -0.028097164 -0.013965979 0.025434462
-0.009287401 0.014417047 -0.00755518 -0.014370311 0.002363167 0.02313594 -0.0008026274 0.030208379
-0.019711807 -0.023450917 -0.0149263395 -0.0062821754 -0.0075227474 0.009003582 0.015164924 -0.02625712
0.0038258866 -0.019804055 -0.013929441 0.008327627 0.012351032 0.009796763 0.020753084 0.0030610303
0.014386363 0.011660091 -0.0034706644 -0.016676651 -0.022095041 -0.014186354 -0.0071210694 0.014775389
-0.0014084302 0.00936191 0.00018565844 -0.004572813 0.013315499 -0.0197703 -0.021336986 -0.014787219
0.015037568 -0.010439384 0.008338079 0.0062204613 -0.03207915 0.002590009 0.030252574 -0.014137477
0.01135182 -0.028749568 -0.015207497 -0.019729415 -0.014865956 0.011543626 0.010651634 -0.0064150323
0.0011620226 -0.003225764 -0.008336388 0.025137587 0.0071975524 -0.0140319485 -0.0174862 0.013680707
-0.01383902 -0.0066024954 0.03053504 0.009042908 0.0008508343 0.008061254 -0.011515044 -0.01101834
-0.012087201 -0.009411254 -0.0024128256 -0.011284917 0.0003440472 -0.010686917 0.0026974808 -0.019593544
-0.009487727 0.00095989654 0.026631232 -0.04114316 0.024783708 -0.022418791 0.017989919 -0.023446022
0.031648148 0.0026656748 0.008810154 0.018712869 0.004007686 -0.0050328206 0.009730395 -0.0021529184
0.027772853 -0.0052217995 0.038165122 -0.009615013 -0.008059576 0.01445362 0.0025107653 0.0358122
-0.0014883188 0.012134366 -0.0096648075 -0.0057161907 0.011119291 -0.0052613458 0.010614064 -0.011602342
-0.018168336 -0.009053441 0.0004379769 0.0075155036 0.015914395 -0.0025907012 0.0067912643 -0.0025188657
0.020228231 0.012506463 0.020477016 -0.015586403 0.0043884283 -0.052676857 -0.035810504 0.03126616
00000000: 631c 9abc 8b5a 373c 22a9 763c 2358 87bb
00000010: d750 ebbc 0f13 d93a f8f1 863c ca14 40bc
00000020: fcc1 8b3c e38f 2abd 584f 9a3c 0171 93bc
00000030: 53fe 233c 4f9b 8c3a 2f0f 41bc 167b 793b
00000040: 51d6 fcbc acc5 03bc f4ba 953c e7ef 163b
00000050: d1d0 a1bc 85ad 8cba 261e ac3a 23a6 09bc
00000060: c78f d9bc 3eae 9fbc 8dbe e23b 732c 95bb
00000070: 8d52 11ba 1246 93bc 80cc c3bb 8259 5e39
00000080: bc72 833c 58a6 d73b 3d69 2ebc 7e21 e03c
00000090: 2ad0 0f3d 0938 183d 4fb1 eaba ea13 22bc
000000a0: ab4a 093d e5c2 69bc 8597 61bb e957 883c
000000b0: aadb b639 f597 8f3c 5694 d33b 1e41 643c
000000c0: a2f5 983c bd02 a43b 9476 ddbb c033 82bc
000000d0: 396e 563c 3e50 793c 12ff 1abc a8f0 973c
000000e0: efdf 203c e630 b1bc e19d 383c 9583 d2bb
000000f0: 3ea2 d63c b97f 9abc 6b42 f43c 4b17 b5bc
00000100: 75a6 9dbc cb2b 44bc 6e44 fabb 44be 23bc
00000110: 8bf4 c43c 85a4 c3bb c990 a4bb 8474 513c
00000120: 331b 703c 41ed e23b d566 97bc 4877 8e3b
00000130: 5cab 80bc d4ac b93b 9828 54bb 75a8 103b
00000140: d513 263b 9f3e b33a 8409 06bd 066f 093d
00000150: 3ec2 7cbb 018c d43c 46de ce3c 019f ddbc
00000160: 8caf 983c 5ac0 97bc f921 32bc 1415 e7ba
00000170: 2d16 093b 4dd6 debb 58c8 cdbc 86b4 2c39
00000180: 016b 5dbc 08d8 dc3c 2869 3cbc 8dc9 d93c
00000190: 5366 9a3a b23c 213d 886f 12bc 9dca e13c
000001a0: 054b ed3b 92f6 4ebc 3269 62bc a2eb 763b
000001b0: 36a0 4a3c 159a 9039 5565 7d3c 412d 4abc
000001c0: 5bb2 02bc 909b 45bc 108c 0a3d 0b20 233d
000001d0: 263e 203c 7753 21bb 012d f83b 4566 793c
000001e0: d58f cabc fbe7 223c 8973 2e3c 2d58 babb
000001f0: 5c6c 8cb9 062c e6bc 90d1 64bc ef5b d03c
00000200: 2f2a 18bc 7a35 6c3c 7291 f7bb 7471 6bbc
00000210: 5ddf 1a3b 9587 bd3c 6a67 52ba 9077 f73c
00000220: a87a a1bc 231c c0bc 9b8d 74bc b5da cdbb
00000230: 6181 f6bb c383 133c 4d76 783c 2c19 d7bc
00000240: babb 7a3b 1d3c a2bc 4f38 64bc 9970 083c
00000250: fc5b 4a3c 9a82 203c 5f02 aa3c 919b 483b
00000260: c8b4 6b3c f709 3f3c 1674 63bb 799d 88bc
00000270: a900 b5bc e26d 68bc dc57 e9bb 7914 723c
00000280: 139b b8ba b262 193c 4fad 4239 89d7 95bb
00000290: 4029 5a3c 53f5 a1bc e7ca aebc 1846 72bc
000002a0: 2260 763c f309 2bbc 709c 083c 03d5 cb3b
000002b0: 6d65 03bd 24bd 293b 3fd4 f73c e0a0 67bc
000002c0: fcfc 393c 3784 ebbc de28 79bc 959f a1bc
000002d0: 5790 73bc 7a21 3d3c 3184 2e3c 3135 d2bb
000002e0: 024f 983a 5767 53bb 5895 08bc 57ed cd3c
000002f0: 72d9 eb3b 42e6 65bc 383f 8fbc 0b25 603c
00000300: 0fbd 62bc bf59 d8bb 9f24 fa3c b528 143c
00000310: 860a 5f3a 5a13 043c 98a9 3cbc 4486 34bc
00000320: 6509 46bc a931 1abc 7f20 1ebb 5fe4 38bc
00000330: 3c61 b439 2e18 2fbc 38c8 303b a482 a0bc
00000340: 6972 1bbc 91a1 7b3a be29 da3c bb85 28bd
00000350: 3407 cb3c 9da7 b7bc 985f 933c df11 c0bc
00000360: 7da1 013d 9ab2 2e3b 7758 103c bb4b 993c
00000370: e852 833b 5cea a4bb 3c6c 1f3c fa17 0dbb
00000380: e583 e33c a11b abbb 0853 1c3d 4a88 1dbc
00000390: 500c 04bc e0ce 6c3c a78b 243b d0af 123d
000003a0: b113 c3ba 38cf 463c 2459 1ebc e24e bbbb
000003b0: b02d 363c 5e67 acbb 9ce6 2d3c c017 3ebc
000003c0: c3d5 94bc e254 14bc 44a0 e539 9d44 f63b
000003d0: e85e 823c c1c8 29bb 4189 de3b 8e13 25bb
000003e0: adb5 a53c e8e7 4c3c 6abf a73c 1d5e 7fbc
000003f0: cecc 8f3b b0c3 57bd 09ae 12bd f210 003d

action_model._continuous_distribution.mu.bias f4 [2]
0.0016608255 -0.0037735046
00000000: 0eb0 d93a e74c 77bb

action_model._discrete_distribution.branches.0.weight f4 [5, 128]
0.0076134377 -0.004669992 0.0012390174 -0.00869425 -0.0059981756 0.002275214 -0.005583677 -0.0022505445
0.0138678895 -0.008177293 -0.00067365746 0.012089689 0.012345453 -0.004022277 0.009787784 -0.013617744
0.013997746 -0.0057462533 -0.013565683 -0.00018295445 -0.0012907393 0.011687534 -0.00037613531 0.00709583
-0.0105773145 0.017495116 0.012595896 0.0029808166 0.010218806 0.00042925894 -0.009272588 -0.007266482
-0.0020158298 -0.004856921 0.00019151496 -0.014225744 0.00015807032 -0.00046827263 -0.013177575 -0.004360465
-0.0023882813 -0.0021642772 -0.006335315 0.0046730656 -0.003411104 -0.009402939 -0.0020565167 0.004883937
-0.008305486 0.008414132 -0.0019933346 0.008800124 0.0022172292 0.0012451306 0.0021033245 -0.011535033
-0.0025665937 -3.299816e-05 -0.008073869 0.0021497381 -0.0076004383 -0.011764205 -0.0056998106 0.0011776651
-0.011951672 0.007692302 -0.006092891 -0.00700914 0.007565297 -0.016672464 -0.01519144 0.0039744987
0.0057947463 -0.0025470152 -0.009778824 -0.00680858 0.0019293873 0.0040708208 -0.009190636 -0.012265308
-0.0075915107 -0.0024685005 0.016114041 0.0023177483 0.0019585611 -0.013921714 0.023005847 -0.0017463875
-0.0032237773 -0.004492631 0.009347373 -0.010102124 0.003965862 0.012810025 -0.00991407 -0.0028710035
3.5683436e-06 0.006784275 0.018898655 -0.0044485275 0.0025613161 -0.0060347556 -0.0031790382 0.00015509038
0.012882105 -0.0075178174 0.014273652 -0.018849552 -0.01721607 0.0013342067 -0.026836807 -0.015195383
-0.002737834 -0.010698213 -0.03105492 -0.010800508 -0.004377814 -0.00039177111 0.006914432 0.0052760146
-0.0073477095 -0.0106292 -0.009300746 0.016617054 0.012628108 -0.0035308911 -0.0053298306 -0.003740494
-0.013386593 -0.003298998 0.0053740675 -0.0058377464 0.0024444154 -0.0021013601 -0.01661248 -0.005563804
-0.024897423 -0.005614284 -0.005080671 -0.0044223294 0.023308013 0.026580414 0.012967819 -0.0057590823
-0.00061720895 0.0038669808 0.0032286071 0.00039967595 0.008549261 -0.0054801055 0.00938567 -0.002346002
-0.000629687 -0.002950507 0.0065228348 -0.023068083 -0.00049281376 0.0044661965 -0.00094482617 -0.01998864
-0.019967418 -0.0019668275 0.016580567 0.020786664 0.008873423 0.0014121165 -0.0053405208 -0.01618168
0.0030063475 -0.0029781964 0.0030958836 0.0010531438 0.0031045892 0.004418829 -0.017395236 0.006457345
-0.017811973 -0.003478774 -0.0067623598 -7.008489e-05 0.006490279 0.002290024 0.004802067 -0.0016516388
-0.005125952 0.01701355 -0.004777653 -0.0023141403 -0.0031453124 0.00018203151 -0.023120457 0.0030164395
0.007625129 -0.00026275244 -0.0014606508 -0.0040279576 0.008776781 -0.0004833531 0.00069713965 0.0036243547
-0.0012846163 0.007600791 -0.0028716358 -0.017042002 -0.01012667 -0.0034834268 0.0019182031 -0.0020000895
-0.008842221 0.008072144 0.0104017025 -0.0043688198 -0.0019153584 0.029264249 0.0060952734 0.0056767142
-0.013899963 0.010003606 -0.016204175 -0.004869116 -0.0028628227 0.0124749215 0.0053196503 0.0047707777
-0.004599491 0.0015681974 -0.004772559 0.00020861786 0.008401786 0.005179635 0.0004186824 -0.003169734
-0.0068690865 0.0040729665 -0.010946138 -0.0049607554 -0.007225275 0.007260828 0.015911983 0.0041071433
0.008923506 -0.014240065 0.020913988 -0.0007071506 -0.013264535 -0.0084344335 -0.021253273 -0.0042486023
0.009866964 0.010168617 0.0133252265 -0.00699092 0.0064037754 0.007712993 -0.0037466518 -0.0029186178
00000000: 257a f93b bb06 99bb 8666 a23a 5472 0ebc
00000010: 588c c4bb c21b 153b 47f7 b6bb df7d 13bb
00000020: 2536 633c 0efa 05bc 6398 30ba d513 463c
00000030: 9544 4a3c 4ecd 83bb f15c 203c f51c 5fbc
00000040: cd56 653c 114b bcbb 9942 5ebc 76d7 3fb9
00000050: 062e a9ba 127d 3f3c 0734 c5b9 2384 e83b
00000060: 794c 2dbc eb51 8f3c 045f 4e3c ce59 433b
00000070: c76c 273c 290e e139 0eec 17bc ab1b eebb
00000080: 031c 04bb ce26 9fbb 68d1 4839 1813 69bc
00000090: aebf 2539 7d82 f5b9 c1e6 57bc 3be2 8ebb
000000a0: b684 1cbb 8cd6 0dbb 7998 cfbb 8420 993b
000000b0: d48c 5fbb c90e 1abc a0c6 06bb 6f09 a03b
000000c0: bc13 08bc 6ddb 093c 9ba2 02bb 652e 103c
000000d0: ef4e 113b a633 a33a eed7 093b 6ffd 3cbc
000000e0: 4c34 28bb 8167 0ab8 4348 04bc 9fe2 0c3b
000000f0: 190d f9bb a7be 40bc 7ac5 babb e25b 9a3a
00000100: f2d0 43bc b50f fc3b e0a6 c7bb eeac e5bb
00000110: 50e6 f73b b194 88bc 84e5 78bc 833c 823b
00000120: dbe1 bd3b d3eb 26bb 5c37 20bc 821a dfbb
00000130: 7fe3 fc3a 8564 853b 5294 16bc 6ef4 48bc
00000140: 35c2 f8bb 91c6 21bb 9801 843c 5de5 173b
00000150: 345b 003b e717 64bc c276 bc3c 0ae7 e4ba
00000160: 0246 53bb ec36 93bb b925 193c 6183 25bc
00000170: 10f4 813b 24e1 513c a06e 22bc 7227 3cbb
00000180: ad77 6f36 a04e de3b 5ad1 9a3c f4c4 91bb
00000190: c1db 273b 33bf c5bb 6957 50bb c29f 2239
000001a0: 770f 533c 0658 f6bb 09dc 693c 606a 9abc
000001b0: b708 8dbc 8ce0 ae3a ddd8 dbbc 0ef6 78bc
000001c0: 3b6d 33bb 8f47 2fbc e366 febc 9df4 30bc
000001d0: c473 8fbb a166 cdb9 7692 e23b 6be2 ac3b
000001e0: 0ec5 f0bb 1926 2ebc 2862 18bc 7d20 883c
000001f0: 20e6 4e3c 8666 67bb dca5 aebb 1323 75bb
00000200: 7153 5bbc 0134 58bb f218 b03b 914a bfbb
00000210: 7c32 203b f9b6 09bb e516 88bc 9250 b6bb
00000220: aef5 cbbc 07f8 b7bb c27b a6bb 30e9 90bb
00000230: 72f0 be3c 2bbf d93c fa76 543c afb6 bcbb
00000240: 31cc 21ba 2c6d 7d3b 0a97 533b 998b d139
00000250: 3312 0c3c 7592 b3bb 5ac6 193c 62bf 19bb
00000260: 9411 25ba 4b5d 41bb 81bd d53b 47f9 bcbc
00000270: 2c30 01ba 2c59 923b 36ae 77ba 37bf a3bc
00000280: b692 a3bc e4e5 00bb f8d3 873c cb48 aa3c
00000290: d561 113c c416 b93a 89ff aebb 718f 84bc
000002a0: 2406 453b d82d 43bb 4fe4 4a3b a409 8a3a
000002b0: 5d76 4b3b d3cb 903b 7480 8ebc 2398 d33b
000002c0: 6aea 91bc 25fc 63bb c996 ddbb 8afa 92b8
000002d0: 68ac d43b 3a14 163b a85a 9d3b cd7b d8ba
000002e0: 9af7 a7bb 0060 8b3c dc8d 9cbb d5a8 17bb
000002f0: 9621 4ebb b6df 3e39 1d67 bdbc 75af 453b
00000300: 38dc f93b 09c2 89b9 4f73 bfba f5fc 83bb
00000310: 7dcc 0f3c 8e6a fdb9 40c0 363a 9586 6d3b
00000320: 9260 a8ba 0e10 f93b 0e32 3cbb ab9b 8bbc
00000330: 55ea 25bc 344a 64bb 376c fb3a ef13 03bb
00000340: f7de 10bc 0741 043c e76b 2a3c 5128 8fbb
00000350: c30c fbba 94bb ef3c dcba c73b bb03 ba3b
00000360: acbc 63bc 2ae6 233c 9ebe 84bc 1b8d 9fbb
00000370: 329e 3bbb 9d63 4c3c 7650 ae3b 2f54 9c3b
00000380: 54b7 96bb f98b cd3a 2063 9cbb 6ec0 5a39
00000390: a5a7 093c edb9 a93b 9a82 db39 50bb 4fbb
000003a0: 1316 e1bb 8576 853b 6e57 33bc d58d a2bb
000003b0: 00c2 ecbb 3dec ed3b d959 823c 3795 863b
000003c0: e633 123c 294f 69bc d053 ab3c 1360 39ba
000003d0: 7e53 59bc 9430 0abc 581b aebc dc37 8bbb
000003e0: 0ca9 213c 459a 263c 0d52 5a3c 1614 e5bb
000003f0: c3d6 d13b 46bd fc3b 638a 75bb 4846 3fbb

action_model._discrete_distribution.branches.0.bias f4 [5]
0.0030756963 -9.546842e-05 -0.002064215 0.0020235877 -0.0018744414
00000000: 9f91 493b 3836 c8b8 c847 07bb 2b9e 043b
00000010: d1af f5ba

exp_avg f4 [128, 38]
-1.5228625e-05 0.0 4.125581e-06 1.4010261e-05 3.3820215e-05 0.0 -5.1079724e-06 -9.2812625e-06
-2.7677395e-06 0.0 -6.8019233e-07 1.823785e-05 2.4395587e-05 0.0 -1.9823421e-05 -5.9204035e-06
-1.8993609e-05 0.0 2.9502256e-05 1.9467167e-05 -4.6268838e-06 0.0 -2.0542302e-05 6.8722466e-06
-4.6268838e-06 0.0 -2.0542302e-05 6.8722466e-06 0.00014763448 -2.8737346e-05 -8.7922745e-05 -2.9423747e-06
1.9560226e-05 -0.00041796482 0.00018947665 -2.7734679e-05 1.0998681e-06 -2.0160027e-05 4.91186e-07 0.0
5.144159e-08 -5.4825205e-07 2.2827945e-07 0.0 -3.4949386e-07 -2.816266e-07 -1.5930992e-07 0.0
-3.405919e-07 -3.0889447e-07 -6.460219e-07 0.0 2.2741754e-07 4.0147185e-07 -6.6650596e-10 0.0
-1.9313208e-07 -3.9907064e-07 -5.5099866e-07 0.0 -7.9343636e-08 -7.594125e-08 -5.5099866e-07 0.0
-7.9343636e-08 -7.594125e-08 -5.615037e-06 1.4303757e-06 1.566273e-06 -4.741083e-06 -9.745725e-07 8.917135e-06
-1.592828e-06 3.383922e-07 -1.8368327e-08 -3.697274e-07 -2.136786e-05 0.0 4.046613e-06 1.1853099e-05
3.694939e-05 0.0 -2.8334598e-06 -2.477724e-05 -5.359404e-06 0.0 2.6069412e-05 8.879822e-06
2.8655246e-05 0.0 -1.3720532e-05 -2.1423706e-05 -2.1778402e-05 0.0 8.331926e-06 5.1939014e-06
-2.7385558e-06 0.0 -4.88455e-05 -6.275977e-06 -2.7385558e-06 0.0 -4.88455e-05 -6.275977e-06
-0.000415 4.110034e-05 -0.00013941969 -0.00061914744 -2.7182747e-05 -0.00013505049 -4.15687e-05 -3.067166e-05
7.780193e-08 -4.954549e-06 -9.2872135e-08 0.0 -3.072997e-07 -1.60235e-06 -3.2224643e-06 0.0
-8.0994575e-08 -1.1117984e-06 4.5700737e-08 0.0 -2.4346486e-06 -2.9791206e-06 -2.1299845e-06 0.0
-2.2407862e-06 -2.8548216e-06 1.3629109e-06 0.0 -3.9054476e-06 -4.402738e-06 -2.1341296e-07 0.0
1.5095767e-06 -2.2677216e-06 -2.1341296e-07 0.0 1.5095767e-06 -2.2677216e-06 5.9674385e-06 1.143676e-05
4.3204705e-06 -0.00017548628 -7.80456e-06 0.00010402826 -3.5666875e-05 2.4174506e-06 3.2398574e-08 -5.441492e-07
5.546187e-06 0.0 -3.6661885e-07 -1.2919233e-05 3.436887e-05 0.0 -4.410889e-09 -3.192589e-05
-6.415107e-06 0.0 1.5953453e-06 -1.528195e-05 1.868374e-05 0.0 -2.0570985e-06 -2.291155e-05
-7.81832e-06 0.0 -1.3820386e-05 -1.7082468e-05 -2.515154e-06 0.0 -1.947804e-05 -3.1683634e-05
-2.515154e-06 0.0 -1.947804e-05 -3.1683634e-05 -0.00064886326 0.00010164992 -3.8436083e-05 -0.00074472977
-6.828331e-05 0.00030307463 -0.00013813301 -1.7266539e-05 5.731032e-08 -3.2095438e-06 -3.831072e-06 0.0
8.5863104e-07 -9.331432e-06 8.437716e-07 0.0 -2.25593e-05 -1.789959e-05 3.4990962e-06 0.0
-3.643124e-05 -1.559746e-05 1.6843013e-06 0.0 -2.321411e-05 -2.3067341e-05 -1.8858678e-07 0.0
-5.165121e-06 -1.0323651e-05 4.491511e-08 0.0 -1.9528778e-05 -4.746415e-06 4.491511e-08 0.0
-1.9528778e-05 -4.746415e-06 0.00014561038 4.9422793e-05 0.00011382745 -0.0003273996 -3.1019954e-05 0.00034443627
0.00010535944 1.1891341e-05 1.3466464e-06 -2.716364e-05 1.0045416e-06 0.0 1.268452e-06 -6.1846704e-06
-3.3266686e-05 0.0 3.2334467e-06 1.1837655e-05 5.4686348e-06 0.0 -2.9064917e-05 -1.1644163e-05
-6.6051316e-06 0.0 -7.404596e-07 -6.802762e-06 7.3806386e-06 0.0 -8.618449e-06 -1.044918e-05
7.2474822e-06 0.0 -3.2905245e-06 -4.5395113e-06 7.2474822e-06 0.0 -3.2905245e-06 -4.53951e-06
00000000: 727e 7fb7 0000 0000 796e 8a36 9d0d 6b37
00000010: 2eda 0d38 0000 0000 2665 abb6 b8b6 1bb7
00000020: 67bd 39b6 0000 0000 7696 36b5 7cfd 9837
00000030: 20a5 cc37 0000 0000 794a a6b7 e1a7 c6b6
00000040: 7754 9fb7 0000 0000 9d7b f737 6c4d a337
00000050: a140 9bb6 0000 0000 4252 acb7 2698 e636
00000060: a140 9bb6 0000 0000 4252 acb7 2698 e636
00000070: 54ce 1a39 fb10 f1b7 2a63 b8b8 9d75 45b6
00000080: 4415 a437 4a22 dbb9 40ae 4639 c5a7 e8b7
00000090: 2e9f 9335 541d a9b7 0bda 0335 0000 0000
000000a0: a0f0 5c33 982b 13b5 fa1c 7534 0000 0000
000000b0: 12a2 bbb4 7732 97b4 c70e 2bb4 0000 0000
000000c0: 98da b6b4 22d6 a5b4 496a 2db5 0000 0000
000000d0: 0f30 7434 df89 d734 3035 37b0 0000 0000
000000e0: be5f 4fb4 da3f d6b4 57e8 13b5 0000 0000
000000f0: a063 aab3 2515 a3b3 57e8 13b5 0000 0000
00000100: a063 aab3 2515 a3b3 cd68 bcb6 56fb bf35
00000110: bb38 d235 9815 9fb6 0ece 82b5 ce9a 1537
00000120: 27c9 d5b5 45ac b534 61c8 9db2 f27e c6b4
00000130: 213f b3b7 0000 0000 24c8 8736 acdc 4637
00000140: 1bfa 1a38 0000 0000 7826 3eb6 b8d8 cfb7
00000150: eed4 b3b6 0000 0000 a3af da37 8cfa 1437
00000160: ac60 f037 0000 0000 3c31 66b7 0fb7 b3b7
00000170: c3b0 b6b7 0000 0000 5ac9 0b37 4647 ae36
00000180: 08c8 37b6 0000 0000 75df 4cb8 3b96 d2b6
00000190: 08c8 37b6 0000 0000 75df 4cb8 3b96 d2b6
000001a0: 5b94 d9b9 2763 2c38 3031 12b9 484e 22ba
000001b0: 8106 e4b7 579c 0db9 0d5a 2eb8 72a5 00b8
000001c0: 1014 a733 403f a6b6 ff70 c7b3 0000 0000
000001d0: f3fa a4b4 5410 d7b5 8441 58b6 0000 0000
000001e0: 3def adb3 1a39 95b5 7e48 4433 0000 0000
000001f0: f262 23b6 e7ec 47b6 dbf0 0eb6 0000 0000
00000200: 6a60 16b6 7695 3fb6 43ed b635 0000 0000
00000210: 8a0b 83b6 3bbb 93b6 8226 65b4 0000 0000
00000220: a99c ca35 292f 18b6 8226 65b4 0000 0000
00000230: a99c ca35 292f 18b6 e83b c836 83e0 3f37
00000240: 8ff8 9036 bd02 38b9 54f0 02b7 bf29 da38
00000250: 0499 15b8 7c3b 2236 9c26 0b33 a611 12b5
00000260: 6219 ba36 0000 0000 b6d3 c4b4 afbf 58b7
00000270: 4b27 1038 0000 0000 978e 97b1 2ae8 05b8
00000280: 5941 d7b6 0000 0000 a61f d635 bd31 80b7
00000290: 07bb 9c37 0000 0000 af0c 0ab6 2e32 c0b7
000002a0: 6e2b 03b7 0000 0000 1bde 67b7 524c 8fb7
000002b0: 04ca 28b6 0000 0000 c664 a3b7 0be4 04b8
000002c0: 04ca 28b6 0000 0000 c664 a3b7 0be4 04b8
000002d0: 7a18 2aba e32c d538 6e36 21b8 f839 43ba
000002e0: 5333 8fb8 fde5 9e39 ccd7 10b9 9cd7 90b7
000002f0: 5d25 7633 8b63 57b6 a88c 80b6 0000 0000
00000300: ad7c 6635 328e 1cb7 8b7f 6235 0000 0000
00000310: ba3d bdb7 1427 96b7 04d2 6a36 0000 0000
00000320: bfcd 18b8 4ad7 82b7 2710 e235 0000 0000
00000330: ecbb c2b7 bd80 c1b7 577e 4ab4 0000 0000
00000340: 0d50 adb6 be33 2db7 b0e8 4033 0000 0000
00000350: bbd1 a3b7 6543 9fb6 b0e8 4033 0000 0000
00000360: bbd1 a3b7 6543 9fb6 fdae 1839 524b 4f38
00000370: a6b6 ee38 d5a6 abb9 6c1b 02b8 7495 b439
00000380: 6bf4 dc38 ec80 4737 6bbe b435 79dd e3b7
00000390: c9d3 8635 0000 0000 ae3f aa35 ea85 cfb6
000003a0: d587 0bb8 0000 0000 31fe 5836 579a 4637
000003b0: 377f b736 0000 0000 6fd0 f3b7 4d5b 43b7
000003c0: a6a1 ddb6 0000 0000 ffc3 46b5 4843 e4b6
000003d0: 34a7 f736 0000 0000 f597 10b7 e34e 2fb7
000003e0: 662f f336 0000 0000 c8d2 5cb6 1b52 98b6
000003f0: 662f f336 0000 0000 c8d2 5cb6 1852 98b6

exp_avg_sq f4 [128, 38]
3.7589684e-10 0.0 1.0812102e-10 1.3053642e-09 1.6849765e-09 0.0 4.186579e-10 1.0199461e-09
1.8502902e-10 0.0 1.8398099e-09 3.6911312e-09 1.176495e-09 0.0 4.6643933e-10 1.1653886e-09
2.6231464e-10 0.0 4.037194e-09 4.4315764e-09 2.8721214e-10 0.0 1.1634983e-09 3.3696423e-09
2.8721214e-10 0.0 1.1634983e-09 3.3696423e-09 2.378315e-06 9.233879e-08 8.0715566e-08 2.451113e-06
4.1333998e-08 3.6070726e-06 3.909494e-07 6.140325e-10 3.4870453e-12 3.2568054e-10 3.540271e-13 0.0
1.6767094e-13 7.929859e-13 6.434291e-13 0.0 6.512492e-13 6.318305e-13 4.8535388e-14 0.0
1.2735199e-12 1.1997955e-12 6.7685495e-13 0.0 1.6645074e-13 5.527267e-13 1.0333283e-14 0.0
8.8207875e-13 1.0157989e-12 2.996586e-13 0.0 9.6543535e-14 7.269769e-13 2.996586e-13 0.0
9.6543535e-14 7.269769e-13 2.9321084e-10 2.4143071e-11 1.2973027e-10 4.5712484e-10 1.0949841e-11 8.479844e-10
3.4342067e-11 8.061275e-13 5.3669706e-15 5.098741e-13 5.954346e-10 0.0 8.312685e-11 1.981677e-09
2.7991516e-09 0.0 1.2788975e-10 8.493735e-10 3.3599865e-10 0.0 2.9477258e-09 5.8600387e-09
1.7831244e-09 0.0 1.7225316e-10 1.3632394e-09 2.9678426e-10 0.0 6.696601e-09 7.1274924e-09
2.841314e-10 0.0 1.3814246e-09 5.5552127e-09 2.841314e-10 0.0 1.3814246e-09 5.5552127e-09
4.661638e-06 1.4534318e-07 6.906963e-08 5.2392206e-06 6.485749e-08 5.3941876e-06 6.217955e-07 6.2110594e-10
1.9825919e-13 2.9898872e-10 1.6072813e-12 0.0 2.9161545e-11 5.7412724e-11 1.3183429e-11 0.0
6.0021765e-11 8.136933e-11 5.8268906e-13 0.0 1.9146122e-11 4.944475e-11 2.684995e-11 0.0
4.43184e-11 6.220745e-11 6.562986e-13 0.0 2.8955083e-11 5.2969157e-11 1.090969e-11 0.0
2.572865e-11 5.2766857e-11 1.090969e-11 0.0 2.572865e-11 5.2766857e-11 1.819797e-08 1.9669708e-09
1.13978995e-08 6.70721e-08 8.8039753e-10 6.007678e-08 8.610198e-09 1.777003e-11 3.3692965e-14 1.0472062e-11
5.004419e-10 0.0 2.4099323e-11 5.941559e-10 8.193024e-10 0.0 6.3613885e-11 4.4215168e-10
3.450336e-10 0.0 1.1959445e-09 1.9228472e-09 4.2704973e-10 0.0 6.102813e-11 5.687664e-10
1.8517757e-10 0.0 2.2850863e-09 2.4305267e-09 1.3673751e-10 0.0 6.9829037e-10 1.8991206e-09
1.3673751e-10 0.0 6.9829037e-10 1.8991206e-09 1.7442391e-06 4.9901875e-08 2.7105056e-08 1.7245297e-06
2.225842e-08 1.6500547e-06 2.0348043e-07 3.7933484e-10 5.49599e-14 1.3857895e-10 1.2499611e-10 0.0
4.5505016e-11 5.719252e-10 3.625414e-10 0.0 2.9125452e-10 5.80857e-10 1.2318709e-10 0.0
8.1000523e-10 1.361304e-09 4.7924315e-10 0.0 2.1471105e-10 5.409652e-10 9.60994e-11 0.0
1.6661339e-09 1.6949356e-09 2.0171619e-10 0.0 4.973283e-10 1.2763449e-09 2.0171619e-10 0.0
4.973283e-10 1.2763449e-09 8.856524e-07 3.5782566e-08 3.260537e-08 1.4766746e-06 1.5940062e-08 1.2812766e-06
1.14104374e-07 3.2099862e-10 8.222846e-13 3.5950912e-10 2.6001973e-10 0.0 3.8659714e-11 3.5139167e-10
4.570187e-10 0.0 1.0097178e-10 2.9269503e-10 2.822885e-10 0.0 6.4626043e-10 8.1991686e-10
1.2074555e-10 0.0 7.6586765e-11 4.0740536e-10 8.289243e-11 0.0 1.0798574e-09 1.1527161e-09
8.720889e-11 0.0 2.3495228e-10 8.716344e-10 8.720889e-11 0.0 2.3495228e-10 8.716344e-10
00000000: c7a6 ce2f 0000 0000 b9c2 ed2e 6b68 b330
00000010: d794 e730 0000 0000 dc28 e62f 2a2e 8c30
00000020: 0a71 4b2f 0000 0000 8edc fc30 11a7 7d31
00000030: 3db2 a130 0000 0000 c036 0030 772b a030
00000040: 8135 902f 0000 0000 89b7 8a31 8f44 9831
00000050: 84e5 9d2f 0000 0000 f5e8 9f30 608f 6731
00000060: 84e5 9d2f 0000 0000 f5e8 9f30 608f 6731
00000070: 249b 1f36 c94b c633 da55 ad33 cd7d 2436
00000080: 3687 3133 0911 7236 ade3 d134 b2c8 2830
00000090: 0661 752c 760b b32f af4c c72a 0000 0000
000000a0: dcc7 3c2a a834 5f2b f41b 352b 0000 0000
000000b0: 734f 372b 30d8 312b 7e95 5a29 0000 0000
000000c0: 643b b32b 30db a82b 8a84 3e2b 0000 0000
000000d0: 2968 3b2a 2894 1b2b db25 3a28 0000 0000
000000e0: 7948 782b 03f6 8e2b 5bb1 a82a 0000 0000
000000f0: 8f65 d929 35a0 4c2b 5bb1 a82a 0000 0000
00000100: 8f65 d929 35a0 4c2b c231 a12f 5d5d d42d
00000110: d3a3 0e2f 9a4e fb2f b3a1 402d 9917 6930
00000120: bb09 172e 9ce7 622b 915d c127 4d84 0f2b
00000130: fcab 2330 0000 0000 42cc b62e 082e 0831
00000140: 325b 4031 0000 0000 c49d 0c2f 5979 6930
00000150: 9bb7 b82f 0000 0000 f190 4a31 7259 c931
00000160: 1d12 f530 0000 0000 f464 3d2f b95c bb30
00000170: ac28 a32f 0000 0000 ed17 e631 16e6 f431
00000180: f133 9c2f 0000 0000 8fdc bd30 2be0 be31
00000190: f133 9c2f 0000 0000 8fdc bd30 2be0 be31
000001a0: 2a6b 9c36 a10f 1c34 6e53 9433 90cc af36
000001b0: c847 8b33 b8ff b436 76e9 2635 72ba 2a30
000001c0: 5238 5f2a ec5e a42f 6934 e22b 0000 0000
000001d0: fb40 002e fb80 7c2e e3ec 672d 0000 0000
000001e0: 40fd 832e dcee b22e 2c03 242b 0000 0000
000001f0: 3c69 a82d d775 592e b62c ec2d 0000 0000
00000200: 15ea 422e aecb 882e 4cbb 382b 0000 0000
00000210: 0db1 fe2d f8f5 682e e0ec 3f2d 0000 0000
00000220: c54f e22d 3312 682e e0ec 3f2d 0000 0000
00000230: c54f e22d 3312 682e c251 9c32 512b 0731
00000240: 7ed0 4332 4709 9033 7800 7230 8f03 8133
00000250: 0dec 1332 8d4e 9c2d 58bd 1729 f939 382d
00000260: 788f 0930 0000 0000 dafa d32d 0152 2330
00000270: 4835 6130 0000 0000 6fe3 8b2e 5113 f32f
00000280: 2aaf bd2f 0000 0000 8e5e a430 1623 0431
00000290: e8c5 ea2f 0000 0000 c833 862e 6157 1c30
000002a0: da9a 4b2f 0000 0000 aa07 1d31 4706 2731
000002b0: 3058 162f 0000 0000 d1f1 3f30 af81 0231
000002c0: 3058 162f 0000 0000 d1f1 3f30 af81 0231
000002d0: 991b ea35 b153 5633 a6d4 e832 6476 e735
000002e0: c932 bf32 7377 dd35 467c 5a34 a28a d02f
000002f0: 7384 7729 825e 182f 476f 092f 0000 0000
00000300: 1822 482e a835 1d30 2b4f c72f 0000 0000
00000310: 6e1e a02f 2daa 1f30 1572 072f 0000 0000
00000320: 0da7 5e30 a018 bb30 bdbb 0330 0000 0000
00000330: ca13 6c2f 0bb3 1430 2753 d32e 0000 0000
00000340: e0fd e430 3ff3 e830 0fca 5d2f 0000 0000
00000350: 5eb4 0830 656b af30 0fca 5d2f 0000 0000
00000360: 5eb4 0830 656b af30 92bd 6d35 59af 1933
00000370: fc09 0c33 2732 c635 91ec 8832 54f8 ab35
00000380: 8b09 f533 8a78 b02f da73 672b 69a4 c52f
00000390: 86f2 8e2f 0000 0000 f806 2a2e fb2d c12f
000003a0: aa3f fb2f 0000 0000 0f0a de2e 2ae9 a02f
000003b0: 9330 9b2f 0000 0000 89a4 3130 8560 6130
000003c0: dac2 042f 0000 0000 846a a82e 35f9 df2f
000003d0: 4a48 b62e 0000 0000 1b6a 9430 986d 9e30
000003e0: 3ec6 bf2e 0000 0000 982a 812f d197 6f30
000003f0: 3ec6 bf2e 0000 0000 982a 812f d197 6f30

exp_avg f4 [128]
6.7217256e-06 -3.349047e-07 -9.341137e-06 -2.6819785e-06 -2.3465063e-05 -1.0659773e-05 -2.74927e-06 -1.963656e-06
-9.583682e-07 7.832712e-06 -1.6536476e-05 -1.2987573e-05 -3.686705e-08 1.0013156e-05 1.0512991e-05 -1.1548616e-05
-5.811295e-06 -5.7649827e-06 1.9159388e-05 -5.1430635e-07 1.7891043e-05 2.9028754e-06 4.545262e-05 -9.311189e-07
-3.254931e-06 -2.186395e-05 -8.770332e-06 -1.1853834e-05 1.583291e-05 -1.7535724e-06 1.3090915e-05 -2.6822663e-05
1.3550348e-05 -2.3457977e-05 -2.4167543e-05 3.2153612e-06 7.57714e-06 -1.3907455e-05 5.438774e-06 -1.9739316e-05
4.3849668e-05 -2.1506583e-05 -2.1744418e-05 -1.2651527e-05 -3.5419578e-06 -1.2144706e-05 -2.6631747e-05 -1.4164962e-05
1.282142e-06 5.963668e-07 -1.5134146e-06 3.3738368e-05 -2.5935453e-06 -3.154427e-06 -1.3605161e-05 3.8577326e-07
-3.177671e-07 -3.76274e-05 1.2868491e-05 1.9834282e-05 -2.1517108e-06 -8.8728314e-07 9.074681e-06 -4.08106e-07
-3.3934823e-05 -6.058871e-06 -5.990877e-07 1.0037819e-05 -8.882832e-06 -3.213573e-05 -5.6813146e-06 -5.2345166e-07
3.6086443e-05 4.3306724e-07 3.0240133e-07 -1.34363245e-05 1.7140463e-05 -1.6470076e-05 -3.5402136e-05 2.5247432e-06
6.6310567e-06 -3.8679323e-06 6.1573305e-06 2.3531225e-06 -2.7907747e-06 1.0659182e-05 3.397292e-05 1.6265421e-05
-3.3263572e-07 1.7567485e-05 8.895236e-06 -5.182568e-06 -1.261631e-06 -2.4340548e-05 -3.314689e-05 -1.3160828e-05
-5.489013e-08 -1.653986e-05 1.4552272e-05 -1.2271192e-05 -8.8199715e-07 6.404054e-07 -1.0300179e-06 1.2627161e-06
4.651542e-07 -2.4159674e-05 -1.2061037e-05 -9.6797385e-06 3.1062822e-07 1.546218e-05 2.3763214e-06 -1.22237625e-05
3.3213107e-07 1.2103666e-05 2.5001136e-06 1.00281495e-05 1.7683456e-05 5.012995e-05 -2.399093e-06 4.5395314e-05
2.6301968e-06 5.2646783e-07 1.498708e-05 6.811102e-07 -1.6474194e-05 -2.7287983e-06 8.1639955e-06 3.781225e-06
00000000: 2f8b e136 f4cc b3b4 e1b7 1cb7 0afc 33b6
00000010: d7d6 c4b7 60d7 32b7 1980 38b6 5ac7 03b6
00000020: 48a1 80b5 3e69 0337 d0b7 8ab7 34e5 59b7
00000030: c057 1eb3 2dfe 2737 f460 3037 eec0 41b7
00000040: a5fe c2b6 d370 c1b6 79b8 a037 dd0e 0ab5
00000050: b914 9637 05cf 4236 61a4 3e38 01f2 79b5
00000060: 4a6f 5ab6 7a68 b7b7 4a24 13b7 d4df 46b7
00000070: ead0 8437 4a5c ebb5 0da1 5b37 3b01 e1b7
00000080: 4d56 6337 9fc7 c4b7 67bb cab7 7cc7 5736
00000090: 233f fe36 1054 69b7 b77e b636 dc95 a5b7
000000a0: 39eb 3738 0969 b4b7 c867 b6b7 e541 54b7
000000b0: 5fb2 6db6 1dc1 4bb7 3e67 dfb7 0ca6 6db7
000000c0: 1016 ac35 0416 2035 8820 cbb5 4c82 0d38
000000d0: c50c 2eb6 a5b0 53b6 b941 64b7 461c cf34
000000e0: 9499 aab4 1dd2 1db8 bfe5 5737 cc61 a637
000000f0: 1c66 10b6 a22d 6eb5 753f 1837 a919 dbb4
00000100: 3d55 0eb8 4e4d cbb6 fed0 20b5 1b68 2837
00000110: 7907 15b7 7ac9 06b8 1fa2 beb6 5383 0cb5
00000120: 865b 1738 4f80 e834 b959 a234 936c 61b7
00000130: ddc8 8f37 3829 8ab7 c17c 14b8 c26e 2936
00000140: 5880 de36 49c9 81b6 119b ce36 56ea 1d36
00000150: 2549 3bb6 d7d4 3237 257e 0e38 ba71 8837
00000160: 1b95 b2b4 e35d 9337 bf3c 1537 ece5 adb6
00000170: 5055 a9b5 ee2e ccb7 3407 0bb8 53cd 5cb7
00000180: 56c0 6bb3 14bf 8ab7 8825 7437 5ee0 4db7
00000190: 62c2 6cb5 53e8 2b35 253f 8ab5 987a a935
000001a0: 4eba f934 81aa cab7 c259 4ab7 2966 22b7
000001b0: 6bc4 a634 c7b4 8137 e478 1f36 a914 4db7
000001c0: bf4f b234 da10 4b37 a0c7 2736 933e 2837
000001d0: ef56 9437 a042 5238 1b00 21b6 d966 3e38
000001e0: 7082 3036 9852 0d35 0571 7b37 89d5 3635
000001f0: 1032 8ab7 6620 37b6 18f8 0837 f3c0 7d36
